trained_models/flappy_dqn_481.pth (torch, 411362 bytes, 11 tensors)

fc1.weight f4 [256, 7]
000000 e6 55 79 3c 2c e1 6a bd a9 d6 bd be f2 da 6f bd
       0.015218234 -0.057343647 -0.37077835 -0.058558412
000010 ea 67 6c 3e 60 89 17 be c9 6e 50 3c 39 55 90 bd
       0.23086515 -0.14798498 0.012721726 -0.07047505
000020 0d 37 2c be 84 db 23 be 1f 9e 88 3d 21 c7 3b be
       -0.16817875 -0.16001707 0.06670784 -0.1833768
000030 b1 42 f9 3e 48 1a a9 be 06 81 bc 3d 18 de 82 3c
       0.48683694 -0.33027864 0.09204297 0.015975043
000040 8c 71 3b 3f d2 b2 b6 3e 75 4b 33 be d4 a1 61 be
       0.73220134 0.35683304 -0.17509253 -0.22034389
000050 3f 84 4a 3e 7c 3f 77 3e 71 6d ab 3d 12 a9 14 bf
       0.1977701 0.24145311 0.08370484 -0.5807048
000060 fe 99 5d 3e 35 d7 4b 3d 8a 21 cc be 62 fa 92 3e
       0.21640775 0.049765784 -0.39869338 0.28706652
000070 91 df 59 3d ab a3 a9 be 1c a2 03 3e bd 9b fd bd
       0.053191725 -0.3313268 0.12854809 -0.1238322
000080 4e 1c cf 3d 7a 69 c2 3e b8 8a 7e be c1 c6 20 3e
       0.101128206 0.37971097 -0.24857605 0.15700819
000090 0e c2 c6 be ea 86 44 be 86 25 e9 bd 65 b7 cd 3d
       -0.38819927 -0.1919209 -0.1138411 0.10044745
0000a0 63 34 ec 3e 52 0c e9 3e e1 a8 88 be 98 bc 3a 3e
       0.46133718 0.45517212 -0.26691344 0.18236005
0000b0 a5 04 81 bd a9 1c 70 3d 48 c7 09 3e c9 8d d2 3e
       -0.06299714 0.058621082 0.13454926 0.41123798
0000c0 b6 62 9b 3d e5 19 5b 3e fc b4 7d be 5e 61 ea be
       0.07587187 0.21396597 -0.24776071 -0.4577741
0000d0 cf c3 23 3e 40 6f 4c 3d 10 30 54 be 19 ef 8a 3e
       0.15992664 0.049910784 -0.2072146 0.27135542
0000e0 48 4d df 3e fc 3a 5a bf 5b 7a af 3a 07 b7 3b 3e
       0.43613648 -0.85246253 0.0013387905 0.18331538
0000f0 45 18 05 bf 16 4f d4 bd 18 01 a7 3e 36 96 56 3d
       -0.5199016 -0.10366647 0.32618022 0.052389346
000100 83 ce c1 3e 17 ad 34 be c4 ba dd 3d 2d 3a 77 be
       0.37852868 -0.17644154 0.10826638 -0.24143286
000110 e6 68 3f be 7a f0 a6 be df bb 91 3e 99 e0 b3 be
       -0.1869236 -0.32605344 0.28463647 -0.35132292
000120 80 31 c9 be bc 22 e8 be 05 e4 57 3e 78 a2 22 3e
       -0.39295578 -0.45339 0.21083076 0.1588229
000130 70 9c 23 be 24 55 9c 3e 2b 2e 7f bf 0b bb 70 3e
       -0.15977645 0.30533707 -0.9967982 0.23508851
000140 b7 aa 98 3e d4 08 20 bf 1b 4b ec bd 48 33 49 be
       0.29817745 -0.6251347 -0.11537763 -0.19648468
000150 06 76 8b 3c 0f f8 f9 be f8 ae 5a be 79 58 89 bf
       0.017024051 -0.48822066 -0.21355808 -1.0730125
000160 f0 1a 96 be a8 65 b3 bd bb 8c 3d 3e 84 d7 8a bd
       -0.29317427 -0.08759624 0.18510716 -0.067793876
000170 67 06 b9 be 3f f9 00 3e ed c0 45 3e 65 2c 9b be
       -0.36137697 0.1259508 0.19311877 -0.30307308
000180 a5 b3 76 be e9 e3 17 be a6 18 a0 be 76 93 cf be
       -0.24091966 -0.14833035 -0.31268805 -0.4054219
000190 0d ff 5e be 73 54 33 3e e6 84 21 be e8 64 9a bd
       -0.21776982 0.17512684 -0.15773353 -0.075387776
0001a0 f9 aa d3 bd 27 5f de bd d0 46 96 3e ae c2 86 3f
       -0.10335345 -0.108579926 0.293509 1.0528162
0001b0 36 95 08 3f 54 37 b0 3e f4 3b 7d bd ef 58 31 3d
       0.5335268 0.34417212 -0.061824754 0.043297704
0001c0 c9 e5 37 3d 60 26 21 3f 18 17 d0 bd 0b 97 97 3e
       0.044896875 0.6294918 -0.10160655 0.29607424
0001d0 f4 70 b8 3e 87 17 09 be 3d 86 76 be 5d 73 26 be
       0.36023676 -0.13387881 -0.24074645 -0.16254945
0001e0 63 89 89 3e b4 0f e3 bd 75 2f 56 3e 0f 42 9e be
       0.2686263 -0.110869795 0.20916541 -0.30909774
0001f0 91 d0 ce bd 20 d8 ef bd fa bd 99 3c ba 47 32 be
       -0.10098375 -0.117111444 0.018767346 -0.17410174
000200 72 ee c5 bd 9d 3b 59 bf a0 a6 1f 3e 2c 49 e2 bd
       -0.096646205 -0.8485659 0.15590906 -0.11049113
000210 7b 74 00 3e d8 46 4d 3e 69 c1 42 3d 93 8b 0b bf
       0.12544434 0.20046556 0.04754773 -0.5450985
000220 80 97 49 be f3 a1 61 3e 89 99 90 bc fc ae 93 bd
       -0.19686699 0.22034435 -0.017651336 -0.0721111
000230 7d 25 c0 bd 74 1f f0 3e c0 1a eb be e9 47 ce bf
       -0.0938215 0.46898997 -0.45918846 -1.6115695
000240 73 51 b3 b8 be ea 30 3d f8 b7 ec bd 04 b7 4b bd
       -8.550556e-05 0.043192618 -0.11558527 -0.049735084
000250 8b a7 97 bd 42 0f 02 3e 77 cf ac be 4b 0f 3b bd
       -0.07405003 0.12701133 -0.33752033 -0.04566888
000260 a7 ca 95 3e 25 50 bf 3e a6 a4 e5 3d 2e a6 73 be
       0.29256174 0.37365833 0.11213045 -0.23793861
000270 37 3e b8 bd 36 68 ba bd 47 ed a0 3e 44 84 f8 3c
       -0.089962415 -0.09101908 0.31431028 0.030336507
000280 ac ad 8a 3e 70 7a 56 bc 77 54 b0 3e 33 7d a3 be
       0.27085626 -0.013090715 0.34439442 -0.31931457
000290 1d 68 90 be 39 25 37 be 89 09 b9 3d b7 75 a8 3e
       -0.28204432 -0.17885293 0.09035022 0.3290231
0002a0 1c a6 c1 bc 35 d4 e6 be 06 14 ac be b5 3c 1a bd
       -0.023638777 -0.45083776 -0.33609027 -0.03765555
0002b0 bf 6c 8b be fc da 68 be 62 a1 bd 3e a7 4a 38 3e
       -0.27231404 -0.22739786 0.37037188 0.17997228
0002c0 34 bd 3d 3f 92 a1 4d bd 4d 92 9b be bf a8 fb bd
       0.74116826 -0.050202914 -0.30385056 -0.12288045
0002d0 60 7c 98 3e d7 84 2a 3e d5 85 33 3c 30 f0 25 3f
       0.2978239 0.16652237 0.010957201 0.6481962
0002e0 a0 97 03 3e 57 44 1e bd ee ac a3 3e a6 39 89 be
       0.12850809 -0.038639393 0.31967872 -0.26801795
0002f0 38 b6 7a 3e 68 7c 47 3e b3 c4 3f 3d 4c 8b 5a be
       0.24483573 0.19481051 0.046818446 -0.213422
000300 e1 5d d5 3e de 4a 56 be 0a 07 00 be c5 b9 fc 3e
       0.41673186 -0.20926997 -0.12502685 0.4936048
000310 36 63 27 3e ce 4f e1 3d cd b7 83 3d 11 95 2f be
       0.1634644 0.1100155 0.064315416 -0.17146708
000320 90 0e 33 be e8 b4 cb be c3 76 23 be 56 47 11 bc
       -0.17486024 -0.39786458 -0.15963273 -0.0088671055
000330 4e c3 f9 be 1e 90 f9 bd 8c 09 bd be c3 21 c8 3d
       -0.48781818 -0.12185691 -0.36921346 0.097720645
000340 61 79 12 3e 52 a5 e5 3d 9d 85 98 be 1f 81 5c bf
       0.14304115 0.11213173 -0.2978944 -0.86134523
000350 e9 f7 c8 be 7f f3 a4 bc fc 17 d7 be 62 75 a3 be
       -0.3925164 -0.02013564 -0.42010486 -0.31925493
000360 29 a9 ba 3e 95 6e e3 3d b4 f3 4d bd 0f 91 b2 3e
       0.36457184 0.11105076 -0.05028124 0.34876296
000370 fc a7 00 bd 66 e6 cd bd 5c 54 26 bf ad a2 34 bf
       -0.031410202 -0.10053711 -0.6497247 -0.70560724
000380 03 42 df bd 7f 84 95 be 04 c8 77 3f 17 95 f7 3e
       -0.109012626 -0.2920265 0.96789575 0.48355934
000390 fb 87 a2 be 79 56 0c 3e ca 5d bf bb c9 fd 43 be
       -0.3174437 0.13704862 -0.005840038 -0.1913978
0003a0 d9 57 5c 3f 1f 3b 80 3f 95 02 11 3f c8 16 85 3e
       0.86071545 1.0018042 0.56644565 0.25993943
0003b0 c4 b3 20 be 46 7f 01 3e 89 c2 6b 3e 06 65 01 bf
       -0.15693575 0.12646207 0.23023428 -0.50544775
0003c0 ae 37 d9 be d2 53 14 3f 39 35 37 be a9 ac 51 bc
       -0.42425293 0.579404 -0.17891397 -0.012797513
0003d0 75 02 fd 3e ef 00 c8 3d f5 10 87 bd 08 3a c0 3d
       0.49415937 0.09765803 -0.06595031 0.093860686
0003e0 b8 c1 dc 3e c9 a5 a4 3e 49 42 20 3f 94 4f 9d 3e
       0.43116546 0.32157734 0.62601143 0.30724776
0003f0 8f c9 2b 3e 5f b0 fb be a7 a8 74 3e f9 e3 93 3e
       0.16776107 -0.49157998 0.23892461 0.28884867

fc1.bias f4 [256]
000000 c1 f6 9d be 35 d4 2d 3e 43 84 9f 3d a9 78 e4 bc
       -0.3085232 0.16975482 0.07788899 -0.027889566
000010 2c 86 21 3e 64 f6 33 3d fb 8e 86 be 43 18 43 bd
       0.15773839 0.04393615 -0.2628096 -0.04763056
000020 93 97 36 bc 5d 4b b5 3d e8 de e4 3d d3 fc 1c 3e
       -0.011144537 0.08852265 0.111753285 0.1533082
000030 2a a8 5e 3e 64 7c b9 3e 3d fd 0b be ec e5 f4 bd
       0.21743837 0.36227715 -0.13670821 -0.119579166
000040 f7 2a 6d be 04 70 25 3e bf c5 b7 bd b3 42 02 bc
       -0.23160921 0.16156012 -0.08973264 -0.007950473
000050 68 68 e6 bd 2f 2d be be 26 dd 05 3e c0 bd 94 3e
       -0.11250383 -0.37143847 0.13072643 0.29051018
000060 b2 d9 ab 3e 60 6f 99 3d 00 f4 96 be 97 dc 8e bd
       0.33564526 0.07491946 -0.29483032 -0.06975668
000070 61 c5 11 be 9a 6b 5d 3e 6c 9c 9a bd 44 f7 6a be
       -0.1423545 0.21623078 -0.07549366 -0.22945887
000080 97 85 ec 3d a0 ba 6f be f6 6c 10 3e 54 3e 70 be
       0.11548918 -0.23411036 0.14104065 -0.23461276
000090 a3 9e aa 3e eb 84 4a be e4 86 1b be ce c0 9b 3e
       0.33324155 -0.19777267 -0.15188175 0.30420536
0000a0 66 e3 fc 3d 1a 78 44 3c 29 b1 c1 3d 44 fe c7 bd
       0.1234806 0.011991525 0.09457619 -0.09765294
0000b0 f0 6e bc 3d 85 72 8e be 1f 67 12 be 6f e0 40 3d
       0.09200847 -0.27821746 -0.1429715 0.047089037
0000c0 d2 81 28 be 81 12 fb 3d 44 d6 8d bd 63 71 ab be
       -0.16455773 0.12259389 -0.069256335 -0.33484945
0000d0 92 c1 12 3e 3b 5e ce 3e e4 5a db 3c 2e 67 4c 3e
       0.14331654 0.40306267 0.026776738 0.19961235
0000e0 f9 c6 1c 3e 80 53 ed 3d 11 0d 2f be 0d 34 65 3e
       0.15310277 0.11588192 -0.17094828 0.22383137
0000f0 33 bb 3e be 36 e6 bf 3e ee 57 1b be e4 57 c1 3d
       -0.18626098 0.37480325 -0.15170261 0.09440592
000100 56 37 8b bd d1 76 01 be 62 e2 3d bd b9 ce 88 3d
       -0.06797664 -0.12642981 -0.046358474 0.06680054
000110 69 c0 79 bd 68 24 27 be f9 11 bb bc d8 90 63 3e
       -0.060974512 -0.16322482 -0.022835718 0.22223222
000120 f0 8d 01 3e cd db a7 3e 6d ea de 3c 16 4e bc 3e
       0.12651801 0.32784882 0.027211392 0.36778325
000130 84 f0 f7 3d 65 d1 fa 3d 57 35 a3 3d ab 10 83 bd
       0.121064216 0.1224697 0.07969158 -0.063996635
000140 d9 f2 87 3d 51 a2 0c be 71 25 db 3b 05 08 83 bd
       0.066381164 -0.13733794 0.006687813 -0.06398014
000150 97 10 a6 3e 47 8b ea be f5 53 8d bd 19 f5 72 3d
       0.32434532 -0.45809385 -0.06900779 0.059315775
000160 f7 11 10 be b8 75 f7 bd fa 6d 65 3e 60 02 ce bc
       -0.14069353 -0.12083 0.22405234 -0.025147617
000170 5f 6e 48 bd 66 cf 62 bd 4c 1d 9f 3d b6 e0 9f 3b
       -0.048933383 -0.05537357 0.0776926 0.0048790826
000180 cb 39 88 3d 76 0c 02 be 3c f4 b6 be 60 5b 7e be
       0.06651648 -0.12700066 -0.3573321 -0.24839544
000190 fb e1 fb 3d ba 41 e5 be c8 1d 1b be f5 34 27 be
       0.12298962 -0.44776708 -0.1514808 -0.16328795
0001a0 6c 9b 93 3e 9d d1 20 3e aa 40 51 3e 66 bc 70 3e
       0.28829515 0.15704961 0.20434824 0.23509368
0001b0 f1 ca 9c 3d 45 eb 84 3d 3e 2b ea bd b6 c8 47 be
       0.076558955 0.064901866 -0.11434029 -0.19510159
0001c0 66 11 df 3e 16 7b 0b be b3 e7 e8 3d 95 11 3b 3e
       0.4356796 -0.13621172 0.11372318 0.18268426
0001d0 8c dc 27 3d b7 57 8b 3d 02 b7 16 3e e2 4e 95 be
       0.040981814 0.0680384 0.1471825 -0.29161745
0001e0 41 58 ed 3d ef bc 08 be d0 3f d2 3b 7a 53 dd be
       0.11589099 -0.13353322 0.0064162984 -0.4322775
0001f0 a0 14 9d be bd 0b c5 3d 4a ae 20 be 79 e5 ae 3d
       -0.30679798 0.096213795 -0.15691486 0.08539862
000200 75 a1 f0 bd e5 b9 c5 bd ae 09 90 be db bd c0 be
       -0.117495455 -0.09654597 -0.28132385 -0.37644848
000210 a8 ef 8c 3e 02 45 00 3e c7 f7 20 bd 40 71 e2 be
       0.27526593 0.12526324 -0.0392988 -0.44227028
000220 32 75 44 3e 5a 81 9a bd fa b6 ad be 78 7a 97 bd
       0.19185331 -0.07544203 -0.33928663 -0.07396406
000230 67 a2 4d be 15 0a 83 be 4f b1 03 3e 4b e5 1d be
       -0.20081483 -0.2559363 0.12860607 -0.154195
000240 1f 30 f0 3d c5 23 85 be 2c 02 a4 3d 9d cf 14 be
       0.11727928 -0.26003852 0.08008227 -0.14532323
000250 77 4f 61 3e 08 d2 5c 3d f5 81 13 bc 6b a9 f5 be
       0.2200297 0.05391124 -0.009003152 -0.47980818
000260 d9 12 4b bc bc 55 65 3c 36 2b 6d 3d ef 5a d6 3c
       -0.01239463 0.013997491 0.057902537 0.026166407
000270 5f a8 86 be 2e fd 7b 3d 72 91 14 be 00 81 c0 3e
       -0.26300332 0.061520748 -0.14508608 0.3759842
000280 ba 8d a8 bd 2e 50 a4 be fb 87 60 be 65 bd 55 3e
       -0.08230157 -0.32092422 -0.21926872 0.2087303
000290 36 f0 8d 3e e4 63 a6 3e 54 d2 2b 3e 2f 99 5e bc
       0.2772233 0.32498085 0.16779453 -0.0135863265
0002a0 80 e9 b1 3e 9f f2 42 3e 83 42 87 3e 60 ed 25 bc
       0.3474846 0.19037865 0.26417932 -0.010127395
0002b0 ec cd 10 ba 74 88 21 3e 2d 70 93 3e 9b 1e 05 3d
       -0.0005523849 0.15774709 0.2879652 0.03249989
0002c0 be 33 ae 3d 32 46 a5 be c7 e7 77 bc df b0 95 3e
       0.08505963 -0.32280117 -0.015130944 0.29236504
0002d0 ac 3f 76 bd 33 67 1f be d2 df 57 be 15 b8 5a 3e
       -0.060119316 -0.15566711 -0.21081474 0.21359284
0002e0 d8 97 24 3d 0c 13 c5 be 09 07 e4 3d e9 02 2c be
       0.040183872 -0.38491094 0.11134154 -0.16797985
0002f0 0b 8a 2e be 5c dc 2a be 02 55 43 3e 8d 3a 7d 3e
       -0.17044847 -0.16685623 0.19075397 0.24729367
000300 d0 d3 0a 3e 61 a9 59 3e 9b 60 c4 be 07 42 19 3d
       0.13557363 0.21256019 -0.38354954 0.037416484
000310 9a 88 08 be 9b 50 31 3e 07 c6 72 3c f9 ea 32 3e
       -0.1333336 0.17315905 0.014817721 0.17472447
000320 85 6f b4 3d c1 8f 58 3e 64 c7 c0 3e d3 6a 9b 3d
       0.08810333 0.21148588 0.37652123 0.075887345
000330 6a 74 25 be 20 8b bd 3d db a3 d1 3d 79 7e c4 3e
       -0.1615769 0.092550516 0.10236331 0.3837774
000340 f0 67 c1 3d 3e ba 99 be a4 e6 b9 bd 2c e7 09 3e
       0.09443653 -0.30024904 -0.09077194 0.13467091
000350 45 e8 e8 3d 7e 60 a0 3e 75 dd e7 bd f1 c7 21 be
       0.11372427 0.31323618 -0.113215365 -0.15798928
000360 cb 7a 15 be d1 54 54 be d5 4c 8f be b6 42 4a be
       -0.14597623 -0.2073548 -0.27988306 -0.1975201
000370 11 8a bb be f3 0a 0d 3e b7 86 8d 3e d2 05 ba be
       -0.36628774 0.13773708 0.27641842 -0.36332566
000380 96 6d e2 bd 48 ce 17 3d 71 96 8d 3e b3 b2 3c 3e
       -0.11056058 0.03706196 0.2765384 0.18427543
000390 b8 17 8f bc 90 55 85 be b1 19 6a be 2d fe 8f be
       -0.017467365 -0.26041842 -0.22861363 -0.28123608
0003a0 c3 60 12 bc b7 c3 a5 3e 74 26 8e be 77 56 71 3e
       -0.008934203 0.3237588 -0.27763712 0.2356814
0003b0 37 83 b9 bc bb e7 22 3d d4 29 3f bd 0a a6 54 3d
       -0.022645576 0.039771777 -0.04667075 0.05191616
0003c0 b9 9c c8 be c4 bd 9c be b0 d4 03 bd 45 89 2b 3d
       -0.3918207 -0.3061353 -0.032185256 0.041878957
0003d0 cf 1f 64 be b2 48 88 be 55 4e e7 bd 36 4c 47 be
       -0.22277759 -0.26617962 -0.112942375 -0.19462666
0003e0 ff 54 03 be 01 a8 17 3d 21 77 73 3d 90 24 9e 3e
       -0.12825392 0.037025455 0.059439782 0.3088727
0003f0 e3 1b 44 be ab 2e 46 3d e9 66 16 bc 14 4f 09 be
       -0.19151263 0.04838435 -0.009179809 -0.13409072

fc2.weight f4 [128, 256]
000000 25 8d 51 bd 27 a1 f7 bd c4 28 5a 3e d5 d0 2c 3d
       -0.051159997 -0.12091284 0.21304613 0.042191345
000010 87 a6 92 3c e8 33 9d 3d 52 05 30 be c7 20 ec bc
       0.017901672 0.07675916 -0.1718953 -0.028824223
000020 dd 9e e7 3c 37 60 74 bd 04 15 e1 bc 77 fd 6d 3d
       0.028273994 -0.05966207 -0.027475841 0.05810305
000030 be 73 ef 3e 02 a3 90 3d b6 39 25 3d 1a 0b 28 3f
       0.46767992 0.07062341 0.04033824 0.6564194
000040 3b ca ad 3d 7d 8c ba 3c 34 5d 47 be fc a5 26 bd
       0.08485838 0.022772068 -0.19469148 -0.04068564
000050 56 4e 96 3c 80 25 65 ba e7 00 81 3c 9b 22 32 bd
       0.0183479 -0.00087412447 0.0157475 -0.043490034
000060 1d 52 83 bd 77 54 ef bd 39 fa 98 3d 68 41 4e 3d
       -0.06412146 -0.11686032 0.07469601 0.050355345
000070 0d 93 c2 bd 28 22 95 bd d7 6c 71 be 30 e3 f1 3e
       -0.09500704 -0.072819054 -0.23576675 0.47243643
000080 8b 82 62 3e b4 79 4d 3e 9e b6 8c bd 93 dd 1f 3e
       0.2212011 0.20065957 -0.06870769 0.15611868
000090 41 bc 0f 3e 34 e8 0a 3e 39 b6 e5 bc ca b8 db 3c
       0.14036657 0.13565141 -0.028040992 0.026821513
0000a0 f8 c7 b0 3d 35 07 9f 3d fd a3 9f bc ea 37 9a bd
       0.08631891 0.077650465 -0.019487375 -0.07530196
0000b0 70 ef e1 3e 60 ff 6c bc e2 e9 2a b9 63 c3 9a be
       0.4412799 -0.014465183 -0.00016299592 -0.30227193
0000c0 1c 0e 93 3e 90 26 d9 3d cf be ad 3d af 25 59 3f
       0.28721702 0.10603058 0.084836595 0.84823126
0000d0 ef bd 09 bd 8d 85 bb 3d 89 05 12 3c b4 13 1d be
       -0.0336284 0.09156332 0.0089124525 -0.15339547
0000e0 9d 26 c4 3d eb 6c 9a bd 20 28 67 bd d7 2e 87 3d
       0.095776774 -0.07540306 -0.05643475 0.06600731
0000f0 24 f0 c4 bd 09 4d 84 3d a6 0e 47 3e f0 cb 0a 3e
       -0.09616116 0.06460006 0.19439182 0.13554358
000100 6f ae 4f 3f 66 eb 14 3e e2 e7 01 3f 96 28 eb bd
       0.8112554 0.14542922 0.5074445 -0.114823505
000110 69 62 5b 3e be 90 df 3c a4 1a 8b bd 11 47 e7 3d
       0.21424259 0.027290698 -0.06792191 0.11292852
000120 ed 58 60 bd 4c 98 87 3d f5 8e 60 3e 61 ed 88 3d
       -0.054772306 0.06620845 0.21929534 0.066859014
000130 85 7e bc bc 60 69 e0 3c 99 56 ba 3e fe 93 24 3e
       -0.023009548 0.027393997 0.36394194 0.1607208
000140 1d 2e 0f 3e 97 08 da 3e 0d 3a 2f 3d 5c 0c dd bd
       0.13982435 0.4258468 0.04277997 -0.10793373
000150 0c 27 4e 3c 1a 1f 06 3e 48 27 4c 3e f4 55 b1 3d
       0.012582552 0.13097802 0.1993686 0.086589724
000160 bf bc 4b be b9 b1 37 be ac b0 7d 3d 80 e2 c1 bd
       -0.1989622 -0.1793889 0.061936066 -0.094670296
000170 7b 89 e9 3e fe aa c6 bd 56 2a 1f bd 1e 3d 55 be
       0.45612702 -0.09700583 -0.038858734 -0.20824096
000180 ce 1b c6 3c d8 03 8d 3e 10 d8 6a bc d2 85 4d 3e
       0.02418318 0.27541995 -0.01433374 0.2007058
000190 1d 80 5d bd d9 c7 92 3c fc 56 50 bd ee 35 5c 3e
       -0.054077256 0.01791756 -0.050864205 0.21504948
0001a0 39 5d 29 bc 5e 37 a3 3c f0 16 44 bd 6d e8 5b 3d
       -0.010337167 0.019923862 -0.047873437 0.053688455
0001b0 a3 c5 ad bd c3 76 5f bd 40 6d 36 bc b6 97 bd bb
       -0.08484962 -0.05455662 -0.011134446 -0.0057859076
0001c0 36 ba 0f 3e 5b 7a 47 3f c5 02 3c 3d c7 37 b9 3d
       0.14035878 0.77921075 0.04590108 0.09043842
0001d0 b7 71 dd 3d 25 86 57 3c 10 ad 50 3e 98 49 81 bd
       0.10812705 0.013154541 0.20378518 -0.06312865
0001e0 1e 70 9a 3b 19 83 89 bd 82 48 54 3d 2a 72 fc 3e
       0.0047130724 -0.06714458 0.05182696 0.4930585
0001f0 23 0d 55 3e 8e 22 da bd c3 20 ca bd 86 80 d6 3c
       0.20805793 -0.10651122 -0.0986953 0.026184332
000200 d6 a1 97 3d 47 2b 65 bc dc cb 37 bf f6 76 02 be
       0.07403915 -0.013987369 -0.7179544 -0.12740692
000210 de ab ed bc d2 c7 c0 3c e8 a4 b0 3e 8f 64 d8 bd
       -0.029012617 0.023532782 0.34500813 -0.10566055
000220 19 7a 1c 3b a5 47 d3 3d 9d 41 9d bc e2 19 10 be
       0.0023876487 0.103163995 -0.019196326 -0.14072374
000230 b2 c9 8b 3d 65 7f 7f be 7f c1 14 3e 38 af 8d 3e
       0.0682558 -0.24950941 0.14526938 0.27672744
000240 33 3a 3d 3e 41 4e fc 3d 15 43 95 3d 8e 9d be 3d
       0.18479232 0.12319613 0.072881855 0.09307395
000250 61 62 5e 3d ca 2b 31 3d 22 de c3 3e e5 2c ab bd
       0.05429304 0.04325465 0.3825541 -0.08358172
000260 92 cc 38 3d ab d9 7d bd 51 03 0e be 9a d7 32 bd
       0.04511697 -0.061975162 -0.13868453 -0.043662645
000270 aa b2 bc 3d d8 ed c6 3e 31 37 13 3f 99 e0 e1 bd
       0.09213765 0.38853335 0.5750609 -0.11029167
000280 2b 9d 79 3e d8 9b 78 be c6 42 35 be dc e7 e8 be
       0.24376361 -0.242782 -0.17701253 -0.45489395
000290 16 44 d4 bc f9 8e 85 bc e4 3d 76 3e bd e1 4a 3c
       -0.025911372 -0.016303526 0.24047047 0.012382922
0002a0 85 c7 b5 3d d2 f3 73 3d 91 26 49 bd 3d f9 d0 bd
       0.08875946 0.059558697 -0.049109045 -0.102037884
0002b0 0b de b3 bd 57 7b 48 be f0 49 32 bd 22 28 60 be
       -0.08782586 -0.195783 -0.043527544 -0.2189031
0002c0 d0 3f 1a bf e0 28 02 3e 29 2d 1c be c7 e8 c6 3d
       -0.6025362 0.12710905 -0.15251602 0.097123675
0002d0 c7 b5 45 bc b1 1d b7 3e ef 12 e3 bd ed 18 0f bd
       -0.012067265 0.3576484 -0.11087596 -0.03493588
0002e0 38 23 29 3e e2 89 38 3e 15 57 ce 3d 40 ca 11 bc
       0.16517341 0.18021348 0.10075203 -0.008898318
0002f0 e8 3e cb bc d6 0a d3 bd d0 3f 6d bc fa 2e 3e 3c
       -0.02481027 -0.10304801 -0.014480546 0.01160788
000300 56 e1 5e be ec 64 00 3e 5c d3 2d 3e 5f 03 ed bd
       -0.21765646 0.12538499 0.16975158 -0.115729086
000310 a2 3b 87 3c 5d 8c 1e be e8 06 9c 3d c6 5a 94 3d
       0.016507927 -0.15483232 0.07618505 0.07243876
000320 55 6a 96 bd 47 8d 1a bc d3 ca b8 bc 00 e9 67 bd
       -0.073445 -0.009433097 -0.022557652 -0.05661869
000330 24 e9 74 3e d3 1c 20 be 4e 23 9f 3e e5 84 c8 3b
       0.23917061 -0.15635996 0.31081623 0.006119358
000340 82 5b 6f bd 07 3c c2 3d 58 7f 95 bc ad 2a 99 3d
       -0.058436878 0.094841056 -0.018249199 0.07478843
000350 d9 4a 2e be c2 e3 23 bd e4 d6 56 be db f2 bf be
       -0.1702074 -0.04001213 -0.20980412 -0.37489972
000360 5a 8f 64 3e db ae 89 bd bd c6 74 be e2 55 18 3c
       0.2232031 -0.06722804 -0.23903938 0.00929782
000370 40 fe 11 3b c2 15 a9 bd d6 24 f1 bc 80 1e e7 3b
       0.002227679 -0.08256103 -0.02943651 0.0070531964
000380 16 4c e3 3d db fb 39 3e 9a 47 a3 3d 59 2f 3d bd
       0.110984966 0.18162481 0.07972641 -0.046187732
000390 08 ee b4 bc ac 6b f5 3d 6e c2 1d be f9 be 0c 3f
       -0.022086158 0.119834274 -0.154062 0.549789
0003a0 c2 a3 ec 3c 71 21 cd 3d 1c 23 43 3e 0a db b9 3c
       0.02888668 0.10016144 0.19056362 0.022687454
0003b0 a3 04 10 3e 15 ef 45 3c 5b bb 08 be b7 73 bd bd
       0.14064269 0.012080927 -0.1335272 -0.092505865
0003c0 75 12 41 3e a2 e8 12 be 5e 5c 84 3e 29 e6 aa 3d
       0.18854697 -0.14346555 0.2585172 0.08344681
0003d0 55 dd fc bd c9 f9 d5 3d 7f 77 3f be a3 6c a2 3e
       -0.12346903 0.10448033 -0.18697928 0.31723508
0003e0 7e 1a 34 bd c6 89 19 bd f9 32 4d 3d 40 33 f8 bd
       -0.043970577 -0.037484907 0.05009744 -0.1211915
0003f0 f5 44 42 3e 0c 15 1e bd 5a 50 e1 bc a6 cd 87 bc
       0.18971618 -0.03859429 -0.027504135 -0.016577553

fc2.bias f4 [128]
000000 a5 14 e2 3c 61 e0 55 3d 1a af 48 3c 6a cb 27 bd
       0.027597735 0.052215938 0.012248779 -0.040965475
000010 5e 09 8c bd 84 48 7c bc 81 c0 2b 3d d1 07 a9 bd
       -0.06837724 -0.015398148 0.041931633 -0.08253444
000020 f4 00 c6 3d 8c fe 8e bd 38 7b 2b be d9 58 22 3d
       0.096681505 -0.06982145 -0.16746223 0.039635513
000030 82 3c 7b 3a 56 16 ad ba 00 9c 3f bd 9d 07 7b bd
       0.00095839065 -0.0013205509 -0.046779633 -0.061286557
000040 8b 24 4b bb d1 3d 4f bd 87 90 8d 3d 1c 7f c2 3d
       -0.0030997123 -0.050596062 0.06912332 0.094969004
000050 61 b1 92 bc 35 72 23 bd 61 92 49 bd c8 de 00 bc
       -0.017906846 -0.03990384 -0.049211863 -0.007865615
000060 95 97 d0 bc af 2e e2 3d 27 38 c2 3c ca ab 34 3d
       -0.025462905 0.110440604 0.023708416 0.044109143
000070 7c b4 d7 3c 75 0f 57 3d 5f 72 e9 3d 40 99 5e 3d
       0.026331179 0.052504975 0.11398768 0.05434537
000080 72 00 4c bd d3 6e 1f ba fa 04 6b bd f6 c2 09 bd
       -0.049805112 -0.0006081883 -0.057377793 -0.033633195
000090 49 9d 7d bc 97 34 5a bd 88 1c ca bd a1 50 85 bc
       -0.015479394 -0.05327281 -0.09868723 -0.016273798
0000a0 bd 04 72 3d 6e 81 0a bd a5 1e 54 3d aa b4 be bd
       0.05908655 -0.03381484 0.051787037 -0.09311803
0000b0 26 41 1c 3d c0 06 cf 3a 7a b0 de 3d 17 07 39 3d
       0.038148068 0.0015794858 0.10873504 0.045172777
0000c0 a1 bc 22 3d 7d 67 be 3c d4 ed 48 bd fc 09 01 3b
       0.03973067 0.023242706 -0.049054936 0.001968979
0000d0 f6 78 09 3d 66 85 31 bd 28 11 68 bc e3 a6 8e 3c
       0.033562623 -0.04334011 -0.014164247 0.017413562
0000e0 a2 e2 3a bd 02 e9 63 bd 8f e4 c2 bd eb d7 f4 3d
       -0.04562629 -0.055642135 -0.0951625 0.119552456
0000f0 0a 31 19 bc 5a 51 4b bd 6f c3 d8 3c de a8 0c be
       -0.009350071 -0.04963813 0.026460377 -0.13736293
000100 12 3d 80 3d e5 e9 15 be ec 09 43 ba 3c f9 bd bb
       0.06261648 -0.14640005 -0.0007440138 -0.0057975333
000110 c3 e9 34 3d 2e 98 57 bd fc d0 8b bc 6c 1a bd bc
       0.044168245 -0.052635364 -0.017067425 -0.023083888
000120 f5 41 ab bd 9a a7 15 bc 11 c9 bb 3b 0b e6 d5 bb
       -0.0836219 -0.009134198 0.005730756 -0.0065276674
000130 08 39 0b bd 06 d3 f5 3d cf 53 ae bc a1 9f 09 3c
       -0.033989936 0.1200314 -0.021280197 0.008399875
000140 2a 64 aa ba 14 19 9f bc 5b 54 e1 bd 25 84 6e bd
       -0.0012999822 -0.019421138 -0.11002418 -0.05823149
000150 dc 21 27 be eb 84 d0 bd ea c9 7b bc f9 51 0b 3e
       -0.1632151 -0.10181602 -0.015367964 0.13605489
000160 ef b3 ad 3d d3 54 f5 bc 63 dd 99 bd 10 08 c9 3b
       0.08481585 -0.029947674 -0.07512929 0.0061349943
000170 0e 38 e7 bc 78 16 93 3c a8 58 77 bd 63 10 37 3d
       -0.028224971 0.01795505 -0.060387284 0.044693362
000180 74 1d 53 3d e7 b6 98 3c ba 2d fe bb 15 39 6e 3c
       0.05154176 0.018641902 -0.007756916 0.014539977
000190 ac 51 80 bd 2d 30 0b 3e c9 de ce bd c4 cf ca bd
       -0.06265578 0.13592596 -0.10101087 -0.099029094
0001a0 cf 65 c3 bc 13 fb 52 3d 5d 93 df bc 5a 77 58 bd
       -0.023852257 0.051508974 -0.027291948 -0.052848198
0001b0 f1 7c 76 3d b2 2d c6 3d 5c 13 9e 3b 7d 93 73 3d
       0.060177747 0.096766844 0.004824085 0.059466828
0001c0 28 47 7e bd a3 63 3b bc 16 9f 37 bd 50 f4 60 bd
       -0.06207958 -0.011437329 -0.04482945 -0.054920495
0001d0 0d 26 b8 bd 99 5d 90 3d fa af 97 bd 22 48 24 bd
       -0.089916326 0.07049102 -0.07406612 -0.040107854
0001e0 65 bd 45 3d 74 f7 77 bd ab f4 9f 3d 24 5c ba 3d
       0.048276324 -0.060538724 0.078103386 0.09099606
0001f0 de 1f 88 3d 10 84 b0 bb 01 98 f5 3d 90 b3 18 bc
       0.06646703 -0.005386837 0.11991883 -0.009320155

fc_value.weight f4 [256, 128]
000000 97 6d 15 3e fb 81 fb bc c5 70 81 3e d9 ad d9 bc
       0.14592586 -0.030701628 0.2528135 -0.026572155
000010 de 23 2b 3c d0 a7 0e be 65 3d 9e bc d7 53 05 bd
       0.010445563 -0.13931203 -0.019316385 -0.03255066
000020 bd 12 14 be dc ca c3 3d ea 91 a1 bd 0b b5 81 3d
       -0.14460273 0.09560177 -0.07889159 0.06333359
000030 50 55 3b 3d a0 97 aa bd 3d 53 8b 3c 5a bc 3e 3e
       0.045735657 -0.083297014 0.017007465 0.18626538
000040 18 c8 e4 bc 2b 22 29 bd 86 3c c3 bd f5 cd 5e 3d
       -0.027927443 -0.04129235 -0.09533028 0.054395635
000050 d7 35 a3 bd 99 d1 57 3f c7 dc 6f bd da e7 7f bb
       -0.079692535 0.84304196 -0.05856016 -0.0039048106
000060 d2 cd c0 bb c1 ba 17 bc b4 da 2c 3d e2 f3 05 bd
       -0.0058839107 -0.009260834 0.04220076 -0.032703288
000070 c1 23 a0 bb 15 1b 1c bd fb dc 00 3e 76 99 e8 3a
       -0.0048870747 -0.038111765 0.12584297 0.001774593
000080 e7 75 1b 3d 48 52 13 bd 53 cb 56 bc 1a 36 29 3d
       0.037954237 -0.03596714 -0.01311 0.04131136
000090 52 f7 73 bd 45 db 46 3c 4d 47 06 bd a2 98 b8 bd
       -0.059562035 0.012137239 -0.03278284 -0.090134874
0000a0 a9 3e 4d 3d e2 dc d8 3d 52 a2 bd bd 4d 83 40 3d
       0.050108586 0.10589005 -0.09259476 0.04700022
0000b0 5c 96 11 bd 68 81 10 bd f5 bb 67 bd 26 2c 96 bd
       -0.035543784 -0.03527966 -0.056575734 -0.073326394
0000c0 fa d5 cf 3d 76 8b c0 3c d1 45 8c bd 2a 29 01 3d
       0.10148235 0.023504 -0.06849254 0.031533398
0000d0 e9 97 e0 bd db 62 08 3d 5d ec 07 bc 7f 61 b0 3c
       -0.109664746 0.0332974 -0.0082960995 0.021530865
0000e0 27 84 20 3d c3 a9 11 bd f1 9a 90 3e b7 aa 26 3e
       0.03918853 -0.035562288 0.2824321 0.1627606
0000f0 20 bf 84 3d b9 e1 87 bd 78 dd 96 bd 34 e0 dc bb
       0.06481767 -0.0663485 -0.073664606 -0.0067405943
000100 65 a0 d6 bd 89 09 58 3d 23 36 b7 bb 06 2d a1 bc
       -0.104798116 0.05274347 -0.0055911704 -0.01967479
000110 f4 9f 5a 3e 1a d1 89 3d a0 94 a4 bd 6f d1 b5 3d
       0.2135008 0.06729336 -0.080361605 0.08877837
000120 c9 11 69 3d 1e 2c 6d 3d 40 31 96 bd 83 c0 b6 bd
       0.056901727 0.0579034 -0.073336124 -0.089234374
000130 ab 8e 9d 3d ee 40 90 bd 2a c6 55 bd 8a d1 9e 3d
       0.076932274 -0.07043634 -0.052190937 0.0775481
000140 03 89 15 3e e0 88 81 3c 67 9f 67 3d 65 b6 8f 3d
       0.14603047 0.015812337 0.056548502 0.07017211
000150 da 9a 5a 3d 20 c2 13 3d a1 f9 c4 3d 24 36 dd 3c
       0.053370334 0.036073804 0.096179254 0.027003355
000160 79 0a 03 3d 07 a5 40 3d 96 d1 04 be fd 71 02 be
       0.03199241 0.047032382 -0.12970576 -0.12738796
000170 80 e4 40 bd 83 82 28 3d 07 f5 17 3d 16 47 f4 3c
       -0.047092915 0.04114009 0.03709891 0.029819053
000180 74 0a cb bd e2 8e ef 3c 98 9c 3c 3e 48 4d e7 3c
       -0.09914103 0.029242937 0.18419111 0.028235093
000190 35 3d ea 3e 1b 69 c2 3d 44 a8 39 3e a0 57 ff 3c
       0.45749822 0.094927035 0.18130594 0.031169713
0001a0 ed 37 44 3e 64 d4 b3 bd 05 9a 0b 3f c7 ff 95 bc
       0.19161959 -0.08780745 0.5453189 -0.01831044
0001b0 d4 1c 0c 3d b4 4c 34 3d 1c 61 5a bb be 17 c2 bd
       0.03420718 0.044018462 -0.0033322042 -0.09477185
0001c0 07 b8 b4 3b a5 31 0d bd 45 b9 af bc 80 c1 aa 3d
       0.005515102 -0.034471173 -0.021450648 0.083376884
0001d0 31 15 24 bd 5e 18 c7 3d be a5 c3 bc 99 eb bb ba
       -0.040059272 0.097214445 -0.023882743 -0.0014337181
0001e0 d0 5f a8 3d 3d 68 12 bc c7 5a 0c be d6 3a 0d be
       0.082214 -0.008935985 -0.13706504 -0.13791975
0001f0 4b bf b2 3c 1b cc 64 bd ba 39 0d bd e1 69 81 3d
       0.021819731 -0.055858713 -0.03447888 0.06319023
000200 60 73 c9 bd 34 2e e6 3c a9 11 af bc 03 86 19 3d
       -0.09836459 0.028098203 -0.021370726 0.03748132
000210 7a b7 9f bc 20 5a 29 bd 8c 6d 48 3d 0b 29 7b 3d
       -0.019496668 -0.041345716 0.048932597 0.06131844
000220 13 f8 1a bd 7d 0c b2 bd 5d 52 fb bc 5b 65 90 bc
       -0.03783424 -0.08693788 -0.030678922 -0.017626455
000230 e4 f2 c3 3c 72 04 21 3d 43 3b 99 3d 9f fa 83 3d
       0.02391953 0.03931088 0.074820064 0.064442866
000240 31 2a a6 bd 1a 57 ab 3d 77 df 8e 3d 3f 17 4e 3d
       -0.08113516 0.08366223 0.06976216 0.050315138
000250 b5 32 5e 3d 77 f9 48 3d 1e e1 17 3d 10 d6 18 3d
       0.054247577 0.049066033 0.037079923 0.03731352
000260 79 fc 1b bd 27 47 1d bd 71 1f dd bc b2 e2 63 3c
       -0.038082574 -0.038397934 -0.026992531 0.013909029
000270 f0 81 51 3d 2f 2a 87 bd 75 91 9b bd 61 d8 88 3d
       0.05114931 -0.06599843 -0.07596103 0.06681896
000280 7b 40 3d bd b4 c7 97 bc 95 a7 c7 bd 9e 87 a6 3d
       -0.04620407 -0.018527843 -0.097487606 0.08131336
000290 24 e3 56 3c f8 e5 98 bd 59 b4 a4 3d 5d 27 3c bc
       0.013115678 -0.07465738 0.08042211 -0.011483994
0002a0 8b 17 86 bd 0a a2 78 bc 61 15 bb bc e5 9b 78 bd
       -0.06547459 -0.015175352 -0.022837343 -0.060695548
0002b0 d9 6f 26 bd e1 67 7c 3d 8d 23 ac bc e2 53 6f 3d
       -0.04063401 0.061622504 -0.021013046 0.058429606
0002c0 50 ad ca 3c 46 42 d6 3c 6c 28 fb bc d2 d8 27 bd
       0.024740845 0.026154649 -0.030658923 -0.04097826
0002d0 37 9e 93 3c c2 4c 54 bb dd 8a b0 3c 76 11 4d 3c
       0.018019779 -0.0032394384 0.02155059 0.01251637
0002e0 c6 76 e3 3c 59 e8 b0 bd 19 a6 b2 bd ca fb ad 3b
       0.027766597 -0.08638067 -0.08723087 0.0053095566
0002f0 34 8c 6c 3d 80 40 c4 bd a3 f8 d2 3b 22 57 8b 3d
       0.057750896 -0.09582615 0.006438331 0.06803729
000300 bb 9e be bd e5 64 9b bd ef 0c 7d bd dd 52 5b 3d
       -0.09307619 -0.075876035 -0.061779913 0.05354582
000310 e4 e5 21 bd b8 74 84 bd 0c 43 4d bd 57 9b fd bc
       -0.03952588 -0.06467575 -0.05011277 -0.03095786
000320 1d b0 8a 3d 29 10 ab bc 58 28 2a ba 96 25 cb ba
       0.06771872 -0.02088173 -0.0006490997 -0.0015498872
000330 25 ae 9a bd dc 26 82 3d e9 87 41 3d fa f4 8e 3c
       -0.07552747 0.06355068 0.047248755 0.017450798
000340 b2 a7 5f bd 52 f6 a0 bd d9 53 24 bd e9 42 74 bd
       -0.054603286 -0.07859482 -0.040119026 -0.059634123
000350 62 d3 92 bd c9 f5 97 bd 28 7b 6e 3c 99 10 bc bd
       -0.07169224 -0.07419927 0.01455573 -0.09182853
000360 d1 66 b9 3c 04 98 ae bd f9 be 0f bd 2f bf 1f 3c
       0.022632034 -0.085250884 -0.035094235 0.009750172
000370 50 a0 9e bd 5c 56 b0 bd e2 18 7a bd 91 87 f0 bc
       -0.07745421 -0.08610222 -0.061058886 -0.029361518
000380 ed 8b c0 3c ab cb 37 3d 5e f4 8c 3a aa 01 c8 bd
       0.023504222 0.044871967 0.001075398 -0.097659424
000390 02 6b 54 bd 15 09 b4 bd 84 08 2b bd ad 90 73 bb
       -0.051859863 -0.08790795 -0.041756168 -0.003716509
0003a0 38 23 a3 bd 49 ef a8 bd 14 79 81 bc 7d 3f 0c bd
       -0.07965702 -0.08248765 -0.015804805 -0.034240235
0003b0 f3 ba cd bd 45 03 92 bb 32 b0 87 bd 4a 5a 3f 3d
       -0.10045423 -0.004455956 -0.066254035 0.046716966
0003c0 dd ac 00 3d d8 e6 41 bd b7 f4 8d 3c ce a9 94 3d
       0.031414855 -0.04733929 0.017328603 0.0725895
0003d0 96 46 6a 3d 6a b8 08 3d de cc f7 3c 5e d5 58 bd
       0.057196222 0.033378996 0.030249055 -0.052937858
0003e0 6a 59 dd bb 40 eb 9f bd 46 8e af bd 26 26 8e bd
       -0.0067550438 -0.07808542 -0.085720584 -0.0694087
0003f0 86 65 3f bd df f5 2d bd ce 54 27 bd cf e7 85 bc
       -0.04672768 -0.04247081 -0.04085236 -0.016345887

fc_value.bias f4 [256]
000000 96 38 9a bd 60 4b 40 bc ab 1b 92 3e 55 d1 9d 3e
       -0.07530324 -0.011736721 0.28536734 0.3082377
000010 b7 04 b4 3a 08 be b4 bc f2 ae d8 3d eb f7 1b bc
       0.0013734315 -0.02206327 0.10580243 -0.0095195575
000020 05 d7 6a 3e bf e0 9e 3e a3 a5 86 3e 42 31 82 3e
       0.22933586 0.31030843 0.26298246 0.25428206
000030 1e 39 d9 3d 09 d3 4e 3e bb 32 2d 3e b8 c2 a2 3d
       0.10606597 0.20197691 0.16913883 0.07947296
000040 8e 6c 12 3e cf 06 d0 3d 45 ae 66 3d 2c c5 57 3c
       0.14299223 0.10157549 0.05631854 0.013169568
000050 68 f3 9b 3d f1 9d 8b 3e 03 cf c4 3e 50 52 97 3e
       0.076147854 0.27268937 0.38439187 0.29554987
000060 41 57 0d 3e 0f 58 7e 3d 5a 2b aa bd ac ed e1 bc
       0.13802816 0.062095698 -0.0830905 -0.027579151
000070 10 92 a4 3d b0 90 47 bd 79 43 52 bd a6 1a 89 3e
       0.08035672 -0.04872197 -0.05133388 0.26778144
000080 1a ad b8 3d a3 d3 19 be 07 0b 31 be 6c b3 90 bd
       0.090173915 -0.15022139 -0.17289363 -0.07065472
000090 44 7f b8 bd 9f 02 9d 3d 04 62 72 bd 34 f2 6e 3d
       -0.09008649 0.076665156 -0.059175506 0.05833645
0000a0 6a f6 e9 3b 7b a6 89 3e d1 dd de bb 13 94 81 3d
       0.0071399705 0.26884827 -0.006801345 0.06327071
0000b0 0b 16 90 3e a4 47 7b bb 75 c9 fd bd cb a2 53 bb
       0.28141817 -0.0038342262 -0.123919405 -0.0032293077
0000c0 e2 b0 bb 3d 13 a8 66 3b b0 43 ce bd ae e8 04 3e
       0.09164597 0.0035195395 -0.10071504 0.12979385
0000d0 3f aa 0b be 4c cf 24 3e 96 45 c4 3d 43 78 85 bd
       -0.13639162 0.16094702 0.09583585 -0.06517079
0000e0 6a c9 1d 3e 22 5b 9a 3d 38 8c 51 bd d3 f8 24 3e
       0.15408865 0.075369135 -0.051159114 0.16110544
0000f0 c8 6b 90 bd 82 39 7a be e6 1e 8d 3d 03 3d 09 3e
       -0.07051808 -0.24436 0.06890659 0.1340218
000100 78 30 38 3e d5 0e 9f bc 7e a2 f7 3d 97 32 d7 3c
       0.1798724 -0.019416252 0.1209154 0.02626924
000110 bf 5b 83 3e 02 a0 0b 3e a1 e6 e6 3d 77 16 8c 3e
       0.25655934 0.13635257 0.11274458 0.2736089
000120 00 1f 34 3e 32 45 5b 3e 6e 31 6d 3e 3a 71 7d bd
       0.1758995 0.21413115 0.23163387 -0.06187556
000130 4a d8 a3 3d e6 e4 76 3e 3a 32 b6 bd 6d 85 ae bd
       0.08000238 0.24110755 -0.08896299 -0.08521543
000140 93 e9 d9 ba 34 90 46 3e 1c 9b 79 bd af a5 45 bc
       -0.0016625397 0.19390947 -0.06093894 -0.012063428
000150 ad c8 3d 3b 4b 92 9f 3e 79 c5 cb bc 74 c3 b7 bd
       0.0028958723 0.311663 -0.024874436 -0.089728266
000160 c9 2b 40 3e c8 86 e2 3d 92 bc f6 3c 35 e9 21 3e
       0.18766703 0.11060864 0.030119214 0.15811618
000170 ba 29 1a 3e 1f 8f b4 3d 3d 1e 68 3e 70 fd 43 3e
       0.1505498 0.08816361 0.22667785 0.19139647
000180 f3 1c 11 be 7b 31 d5 3d 8e 3c ff 3d be bf 8a bd
       -0.141712 0.10409828 0.12462722 -0.06774853
000190 23 7f d9 bb 92 95 b3 bd f4 67 74 3e ca c4 a5 3d
       -0.0066374703 -0.08768763 0.2386778 0.08094175
0001a0 2c 74 26 3e 8c bc 27 3c 27 db 84 bd 8e 72 89 3e
       0.16255254 0.010237824 -0.064871125 0.2684521
0001b0 66 ee 1b 3e 01 5d 1a 3c 71 c3 e0 3d c4 4a a8 3e
       0.1522766 0.009421588 0.109747775 0.32869542
0001c0 05 df 50 3e 97 a1 91 bc b1 da 0a 3e f7 84 35 3e
       0.20397575 -0.017777247 0.13559987 0.17726503
0001d0 2f 4b 39 3e e5 50 a7 3e c3 2f 90 3d 72 2f c0 3d
       0.18095087 0.32678905 0.0704036 0.093840495
0001e0 df d8 52 3d e8 a7 7e 3e 24 6f 81 bc 54 14 c1 3e
       0.051476356 0.24868739 -0.015800066 0.37710822
0001f0 50 b7 e0 bd 47 e3 81 3e ff 67 94 3e 8f ba 31 3e
       -0.10972464 0.2536871 0.28985593 0.17356323
000200 e9 ad ab 3d 14 3a 9f 3d d1 64 a5 3d 03 7d c9 3d
       0.0838278 0.077747494 0.0807587 0.09838297
000210 6e 1c 26 3e d0 3c 60 3e d1 f5 6b bd 42 3e 0d 3e
       0.16221783 0.21898198 -0.057607476 0.1379328
000220 64 ca b1 3d 20 30 12 3e b9 01 d8 bd 2b 17 41 bd
       0.08681181 0.1427617 -0.105472036 -0.047141235
000230 6f 82 15 bd d3 63 a1 3e 37 bc c9 bd 88 ed c1 3c
       -0.036501344 0.31521472 -0.09850352 0.023672834
000240 57 0a d8 bd 63 e5 d7 bc 59 6a f9 3c 52 df 71 3d
       -0.10548847 -0.026354497 0.030446218 0.059050865
000250 f8 f5 98 3e f9 ae 24 3d 89 06 6a bb 8b d9 e6 bd
       0.2987516 0.04020593 -0.0035709462 -0.11271962
000260 ed 3c 6e 3e e7 30 63 3d d3 fc bd 3d b5 21 b8 bd
       0.23265429 0.05546656 0.09276738 -0.08990804
000270 51 99 c2 3d 30 a7 18 3e 83 8e da bc eb a8 e3 3d
       0.09501899 0.14907527 -0.026679283 0.11116203
000280 25 a3 6f 3e 2d 6b d0 bd e7 dd af 3e 80 58 d7 bc
       0.23402078 -0.10176692 0.34348986 -0.026287317
000290 5c 6c 1d bd e9 34 3b 3e f2 c5 98 3c ec fc 27 3d
       -0.038433418 0.18281902 0.018649075 0.04101269
0002a0 0c 69 98 3c 1b 9a 20 bc b2 87 4d 3e 10 5b 7f 3d
       0.018604778 -0.009802367 0.20071295 0.062342703
0002b0 dd ee 09 3c eb 01 e2 bd 75 33 3e bd 4b 7a 34 3e
       0.008418766 -0.11035522 -0.046435792 0.17624776
0002c0 fd b4 2d 3e 17 d6 2c 3e 62 e7 a5 bb 27 70 08 3e
       0.16963573 0.16878544 -0.0050629834 0.13324033
0002d0 97 93 a9 3e e1 5c de bd 07 f6 2c bc 40 99 c6 3d
       0.33120415 -0.10857559 -0.010556704 0.09697199
0002e0 8d 0e 2d 3e 60 3d 4f 3e f9 d1 96 3e 75 e8 cb 3d
       0.16900082 0.20238256 0.2945707 0.09956447
0002f0 37 20 95 3c 4a 8d c9 3d 6f 91 84 3e ff cf b1 3d
       0.018203838 0.09841402 0.25892207 0.0868225
000300 90 a7 95 3d c8 e5 12 3e 03 81 79 bc 92 c6 88 3e
       0.07307351 0.14345467 -0.015228513 0.26713997
000310 43 96 33 3e d6 30 6c bd 1e 8e a8 bd 6d ed 94 bd
       0.17537789 -0.05766376 -0.08230232 -0.07271848
000320 1f c3 fc 3d 91 c6 13 3d 6a 64 d4 3c e0 62 16 3e
       0.12341904 0.03607804 0.025926787 0.14686155
000330 fe c5 f7 bd f0 d5 7c bd 38 8d 1b 3e 07 37 83 3d
       -0.12098311 -0.061727464 0.1519059 0.0640698
000340 cc 36 6c 3e 49 f7 bf 3c 38 96 24 bd dc 8e 45 3d
       0.23067778 0.023433344 -0.040182322 0.048231944
000350 3e db 54 3d 35 da 8f 3d 9f 07 62 3d e3 2a e6 bd
       0.0519669 0.070240416 0.05518305 -0.11238649
000360 48 fe 83 3e 39 4c 01 3e 83 bc 72 3e fb d8 a4 3e
       0.2577994 0.12626733 0.23704724 0.32196793
000370 cd c9 c6 3e 0f 20 b4 3d 9d 89 85 3e 6c d3 f6 3d
       0.38825837 0.08795177 0.26081553 0.12052044
000380 2f 6a 0b 3e ab 7f 36 3e cc 45 e2 3d 9d 51 09 3e
       0.13614725 0.17822139 0.11048469 0.13410039
000390 31 6a e5 ba 90 d9 82 bd 8a 5a 9d b9 ce b1 31 3e
       -0.0017502961 -0.06389153 -0.0003001283 0.17352983
0003a0 ab 9d 72 3d 4d 6e b3 3d c1 76 58 3d dd 25 88 3e
       0.059232395 0.087612726 0.052847628 0.26591387
0003b0 c8 12 f2 3d f8 19 e4 3d f0 22 b4 3d 83 29 ec 3d
       0.118199885 0.11137766 0.08795726 0.11531355
0003c0 84 ca 27 3e 01 1c 49 3e ec c2 4f bd 61 fa e3 bd
       0.16385847 0.19639589 -0.050723 -0.1113174
0003d0 de c4 e4 bd 57 f2 90 3e 8a ac a4 ba 22 ba ff 3c
       -0.11170362 0.2830989 -0.0012563628 0.031216685
0003e0 90 41 70 3e 60 43 52 bd 01 9b a9 3d de 00 66 bd
       0.2346251 -0.051333785 0.08281518 -0.05615317
0003f0 9f aa 81 3e 28 f8 44 3e 2c eb 8a 3e a4 a8 57 bd
       0.25325486 0.19235289 0.27132547 -0.052651063

value.weight f4 [1, 256]
000000 2a 52 ea bd 13 73 5e ba 76 82 0e 3f aa 00 3f 3f
       -0.11441453 -0.00084857753 0.5566782 0.7461039
000010 db 2d 8c 3d f3 58 b5 be 55 08 ea be 67 36 94 3e
       0.06844684 -0.35419425 -0.45709482 0.28947756
000020 96 11 e4 3e ea 87 b4 3e 7d f2 e4 3e 11 c1 29 3f
       0.44544667 0.35259944 0.44716254 0.6631022
000030 cb 4e f2 be 93 2b 07 bf 00 ed cd be 6a 80 b8 be
       -0.4732574 -0.52800864 -0.4021988 -0.36035472
000040 e1 7f 86 3e a6 01 2e bf 72 99 db bc 5c 1a 5d bf
       0.2626944 -0.67971265 -0.026806567 -0.86368346
000050 48 7f c3 3d 9d 10 aa 3e ad 30 34 3f d7 a8 f7 3e
       0.09545761 0.332158 0.70386773 0.48371002
000060 a3 c9 e1 be 2a 68 87 3e 90 16 bb b9 99 63 90 3d
       -0.4409915 0.26446658 -0.0003568423 0.07050247
000070 62 ea 2b bf 25 5c e3 3b 13 32 29 bd c6 8f 16 3f
       -0.67154515 0.0069384747 -0.04130752 0.5881313
000080 68 7e e2 be 0a 63 be bd 7c 99 d3 3d 3a 89 d3 bc
       -0.44237065 -0.09296234 0.10332009 -0.02582227
000090 2d 4f e2 bb d4 3e 52 be fc 3a b4 bc e7 27 e3 be
       -0.006906411 -0.2053178 -0.022000782 -0.4436638
0000a0 bc 4f e6 be 84 ba d2 3e 2d 69 a6 3d 2e 76 e1 be
       -0.44982708 0.41157925 0.081255294 -0.44035476
0000b0 f7 ab 99 3e 33 76 6f bf 1b c6 10 3d 26 03 30 bb
       0.3001401 -0.9353973 0.035345178 -0.0026857345
0000c0 6e bd b8 be 50 3c 4b 3d 01 fb 0b 3e 79 fe ee 3e
       -0.36082023 0.049618065 0.13669969 0.46678522
0000d0 44 1f a3 3d d0 f4 c0 be 32 c5 b4 be 63 15 64 bc
       0.07964948 -0.37686777 -0.35306698 -0.013921115
0000e0 77 0c d8 be 96 ba ab be e1 c9 45 bd 52 ca f5 be
       -0.4219701 -0.3354079 -0.04828823 -0.4800592
0000f0 e3 85 91 bb 57 3b 97 be 26 8f 24 bf ca 24 d6 be
       -0.0044410094 -0.2953746 -0.6428093 -0.41824943
000100 18 46 87 be aa 24 00 3d 45 1e c2 be 2c db 36 ba
       -0.26420665 0.031284966 -0.3791372 -0.0006975408
000110 28 b4 ea 3e 16 3c a4 be c2 63 d7 be 4e 00 a2 3e
       0.45840573 -0.32077092 -0.42068297 0.31640857
000120 21 58 e0 3e ee 19 ab 3e 4d 8c d4 3e bb 58 33 bc
       0.43817237 0.3341822 0.4151329 -0.010946448
000130 9a 85 44 bf 3a a3 9d be bc ca fb bb 27 41 ee 3b
       -0.7676636 -0.30788594 -0.00768408 0.0072709504
000140 3b 91 12 3d 1b 92 8b 3e 43 19 13 bb 5c 77 c2 be
       0.035783034 0.27259907 -0.0022445477 -0.3798169
000150 da b0 80 bc 78 fd bf 3e 72 04 05 3d cd 19 d5 3a
       -0.01570933 0.3749807 0.032474943 0.00162583
000160 d1 c5 aa be 58 5c 6a 3e 6e c8 57 3d 37 be ba be
       -0.33354047 0.22886789 0.05268138 -0.36473247
000170 8f d3 d8 be 26 58 ca be 2d 9d db 3e 49 7d fe be
       -0.42348906 -0.39520377 0.42893353 -0.4970496
000180 f6 58 96 3e c1 64 cf 3e 5d 4c f1 be ed e1 36 bd
       0.29364747 0.40506557 -0.47128573 -0.044649053
000190 ca cd ec be 27 70 17 3d e3 b7 eb 3e 31 14 a5 3e
       -0.46250755 0.03697219 0.46038732 0.32241967
0001a0 7c 62 c8 be 05 de 57 3d 1a a5 1e 3d 7f 83 86 3e
       -0.39137638 0.05270197 0.038731672 0.262722
0001b0 f4 6b d1 be 12 d2 e4 be 2e ed 89 be 1e ce 2b 3f
       -0.40902674 -0.4469152 -0.26938766 0.67111385
0001c0 86 d4 b3 3e bd 8a 4d 3b 61 ac 96 be 55 bb 47 3f
       0.3512308 0.0031363212 -0.2942839 0.7802022
0001d0 fb dd d2 3e 35 6c 18 3f 95 4e b3 be e2 de 5f bf
       0.41184983 0.5954011 -0.3502089 -0.8744947
0001e0 53 9a 4b bf a9 55 ef 3e 12 a0 b3 3d 14 66 49 3f
       -0.79532355 0.4674504 0.08770765 0.78671384
0001f0 d2 f9 87 3d e9 cd e5 3e 5c e0 04 3f d6 58 be be
       0.06639446 0.4488366 0.51904845 -0.3717715
000200 2e 32 cb be cf 36 9e be 90 01 9d 3e 49 af ec be
       -0.39686722 -0.3090119 0.30665255 -0.46227482
000210 97 39 c5 be 46 30 e5 3e db 9d 09 bf 07 07 da be
       -0.385205 0.44763392 -0.53756493 -0.42583486
000220 47 48 ca 3e 6e b8 a3 be 6f 04 f1 bc b3 3d dc 3c
       0.39508268 -0.31976646 -0.02942106 0.02688489
000230 23 39 f9 3c 49 d7 ee 3e 9a 0f d8 bb 26 73 ec be
       0.030422753 0.46648625 -0.0065936567 -0.461816
000240 37 0b 0a 3c 5d a6 8e 3a c1 af ae bd 56 d7 e0 be
       0.008425525 0.001088332 -0.08529616 -0.43914288
000250 29 5f a3 3e c8 cd 38 bf 36 07 d2 bc e3 e8 7f bb
       0.3190854 -0.72189 -0.025638204 -0.0039048723
000260 d2 02 4c 3e e3 c2 8c 3c 7f 47 d2 be 07 35 2c bd
       0.19922951 0.017182773 -0.41070172 -0.04204276
000270 38 3b e6 be db a9 f4 be 7f 03 f7 3c 72 a6 f1 be
       -0.44967055 -0.4778584 0.030153034 -0.471973
000280 c8 ed 46 3f 7b 42 e3 bb 0f b5 f3 3e 89 2a d6 3d
       0.77706575 -0.0069354153 0.47599074 0.10457332
000290 fa ec ad bc e1 77 97 be 61 bf 2f bf 97 31 ea be
       -0.021231163 -0.29583648 -0.68651396 -0.4574096
0002a0 42 80 3e 3d 24 10 40 3c 09 72 90 be 2d e5 e3 be
       0.046509035 0.011722598 -0.28212002 -0.44510785
0002b0 80 d7 ca 3a 0c 13 90 3c 53 32 a7 be 68 d4 4d bf
       0.0015475601 0.017587207 -0.32655582 -0.8040223
0002c0 de 68 bc be 61 b3 d6 be 94 a9 d6 3b 43 ae e6 be
       -0.36798757 -0.4193373 0.006550977 -0.45054826
0002d0 99 11 f0 3e 80 90 20 3c f4 3e 0a bf af e6 ed be
       0.46888426 0.0098000765 -0.5400231 -0.4646506
0002e0 21 93 e2 be 40 36 db 3e 95 b7 42 3f c3 a4 5c bf
       -0.44252875 0.42814827 0.76061374 -0.86188906
0002f0 0d da 46 3b d6 15 94 be f0 e4 fb 3e d1 4b ed be
       0.003034237 -0.2892291 0.49198103 -0.46346906
000300 0d a4 a2 3e 14 47 c9 be 2f 55 97 3b f3 15 15 3f
       0.31765786 -0.3931204 0.004618309 0.58236617
000310 7d ce bb be a3 47 d7 3c 31 0c 29 bc 69 bf 40 bf
       -0.36680976 0.026279276 -0.010317848 -0.7529207
000320 99 de 90 3d 77 72 23 bd e3 bb 9a 3d 95 c7 8f 3e
       0.07073707 -0.039904084 0.07555368 0.28081957
000330 a4 3e 8e 3b 15 6d f2 ba 01 75 ec 3e e3 a9 a0 be
       0.0043409634 -0.0018495644 0.46183017 -0.31379613
000340 a2 0e a8 be 39 61 96 3c 9f bb 30 3d 58 3e d6 be
       -0.32823664 0.018356906 0.04314768 -0.4184444
000350 9a 42 e8 be 10 0a d5 be c0 9c 04 3d f2 90 62 3d
       -0.45363313 -0.4160924 0.03237605 0.055314012
000360 66 a0 9e 3e a0 05 c5 3e 0a 5a 2b 3e 7a e8 f8 3e
       0.3098175 0.38480854 0.16733566 0.48614866
000370 d3 5b 4d 3f e9 ac ea be 57 b3 ea 3e 06 80 b2 3e
       0.8021824 -0.45835045 0.4583995 0.348633
000380 21 f8 d7 3e a1 78 e0 be 45 24 4e bf 47 0f f6 be
       0.42181495 -0.43842033 -0.8052409 -0.4805853
000390 93 03 a7 be 23 5d 82 3d d2 6f a5 3d 76 1e c8 3e
       -0.32619914 0.06365421 0.08077969 0.3908574
0003a0 8f 1c cb be 54 ae 60 bf 39 a7 31 bf 9e 47 2f 3f
       -0.39670226 -0.87766004 -0.69395787 0.68468654
0003b0 7f 0d de be 48 eb fb be 22 74 e0 3e 19 02 9b 3d
       -0.43369672 -0.49202943 0.43838602 0.075687595
0003c0 30 d0 be be de ef f9 3e 90 d0 40 bd 8b b1 39 3c
       -0.3726821 0.48815817 -0.0470739 0.011333833
0003d0 00 ad 07 3c 4e aa 84 3e 7d 9c 15 be aa dc dd be
       0.0082809925 0.25911182 -0.14610477 -0.43332416
0003e0 a8 6b 04 3f c7 e5 5c 3c b3 20 96 3e 67 b1 c6 3c
       0.5172677 0.013482518 0.29321823 0.024254514
0003f0 b1 55 30 3f 3b c9 df 3e 27 29 0c 3f 17 fb 12 bd
       0.68880755 0.43708214 0.54750293 -0.03588399
