trained_models/flappy_dqn_242.pth (torch, 411362 bytes, 11 tensors)

fc1.weight f4 [256, 7]
0.015998658 -0.056448616 -0.34512186 0.02311833 0.2307504 -0.13858858 0.034224864 -0.04062622
-0.13415699 -0.17825209 0.068077415 -0.15656413 0.49137795 -0.3229768 0.10828377 0.05890859
0.71815103 0.33839068 -0.16519338 -0.21127988 0.20137726 0.25886956 0.074475735 -0.5787793
0.19748023 0.044541337 -0.40469405 0.28359884 0.09067224 -0.31897816 0.10568454 -0.13156018
0.117951624 0.3823777 -0.23495847 0.15545283 -0.40001768 -0.21143188 -0.096680194 0.11765687
0.45262712 0.46359116 -0.26493353 0.18442382 -0.0768069 0.06813742 0.15055157 0.4426264
0.10463182 0.21874745 -0.22500058 -0.48473772 0.103732094 0.07047423 -0.21236031 0.29435927
0.4381383 -0.7615772 -0.009325848 0.1801578 -0.4862913 -0.11901346 0.31720737 0.09433162
0.35690334 -0.2158799 0.09036416 -0.23873818 -0.1946162 -0.31813937 0.29642934 -0.34715047
-0.39348593 -0.46432102 0.21112978 0.14844988 -0.16289823 0.304285 -0.9297285 0.21966527
0.32055563 -0.58479697 -0.12191394 -0.19579422 0.015600879 -0.4504168 -0.2159662 -1.0730356
-0.28270468 -0.08553053 0.19612513 -0.03720238 -0.3370301 0.10605141 0.17240597 -0.29362944
-0.25134847 -0.15611103 -0.33170858 -0.38130027 -0.22503974 0.22719845 -0.12846187 -0.11883936
-0.13037233 -0.09252202 0.2724595 1.058436 0.55115277 0.3513785 -0.061575163 0.049008194
0.06493877 0.60115314 -0.09732749 0.20188722 0.326535 -0.10913003 -0.2340457 -0.15162788
0.27967128 -0.12368723 0.18333584 -0.30761248 -0.10889519 -0.12567103 0.013314206 -0.1533427
-0.08927819 -0.81062883 0.15862028 -0.11425998 0.12778883 0.207246 0.037039347 -0.5507666
-0.23613916 0.21853156 -0.013359553 -0.060594525 -0.068778366 0.4869521 -0.46823388 -1.5703042
0.01637093 0.021491336 -0.11788429 -0.049735084 -0.07405003 0.12701133 -0.33752033 -0.04566888
0.29256174 0.37365833 0.12302163 -0.25869402 -0.13720955 -0.09768913 0.33366233 0.01735016
0.29029667 -0.020728968 0.33380938 -0.32401755 -0.28178558 -0.1801297 0.088712364 0.33060455
-0.026489424 -0.43726477 -0.33809263 -0.048349883 -0.27292088 -0.2100135 0.3882452 0.1725156
0.72087616 -0.0809627 -0.34103015 -0.113569126 0.28003308 0.16923602 0.004218573 0.6271133
0.11777018 -0.072472826 0.31699032 -0.2572293 0.25141534 0.20854314 0.109319866 -0.24090895
0.42154118 -0.16390665 -0.11207165 0.51942617 0.17038131 0.114984564 0.03733829 -0.25143042
-0.17239654 -0.41896343 -0.20502397 -0.015795449 -0.4739467 -0.12991717 -0.37009072 0.10621537
0.14856131 0.12244691 -0.2913458 -0.8323736 -0.33028683 -0.0036559573 -0.41291878 -0.320223
0.36067787 0.109544195 -0.03392141 0.31158638 -0.043015987 -0.08719338 -0.65081 -0.69975793
-0.12006461 -0.2821 0.9591906 0.49457896 -0.3009343 0.15263432 0.0206978 -0.18127425
0.81104964 1.025633 0.60264367 0.26972198 -0.16199179 0.11347405 0.23417266 -0.47672915
-0.43476447 0.58789366 -0.15929843 -0.017072 0.5014503 0.114005476 -0.14319293 0.09772462
0.40849143 0.28452343 0.53158665 0.2571759 0.2051144 -0.46338108 0.23352268 0.2763835
00000000: 9e0f 833c aa36 67bd d0b3 b0be a762 bd3c
00000010: d549 6c3e 2aea 0dbe 5f2f 0c3d ae67 26bd
00000020: 7360 09be b787 36be 2c6c 8b3d 5952 20be
00000030: e495 fb3e 375d a5be e2c3 dd3d 224a 713d
00000040: bfd8 373f 8b41 ad3e 7428 29be c159 58be
00000050: d735 4e3e 8d8a 843e bc86 983d e12a 14bf
00000060: 4238 4a3e fa70 363d 0f34 cfbe de33 913e
00000070: 5eb2 b93d 1b51 a3be 2371 d83d b6b7 06be
00000080: 9f90 f13d 03c7 c33e f498 70be 072f 1f3e
00000090: 1ecf ccbe 9981 58be 4400 c6bd 16f6 f03d
000000a0: bebe e73e d25b ed3e 5ea5 87be 99d9 3c3e
000000b0: f04c 9dbd a28b 8b3d 312a 1a3e ed9f e23e
000000c0: 3549 d63d 55ff 5f3e 8d66 66be 8b2f f8be
000000d0: 7e71 d43d cb54 903d fb74 59be 42b6 963e
000000e0: aa53 e03e b9f6 42bf 71cb 18bc 497b 383e
000000f0: 2cfb f8be 54bd f3bd 0169 a23e f030 c13d
00000100: 09bc b63e 9f0f 5dbe d810 b93d c877 74be
00000110: 7849 47be 2ae3 a2be 96c5 973e b5bd b1be
00000120: fd76 c9be 7cbb edbe 6832 583e 3f03 183e
00000130: cbce 26be 3ecb 9b3e b002 6ebf efef 603e
00000140: de1f a43e 41b5 15bf 04ae f9bd 487e 48be
00000150: d49a 7f3c 089d e6be 3e26 5dbe 3b59 89bf
00000160: abbe 90be a12a afbd 07d5 483e 8661 18bd
00000170: 368f acbe 7b31 d93d 318b 303e 9956 96be
00000180: bfb0 80be 92db 1fbe b5d5 a9be ca39 c3be
00000190: d170 66be b6a6 683e 828b 03be 0d62 f3bd
000001a0: 5380 05be 2f7c bdbd d07f 8b3e d57a 873f
000001b0: 5918 0d3f e2e7 b33e 3d36 7cbd d1bc 483d
000001c0: 9efe 843d 2ce5 193f a353 c7bd 86bb 4e3e
000001d0: 982f a73e 917f dfbd ada9 6fbe 5744 1bbe
000001e0: 1331 8f3e bb4f fdbd 64bc 3b3e 627f 9dbe
000001f0: 7104 dfbd e8af 00be d423 5a3c de05 1dbe
00000200: 7cd7 b6bd 5f85 4fbf 5b6d 223e 2301 eabd
00000210: 13db 023e 4c38 543e 92b6 173d 0aff 0cbf
00000220: 77ce 71be bdc6 5f3e 07e2 5abc f731 78bd
00000230: acdb 8cbd c951 f93e 5abc efbe baff c8bf
00000240: 541c 863c 990e b03c 526d f1bd 04b7 4bbd
00000250: 8ba7 97bd 420f 023e 77cf acbe 4b0f 3bbd
00000260: a7ca 953e 2550 bf3e c4f2 fb3d 8b73 84be
00000270: a980 0cbe 3d11 c8bd cad5 aa3e ec21 8e3c
00000280: c4a1 943e cccf a9bc 10e9 aa3e a1e5 a5be
00000290: 3346 90be ec73 38be d4ae b53d 0045 a93e
000002a0: 5900 d9bc 2be1 dfbe 7a1a adbe 870a 46bd
000002b0: 49bc 8bbe c70d 57be 13c8 c63e eea7 303e
000002c0: 578b 383f c6cf a5bd 819b aebe ee96 e8bd
000002d0: 7f60 8f3e 354c 2d3e f53b 8a3b 7f8a 203f
000002e0: 7e31 f13d a26c 94bd 8e4c a23e 8fb3 83be
000002f0: 83b9 803e 558c 553e 18e3 df3d d6b0 76be
00000300: 3fd4 d73e 25d7 27be d285 e5bd 1df9 043f
00000310: 7078 2e3e 077d eb3d 09f0 183d 7dbb 80be
00000320: b888 30be 6082 d6be cef1 51be 7565 81bc
00000330: 24a9 f2be 0209 05be 887c bdbe 7287 d93d
00000340: 7520 183e 72c5 fa3d 472b 95be 7016 55bf
00000350: 5b1b a9be c998 6fbb 176a d3be 45f4 a3be
00000360: c5aa b83e b558 e03d 2df1 0abd 4088 9f3e
00000370: 8831 30bd 7192 b2bd 7c9b 26bf 5623 33bf
00000380: 6fe4 f5bd 696f 90be 848d 753f 7439 fd3e
00000390: 1014 9abe 2c4c 1c3e 6f8e a93c f59f 39be
000003a0: f3a0 4f3f f147 833f db46 1a3f 0019 8a3e
000003b0: 2de1 25be 1565 e83d f5ca 6f3e d815 f4be
000003c0: 7399 debe 3380 163f 211f 23be 94da 8bbc
000003d0: 0c5f 003f b47b e93d 2ba1 12be d823 c83d
000003e0: ca25 d13e 0ead 913e 1016 083f 8fac 833e
000003f0: 8209 523e 4940 edbe 9220 6f3e 2382 8d3e

fc1.bias f4 [256]
-0.30905706 0.18287042 0.07573836 -0.03179861 0.16934057 0.06783851 -0.24361792 -0.028031273
-0.0018704036 0.097255036 0.111111134 0.16963784 0.21998201 0.36514413 -0.10966055 -0.104951486
-0.2667099 0.16027397 -0.091624476 -0.0076579493 -0.096927784 -0.37143847 0.15540512 0.29312798
0.32991785 0.09129757 -0.29195762 -0.043289892 -0.14421037 0.22084956 -0.07655106 -0.22369982
0.12628447 -0.21082911 0.1548295 -0.24574538 0.33171377 -0.193594 -0.1272017 0.3195789
0.1460662 -0.0024311962 0.10975886 -0.08952022 0.09187653 -0.27821746 -0.110894375 0.051999006
-0.16356394 0.13185947 -0.061389606 -0.31904054 0.13487542 0.39828482 0.03358883 0.22061251
0.1580295 0.10333211 -0.1719567 0.24320218 -0.18388262 0.39003393 -0.1340568 0.11440455
-0.059659343 -0.12041109 -0.032725897 0.069636635 -0.07606332 -0.13674092 -0.031057758 0.23547384
0.14828025 0.34082288 0.008761994 0.36832777 0.13565817 0.1611843 0.07968483 -0.06366737
0.064750314 -0.12358617 0.0059399656 -0.06923541 0.36054242 -0.43322456 -0.05452073 0.07927126
-0.13308893 -0.12434582 0.23815244 -0.037007857 -0.053591553 -0.056117896 0.086444065 0.002368688
0.078468546 -0.12030292 -0.3573321 -0.23623136 0.13542484 -0.43116367 -0.13182421 -0.16400115
0.29512998 0.15934439 0.21425064 0.23350126 0.078344785 0.07217751 -0.11434029 -0.2247874
0.43311524 -0.12533408 0.12806572 0.19585194 0.0510932 0.07792409 0.18588518 -0.29161745
0.114790075 -0.12553994 0.039834246 -0.43094328 -0.29949555 0.104610085 -0.13345039 0.08394942
-0.08252211 -0.08722419 -0.28128213 -0.34840378 0.27235797 0.1605373 -0.044603113 -0.44227028
0.20747678 -0.073940985 -0.3123268 -0.07859659 -0.20037057 -0.28174648 0.12572894 -0.16495386
0.1316667 -0.26464626 0.09629987 -0.14719412 0.20343247 0.0782309 -0.034324344 -0.47165695
-0.0058680708 0.013876441 0.06475721 0.02558351 -0.2595925 0.050315667 -0.12750928 0.37829897
-0.07454887 -0.30235294 -0.22775827 0.21716854 0.27830136 0.33510196 0.16712381 0.011845623
0.35094813 0.2069042 0.27304128 -0.015467964 -0.012749243 0.15412231 0.30863532 0.040758085
0.08610441 -0.33058766 -0.0047290027 0.29821885 -0.048753176 -0.146065 -0.22627282 0.22582203
0.028459558 -0.3826112 0.11091301 -0.15502295 -0.16720878 -0.12589507 0.19678465 0.25509527
0.09794071 0.22502118 -0.36345452 0.04178683 -0.11679694 0.19144781 0.019035395 0.18121372
0.107237324 0.22677861 0.37313774 0.077190325 -0.15822987 0.081300065 0.0858977 0.39690945
0.10517582 -0.31095168 -0.09077194 0.12473738 0.120348275 0.32392988 -0.10324423 -0.16246359
-0.15505737 -0.27066118 -0.28505793 -0.22667758 -0.36628774 0.15754817 0.291856 -0.36332566
-0.11631068 0.037935827 0.27922684 0.1984772 -0.036967147 -0.2594436 -0.21910906 -0.27256665
0.003435575 0.31616154 -0.26813298 0.24902287 -0.044176906 0.011530592 -0.0330859 0.051385656
-0.37436143 -0.29692286 -0.025546957 0.043795586 -0.22121401 -0.27070674 -0.11984744 -0.18126248
-0.12497155 -0.0058072517 0.07702497 0.3053636 -0.20490384 0.06986006 -0.005955385 -0.13153856
00000000: ba3c 9ebe 6242 3b3e b71c 9b3d 423f 02bd
00000010: 9d67 2d3e ebee 8a3d fa76 79be d7a1 e5bc
00000020: 5528 f5ba a62d c73d 3c8e e33d 8bb5 2d3e
00000030: f742 613e 2cf4 ba3e b695 e0bd cef0 d6bd
00000040: 338e 88be dc1e 243e 9da5 bbbd 89ef fabb
00000050: 1382 c6bd 2f2d bebe 8522 1f3e df14 963e
00000060: feea a83e 38fa ba3d 787b 95be be50 31bd
00000070: e2ab 13be 6326 623e cdc6 9cbd 9111 65be
00000080: b750 013e 96e3 57be a08b 1e3e ada4 7bbe
00000090: 63d6 a93e 813d 46be 2a41 02be d89f a33e
000000a0: 6192 153e b454 1fbb 41c9 e03d 6156 b7bd
000000b0: c329 bc3d 8572 8ebe 971c e3bd e9fc 543d
000000c0: 4e7d 27be 2b06 073e ab73 7bbd 4859 a3be
000000d0: c81c 0a3e fdeb cb3e 7194 093d 3fe8 613e
000000e0: 7cd2 213e c99f d33d 6b15 30be fe09 793e
000000f0: ba4b 3cbe 87b2 c73e 3046 09be ef4c ea3d
00000100: 5b5d 74bd 179a f6bd 970b 06bd a79d 8e3d
00000110: 16c7 9bbd d005 0cbe d76c febc 0e20 713e
00000120: c7d6 173e 5680 ae3e 778e 0f3c 7595 bc3e
00000130: fae9 0a3e 7f0d 253e cd31 a33d 0a64 82bd
00000140: d09b 843d bf1a fdbd 0ba4 c23b 4bcb 8dbd
00000150: 0499 b83e 9ccf ddbe 2151 5fbd f858 a23d
00000160: 7748 08be 05a9 febd 3cde 733e 8d95 17bd
00000170: d182 5bbd e1db 65bd 9609 b13d fd3b 1b3b
00000180: 1eb4 a03d 6161 f6bd 3cf4 b6be a2e6 71be
00000190: cfac 0a3e 7cc1 dcbe edfc 06be ebef 27be
000001a0: 471b 973e 2d2b 233e 8564 5b3e f41a 6f3e
000001b0: 3b73 a03d cdd1 933d 3e2b eabd ab2e 66be
000001c0: 48c1 dd3e 9457 00be a923 033e 698d 483e
000001d0: 1a47 513d aa96 9f3d af58 3e3e e24e 95be
000001e0: 0f17 eb3d 8b8d 00be 3c29 233d 99a4 dcbe
000001f0: 7b57 99be d03d d63d 38a7 08be aced ab3d
00000200: 5a01 a9bd 99a2 b2bd 3604 90be fb61 b2be
00000210: 8172 8b3e e463 243e c1b1 36bd 4071 e2be
00000220: cb74 543e 5f6e 97bd 4ce9 9fbe 40f7 a0bd
00000230: f12d 4dbe 1341 90be 16bf 003e aae9 28be
00000240: a3d3 063e b77f 87be de38 c53d 0eba 16be
00000250: 9a50 503e 8637 a03d af97 0cbd 057d f1be
00000260: f248 c0bb 035a 633c 6e9f 843d 8294 d13c
00000270: 4fe9 84be cd17 4e3d cb91 02be 67b0 c13e
00000280: 14ad 98bd 01ce 9abe 7739 69be 6e61 5e3e
00000290: 847d 8e3e 7c92 ab3e 8122 2b3e 2514 423c
000002a0: 79af b33e b2de 533e 11cc 8b3e 586d 7dbc
000002b0: 33e2 50bc 3dd2 1d3e 7305 9e3e f3f1 263d
000002c0: 8257 b03d c942 a9be c0f5 9abb 24b0 983e
000002d0: 69b1 47bd 1092 15be 10b4 67be e43d 673e
000002e0: 0524 e93c 9de5 c3be 5c26 e33d 56be 1ebe
000002f0: c738 2bbe a3ea 00be ea81 493e d99b 823e
00000300: 2495 c83d f46b 663e b616 babe ab28 2b3d
00000310: 3c33 efbd e50a 443e 1ef0 9b3c 1790 393e
00000320: 3e9f db3d a738 683e e90b bf3e f615 9e3d
00000330: 0307 22be a680 a63d 22eb af3d b737 cb3e
00000340: 6c66 d73d 0f35 9fbe a4e6 b9bd 5076 ff3d
00000350: 2879 f63d 23da a53e b671 d3bd db5c 26be
00000360: 5cc7 1ebe 1a94 8abe 1df3 91be 2b1e 68be
00000370: 118a bbbe 4f54 213e 266e 953e d205 babe
00000380: 4b34 eebd 9962 1b3d d2f6 8e3e 9b3d 4b3e
00000390: dd6a 17bd cbd5 84be 205e 60be db8d 8bbe
000003a0: 6227 613b eddf a13e ba48 89be daff 7e3e
000003b0: d8f2 34bd cfea 3c3c 1585 07bd c479 523d
000003c0: 4dac bfbe 4606 98be da47 d1bc 0063 333d
000003d0: ed85 62be 139a 8abe 9372 f5bd df9c 39be
000003e0: 16f1 ffbd c24a bebb 44bf 9d3d 9e58 9c3e
000003f0: 50d2 51be cb12 8f3d 6425 c3bb 0bb2 06be

fc2.weight f4 [128, 256]
-0.02269136 -0.092813425 0.21770349 0.018567197 -0.0025555904 0.05192774 -0.20005667 -0.050991636
0.0019103521 -0.09018791 -0.047767136 0.056764815 0.44757468 0.057135854 0.043687508 0.63198215
0.08512654 0.018510235 -0.18160953 -0.06451762 0.04227942 -0.00087412447 -0.003210799 -0.054283053
-0.07110446 -0.13262933 0.07256745 0.025228526 -0.087615274 -0.07912631 -0.19076297 0.4517352
0.23141469 0.18517284 -0.08546268 0.14767402 0.11732567 0.14064558 -0.046992667 0.005212706
0.060462616 0.074097626 -0.03931136 -0.04579469 0.4886059 -0.014465183 0.010328461 -0.3029293
0.294924 0.078685895 0.06402984 0.77942157 -0.006730033 0.082756154 0.0059148297 -0.18251273
0.071910635 -0.104491636 -0.027001563 0.041206308 -0.08903097 0.048637267 0.17361727 0.13029812
0.78091747 0.13741677 0.45792344 -0.06940143 0.20148769 0.0012236602 -0.067757785 0.07786473
-0.059442267 0.052142177 0.21371175 0.060775742 -0.051105823 0.01042294 0.3495383 0.13525984
0.18668193 0.4327468 0.009044058 -0.10630381 0.015628153 0.12005118 0.21882074 0.060779586
-0.18646629 -0.19499452 0.07139135 -0.095794775 0.45735055 -0.104405165 -0.066171415 -0.20586745
0.005884153 0.29474068 -0.01433374 0.18680613 -0.052974757 0.013748873 -0.055112306 0.22413708
-0.030233765 0.04064759 -0.06914161 0.027805362 -0.09496897 -0.08233413 -0.011134446 -0.018672409
0.1153395 0.7486147 0.016572183 0.06314573 0.07267464 -0.0054549873 0.20625466 -0.06312865
-0.026552435 -0.06771618 0.026956577 0.48123986 0.19725199 -0.11340896 -0.071076706 0.020923233
0.10290858 -0.03330657 -0.69428974 -0.13794674 -0.023684597 0.01156914 0.35308757 -0.10566055
-0.02099488 0.09410544 -0.07664769 -0.16680309 0.044395044 -0.2578246 0.13650759 0.28794992
0.18450823 0.08133994 0.033925273 0.13757378 0.04134546 0.0041113086 0.38080367 -0.07184353
-0.009011151 -0.0860084 -0.12221458 0.0017146132 0.07906773 0.3960669 0.5391611 -0.12763925
0.22722428 -0.27134308 -0.17413501 -0.45175198 -0.046577007 -0.022124588 0.28227264 0.016621213
0.06678095 0.065840095 -0.037654843 -0.12407295 -0.101255596 -0.1876832 -0.054918442 -0.23305286
-0.59862256 0.13539667 -0.11282 0.07914956 -0.030264841 0.3462699 -0.10748224 -0.04308022
0.13575028 0.15319894 0.12608095 -0.031314205 -0.044573568 -0.058121767 -0.042041235 -0.0064856587
-0.24790604 0.10677618 0.18105528 -0.10939465 -0.015114701 -0.18519434 0.035935737 0.046645485
-0.06765135 -0.026482886 -0.037741523 -0.079387106 0.22738367 -0.15160875 0.28270563 -0.01147093
-0.08049498 0.013904294 -0.018249199 0.07514468 -0.18835418 -0.03017978 -0.21907423 -0.38587692
0.21156235 -0.059102394 -0.23419322 -0.010426269 0.002227679 -0.087107085 -0.049924918 0.0070531964
0.12681508 0.19178644 0.072965115 -0.06206358 -0.027412746 0.101686895 -0.14677142 0.52409434
0.0050571407 0.089410044 0.17450054 -0.0018884435 0.13328438 -0.008205181 -0.14703035 -0.10710347
0.16057773 -0.19284478 0.27031207 0.04438465 -0.13116673 0.060381733 -0.19741832 0.30367154
-0.08589614 -0.03801734 0.037562184 -0.08943893 0.14791512 -0.041716304 -0.02188439 0.004646745
00000000: 3be3 b9bc f714 bebd aaed 5e3e 3c1a 983c
00000010: b17b 27bb 2fb2 543d a8db 4cbe 9bdc 50bd
00000020: c864 fa3a 70b4 b8bd 79a7 43bd 3982 683d
00000030: 8228 e53e 4907 6a3d acf1 323d 95c9 213f
00000040: d356 ae3d c7a2 973c d9f7 39be d021 84bd
00000050: 2f2d 2d3d 8025 65ba 456c 52bb e857 5ebd
00000060: 379f 91bd fccf 07be 3e9e 943d 0eac ce3c
00000070: a36f b3bd fa0c a2bd 5e57 43be d649 e73e
00000080: f9f7 6c3e f39d 3d3e 0f07 afbd dc37 173e
00000090: 7148 f03d 6505 103e 627b 40bd 59cf aa3b
000000a0: a6a7 773d 7fc0 973d f304 21bd 3693 3bbd
000000b0: 8d2a fa3e 60ff 6cbc b538 293c 8d19 9bbe
000000c0: 4700 973e 1226 a13d 1422 833d 2c88 473f
000000d0: 9c87 dcbb 0f7c a93d 30d1 c13b 9ee4 3abe
000000e0: e245 933d b6ff d5bd 6232 ddbc f2c7 283d
000000f0: df55 b6bd df37 473d bac8 313e df6c 053e
00000100: 35ea 473f fbb6 0c3e f174 ea3e 5622 8ebd
00000110: ca52 4e3e 3963 a03a 98c4 8abd 8b77 9f3d
00000120: bc79 73bd 0993 553d 41d7 5a3e fcef 783d
00000130: 5754 51bd fbc4 2a3c aff6 b23e 8e81 0a3e
00000140: 8c29 3f3e fd90 dd3e 872d 143c d0b5 d9bd
00000150: 9d06 803c 65dd f53d 8b12 603e 04f4 783d
00000160: 05f1 3ebe a5ac 47be a135 923d 0d30 c4bd
00000170: da29 ea3e 60d2 d5bd e184 87bd ebce 52be
00000180: dacf c03b 40e8 963e 10d8 6abc 1b4a 3f3e
00000190: 0ffc 58bd f442 613c 71bd 61bd 3184 653e
000001a0: cdac f7bc 167e 263d 1e9a 8dbd 12c8 e33c
000001b0: 177f c2bd cc9e a8bd 406d 36bc e1f6 98bc
000001c0: 1e37 ec3d 37a5 3f3f 63c2 873c 8c52 813d
000001d0: 71d6 943d c0bf b2bb 6c34 533e 9849 81bd
000001e0: 7e84 d9bc c8ae 8abd 0ad4 dc3c 1265 f63e
000001f0: 6dfc 493e f542 e8bd aa90 91bd 3367 ab3c
00000200: bcc1 d23d 786c 08bd f9bc 31bf e941 0dbe
00000210: 3306 c2bc 7d8c 3d3c e5c7 b43e 8f64 d8bd
00000220: 74fd abbc 5aba c03d 77f9 9cbd 6ece 2abe
00000230: 94d7 353d 9601 84be a5c8 0b3e 2c6e 933e
00000240: baef 3c3e 8e95 a63d 3af5 0a3d 24e0 0c3e
00000250: db59 293d 28b8 863b b3f8 c23e b322 93bd
00000260: 82a3 13bc 2c25 b0bd a34b fabd dfbc e03a
00000270: 43ee a13d 48c9 ca3e 7606 0a3f ddb3 02be
00000280: 7bad 683e 7bed 8abe 7350 32be 094c e7be
00000290: 88c7 3ebd a03e b5bc 0a86 903e 3629 883c
000002a0: 73c4 883d 2cd7 863d f73b 1abd f519 febd
000002b0: 185f cfbd 0630 40be 29f2 60bd 69a5 6ebe
000002c0: 543f 19bf 6da5 0a3e 2c0e e7bd 2a19 a23d
000002d0: f9ed f7bc 4a4a b13e a61f dcbd e374 30bd
000002e0: 1f02 0b3e 2fe0 1c3e 5d1b 013e 5343 00bd
000002f0: c692 36bd 1711 6ebd 6e33 2cbd a685 d4bb
00000300: 15db 7dbe 78ad da3d 8e66 393e 4d0a e0bd
00000310: a7a3 77bc 96a3 3dbe 5a31 133d 560f 3f3d
00000320: ca8c 8abd a3f2 d8bc db96 1abd b595 a2bd
00000330: 44d7 683e 533f 1bbe cbbe 903e 91f0 3bbc
00000340: 8dda a4bd d6ce 633c 587f 95bc 74e5 993d
00000350: ebdf 40be 963b f7bc ff54 60be a991 c5be
00000360: cda3 583e 5a15 72bd 59d0 6fbe f1d2 2abc
00000370: 40fe 113b 3365 b2bd 127e 4cbd 801e e73b
00000380: d0db 013e aa63 443e bc6e 953d 6136 7ebd
00000390: b290 e0bc 3841 d03d 3f4b 16be 0c2b 063f
000003a0: 5fb6 a53b 9d1c b73d 45b0 323e a685 f7ba
000003b0: b37b 083e 066f 06bc 208f 16be 1059 dbbd
000003c0: 7d6e 243e 1a79 45be 5866 8a3e aecc 353d
000003d0: 9250 06be d652 773d 0728 4abe d67a 9b3e
000003e0: 51ea afbd 12b8 1bbd ceda 193d c22b b7bd
000003f0: 1077 173e b7de 2abd e446 b3bc b943 983b

fc2.bias f4 [128]
0.00846845 0.03789183 0.013905878 -0.040965475 -0.08009784 -0.019070555 0.041931633 -0.0889809
0.06997527 -0.076797485 -0.15962698 0.0437356 0.019874837 -0.0013205509 -0.046779633 -0.060356323
0.003709963 -0.050596062 0.043319184 0.09151436 0.0005211241 -0.023301424 -0.049211863 -0.007865615
-0.025462905 0.10423346 0.024133185 0.044109143 0.026331179 0.047802277 0.119058065 0.05434537
-0.06618392 0.00058632233 -0.062237117 -0.033633195 -0.017685527 -0.05208766 -0.10556076 -0.0154447565
0.080698706 -0.04599931 0.032972727 -0.11295108 0.0370301 0.0015794858 0.09501987 0.058105156
0.025270779 0.015590162 -0.049054936 -0.005901478 0.03588803 -0.04334011 -0.017943691 0.029604452
-0.04562629 -0.055642135 -0.10387008 0.115199775 -0.009350071 -0.06307382 0.024634678 -0.11524697
0.06484963 -0.14986873 -0.0007440138 -0.0077336826 0.0361998 -0.052635364 -0.017067425 -0.038359854
-0.08891077 -0.01913832 0.029027412 -0.003828085 -0.033989936 0.10979408 -0.021280197 0.0009682453
-0.008679502 -0.019421138 -0.099269636 -0.05823149 -0.15494953 -0.10090372 -0.021804003 0.12233992
0.07745915 -0.029947674 -0.07221126 0.006797627 -0.028224971 0.019688122 -0.060387284 0.035890274
0.052351195 0.018641902 0.0035714938 0.0008129118 -0.06277619 0.12770621 -0.08833791 -0.10284682
-0.03379733 0.057684097 -0.027795862 -0.048565842 0.05471213 0.08383672 -0.0020626886 0.056502536
-0.0560159 -0.019129556 -0.032123625 -0.054920495 -0.08525131 0.08213575 -0.07406612 -0.05582704
0.048276324 -0.060538724 0.07470366 0.079831704 0.060635377 -0.0061241514 0.10281108 0.0009031411
00000000: 41bf 0a3c 7734 1b3d 7bd5 633c 6acb 27bd
00000010: 560a a4bd da39 9cbc 81c0 2b3d 9e3b b6bd
00000020: 324f 8f3d 0048 9dbd 4175 23be 1a24 333d
00000030: 8ed0 a23c 5616 adba 009c 3fbd 3138 77bd
00000040: da22 733b d13d 4fbd 756f 313d e16b bb3d
00000050: 0c9c 083a a1e2 bebc 6192 49bd c8de 00bc
00000060: 9597 d0bc 5a78 d53d f5b2 c53c caab 343d
00000070: 7cb4 d73c 52cc 433d b7d4 f33d 4099 5e3d
00000080: 6f8b 87bd 6db3 193a 59ec 7ebd f6c2 09bd
00000090: 3de1 90bc df59 55bd 3d30 d8bd 010c 7dbc
000000a0: 5d45 a53d c669 3cbd 690e 073d e552 e7bd
000000b0: e0ac 173d c006 cf3a c799 c23d acff 6d3d
000000c0: aa04 cf3c e16d 7f3c d4ed 48bd 3061 c1bb
000000d0: 54ff 123d 6685 31bd a6fe 92bc 0985 f23c
000000e0: a2e2 3abd 02e9 63bd d6b9 d4bd dced eb3d
000000f0: 0a31 19bc d92c 81bd aace c93c 9a06 ecbd
00000100: e2cf 843d 3077 19be ec09 43ba d56a fdbb
00000110: 3e46 143d 2e98 57bd fcd0 8bbc 391f 1dbd
00000120: da16 b6bd f7c7 9cbc e5ca ed3c 9ce0 7abb
00000130: 0839 0bbd b8db e03d cf53 aebc d8d1 7d3a
00000140: 7834 0ebc 1419 9fbc e14d cbbd 2584 6ebd
00000150: 17ab 1ebe 9ca6 cebd 4f9e b2bc 5a8d fa3d
00000160: e7a2 9e3d d354 f5bc 7fe3 93bd a1be de3b
00000170: 0e38 e7bc fc48 a13c a858 77bd ae01 133d
00000180: 356e 563d e7b6 983c b90f 6a3b 9619 553a
00000190: ce90 80bd 6bc5 023e 82ea b4bd 5ba1 d2bd
000001a0: 126f 0abd 2946 6c3d 26b4 e3bc faec 46bd
000001b0: d419 603d 96b2 ab3d 2c2e 07bb 346f 673d
000001c0: ee70 65bd 96b5 9cbc 1094 03bd 50f4 60bd
000001d0: 3d98 aebd ca36 a83d faaf 97bd e5aa 64bd
000001e0: 65bd 453d 74f7 77bd 3cfe 983d ce7e a33d
000001f0: cd5c 783d 1bad c8bb 9e8e d23d c6c0 6c3a

fc_value.weight f4 [256, 128]
0.12451522 -0.06008558 0.24834965 -0.026572155 0.035784706 -0.13641156 -0.019316385 -0.0257363
-0.09017098 0.08420694 -0.046251457 0.044682425 0.03677114 -0.083297014 0.017007465 0.17029129
-0.035717815 -0.04129235 -0.10768705 0.027598102 -0.09137716 0.82288885 -0.05856016 -0.0039048106
-0.0058839107 0.024904102 0.04475633 -0.032703288 -0.0048870747 -0.035260238 0.10061926 0.001774593
0.025479447 -0.029352067 -0.00873568 0.04131136 -0.05566137 0.017220555 -0.039463196 -0.03943363
0.021413544 0.12407645 -0.078912124 0.034555875 -0.05706908 -0.03527966 -0.0635297 -0.06524765
0.0891366 0.0068127615 -0.06849254 0.0013493518 -0.122811936 0.0332974 0.0055483407 0.0008010287
0.03918853 -0.035562288 0.25203937 0.14221485 0.06481767 -0.046019096 -0.019106172 0.015009818
-0.10441625 0.061362702 -0.0055911704 -0.029953597 0.20850196 0.06729336 -0.080361605 0.07571706
0.06854236 0.07024616 -0.08675786 -0.097160704 0.076932274 -0.11504138 -0.052190937 0.08869694
0.15873308 0.015812337 0.07509827 0.07017211 0.05117023 0.024493482 0.109240286 0.039310694
0.057180997 0.047032382 -0.13989158 -0.12174969 -0.047092915 0.052587815 0.03709891 0.050726
-0.22090012 0.029242937 0.17872904 0.0407344 0.51405036 0.08382322 0.18639372 0.013446807
0.1699065 -0.045362473 0.5505058 -0.17367446 -0.00017077266 0.015278948 -0.015511347 -0.0883928
-0.014847913 -0.048576437 -0.03243436 0.083376884 -0.044549145 0.06691314 -0.023882743 0.02231396
0.082214 -0.008935985 -0.15506265 -0.13801707 0.0136360945 -0.057393346 -0.024300847 0.0685976
-0.09836459 0.028098203 -0.021370726 0.03748132 -0.019496668 -0.041345716 0.048932597 0.06131844
-0.03783424 -0.08693788 -0.030678922 -0.017626455 0.02391953 0.03931088 0.074820064 0.064442866
-0.08113516 0.08366223 0.06976216 0.050315138 0.054247577 0.049066033 0.037079923 0.03731352
-0.038082574 -0.038397934 -0.026992531 0.013909029 0.05114931 -0.06599843 -0.07596103 0.06681896
-0.04620407 -0.018527843 -0.097487606 0.08131336 0.013115678 -0.07465738 0.08042211 -0.011483994
-0.06547459 -0.015175352 -0.022837343 -0.060695548 -0.04063401 0.061622504 -0.021013046 0.058429606
0.024740845 0.026154649 -0.030658923 -0.04097826 0.018019779 -0.0032394384 0.02155059 0.01251637
0.027766597 -0.08638067 -0.08723087 0.0053095566 0.057750896 -0.09582615 0.006438331 0.06803729
-0.09307619 -0.075876035 -0.061779913 0.05354582 -0.03952588 -0.06467575 -0.05011277 -0.03095786
0.06771872 -0.02088173 -0.0006490997 -0.0015498872 -0.07552747 0.06355068 0.047248755 0.017450798
-0.054603286 -0.07859482 -0.040119026 -0.059634123 -0.07169224 -0.07419927 0.01455573 -0.09182853
0.022632034 -0.085250884 -0.035094235 0.009750172 -0.07745421 -0.08610222 -0.061058886 -0.029361518
0.023504222 0.044871967 0.001075398 -0.097659424 -0.051859863 -0.08790795 -0.041756168 -0.003716509
-0.07965702 -0.08248765 -0.015804805 -0.034240235 -0.10045423 -0.004455956 -0.066254035 0.046716966
0.031414855 -0.04733929 0.017328603 0.0725895 0.057196222 0.033378996 0.030249055 -0.052937858
-0.0067550438 -0.07808542 -0.085720584 -0.0694087 -0.04672768 -0.04247081 -0.04085236 -0.016345887
00000000: d601 ff3d 4c1c 76bd 5f4f 7e3e d9ad d9bc
00000010: fc92 123d 79af 0bbe 653d 9ebc efd4 d2bc
00000020: 90ab b8bd b074 ac3d 2b72 3dbd eb04 373d
00000030: 569d 163d a097 aabd 3d53 8b3c d760 2e3e
00000040: d84c 12bd 2b22 29bd 078b dcbd 6a15 e23c
00000050: f323 bbbd d8a8 523f c7dc 6fbd dae7 7fbb
00000060: d2cd c0bb b003 cc3c 6a52 373d e2f3 05bd
00000070: c123 a0bb 0a6d 10bd 7811 ce3d 7699 e83a
00000080: 46ba d03c bf73 f0bc 1920 0fbc 1a36 293d
00000090: 2dfd 63bd 1f12 8d3c 29a4 21bd 2885 21bd
000000a0: 756b af3c cb1b fe3d ae9c a1bd 768a 0d3d
000000b0: 45c1 69bd 6881 10bd dc1b 82bd 8fa0 85bd
000000c0: 408d b63d 963d df3b d145 8cbd bcdc b03a
000000d0: d384 fbbd db62 083d dbce b53b 20fc 513a
000000e0: 2784 203d c3a9 11bd 4e0b 813e c5a0 113e
000000f0: 20bf 843d 857e 3cbd 8c84 9cbc bdeb 753c
00000100: 30d8 d5bd 7557 7b3d 2336 b7bb 3f61 f5bc
00000110: 8a81 553e 1ad1 893d a094 a4bd 8c11 9b3d
00000120: f05f 8c3d 38dd 8f3d 1bae b1bd 31fc c6bd
00000130: ab8e 9d3d d19a ebbd 2ac6 55bd bea6 b53d
00000140: ed8a 223e e088 813c 1fcd 993d 65b6 8f3d
00000150: e097 513d 8ea6 c83c 5fb9 df3d 4004 213d
00000160: 9f36 6a3d 07a5 403d bd3f 0fbe e757 f9bd
00000170: 80e4 40bd 5266 573d 07f5 173d 11c6 4f3d
00000180: a433 62be e28e ef3c bf04 373e 1dd9 263d
00000190: ce98 033f 82ab ab3d ffdd 3e3e ff4f 5c3c
000001a0: f8fb 2d3e 00ce 39bd f3ed 0c3f b8d7 31be
000001b0: 7011 33b9 8d54 7a3c 4e23 7ebc 4907 b5bd
000001c0: a944 73bc 16f8 46bd e4d9 04bd 80c1 aa3d
000001d0: 2a79 36bd c209 893d bea5 c3bc c4cb b63c
000001e0: d05f a83d 3d68 12bc bec8 1ebe 5954 0dbe
000001f0: ed69 5f3c 4915 6bbd 9212 c7bc e67c 8c3d
00000200: 6073 c9bd 342e e63c a911 afbc 0386 193d
00000210: 7ab7 9fbc 205a 29bd 8c6d 483d 0b29 7b3d
00000220: 13f8 1abd 7d0c b2bd 5d52 fbbc 5b65 90bc
00000230: e4f2 c33c 7204 213d 433b 993d 9ffa 833d
00000240: 312a a6bd 1a57 ab3d 77df 8e3d 3f17 4e3d
00000250: b532 5e3d 77f9 483d 1ee1 173d 10d6 183d
00000260: 79fc 1bbd 2747 1dbd 711f ddbc b2e2 633c
00000270: f081 513d 2f2a 87bd 7591 9bbd 61d8 883d
00000280: 7b40 3dbd b4c7 97bc 95a7 c7bd 9e87 a63d
00000290: 24e3 563c f8e5 98bd 59b4 a43d 5d27 3cbc
000002a0: 8b17 86bd 0aa2 78bc 6115 bbbc e59b 78bd
000002b0: d96f 26bd e167 7c3d 8d23 acbc e253 6f3d
000002c0: 50ad ca3c 4642 d63c 6c28 fbbc d2d8 27bd
000002d0: 379e 933c c24c 54bb dd8a b03c 7611 4d3c
000002e0: c676 e33c 59e8 b0bd 19a6 b2bd cafb ad3b
000002f0: 348c 6c3d 8040 c4bd a3f8 d23b 2257 8b3d
00000300: bb9e bebd e564 9bbd ef0c 7dbd dd52 5b3d
00000310: e4e5 21bd b874 84bd 0c43 4dbd 579b fdbc
00000320: 1db0 8a3d 2910 abbc 5828 2aba 9625 cbba
00000330: 25ae 9abd dc26 823d e987 413d faf4 8e3c
00000340: b2a7 5fbd 52f6 a0bd d953 24bd e942 74bd
00000350: 62d3 92bd c9f5 97bd 287b 6e3c 9910 bcbd
00000360: d166 b93c 0498 aebd f9be 0fbd 2fbf 1f3c
00000370: 50a0 9ebd 5c56 b0bd e218 7abd 9187 f0bc
00000380: ed8b c03c abcb 373d 5ef4 8c3a aa01 c8bd
00000390: 026b 54bd 1509 b4bd 8408 2bbd ad90 73bb
000003a0: 3823 a3bd 49ef a8bd 1479 81bc 7d3f 0cbd
000003b0: f3ba cdbd 4503 92bb 32b0 87bd 4a5a 3f3d
000003c0: ddac 003d d8e6 41bd b7f4 8d3c cea9 943d
000003d0: 9646 6a3d 6ab8 083d decc f73c 5ed5 58bd
000003e0: 6a59 ddbb 40eb 9fbd 468e afbd 2626 8ebd
000003f0: 8665 3fbd dff5 2dbd ce54 27bd cfe7 85bc

fc_value.bias f4 [256]
-0.043320682 -0.011736721 0.25135952 0.27057064 0.0013734315 -0.026702674 0.088382885 -0.03732621
0.19395126 0.26591477 0.24899592 0.23368569 0.0893202 0.19361836 0.14957875 0.07268821
0.10025677 0.10387401 0.05631854 0.0036220816 0.035840657 0.249906 0.3478469 0.26444846
0.13144523 0.043043282 -0.0830905 -0.027579151 0.08660743 -0.04872197 -0.05133388 0.2483307
0.08560102 -0.11298178 -0.13140334 -0.07065472 -0.09008649 0.06977083 -0.059175506 0.046316
-0.0033179442 0.22264548 -0.006801345 0.06321514 0.24901062 -0.012565944 -0.123919405 -0.0032293077
0.06855835 0.016225759 -0.13204381 0.10003274 -0.13639162 0.1531748 0.07137909 -0.010860809
0.1386916 0.066943556 -0.051159114 0.14310832 -0.07051808 -0.22143522 0.062469713 0.11754299
0.17585123 -0.019416252 0.119400464 0.02626924 0.23100492 0.124691434 0.09579077 0.23089182
0.15780157 0.17875107 0.18653417 -0.06187556 0.102607526 0.23180994 -0.08896299 -0.08521543
-0.0016625397 0.15265247 -0.06093894 0.0006806763 0.0028958723 0.26882148 -0.024874436 -0.089728266
0.17645204 0.081972644 0.030119214 0.14627177 0.14069828 0.07581436 0.21081345 0.17594744
-0.13649207 0.06783547 0.116081916 -0.06774853 -0.014853877 -0.08768763 0.21068275 0.03284759
0.14999428 0.010237824 -0.064871125 0.23083964 0.14368075 0.0034679861 0.10397889 0.2969023
0.17503652 -0.017777247 0.13287506 0.15484154 0.14519772 0.29109353 0.06721664 0.07776631
0.050143275 0.22660474 -0.109087855 0.3388687 -0.10972464 0.22177383 0.2567704 0.1655022
0.06866843 0.07237857 0.035753727 0.08934356 0.15468447 0.19171871 -0.053185802 0.12906018
0.06892076 0.13608438 -0.09876707 -0.024655411 -0.036501344 0.27997953 -0.09850352 0.016114024
-0.10548847 -0.026354497 0.02132935 0.04195086 0.2635145 0.034988325 -0.0035709462 -0.11271962
0.19477797 0.05546656 0.07671774 -0.08990804 0.07693829 0.12218117 -0.026679283 0.107492365
0.1890295 -0.10176692 0.30642205 -0.027127298 -0.00019502072 0.17370456 0.016479645 0.038887877
0.018604778 -0.009802367 0.17962353 0.05825132 0.008418766 -0.11035522 -0.051015005 0.17164694
0.16804086 0.1588572 -0.0050629834 0.12865731 0.28703633 -0.10857559 -0.012907628 0.08431218
0.16290106 0.17142561 0.25699615 0.08917462 0.018203838 0.08544641 0.22041617 0.06596578
0.051822126 0.13892446 -0.015228513 0.22621515 0.16241367 -0.05766376 -0.08230232 -0.049602456
0.023610199 0.03607804 0.025926787 0.10663327 -0.12098311 -0.061727464 0.13068615 0.052948397
0.21770619 0.023433344 -0.040182322 0.04291928 0.038238995 0.0571168 0.05518305 -0.11238649
0.2224346 0.108225554 0.19522882 0.28062746 0.3507262 0.070441864 0.26112708 0.068023846
0.10746563 0.16270228 0.0965079 0.12521772 -0.0035896606 -0.06389153 -0.0003001283 0.13933508
0.041291323 0.07148926 0.02913103 0.24605544 0.11288985 0.094469935 0.068229 0.010601906
0.16074497 0.16759586 -0.050723 -0.1113174 -0.11170362 0.23599793 0.024354024 0.024606291
0.20183362 -0.051333785 0.039233524 -0.05615317 0.22419293 0.17579496 0.24449168 -0.052651063
00000000: 0771 31bd 604b 40bc 32b2 803e 3c88 8a3e
00000010: b704 b43a 91bf dabc 1602 b53d 5ee3 18bd
00000020: 299b 463e fb25 883e c9f8 7e3e 4d4b 6f3e
00000030: 82ed b63d e443 463e 2c2b 193e 8edd 943d
00000040: 6c53 cd3d e6bb d43d 45ae 663d 7260 6d3b
00000050: a7cd 123d 5ce7 7f3e fd18 b23e ca65 873e
00000060: 9499 063e 274e 303d 5a2b aabd aced e1bc
00000070: 3c5f b13d b090 47bd 7943 52bd 674a 7e3e
00000080: 964f af3d fe62 e7bd 998e 06be 6cb3 90bd
00000090: 447f b8bd 02e4 8e3d 0462 72bd d9b5 3d3d
000000a0: de71 59bb 2dfd 633e d1dd debb f076 813d
000000b0: a4fc 7e3e 64e1 4dbc 75c9 fdbd cba2 53bb
000000c0: 5268 8c3d e2eb 843c 7e36 07be f7dd cc3d
000000d0: 3faa 0bbe dbd9 1c3e 332f 923d 89f1 31bc
000000e0: 2c05 0e3e b419 893d 388c 51bd fd8a 123e
000000f0: c86b 90bd eabf 62be 3ee0 7f3d 61ba f03d
00000100: 5812 343e d50e 9fbc 3b88 f43d 9732 d73c
00000110: 8e8c 6c3e 395e ff3d f42d c43d e86e 6c3e
00000120: bc96 213e 850a 373e d002 3f3e 3a71 7dbd
00000130: e523 d23d 965f 6d3e 3a32 b6bd 6d85 aebd
00000140: 93e9 d9ba ee50 1c3e 1c9b 79bd 6a6f 323a
00000150: adc8 3d3b f8a2 893e 79c5 cbbc 74c3 b7bd
00000160: d8af 343e 46e1 a73d 92bc f63c 44c8 153e
00000170: 3613 103e 8f44 9b3d 7bdf 573e 912b 343e
00000180: 94c4 0bbe 53ed 8a3d 5bbc ed3d bebf 8abd
00000190: ad5d 73bc 9295 b3bd 38bd 573e 328b 063d
000001a0: 1a98 193e 8cbc 273c 27db 84bd 3a61 6c3e
000001b0: 0c21 133e 2747 633b e2f2 d43d 9403 983e
000001c0: c63c 333e 97a1 91bc 6610 083e c88e 1e3e
000001d0: b6ae 143e 360a 953e e1a8 893d f143 9f3d
000001e0: 0963 4d3d 130b 683e 7469 dfbd 3380 ad3e
000001f0: 50b7 e0bd ae18 633e 6977 833e 6979 293e
00000200: 09a2 8c3d 373b 943d 8072 123d c2f9 b63d
00000210: 9b65 1e3e e951 443e 5bd9 59bd 5a28 043e
00000220: 5426 8d3d b459 0b3e 6446 cabd 25fa c9bc
00000230: 6f82 15bd 7a59 8f3e 37bc c9bd 8f01 843c
00000240: 570a d8bd 63e5 d7bc e4ba ae3c aad4 2b3d
00000250: 5feb 863e eb4f 0f3d 8906 6abb 8bd9 e6bd
00000260: e073 473e e730 633d 311e 9d3d b521 b8bd
00000270: d291 9d3d 1f3a fa3d 838e dabc f524 dc3d
00000280: f390 413e 2d6b d0bd 5ae3 9c3e 113a debc
00000290: 7a7e 4cb9 9cdf 313e 5200 873c e548 1f3d
000002a0: 0c69 983c 1b9a 20bc 3bef 373e f098 6e3d
000002b0: ddee 093c eb01 e2bd 1cf5 50bd 37c4 2f3e
000002c0: e712 2c3e 76ab 223e 62e7 a5bb bebe 033e
000002d0: 6df6 923e e15c debd 847a 53bc ddab ac3d
000002e0: 89cf 263e 328a 2f3e 0095 833e 2fa1 b63d
000002f0: 3720 953c 87fe ae3d c7b4 613e 1119 873d
00000300: 7043 543d 3742 0e3e 0381 79bc f2a4 673e
00000310: c54f 263e d630 6cbd 1e8e a8bd f22b 4bbd
00000320: 2d6a c13c 91c6 133d 6a64 d43c 8b62 da3d
00000330: fec5 f7bd f0d5 7cbd 97d2 053e 6be0 583d
00000340: 5fee 5e3e 49f7 bf3c 3896 24bd 20cc 2f3d
00000350: 7ea0 1c3d 4ef3 693d 9f07 623d e32a e6bd
00000360: e5c5 633e 5ca5 dd3d 10ea 473e 67ae 8f3e
00000370: 6292 b33e d343 903d 73b2 853e 1650 8b3d
00000380: f116 dc3d 6d9b 263e efa5 c53d 1339 003e
00000390: 8340 6bbb 90d9 82bd 8a5a 9db9 dbad 0e3e
000003a0: 1721 293d f668 923d 33a4 ee3c f5f5 7b3e
000003b0: cb32 e73d 7479 c13d a5bb 8b3d 9eb3 2d3c
000003c0: 549a 243e 409e 2b3e ecc2 4fbd 61fa e3bd
000003d0: dec4 e4bd 71a9 713e 1782 c73c 2293 c93c
000003e0: 79ad 4e3e 6043 52bd 55b3 203d de00 66bd
000003f0: d592 653e 9803 343e 075c 7a3e a4a8 57bd

value.weight f4 [1, 256]
-0.13106847 -0.00084857753 0.5281779 0.72223735 0.06844684 -0.31434658 -0.4321468 0.26776192
0.40166187 0.35075182 0.43549868 0.6275585 -0.44945422 -0.5028379 -0.38039747 -0.35124072
0.23872073 -0.6593217 -0.026806567 -0.8092339 0.06747016 0.30546245 0.67248714 0.46364442
-0.41796884 0.22915567 -0.0003568423 0.07050247 -0.6338351 0.0069384747 -0.04130752 0.55285347
-0.42044488 -0.09666316 0.11957961 -0.02582227 -0.006906411 -0.18531497 -0.022000782 -0.42452934
-0.42688692 0.40957767 0.081255294 -0.41660193 0.27204832 -0.90586406 0.035345178 -0.0026857345
-0.34155604 0.062324274 0.14699395 0.45587638 0.07964948 -0.3557861 -0.32987422 -0.0034745685
-0.40024114 -0.31013787 -0.04828823 -0.45470458 -0.0044410094 -0.3168923 -0.5987583 -0.39201277
-0.24987872 0.031284966 -0.35793433 -0.0006975408 0.4488117 -0.30294818 -0.3955356 0.31561595
0.4345891 0.33920792 0.38790128 -0.010946448 -0.7096395 -0.29668847 -0.00768408 0.0072709504
0.035783034 0.20337453 -0.0022445477 -0.35039735 -0.01570933 0.37706804 0.032474943 0.00162583
-0.31188336 0.17869934 0.05268138 -0.33968163 -0.40328544 -0.37138003 0.42650148 -0.4736736
0.24476255 0.40972933 -0.44884583 -0.044649053 -0.44195044 0.03697219 0.44724354 0.29046583
-0.36920404 0.05270197 0.038731672 0.26244032 -0.3860378 -0.41748834 -0.25496686 0.64593256
0.33468154 0.0031363212 -0.27792856 0.7488072 0.41710296 0.56779265 -0.32754722 -0.8547719
-0.74370646 0.46311173 0.03355862 0.7651127 0.06639446 0.43738958 0.49922836 -0.35548934
-0.3788626 -0.29242852 0.28181732 -0.43491742 -0.36584207 0.43594006 -0.47602385 -0.39964384
0.39449 -0.29253727 -0.037109114 0.014314329 0.030422753 0.4163344 -0.0065936567 -0.43462327
0.008425525 0.001088332 -0.026206814 -0.41192284 0.29568583 -0.7027482 -0.025638204 -0.0039048723
0.18263064 0.017182773 -0.38340348 -0.04204276 -0.4254754 -0.46009806 0.030153034 -0.44918403
0.71423525 -0.0069354153 0.45719957 0.1089444 -0.005159287 -0.28115186 -0.6651617 -0.4382834
0.046509035 0.011722598 -0.2589728 -0.42591795 0.0015475601 0.017587207 -0.28404698 -0.73989624
-0.3588925 -0.4033181 0.006550977 -0.38835666 0.46403095 0.0098000765 -0.49641967 -0.44013798
-0.4214621 0.4168249 0.7330586 -0.81161773 0.003034237 -0.26975185 0.4786895 -0.43442643
0.28854904 -0.37393934 0.004618309 0.58918107 -0.34792078 0.026279276 -0.010317848 -0.69490945
0.017051404 -0.039904084 0.07555368 0.22550683 0.0043409634 -0.0018495644 0.4551189 -0.2932321
-0.31570658 0.018356906 0.04314768 -0.39413726 -0.4320455 -0.394983 0.03237605 0.055314012
0.28544992 0.38389838 0.15706968 0.4860865 0.7786702 -0.43615404 0.45062834 0.27703434
0.41242954 -0.41849083 -0.75629616 -0.45338157 -0.31767598 0.06365421 0.08077969 0.39416903
-0.3808642 -0.8177524 -0.6735444 0.6538694 -0.41334474 -0.46876296 0.43425933 0.0007417128
-0.35441142 0.47724316 -0.0470739 0.011333833 0.0082809925 0.2581466 -0.15594816 -0.4131979
0.5009787 0.013482518 0.23340893 0.024254514 0.66912717 0.4294476 0.5251275 -0.03588399
00000000: d036 06be 1373 5eba ab36 073f 8ce4 383f
00000010: db2d 8c3d 09f2 a0be 5842 ddbe 1718 893e
00000020: a0a6 cd3e be95 b33e aff9 de3e ada7 203f
00000030: dd1e e6be fcb9 00bf 75c3 c2be d3d5 b3be
00000040: 3573 743e 4fc9 28bf 7299 dbbc f429 4fbf
00000050: cc2d 8a3d 9365 9c3e 1e28 2c3f cd62 ed3e
00000060: 0300 d6be c9a7 6a3e 9016 bbb9 9963 903d
00000070: 0443 22bf 255c e33b 1332 29bd ce87 0d3f
00000080: 8d44 d7be 56f7 c5bd 28e6 f43d 3a89 d3bc
00000090: 2d4f e2bb 35c3 3dbe fc3a b4bc e95b d9be
000000a0: ec90 dabe 2ab4 d13e 2d69 a63d d94c d5be
000000b0: eb49 8b3e b5e6 67bf 1bc6 103d 2603 30bb
000000c0: 6fe0 aebe bd47 7f3d 9585 163e a168 e93e
000000d0: 441f a33d 9829 b6be 46e5 a8be 96b5 63bb
000000e0: 68ec ccbe 64ca 9ebe e1c9 45bd 0acf e8be
000000f0: e385 91bb b53f a2be 3948 19bf e6b5 c8be
00000100: 35e0 7fbe aa24 003d 2b43 b7be 2cdb 36ba
00000110: a6ca e53e 061c 9bbe a483 cabe 6a98 a13e
00000120: 7682 de3e a9ac ad3e ff9a c63e bb58 33bc
00000130: efaa 35bf 8de7 97be bcca fbbb 2741 ee3b
00000140: 3b91 123d 6a41 503e 4319 13bb 4867 b3be
00000150: dab0 80bc 100f c13e 7204 053d cd19 d53a
00000160: 2daf 9fbe f6fc 363e 6ec8 573d c0ea adbe
00000170: 6e7b cebe 8625 bebe 675e da3e 5985 f2be
00000180: 09a3 7a3e 0bc8 d13e 1fcf e5be ede1 36bd
00000190: 5447 e2be 2770 173d 1bfd e43e f0b7 943e
000001a0: 5008 bdbe 05de 573d 1aa5 1e3d 945e 863e
000001b0: bfa6 c5be 08c1 d5be 048b 82be d65b 253f
000001c0: 615b ab3e bd8a 4d3b a74c 8ebe d4b1 3f3f
000001d0: 858e d53e dc5a 113f 45b4 a7be 55d2 5abf
000001e0: 8c63 3ebf fb1c ed3e c374 093d 6dde 433f
000001f0: d2f9 873d 87f1 df3e dc9a ff3e b302 b6be
00000200: 47fa c1be 31b9 95be 5c4a 903e 7fad debe
00000210: a74f bbbe 8933 df3e 66b9 f3be 1e9e ccbe
00000220: 98fa c93e 72c7 95be baff 17bd a686 6a3c
00000230: 2339 f93c c829 d53e 9a0f d8bb f186 debe
00000240: 370b 0a3c 5da6 8e3a acaf d6bc 8de7 d2be
00000250: 2264 973e 4ee7 33bf 3607 d2bc e3e8 7fbb
00000260: 8703 3b3e e3c2 8c3c 764d c4be 0735 2cbd
00000270: e9d7 d9be f991 ebbe 7f03 f73c 73fb e5be
00000280: 1fd8 363f 7b42 e3bb 1016 ea3e 3e1e df3d
00000290: 3c0f a9bb 23f3 8fbe 0a48 2abf af66 e0be
000002a0: 4280 3e3d 2410 403c 1598 84be eb11 dabe
000002b0: 80d7 ca3a 0c13 903c 9b6e 91be d769 3dbf
000002c0: c2c0 b7be b67f cebe 94a9 d63b afd6 c6be
000002d0: 7795 ed3e 8090 203c b82a febe c459 e1be
000002e0: e1c9 d7be 136a d53e baa9 3b3f 2ec6 4fbf
000002f0: 0dda 463b ea1c 8abe ca16 f53e 246d debe
00000300: b3bc 933e fa74 bfbe 2f55 973b 92d4 163f
00000310: ac22 b2be a347 d73c 310c 29bc 96e5 31bf
00000320: 63af 8b3c 7772 23bd e3bb 9a3d 43eb 663e
00000330: a43e 8e3b 156d f2ba 5805 e93e 8522 96be
00000340: 4ba4 a1be 3961 963c 9fbb 303d 5ccc c9be
00000350: 1135 ddbe 363b cabe c09c 043d f290 623d
00000360: 7e26 923e 548e c43e e0d6 203e 54e0 f83e
00000370: ee56 473f 954f dfbe c2b8 e63e 72d7 8d3e
00000380: f729 d33e 6e44 d6be a09c 41bf a121 e8be
00000390: 6da6 a2be 235d 823d d26f a53d 86d0 c93e
000003a0: a200 c3be 3958 51bf 686d 2cbf fc63 273f
000003b0: eca1 d3be b301 f0be 3d57 de3e 816f 423a
000003c0: 6a75 b5be 3759 f43e 90d0 40bd 8bb1 393c
000003d0: 00ad 073c cb2b 843e e0b0 1fbe ad8e d3be
000003e0: 2440 003f c7e5 5c3c c002 6f3e 67b1 c63c
000003f0: eb4b 2b3f 8ee0 db3e c16e 063f 17fb 12bd

fc_advantage.weight f4 [256, 128]
0.039964367 0.017397994 -0.08713131 0.054801397 -0.053513058 0.0882916 -0.010752799 -0.04780007
-0.038577344 -0.053233806 0.032153495 0.023703596 -0.07076031 -0.020789448 -0.08388504 -0.084124416
-0.066254735 0.087541796 -0.058079142 -0.062480472 -0.034555335 -0.0829504 -0.044644807 0.041369777
-0.05286321 -0.065762736 -0.040058173 0.0066006915 -0.04820948 0.0227279 0.027478121 0.025610005
-0.035235602 -0.07672259 0.0023121992 0.040368967 0.079744376 0.058607887 -0.041839983 -0.02171768
0.036690533 -0.011699519 -0.096754655 0.05970428 -0.08913025 0.08760916 -0.12247156 -0.023184512
0.06739493 -0.030229796 -0.013282358 -0.06587476 0.00020625688 -0.038635656 -0.022199132 -0.035100058
-0.057160765 0.074649125 0.037141226 -0.112853535 0.032010045 0.012587026 0.04932779 0.021945158
-0.073486686 -0.08392364 -0.006462313 0.029969664 -0.06417852 0.062782615 -0.012005646 -0.043642893
-0.065640695 -0.051047947 0.023634583 -0.05652319 -0.07576682 -0.017673524 0.02693074 0.0503251
0.03820393 0.05006582 0.0016356071 -0.043680675 0.06990949 0.055001754 -0.07358724 0.026147878
0.020267 -0.04467603 0.03373185 0.057571035 0.014700831 -0.04843225 -0.005920199 0.023463693
0.0241275 0.056809608 -0.09874834 -0.09447059 -0.029713528 0.03573354 0.007895164 -0.07965494
-0.10651142 0.029701715 -0.030930908 0.054737978 -0.065700635 -0.065746486 -0.01732757 0.017336937
-0.0012154549 -0.046342567 -0.002594897 -0.07780305 -0.030356 -0.07690071 -0.05770446 -0.007197263
0.054441683 0.040082905 -0.11007287 -0.09908817 -0.012458492 -0.07978477 -0.053637926 -0.09639556
0.075389385 0.013993793 -0.07305482 0.04458498 -0.0019213614 -0.45351145 -0.070108995 -0.07630225
-0.38539535 -0.3735821 -0.013885875 0.11206556 0.00756094 0.07667271 0.046124816 0.047841508
-0.2448786 0.027140252 0.10055885 0.10552622 0.016410531 -0.3252976 -0.0880197 0.039389107
-0.05052015 -0.38590273 0.058432017 -0.04136455 -0.0654056 -0.044004682 0.2500169 -0.06498994
-0.3254995 0.1729908 -0.0031191409 -0.05926899 0.08146759 0.15032856 -0.25410736 -0.34640115
0.06810631 0.17578179 -0.56974506 -0.29438564 0.021916712 -0.01610098 0.14374162 -0.025901768
0.12127948 0.02889143 -0.042715017 0.19650386 0.16403449 -0.020375142 -0.39728245 -0.0375496
0.044134445 -0.05874139 -0.06668662 0.2697611 0.024297552 -0.30212277 0.08163412 0.1622454
0.097396605 0.022176169 0.07280908 -0.36437765 -0.12427025 -0.028790308 0.054077335 -0.44271538
-0.28993058 0.23038489 0.11267131 0.09615924 -0.055244427 0.12017677 -0.071546905 -0.072575726
0.3043333 0.035314005 -0.19547628 -0.004428745 -0.30308327 -0.34745184 -0.070424244 0.06352606
-0.9687023 -0.004581845 -0.32345423 0.1592981 0.027925953 -0.0023435454 0.0071629183 -0.722424
0.4430581 0.05492754 0.16143063 0.00972288 -0.5779836 0.18801127 -0.24682981 -0.2084215
-0.106290475 -0.47971094 -0.29975334 -0.21471238 0.10460089 0.08757856 0.008530562 0.02215719
0.20547593 0.1595836 0.028350111 -0.010942829 -0.058325954 -0.03094735 -0.020357138 0.22583252
-0.07028463 0.036513664 0.126735 0.18666613 0.057096347 0.08295115 0.10313979 -0.32649475
00000000: adb1 233d 3d86 8e3c e671 b2bd 6e77 603d
00000010: 8230 5bbd 3ad2 b43d 822c 30bc 02ca 43bd
00000020: 4703 1ebd b10b 5abd 62b3 033d 0b2e c23c
00000030: c8ea 90bd a24e aabc ebcb abbd 6c49 acbd
00000040: 90b0 87bd 1d49 b33d 65e4 6dbd 86eb 7fbd
00000050: e589 0dbd e6e1 a9bd 79dd 36bd 5b73 293d
00000060: 1887 58bd 9dae 86bd 0a14 24bd 9d4a d83b
00000070: 4e77 45bd dc2f ba3c cc19 e13c 13cc d13c
00000080: 3553 10bd bc20 9dbd 4488 173b ee59 253d
00000090: 0551 a33d d30e 703d 6760 2bbd 47e9 b1bc
000000a0: d048 163d 57af 3fbc 4e27 c6bd 7a8c 743d
000000b0: ec89 b6bd 6e6c b33d 5fd2 fabd 72ed bdbc
000000c0: 5a06 8a3d 7aa4 f7bc 3f9e 59bc 59e9 86bd
000000d0: a946 5839 6c40 1ebd f4da b5bc 14c5 0fbd
000000e0: 6821 6abd a4e1 983d 6621 183d c11f e7bd
000000f0: f71c 033d d039 4e3c f00b 4a3d 55c6 b33c
00000100: 3080 96bd 28e0 abbd cfc1 d3bb f182 f53c
00000110: 0770 83bd 2c94 803d 54b3 44bc e4c2 32bd
00000120: a16e 86bd a717 51bd 509d c13c dc84 67bd
00000130: a22b 9bbd 11c8 90bc db9d dc3c b121 4e3d
00000140: b97b 1c3d d111 4d3d de61 d63a 82ea 32bd
00000150: b52c 8f3d 8549 613d e8b4 96bd 1334 d63c
00000160: fb06 a63c 36fe 36bd 692a 0a3d 9bcf 6b3d
00000170: c1db 703c e560 46bd 3bfe c1bb ee36 c03c
00000180: 09a7 c53c 31b1 683d 923c cabd cc79 c1bd
00000190: c969 f3bc 555d 123d b85a 013c 2122 a3bd
000001a0: a922 dabd 0351 f33c d162 fdbc ee34 603d
000001b0: 0e8e 86bd 18a6 86bd 8cf2 8dbc 3106 8e3c
000001c0: e64f 9fba b4d1 3dbd 260f 2abb 3557 9fbd
000001d0: 25ad f8bc 1f7e 9dbd 835b 6cbd 05d7 ebbb
000001e0: 3efe 5e3d f92d 243d e36d e1bd bdee cabd
000001f0: b41e 4cbc 3366 a3bd 71b3 5bbd 096b c5bd
00000200: c065 9a3d 3946 653c c49d 95bd bd9e 363d
00000210: 31d6 fbba a732 e8be 4e95 8fbd 5b44 9cbd
00000220: 8a52 c5be 2746 bfbe 9581 63bc a182 e53d
00000230: c3c1 f73b 9506 9d3d 60ed 3c3d 75f5 433d
00000240: 75c1 7abe 3c55 de3c ccf1 cd3d 211e d83d
00000250: 616f 863c 688d a6be ac43 b4bd 7956 213d
00000260: 38ee 4ebd 0b95 c5be 6956 6f3d e06d 29bd
00000270: 5ff3 85bd 413e 34bd 3702 803e 7219 85bd
00000280: dfa7 a6be 8024 313e 806a 4cbb 0ac4 72bd
00000290: 7bd8 a63d bbef 193e 5c1a 82be 7e5b b1be
000002a0: 527b 8b3d 2400 343e d0da 11bf b7b9 96be
000002b0: ad8a b33c 34e6 83bc 0131 133e f22f d4bc
000002c0: 6061 f83d b8ad ec3c f1f5 2ebd 4f38 493e
000002d0: a8f8 273e c5e9 a6bc 9b68 cbbe 9ccd 19bd
000002e0: 52c6 343d d09a 70bd ff92 88bd 201e 8a3e
000002f0: a90b c73c d6af 9abe ca2f a73d a823 263e
00000300: df77 c73d ccaa b53c ed1c 953d b58f babe
00000310: 6781 febd a7d9 ebbc 3280 5d3d 97ab e2be
00000320: c871 94be 04ea 6b3e 37c0 e63d 23ef c43d
00000330: fb47 62bd 3d1f f63d 2f87 92bd 95a2 94bd
00000340: 93d1 9b3e 6ba5 103d ef2a 48be 011f 91bb
00000350: bb2d 9bbe 35e5 b1be 963a 90bd f319 823d
00000360: e0fc 77bf 4d23 96bb cb9b a5be 0b1f 233e
00000370: f8c4 e43c 2b96 19bb eab6 ea3b c7f0 38bf
00000380: 83d8 e23e b3fb 603d 124e 253e b74c 1f3c
00000390: bcf6 13bf 0786 403e f4c0 7cbe 726c 55be
000003a0: d2ae d9bd ac9c f5be 4579 99be 90dd 5bbe
000003b0: fe38 d63d 635c b33d c5c3 0b3c ff82 b53c
000003c0: 4868 523e e269 233e 7e3e e83c 8d49 33bc
000003d0: 32e7 6ebd 4c85 fdbc 03c4 a6bc a440 673e
000003e0: 63f1 8fbd 5a8f 153d d2c6 013e 6825 3f3e
000003f0: dcdd 693d 4be2 a93d f43a d33d 522a a7be
