checkpoint.pth (torch, 115682 bytes, 18 tensors)

fc1.weight f4 [128, 4]
0	0xbe7e459c	-0.24831241
1	0xbe8d643c	-0.27615535
2	0xbec28f54	-0.37999976
3	0xbee9414c	-0.4555763
4	0xbe533364	-0.20625073
5	0xbe8a595a	-0.27021295
6	0x3e95e880	0.29278946
7	0x3ce70200	0.028199196
8	0xbbc06c80	-0.005872309
9	0x3e3dbcf0	0.18529105
10	0xbe843426	-0.25821036
11	0xbe5b69f4	-0.21427137
12	0xbf92db5b	-1.1473192
13	0xbf45e06f	-0.77295583
14	0x3f49c8b7	0.7882189
15	0xbf1bc1f1	-0.60842806
16	0x3ff703e0	1.9298058
17	0xbf925896	-1.1433284
18	0xbfd523e5	-1.6651579
19	0xbbbd8ed7	-0.00578485
20	0xbffbe9d6	-1.9680736
21	0xbe3be6c8	-0.18349755
22	0x3f863428	1.0484667
23	0xbeaee1a8	-0.34156537
24	0xc089495e	-4.290206
25	0xbd2ca91a	-0.042153455
26	0x3cac6c48	0.021047726
27	0xbf9736ee	-1.1813638
28	0xc0138981	-2.3052676
29	0xbc157cf3	-0.0091240285
30	0x3fbc22bc	1.46981
31	0xbf0fa6dc	-0.5611398
32	0xc009e3ed	-2.1545365
33	0x3edd908a	0.43274337
34	0x3f4d2850	0.80139637
35	0xbe14ce06	-0.14531717
36	0x4069f36d	3.6554825
37	0x3fd9e65e	1.7023427
38	0xbef66c7f	-0.4812965
39	0xbf028c1d	-0.50995046
40	0x4077ad69	3.869959
41	0x3ff3f966	1.9060485
42	0xbf212c99	-0.62958676
43	0xbead2f23	-0.33825025
44	0xbf5c64c9	-0.86091286
45	0x3ec2f1e3	0.3807517
46	0x3fb23689	1.3922893
47	0xbf260d9a	-0.64864504
48	0xc00ca4b7	-2.1975534
49	0xbe99b920	-0.30024052
50	0x3f5c57dc	0.8607156
51	0xbe10edc1	-0.14153196
52	0x405adc73	3.4197052
53	0x3fdbcc79	1.7171775
54	0xbef0553c	-0.4694003
55	0xbeee46b3	-0.46538314
56	0xc08aa602	-4.3327646
57	0xbe2d501f	-0.16925095
58	0x3f37d606	0.7181095
59	0xbf720b7d	-0.9454878
60	0xbf96dd81	-1.1786348
61	0xbf68bbba	-0.9091145
62	0x3f898122	1.0742533
63	0xbf4db516	-0.8035444
64	0x401eb075	2.47952
65	0xbe25fb1b	-0.1620907
66	0xbf3739ce	-0.7157258
67	0x3f1877ea	0.59557974
68	0xbfff004c	-1.9921966
69	0x3f00a8e8	0.5025773
70	0x3fa0180c	1.2507339
71	0xbef32fa2	-0.47497278
72	0xc079372a	-3.893992
73	0xbe4942ef	-0.1965444
74	0x3f254a89	0.64566857
75	0xbca4d1fd	-0.020119661
76	0xbf8baf93	-1.0912956
77	0x3ef9bec4	0.48778355
78	0x3f6d8cee	0.92793167
79	0xbf001313	-0.50029105
80	0x3e9cc97f	0.3062248
81	0xbd28f5b9	-0.041249964
82	0xbec6ee88	-0.3885386
83	0xbeb6e685	-0.35722747
84	0x3f9bb44a	1.2164395
85	0xbebfdb76	-0.37472123
86	0xbfe2c161	-1.7715265
87	0x3f5d1863	0.86365336
88	0x3fe159c7	1.7605523
89	0x3efe1702	0.4962693
90	0xbf0bee95	-0.5466092
91	0x3d60587d	0.05477189
92	0xbf75fda3	-0.96090144
93	0x3f54c328	0.83110285
94	0x3fa15d63	1.2606624
95	0xbf5fc946	-0.87416494
96	0xbfe3aaba	-1.7786477
97	0xbeb82f25	-0.35973468
98	0x3fa32b3c	1.2747569
99	0xbf10b171	-0.56520754
100	0x4013a975	2.3072178
101	0xbe45e85a	-0.19326916
102	0xbdc143c9	-0.09436757
103	0x3eb6cd97	0.35703728
104	0xbffcc2b5	-1.974692
105	0xbdacf064	-0.084442884
106	0x3fb91f8e	1.4462755
107	0xbe8f7e53	-0.28026065
108	0x407a9c56	3.915792
109	0x3fd430ba	1.657737
110	0xbebee3e1	-0.37283233
111	0xbf1ee6a7	-0.620707
112	0xc0455389	-3.0832236
113	0x3e91fa89	0.28511456
114	0x3f49b26d	0.7878788
115	0xbf5a5db7	-0.8529925
116	0xc00267ca	-2.0375848
117	0xbf4375e3	-0.76351756
118	0x3f8f19da	1.1179764
119	0xbf009950	-0.50233936
120	0x4080aa5f	4.0207973
121	0x3fd0e4b9	1.6319801
122	0xbeceff3e	-0.4042911
123	0xbf38e552	-0.72224915
124	0xbf65a835	-0.8970979
125	0xbecc93df	-0.39956567
126	0x3f9d90fd	1.2309872
127	0xbf52e464	-0.82379746
128	0xbfdba8d8	-1.7160902
129	0xbd46f0b3	-0.048569392
130	0x3f4c2792	0.7974788
131	0xbe91f3b8	-0.28506255
132	0xbf6a8c4b	-0.9162032
133	0x3f45a1e1	0.7720013
134	0x3fd56372	1.6670973
135	0xbf4c6d62	-0.79854405
136	0xbec807b0	-0.39068365
137	0x3f516230	0.8179045
138	0x3fadf517	1.359042
139	0xbf5b2f6c	-0.85619235
140	0xbfc5317d	-1.5405728
141	0xbf979f43	-1.1845478
142	0x3fe75b75	1.8074785
143	0xbf046953	-0.5172321
144	0xbeded218	-0.43519664
145	0xbe96ad37	-0.29429027
146	0xbe518886	-0.20462236
147	0x3d794b19	0.060862634
148	0xbfef56f1	-1.8698407
149	0xbe9392d3	-0.28822955
150	0x3fbf897e	1.4963834
151	0xbf117c03	-0.5682985
152	0xc00d5534	-2.2083254
153	0xbe1f1a8a	-0.15537468
154	0x3f097f7b	0.53710145
155	0xbd9daf10	-0.07699406
156	0xbdfe0988	-0.12404162
157	0x3eb3c578	0.35111594
158	0xbea017a6	-0.31268042
159	0xbe4b62b8	-0.19861877
160	0xc02156d8	-2.5209255
161	0xbf9af397	-1.2105588
162	0x3fc8c703	1.5685734
163	0xbe623374	-0.2208994
164	0x404ca9d9	3.1978667
165	0x3fdcbafc	1.7244563
166	0x3d403d30	0.046933353
167	0xbf0f3131	-0.55934435
168	0x3ea8d1e6	0.3297264
169	0x3d83550d	0.064127065
170	0xbe69e7d0	-0.22842336
171	0x3d61d715	0.05513676
172	0xbfc4e9ec	-1.5383887
173	0xbfa4ba18	-1.2869291
174	0x3ffce5c0	1.9757614
175	0xbee1ed6c	-0.4412645
176	0x4019c665	2.402734
177	0x3dccca19	0.099994846
178	0xbf2965f2	-0.6617118
179	0x3efd489f	0.49469468
180	0xbfbd2a69	-1.4778568
181	0x3ede3d3f	0.43406102
182	0x3f9e0bb8	1.2347326
183	0xbf04e20a	-0.5190741
184	0xc06dbe07	-3.7147233
185	0xbfa3fdce	-1.281183
186	0x3f7f3e43	0.9970438
187	0xbf5c885a	-0.86145556
188	0x3fd11a40	1.6336136
189	0xbfbe5b26	-1.4871566
190	0xbff943bd	-1.9473797
191	0x3f0a6dbd	0.540737
192	0xc0032195	-2.0489247
193	0xbcd3c98e	-0.025852945
194	0x3ec197e1	0.37811187
195	0xbe455b1f	-0.19273041
196	0xbebcde74	-0.36888468
197	0xbee85478	-0.45376945
198	0xbf02b7a7	-0.5106148
199	0x3e9dcde6	0.3082115
200	0xbfdb4904	-1.7131658
201	0xbebfd76e	-0.37469047
202	0x3eeee1d3	0.46656665
203	0xbee0eabf	-0.43929097
204	0xc08e8594	-4.453806
205	0xbf8407b5	-1.0314852
206	0x3f509b2a	0.8148676
207	0xbf4a4e2d	-0.79025537
208	0x400a01cf	2.1563604
209	0xbe858612	-0.2607885
210	0xbf2ae9ca	-0.66762984
211	0x3d6da54a	0.05801896
212	0x3e960e68	0.29307866
213	0xbe49351c	-0.19649166
214	0x3d83e808	0.06440741
215	0xbe1deb6c	-0.15421838
216	0x400d5152	2.2080884
217	0x3ee33e7d	0.44383612
218	0xbfac7e68	-1.3476076
219	0x3c20f08e	0.009822978
220	0xc01fa1ef	-2.4942586
221	0x3e5f2424	0.2179113
222	0x3f9c9c53	1.2235206
223	0xbeccc861	-0.39996627
224	0x407bec14	3.936284
225	0x3fe36d83	1.7767795
226	0xbdc7037a	-0.0971746
227	0xbf2f8250	-0.68558216
228	0xc0055164	-2.0830927
229	0xbf3296f7	-0.69761604
230	0x3ee62688	0.44951272
231	0xbe317117	-0.17328297
232	0xc09d0c76	-4.907771
233	0xbf9fbf92	-1.2480338
234	0x3efcd010	0.4937749
235	0xbf461fcc	-0.7739227
236	0x3dc52c50	0.096275926
237	0xbea7ef72	-0.3279987
238	0xbe0f5f6c	-0.14001244
239	0xbd01f7e0	-0.031730533
240	0xbfc3411a	-1.5254242
241	0xbf3ce117	-0.7378096
242	0x3fac2f73	1.345198
243	0xbf36c3fc	-0.713928
244	0x3fcabffc	1.5839839
245	0x3e7c1147	0.24615966
246	0x3e3da19f	0.18518685
247	0x3cada57f	0.021197079
248	0xbe3ae2f4	-0.18250638
249	0xbd745690	-0.059652865
250	0xbd8cba30	-0.0687145
251	0x3e027354	0.12739307
252	0xbf584e68	-0.8449464
253	0xbf5d01e1	-0.8633099
254	0x3f283c62	0.65717137
255	0x3fde6bee	1.7376688

fc1.bias f4 [128]
0	0xbec12bae	-0.37728637
1	0xbe926360	-0.28591442
2	0xbe928112	-0.28614098
3	0x3ff14e30	1.8851986
4	0x3ddc80b6	0.10766737
5	0x3f96f742	1.1794207
6	0x3f3c6a7c	0.7359998
7	0x3fcac344	1.584084
8	0x3fb745ce	1.4318178
9	0xbd27424e	-0.040834717
10	0x3dc4bfb1	0.09606875
11	0x3f922eff	1.1420592
12	0x3fc5186e	1.539808
13	0x3c612034	0.013740588
14	0x3e7fcef9	0.24981298
15	0x3fcf496a	1.6194279
16	0x3e21969e	0.15780112
17	0x3f5cfdc2	0.86324704
18	0x3fbc313d	1.4702526
19	0x3faa1d65	1.329022
20	0xbf01230f	-0.5044412
21	0x3cbdfeb6	0.023192745
22	0xbea4eec0	-0.32213402
23	0x3fba3698	1.4547911
24	0x3fc55b97	1.5418576
25	0xbe4ed83f	-0.20199679
26	0x3fb7e68d	1.4367234
27	0xbe270ffe	-0.16314694
28	0x3fb9efba	1.4526284
29	0x3fbbdfc1	1.4677659
30	0xbe5d8b82	-0.2163525
31	0x3fb322b1	1.3994962
32	0x3fbaabc2	1.4583666
33	0x3fb48ff2	1.4106429
34	0x3f8d50c4	1.1040273
35	0x3f8601d5	1.0469309
36	0x3d64862b	0.055792015
37	0x3fb48476	1.4102924
38	0x3fb17f63	1.3867
39	0xbee0c54e	-0.43900532
40	0x3f2fe372	0.6870643
41	0xbe81b788	-0.25335336
42	0xbed64a22	-0.41853434
43	0x3f4199b0	0.75625134
44	0x3d22e8f8	0.039772958
45	0x3fbd646d	1.4796273
46	0x3f80e695	1.0070368
47	0x3f3c140b	0.73468083
48	0x3fc32cb9	1.5248023
49	0xbe9d7b10	-0.30757952
50	0x3fe78f34	1.8090577
51	0x3f01a047	0.5063519
52	0xbd35c1fe	-0.04437446
53	0xbeb356c6	-0.3502714
54	0xbc6166c0	-0.013757408
55	0x3fb8bfb1	1.44335
56	0xbeb21880	-0.34784317
57	0x3fca5a69	1.5808841
58	0x3f492cbe	0.78583896
59	0xbe1d8858	-0.15384042
60	0x3fcd1532	1.6022093
61	0xbedc98d9	-0.43085364
62	0xbebc53a6	-0.3678257
63	0x3ed46393	0.4148222
64	0xbe94f336	-0.29091805
65	0x3fbb731c	1.4644504
66	0x3f8b2e24	1.0873456
67	0xbe309738	-0.17245185
68	0x3f83a1be	1.0283735
69	0x3fbcaa57	1.4739484
70	0x3fa4e5ab	1.2882589
71	0x3e8bf19a	0.27332765
72	0x3f9ab6c2	1.2087023
73	0xbd97ccd0	-0.07412112
74	0x3fca3812	1.5798361
75	0xbece2b14	-0.4026724
76	0x3fbe65ac	1.4874778
77	0x3fa27ab0	1.2693691
78	0xbf03a9c4	-0.51430917
79	0x3d27d4f4	0.040974572
80	0xbef98122	-0.48731333
81	0xbe9fd14a	-0.31214362
82	0xbef92022	-0.48657328
83	0x3ea9e52e	0.33182663
84	0x3fb41945	1.4070212
85	0x3fb76b55	1.432963
86	0x3fabdcbb	1.3426737
87	0x3f9197fb	1.1374506
88	0x3f86c3f9	1.0528556
89	0x3fdc4106	1.7207344
90	0xbe3f29b8	-0.18668258
91	0x3fbe3f29	1.4863025
92	0x3f8d42b1	1.1035978
93	0x3f9596ea	1.168668
94	0xbdc1fd5b	-0.09472152
95	0x3fb67ad8	1.4256239
96	0x3fab432e	1.3379877
97	0xbeb34e5e	-0.35020727
98	0x3fc91ade	1.5711324
99	0x3abe1355	0.0014501611
100	0x3fbdd281	1.4829866
101	0xbee6c4c0	-0.45071983
102	0x3f9241a6	1.1426284
103	0x3f906768	1.1281557
104	0x3e9591c7	0.29212782
105	0xbe99b8ab	-0.30023703
106	0x3fcf3c50	1.6190281
107	0xbe6c1fae	-0.2305896
108	0xbed0e100	-0.4079666
109	0x3fa2f5de	1.2731283
110	0x3f945f8f	1.1591662
111	0xbe979030	-0.29602194
112	0xbee596c6	-0.44841594
113	0x3fcc06ec	1.5939612
114	0x3fcb9093	1.5903496
115	0x3f931b97	1.1492795
116	0x3fa5fcd3	1.2967781
117	0x3f9f3781	1.2438813
118	0x3f736cea	0.95088065
119	0xbef74168	-0.48292089
120	0x3f9a1947	1.2038964
121	0x3f9754f3	1.18228
122	0x3fcd36cd	1.6032349
123	0x3f40757b	0.7517926
124	0x3fbb0bf8	1.4613028
125	0x3f2e39e8	0.6805711
126	0x3f266519	0.6499801
127	0xbead1ed8	-0.33812594

fc2.weight f4 [64, 128]
0	0xbc75c18b	-0.0149997575
1	0xbd15d62b	-0.0365812
2	0x3da53674	0.08067027
3	0xbce6fd24	-0.028196879
4	0xbdb38aa2	-0.087666765
5	0x3d7465a0	0.05966723
6	0x3d0f52f1	0.03499121
7	0xbd2e5008	-0.042556792
8	0xbceac4df	-0.028658329
9	0x3c846922	0.016163412
10	0xbbc3b218	-0.005972158
11	0xbdaf0c06	-0.08547215
12	0x3d4bc5fd	0.049749363
13	0x3d2373c3	0.03990532
14	0xbd5a71b2	-0.053331085
15	0xbd80a2d7	-0.06281059
16	0xbdae3be5	-0.08507518
17	0xbccc28cb	-0.024921795
18	0xbd239dbb	-0.039945345
19	0xbc83ab7e	-0.016072985
20	0x3d238683	0.039923202
21	0xbae88b57	-0.0017741722
22	0xbce9a5fc	-0.02852153
23	0xbc8e0c5b	-0.017339876
24	0xbc34f202	-0.011044027
25	0xbd0df6ba	-0.034659125
26	0xbde51a94	-0.1118671
27	0xbddf56e3	-0.10905244
28	0x3c1e29b2	0.009653496
29	0xbd0b45d8	-0.034002155
30	0x3c5673fc	0.013089176
31	0x3c7095b0	0.014684126
32	0xbd1282a9	-0.03576914
33	0xbd1fdae7	-0.03902712
34	0xbcd928f4	-0.026508786
35	0xbd117a36	-0.03551694
36	0x3d4af193	0.04954679
37	0xbd844ab7	-0.06459563
38	0xbb7b2aa4	-0.0038324976
39	0xbc9e6772	-0.019336436
40	0x3d40b031	0.04704303
41	0xbd5811ea	-0.05275146
42	0x3cb9ae0a	0.022665996
43	0xbd32a1e4	-0.043611422
44	0xbd09ee92	-0.033674784
45	0x3bb42795	0.0054978826
46	0xbd35e717	-0.044409838
47	0x3c6ba672	0.014382945
48	0xba222267	-0.0006184936
49	0xbd774983	-0.06037284
50	0xbd897227	-0.06711226
51	0x3d44274c	0.04788904
52	0xbd4dade5	-0.050214667
53	0x3d3c4791	0.04596669
54	0x3d1b259a	0.037877657
55	0x3c39bc8d	0.011336458
56	0xbca3d882	-0.0200007
57	0xbdd173f1	-0.10227192
58	0xbce92633	-0.028460598
59	0x3be49510	0.0069757774
60	0xbd95b3fb	-0.07309719
61	0xbd07f81b	-0.033195596
62	0x3db05a69	0.08610994
63	0xbdcc954a	-0.09989412
64	0x3d44270b	0.047888797
65	0x3cfe5554	0.031046547
66	0xbc8dbca6	-0.017301869
67	0x3c696e63	0.01424751
68	0x3d1fdb03	0.039027225
69	0xbdea676d	-0.11445508
70	0xbd84a2f4	-0.06476393
71	0xbd9bfd53	-0.07616677
72	0x3ca2a15b	0.01985233
73	0xbc2be966	-0.010492658
74	0xbdad5d4e	-0.08465062
75	0xbd051a84	-0.03249599
76	0xbd74bbb1	-0.05974931
77	0x3d3f3f72	0.046691366
78	0xbccb9ece	-0.024855997
79	0xbd822942	-0.063555256
80	0xbcd2bdf3	-0.02572534
81	0xbd8c7e86	-0.0686007
82	0xbd0bdc54	-0.03414567
83	0x3d44f008	0.048080474
84	0xbdc539ba	-0.09630151
85	0xbd34400d	-0.044006396
86	0x3d5c8f2d	0.05384748
87	0x3cac5990	0.0210388
88	0xbd35a050	-0.04434234
89	0x3d10cb37	0.03535005
90	0xbb2b5df7	-0.0026148537
91	0xbc97e61f	-0.018542347
92	0xbd7ca118	-0.06167707
93	0xbbb0d4d0	-0.005396463
94	0xbdb288fb	-0.08717533
95	0xbd974693	-0.07386508
96	0xbd132f26	-0.035933636
97	0xbd621f98	-0.05520591
98	0xbd1d627d	-0.038424004
99	0x3c150f39	0.009097868
100	0xbdb1c85f	-0.08680796
101	0xbc06103c	-0.0081825815
102	0xbc840aac	-0.01611837
103	0xbdde5d7e	-0.10857676
104	0x3cfd1892	0.030895505
105	0xbd7e316e	-0.06205886
106	0xbd0ade86	-0.03390362
107	0x3c98ce1a	0.018652964
108	0xbd20d5a5	-0.039266247
109	0xbd73d405	-0.05952837
110	0xbdcfacd8	-0.10140389
111	0xbdc8617d	-0.097842194
112	0x3da11fbb	0.0786738
113	0xbdbdc1ec	-0.09265503
114	0xbd2346ef	-0.03986257
115	0xbdb6b89f	-0.089219324
116	0xbde581e2	-0.11206414
117	0xbd371574	-0.044698194
118	0x3d936776	0.07197468
119	0x3cdc5bb2	0.026899192
120	0x3d0c714f	0.034287747
121	0xbdbfa250	-0.093571305
122	0xbcd734d4	-0.026270308
123	0xbdac3d0c	-0.08410081
124	0x3cf43d3a	0.029814351
125	0x3d980450	0.074226975
126	0x3b879c9a	0.0041385414
127	0x3cc8b2bb	0.024499288
128	0x3d0b49b4	0.034005836
129	0x3d9c6804	0.07637027
130	0xbd5a36e7	-0.053275015
131	0x3c5523b9	0.013009005
132	0xbd95e627	-0.07319289
133	0xbd89cc9d	-0.0672848
134	0xbc8e1b14	-0.017346896
135	0x3d00febc	0.031492934
136	0x3ad32274	0.001610829
137	0xbdc4281d	-0.095779635
138	0x3d5356b7	0.05159637
139	0xbd97abcb	-0.07405814
140	0x3c81afc4	0.015830882
141	0xbd26a407	-0.040683772
142	0xbd12d4a1	-0.03584731
143	0xbc9f70fd	-0.019463057
144	0xbd1673f3	-0.03673167
145	0xba6fe3a4	-0.00091510476
146	0xbd88223a	-0.06647153
147	0x3d10ad58	0.035321563
148	0xbc2db751	-0.010602788
149	0xbb8d814f	-0.0043183933
150	0xbd9ba9af	-0.07600724
151	0xbd93092d	-0.071794845
152	0xbd9f6166	-0.07782249
153	0xbc5037da	-0.012708629
154	0xbccdd1a4	-0.025124379
155	0xbbabe3aa	-0.0052456455
156	0x3d3ad0e0	0.045609355
157	0x3cb62458	0.022234127
158	0xbde9e55c	-0.114207
159	0xbdd166b5	-0.10224668
160	0xbd4fb773	-0.05071206
161	0x3d7ebdec	0.062192842
162	0x3d7b9867	0.06142464
163	0x3c0a3c6b	0.008437256
164	0x3c5a6316	0.013329288
165	0x3cc5f5a4	0.024164982
166	0xbdc315d0	-0.09525645
167	0x3cc17792	0.023616586
168	0xbdc8b27c	-0.09799668
169	0xbd27e1c1	-0.04098678
170	0xbda4b579	-0.08042426
171	0xbd9ad259	-0.07559652
172	0x3bd0fe00	0.0063779354
173	0x3b88f662	0.0041797617
174	0xbd7130e7	-0.058884528
175	0xbda0b5aa	-0.0784715
176	0xbdcf263e	-0.10114716
177	0xbca77181	-0.020439865
178	0xbd2e2360	-0.042514205
179	0x3d478fbe	0.048721068
180	0xbda66fcd	-0.08126793
181	0xbc099119	-0.00839641
182	0x3cbfb5f6	0.023402195
183	0x3d7174ba	0.05894921
184	0x3d34787e	0.044060223
185	0xbc0f618d	-0.008751285
186	0xbc815630	-0.015788168
187	0xbd284a31	-0.04108638
188	0xbd0b6a59	-0.034036968
189	0xbd257b07	-0.04040053
190	0xbd812e34	-0.06307641
191	0xbd56d903	-0.052453052
192	0xbd81b729	-0.06333763
193	0xbd2f3dda	-0.042783596
194	0x3cbeebf4	0.02330587
195	0xbdb3a26f	-0.08771216
196	0x3d5bc4c8	0.053654462
197	0x3cbe7400	0.023248672
198	0x3c92eb3d	0.017934436
199	0x3d4f8014	0.050659254
200	0xbcb63c5c	-0.022245578
201	0xbbdeece8	-0.006803144
202	0x3aabfaea	0.0013121043
203	0x3d317dc4	0.04333283
204	0xbd1dd134	-0.03852959
205	0x3d1d7357	0.038440075
206	0xbc7f030f	-0.015564694
207	0xbda0ebb8	-0.0785746
208	0x3d47d371	0.04878563
209	0xbc562d78	-0.013072364
210	0xbd147653	-0.036245655
211	0xbd9b26a0	-0.075757265
212	0x3cad62fc	0.021165363
213	0xbd407930	-0.046990573
214	0x3d2b6439	0.041843627
215	0x3d821cd6	0.06353156
216	0x3a25a5ec	0.0006318975
217	0x3d46870c	0.048468634
218	0xbd394bc5	-0.045238275
219	0xbd319774	-0.043357328
220	0xbdcb5faf	-0.099303596
221	0xbdb064b1	-0.08612955
222	0x3c183a40	0.009291232
223	0xbdb6e8dc	-0.08931133
224	0x3c54cb1f	0.012987881
225	0x3c6225cb	0.013802956
226	0xbd0aa830	-0.033851802
227	0x3cccda4a	0.025006432
228	0xbd1a1bad	-0.03762405
229	0x3cb61082	0.022224668
230	0x3d26eeda	0.04075513
231	0x3d86a3f3	0.065742396
232	0xbb908fe5	-0.004411685
233	0xbdcfb230	-0.101414084
234	0x3bfa605c	0.0076408815
235	0xbd86b88e	-0.0657817
236	0x3d889c90	0.06670487
237	0xbd313761	-0.043265704
238	0xbd287d72	-0.04113526
239	0x3bcd976e	0.0062741553
240	0xbd2200b5	-0.039551456
241	0x3d89e9ec	0.0673407
242	0xbd64c6ad	-0.055853534
243	0xbb98b54e	-0.004660285
244	0xbdd1f60d	-0.102520086
245	0x3c0a356f	0.008435591
246	0xbd8f9a23	-0.07011821
247	0xbcde03f0	-0.027101487
248	0xbc79fd68	-0.015258171
249	0x3d562956	0.052285515
250	0x3d131df6	0.035917245
251	0xbc4c8c3d	-0.012484607
252	0x3d3900bb	0.045166712
253	0xbd9eddb3	-0.077571295
254	0xbd907db1	-0.07055224
255	0xbc53fe4f	-0.01293905

fc2.bias f4 [64]
0	0x3c6a04a0	0.014283329
1	0x3cbc653e	0.022997495
2	0x3d25fc4b	0.04052381
3	0xbd5b3690	-0.05351883
4	0x3e79c05d	0.24389787
5	0x3d87a7de	0.06623815
6	0x3ee87ccb	0.4540771
7	0x3d44e96f	0.048074182
8	0x3cc8e780	0.02452445
9	0x3cc17c92	0.02361897
10	0x3eaba10d	0.3352131
11	0x3c547c84	0.01296914
12	0x3d4ade4b	0.0495284
13	0xbd9c33af	-0.07627045
14	0xbcf8f373	-0.030389523
15	0xbde23b73	-0.11046495
16	0xbc8764ef	-0.016527621
17	0xbd9d6273	-0.07684793
18	0x3ef1f2c1	0.4725552
19	0xbd342cfe	-0.04398822
20	0x3e715daf	0.23570894
21	0x3a36d1d2	0.00069740147
22	0x3ec52613	0.3850561
23	0xbb785135	-0.00378902
24	0xbdb752a8	-0.08951312
25	0xbceb8187	-0.028748287
26	0xbe111277	-0.141672
27	0xbd3fdf60	-0.046843886
28	0x3ebfd705	0.37468734
29	0xbdaa3d7d	-0.08312509
30	0x3f094156	0.5361532
31	0xbda0e349	-0.07855851
32	0x3c916e83	0.017752891
33	0x3c2ddd3a	0.010611827
34	0x3f0e0448	0.5547528
35	0xbc3cb5fe	-0.011518
36	0xbd405b65	-0.04696216
37	0x3d95d333	0.07315674
38	0xbc36480f	-0.011125579
39	0x3ea9f593	0.3319517
40	0xbd705c30	-0.058681667
41	0xbd9f5b43	-0.07781079
42	0x3f0bcfa7	0.5461373
43	0x3d3c5e50	0.04598838
44	0x3d519398	0.051166147
45	0x3efec4a9	0.49759415
46	0xbcc582c6	-0.02411021
47	0xbcf13a27	-0.029446675
48	0x3d5b8bbc	0.053600058
49	0x3f137a10	0.5760813
50	0x3ef66958	0.48127246
51	0x3ef71907	0.48261282
52	0x3e826a46	0.25471705
53	0xbd505d1f	-0.050870057
54	0x3f03f0c6	0.51539266
55	0x3d826dae	0.06368576
56	0xbd3adfb2	-0.04562349
57	0xbcc56d3c	-0.024099939
58	0xbd8fb505	-0.070169486
59	0x3c118b1a	0.008883262
60	0x3cc0d4df	0.023539005
61	0x3edb66b3	0.4285179
62	0x3edfed52	0.4373575
63	0x3f0b3657	0.5437979

fc3.weight f4 [2, 64]
0	0xbb94affb	-0.00453758
1	0x3d0ccda7	0.034375813
2	0x3cc2bc91	0.023771556
3	0x3c1f6508	0.009728678
4	0xbf9ece84	-1.2406774
5	0x3cb4b2cc	0.022057913
6	0xbfdc24b0	-1.7198696
7	0x3db1bae9	0.086782284
8	0x3de2dea5	0.11077622
9	0x3f34fa5a	0.70694506
10	0xbfd28518	-1.6446867
11	0xbc569207	-0.013096339
12	0x3d8f973f	0.0701127
13	0x3cbf77f0	0.02337262
14	0xbc317b8a	-0.010832677
15	0xbd06a4a4	-0.032871857
16	0x3d9c4198	0.076296985
17	0x3cff0537	0.031130416
18	0xbfea7460	-1.8316765
19	0x3d927391	0.07150949
20	0xbf985660	-1.190136
21	0x3db8d66a	0.09025271
22	0xbfb4a887	-1.411393
23	0x3da8126f	0.08206641
24	0x3d9a11bf	0.07522916
25	0xbc8d5214	-0.017251052
26	0xbe8c94a9	-0.2745717
27	0xbdb4c7af	-0.08827149
28	0x3f9f8056	1.246104
29	0x3bb12a9e	0.0054066917
30	0xbf4f82f1	-0.81059176
31	0x3d57f9bb	0.052728396
32	0x3d9e195d	0.077196814
33	0xbc682b01	-0.014170409
34	0xbf3d9993	-0.7406246
35	0x3d69120b	0.056901973
36	0x3da02a37	0.07820552
37	0x3d77f622	0.060537465
38	0x3dc7560f	0.09733211
39	0x3f3c5b91	0.7357722
40	0x3d41e828	0.047340542
41	0x3953d7ac	0.00020202872
42	0xbf4391f0	-0.7639456
43	0xbfaaae44	-1.3334432
44	0x3d3ca3e8	0.04605475
45	0xbf48af09	-0.7839208
46	0x3dc643fc	0.09680936
47	0xbc66cc70	-0.014086828
48	0xbc94bec5	-0.018157372
49	0xbf415829	-0.75525147
50	0xbf485dd5	-0.78268176
51	0xbf586116	-0.8452314
52	0xbf8eaade	-1.1145895
53	0x3bbd5f1c	0.00577916
54	0x3f8ca989	1.0989238
55	0x3d30292f	0.043008026
56	0xbd8a92a8	-0.06766254
57	0xbfa88dff	-1.3168334
58	0x3ca30aea	0.019902665
59	0x3d3e30f9	0.046433423
60	0xbc8b9cd1	-0.01704255
61	0xbf56915c	-0.8381555
62	0xbf58dcac	-0.8471172
63	0xbf5c1f2b	-0.8598506
64	0xbc4dd9a0	-0.012564093
65	0xbd2fafbf	-0.042892214
66	0x3dbeafd9	0.09310884
67	0x3d7dcca4	0.06196274
68	0xc02ade72	-2.669827
69	0xbda6df4e	-0.08148061
70	0x3f8b8088	1.08986
71	0xb8d5f2d0	-0.00010201859
72	0xbd519e12	-0.05117614
73	0xbf4cd3fc	-0.8001096
74	0x3fd32f25	1.6498762
75	0xbddae05a	-0.10687323
76	0x3c579a7e	0.013159392
77	0x3d5998b3	0.05312414
78	0x3987a800	0.00025874376
79	0xbda3cf9b	-0.07998582
80	0x3c452b99	0.01203432
81	0xbcdf842d	-0.027284706
82	0x3fa12774	1.2590165
83	0x3db0ba46	0.08629279
84	0xc032bedd	-2.7928994
85	0xbda3cdea	-0.07998259
86	0xbf0a1b83	-0.5394823
87	0xbde14388	-0.10999209
88	0x3d4be81a	0.049781896
89	0xbc2e12a0	-0.010624558
90	0xc0485e21	-3.1307452
91	0xbe15b1a7	-0.1461855
92	0x3c0a69e2	0.008448096
93	0x3da9e8a2	0.08296324
94	0xbfa75ec4	-1.3075795
95	0x3da55825	0.08073453
96	0x3d752853	0.05985291
97	0xbfbe0e28	-1.484807
98	0xbf9664f4	-1.1749558
99	0x3d649fea	0.05581657
100	0xbd673726	-0.056449078
101	0xbe010c4b	-0.12602346
102	0x3daeab74	0.08528796
103	0x40262c0a	2.596438
104	0x3df970ae	0.12179695
105	0x3d9c0179	0.076174684
106	0xbf96089f	-1.1721381
107	0xc01daa63	-2.4635246
108	0xbbe03fd6	-0.0068435473
109	0xbf94ebea	-1.1634495
110	0xbda1022a	-0.07861741
111	0xbdaa2898	-0.08308524
112	0x3c46f1b0	0.012142584
113	0xbfa81c06	-1.3133552
114	0xbf93d243	-1.1548542
115	0xbfa1f896	-1.2653987
116	0xbfc231ea	-1.5171483
117	0xbd539906	-0.051659606
118	0x3ea208a3	0.31647214
119	0x3d3fd55e	0.046834342
120	0xbd7551d4	-0.05989249
121	0xc024b4d8	-2.5735378
122	0xbd731c01	-0.05935288
123	0x3c8b3d81	0.0169971
124	0x3d805202	0.06265642
125	0xbf8e8e1d	-1.113712
126	0xbfae4d33	-1.3617309
127	0xbf963c04	-1.1737065

fc3.bias f4 [2]
0	0xbdccfc71	-0.10009087
1	0xbecf2887	-0.40460607

exp_avg f4 [128, 4]
0	0x00000000	0.0
1	0x00000000	0.0
2	0x00000000	0.0
3	0x00000000	0.0
4	0x00000000	0.0
5	0x00000000	0.0
6	0x00000000	0.0
7	0x00000000	0.0
8	0x00000000	0.0
9	0x00000000	0.0
10	0x00000000	0.0
11	0x00000000	0.0
12	0xc13c2671	-11.759385
13	0xc1497096	-12.589987
14	0xc1c39b2e	-24.450771
15	0xbfa340c0	-1.2754135
16	0x41cb7edd	25.436945
17	0x42616fbc	56.359116
18	0x423e0237	47.502163
19	0x425304b7	52.754604
20	0xbfbd214d	-1.4775788
21	0xbe361470	-0.17781234
22	0xc114874d	-9.283032
23	0xc1345205	-11.270024
24	0xc1a2dae3	-20.356878
25	0xc144c477	-12.297965
26	0x408ede53	4.464639
27	0x425903c9	54.253696
28	0xbe214e5c	-0.15752548
29	0x3fd29e9e	1.6454656
30	0xc0c5f979	-6.186703
31	0xc13a16fc	-11.630611
32	0x4098de69	4.7771497
33	0x40c784ed	6.2349763
34	0x4093c1a1	4.6173863
35	0xc1326087	-11.148566
36	0xc185059d	-16.62774
37	0xc18865c6	-17.049694
38	0xbf8ced57	-1.100993
39	0x420cdded	35.216724
40	0xc188f503	-17.119635
41	0xc18d098b	-17.62966
42	0xc05515a8	-3.3294468
43	0x4207caa1	33.94788
44	0xc0b2372c	-5.569235
45	0xbffe96d4	-1.9889779
46	0xc175d0eb	-15.363505
47	0xc1291dfa	-10.5698185
48	0xc09a0aab	-4.8138022
49	0xc0c46a75	-6.1379952
50	0xc1556a63	-13.338473
51	0xc093f5d0	-4.6237564
52	0xc1831058	-16.38298
53	0xc183f96e	-16.496792
54	0xc01941d0	-2.3946419
55	0x4202421d	32.564564
56	0x3eb2e058	0.34936786
57	0x3dbe28b3	0.092851065
58	0x3eb04bf5	0.3443295
59	0xbf69d1e5	-0.913359
60	0xc151032b	-13.063273
61	0xc15ceb31	-13.80742
62	0xc1dc9ca3	-27.576483
63	0xbfc59787	-1.5436867
64	0xc1c94208	-25.157242
65	0xc1fbae53	-31.46012
66	0xc2719c79	-60.402805
67	0x41387471	11.528428
68	0x41550c31	13.315476
69	0x412eb94c	10.9202385
70	0x414c4168	12.765968
71	0xc0ed1936	-7.4093275
72	0xc1590806	-13.564459
73	0x3f4f7fad	0.8105419
74	0x40ef0a6a	7.4700212
75	0x42656b30	57.354675
76	0xc058e00e	-3.3886752
77	0x3f0bb5d6	0.54574335
78	0xc13b78dd	-11.717008
79	0xc148f454	-12.55965
80	0x00000004	6e-45
81	0x00000004	6e-45
82	0x00000004	6e-45
83	0x80000004	-6e-45
84	0x4225fa62	41.494514
85	0x41736ebd	15.214536
86	0x41e47a25	28.55964
87	0xc287372d	-67.607765
88	0xc1cb3be2	-25.40424
89	0xc18d5de2	-17.670841
90	0xc2755145	-61.329365
91	0x40e4335c	7.1312695
92	0xc080dbeb	-4.0268455
93	0x3eb1f56d	0.34757558
94	0xc14aa7b3	-12.665942
95	0xc1510512	-13.063738
96	0xc0a73c63	-5.2261214
97	0xc068d233	-3.6378295
98	0xc1797662	-15.591402
99	0xc114259d	-9.259183
100	0xc1a5c7c7	-20.722548
101	0xc1b846ec	-23.03463
102	0xc26876c2	-58.115974
103	0x3f83aa3d	1.0286328
104	0x3fe51b4d	1.7898957
105	0x4069ae21	3.651253
106	0xc05b7908	-3.4292622
107	0xc14aa217	-12.664573
108	0xc18714b2	-16.885105
109	0xc1863d9d	-16.780085
110	0xbf43b2a9	-0.7644449
111	0x420ba210	34.908264
112	0x41587bec	13.530254
113	0x4199cc2d	19.224695
114	0x41990a31	19.129976
115	0xc193c5dc	-18.471611
116	0xc0fcbad4	-7.897806
117	0xc10fd315	-8.989034
118	0xc19a4ff0	-19.289032
119	0xc069728c	-3.6476164
120	0xc18a0cd9	-17.256273
121	0xc189aeb1	-17.210299
122	0xc019f8e3	-2.4058158
123	0x4208584b	34.086224
124	0xc121cecf	-10.11299
125	0xc1153081	-9.324342
126	0xc1bcd306	-23.603039
127	0xc0a23938	-5.0694847
128	0xc082a3af	-4.082481
129	0xc03f244b	-2.9865901
130	0xc1461040	-12.378967
131	0xc108ecef	-8.557845
132	0xc03bff40	-2.9374542
133	0x400c6bf0	2.194088
134	0xc136bc55	-11.4209795
135	0xc169e1e4	-14.617649
136	0xc100a459	-8.040124
137	0xc022739e	-2.5383067
138	0xc1a05643	-20.04212
139	0xc15a3299	-13.637353
140	0xc1225e93	-10.148089
141	0xc1433b75	-12.202016
142	0xc1e6d2d7	-28.85295
143	0x4113a75e	9.228361
144	0x00000004	6e-45
145	0x00000004	6e-45
146	0x00000004	6e-45
147	0x00000004	6e-45
148	0xbea85655	-0.32878366
149	0xbdac7b6f	-0.084219806
150	0xc0a6d49d	-5.213454
151	0xc10d8174	-8.844105
152	0xc0a14923	-5.040178
153	0xc0c57a05	-6.171145
154	0xc167ed8b	-14.495494
155	0xc0b19f7d	-5.550719
156	0x00000000	0.0
157	0x00000000	0.0
158	0x00000000	0.0
159	0x00000000	0.0
160	0x405f9ebe	3.4940639
161	0x41a86fa0	21.054504
162	0xc1ae2c32	-21.77158
163	0xbfa8c712	-1.3185751
164	0xc02c3978	-2.6910076
165	0x3fe47aa2	1.7849925
166	0x41983b4e	19.028957
167	0x418e0830	17.753998
168	0x00000004	6e-45
169	0x00000004	6e-45
170	0x00000004	6e-45
171	0x00000004	6e-45
172	0xc17f319d	-15.949613
173	0xc04bd414	-3.1848192
174	0xc22a7fc7	-42.624783
175	0xc19b59c3	-19.418829
176	0xc1bc1244	-23.508919
177	0xc1dcd79c	-27.605278
178	0xc26d677e	-59.351067
179	0x40c681a2	6.2033243
180	0xbe158655	-0.14602025
181	0x404f465a	3.238669
182	0xc0c0e171	-6.0275197
183	0xc14ea6f4	-12.91576
184	0x415bff5e	13.7498455
185	0x41c5bfb9	24.718615
186	0xc08ca72d	-4.395407
187	0xc1bde7ff	-23.73828
188	0xc120f21c	-10.059109
189	0x40d7bb97	6.741649
190	0xc1167176	-9.4027
191	0xc16cabcc	-14.791943
192	0xc0d41dfb	-6.6286597
193	0xc0e51de5	-7.159899
194	0xc1835b69	-16.419634
195	0xc0a35e48	-5.105259
196	0x00000004	6e-45
197	0x00000004	6e-45
198	0x00000004	6e-45
199	0x00000004	6e-45
200	0xc12efa20	-10.936066
201	0xc13a71d7	-11.652793
202	0xc1bc33e5	-23.52534
203	0xc018b8f6	-2.3862891
204	0x3f870380	1.0547943
205	0x3eb6e8a0	0.35724354
206	0x3f2033a2	0.62578785
207	0xc07b63cd	-3.9279664
208	0xc2076824	-33.8517
209	0xc21a6159	-38.595066
210	0xc29d71e6	-78.72246
211	0x41336d5a	11.214197
212	0x00000000	0.0
213	0x00000000	0.0
214	0x00000000	0.0
215	0x00000000	0.0
216	0xc2194007	-38.312527
217	0xc229a25a	-42.408546
218	0xc2ad9764	-86.795685
219	0x413873f7	11.528312
220	0x3fa7210f	1.3056964
221	0x403d5525	2.9583218
222	0xc044765a	-3.0697236
223	0xc13be730	-11.743942
224	0xc13edf6e	-11.929548
225	0xc123a761	-10.228364
226	0x40cdf37c	6.435972
227	0x41e959e8	29.1689
228	0xc151b208	-13.105965
229	0xc18a34d3	-17.275793
230	0xc1df0dea	-27.881794
231	0x40455ec9	3.0839102
232	0x4013a282	2.3067937
233	0x3f48cd15	0.7843793
234	0x3faf5be6	1.369992
235	0xc1090ec9	-8.56611
236	0x00000000	0.0
237	0x00000000	0.0
238	0x00000000	0.0
239	0x00000000	0.0
240	0xc1156abd	-9.338559
241	0xc10d9bbd	-8.850522
242	0xc1b3cab7	-22.473982
243	0xc0aa8438	-5.32864
244	0xc20158de	-32.336784
245	0xc1b8624d	-23.047998
246	0xc28111a2	-64.53444
247	0x41aea86a	21.832233
248	0x00000000	0.0
249	0x00000000	0.0
250	0x00000000	0.0
251	0x00000000	0.0
252	0xc1c639eb	-24.77828
253	0xc1d79d90	-26.951935
254	0xc0b49f19	-5.644421
255	0x42a7968f	83.79406

exp_avg_sq f4 [128, 4]
0	0x00000000	0.0
1	0x00000000	0.0
2	0x00000000	0.0
3	0x00000000	0.0
4	0x00000000	0.0
5	0x00000000	0.0
6	0x00000000	0.0
7	0x00000000	0.0
8	0x00000000	0.0
9	0x00000000	0.0
10	0x00000000	0.0
11	0x00000000	0.0
12	0x45622a1f	3618.6326
13	0x46156499	9561.149
14	0x45ec5284	7562.3145
15	0x47de5932	113842.39
16	0x48536674	216473.81
17	0x4798cff7	78239.93
18	0x47c08204	98564.03
19	0x49bb5621	1.5346601e+06
20	0x452e35a4	2787.3525
21	0x45848b2b	4241.396
22	0x456a3da8	3747.8535
23	0x47160d3b	38413.23
24	0x45a67133	5326.15
25	0x44efcb7a	1918.3586
26	0x454f3093	3315.036
27	0x469ace58	19815.172
28	0x44fe5db2	2034.928
29	0x45227c9b	2599.7878
30	0x45164692	2404.4106
31	0x46b1c2fe	22753.496
32	0x444c18a6	816.38513
33	0x44322e95	712.72784
34	0x445d4c1d	885.1893
35	0x45d6c753	6872.9155
36	0x4684d470	17002.219
37	0x46875066	17320.2
38	0x4683def9	16879.486
39	0x48033a14	134376.31
40	0x46673a9a	14798.65
41	0x465fdb5a	14326.838
42	0x465f5983	14294.378
43	0x47cd0623	104972.27
44	0x45910147	4640.1597
45	0x45cb82df	6512.359
46	0x45a015f0	5122.742
47	0x477eed73	65261.45
48	0x45059162	2137.0864
49	0x45a54d4f	5289.6636
50	0x458edccb	4571.599
51	0x477eed78	65261.47
52	0x465b13a2	14020.908
53	0x465c28db	14090.214
54	0x46597bf9	13918.993
55	0x47cf4007	106112.055
56	0x4261c549	56.44266
57	0x4375a3b7	245.63951
58	0x441a4e11	617.2198
59	0x44cb1fc1	1624.9923
60	0x45a56ba4	5293.455
61	0x46409ce8	12327.227
62	0x46169fea	9639.979
63	0x47eb8e32	120604.39
64	0x46e137a7	28827.826
65	0x4797ae11	77660.13
66	0x4761c755	57799.332
67	0x493caa0c	772768.75
68	0x44baf8d7	1495.7762
69	0x44b93f66	1481.9812
70	0x44c0ac86	1541.3914
71	0x458b99b1	4467.2114
72	0x460c1d6b	8967.3545
73	0x45b02843	5637.0327
74	0x45e608f0	7361.117
75	0x476d5168	60753.406
76	0x4587859c	4336.701
77	0x45a4dd62	5275.673
78	0x45873a22	4327.2666
79	0x47700d7e	61453.492
80	0x2fda3493	3.9691325e-10
81	0x2e562dbf	4.8698597e-11
82	0x2cb22157	5.0627657e-12
83	0x2fb719a7	3.3305733e-10
84	0x474d83c0	52611.75
85	0x46a30429	20866.08
86	0x46ec2107	30224.514
87	0x4885adfe	273775.94
88	0x475b4db8	56141.72
89	0x47bf2d44	97882.53
90	0x47926126	74946.3
91	0x4965af0a	940784.6
92	0x4594f68a	4766.8174
93	0x45ab84eb	5488.6147
94	0x458c30c9	4486.098
95	0x4751f0a0	53744.625
96	0x45618325	3608.1965
97	0x45c77250	6382.289
98	0x45a07269	5134.3013
99	0x4787bcc9	69497.57
100	0x471249c7	37449.777
101	0x47a777e8	85743.81
102	0x4774a8fa	62632.977
103	0x49470f9c	815353.75
104	0x44fc7649	2019.6964
105	0x4511dbbe	2333.734
106	0x450a2e33	2210.8875
107	0x46c59c57	25294.17
108	0x46892cb5	17558.354
109	0x4690d753	18539.662
110	0x468c72a9	17977.33
111	0x480cd4d5	144211.33
112	0x45647094	3655.0361
113	0x459137cf	4646.976
114	0x4589bdba	4407.716
115	0x467e3f2d	16271.794
116	0x45510dea	3344.8696
117	0x45f461d8	7820.2305
118	0x45c60fac	6337.959
119	0x47984cf0	77977.875
120	0x467ff90a	16382.26
121	0x46830c81	16774.252
122	0x46808d64	16454.695
123	0x47f4b371	125286.88
124	0x45a4a28a	5268.3174
125	0x46252565	10569.349
126	0x4600722f	8220.546
127	0x47ba5bf5	95415.914
128	0x451ab88b	2475.534
129	0x45908401	4624.5005
130	0x4571d790	3869.4727
131	0x4768b72f	59575.184
132	0x45b07be2	5647.4854
133	0x45b98643	5936.7827
134	0x45994c26	4905.5186
135	0x47601f44	57375.266
136	0x45fbbfac	8055.959
137	0x4621658b	10329.386
138	0x46012f0e	8267.764
139	0x47aa1385	87079.04
140	0x45d3d73c	6778.9043
141	0x465d0e2d	14147.544
142	0x46346a91	11546.642
143	0x47db34b9	112233.445
144	0x2a070d88	1.1995103e-13
145	0x28d2b194	2.3391696e-14
146	0x2993e0c7	6.567104e-14
147	0x2bc772eb	1.4171697e-12
148	0x445bf730	879.8623
149	0x44b5e792	1455.2366
150	0x44b7063f	1464.1952
151	0x464e18df	13190.218
152	0x4536d4c8	2925.2988
153	0x45d6cff0	6873.992
154	0x45b8dee7	5915.863
155	0x47ac0c25	88088.29
156	0x00000000	0.0
157	0x00000000	0.0
158	0x00000000	0.0
159	0x00000000	0.0
160	0x460c370c	8973.762
161	0x456f1337	3825.201
162	0x46025135	8340.302
163	0x4710bc82	37052.508
164	0x46440631	12545.548
165	0x46c1c27d	24801.244
166	0x46a57e7d	21183.244
167	0x4876df61	252797.52
168	0x2c05c846	1.901161e-12
169	0x2bd84789	1.5367578e-12
170	0x2b3d3cbc	6.7230574e-13
171	0x2d7efb9f	1.44940995e-11
172	0x4620e33f	10296.812
173	0x46858c5d	17094.182
174	0x46568edd	13731.716
175	0x47d9c232	111492.39
176	0x46fad32e	32105.59
177	0x479cdd1f	80314.24
178	0x476728b6	59176.71
179	0x4941ed0a	794320.6
180	0x453ce2f9	3022.1858
181	0x4540fbcb	3087.737
182	0x4529bf20	2715.9453
183	0x4701b08a	33200.54
184	0x452e60cc	2790.0498
185	0x447c8eb8	1010.23
186	0x45169883	2409.532
187	0x461c09c1	9986.438
188	0x47afd1c7	90019.555
189	0x470f6e60	36718.375
190	0x474ab0e4	51888.89
191	0x49371f36	750067.4
192	0x453c0acc	3008.6748
193	0x45da8ff8	6993.996
194	0x45b6dd9b	5851.7007
195	0x47b13579	90730.945
196	0x328457e6	1.5406794e-08
197	0x31c366ca	5.6869327e-09
198	0x31a25c9e	4.72535e-09
199	0x345e9064	2.072789e-07
200	0x457280bf	3880.0466
201	0x461a57fc	9877.996
202	0x45f7a471	7924.555
203	0x47ef14e1	122409.76
204	0x42c44c05	98.148476
205	0x43c1e317	387.77414
206	0x447e2665	1016.5999
207	0x4526a9f9	2666.6233
208	0x47544fa6	54351.65
209	0x48050b87	136238.11
210	0x47c7a8ac	102225.34
211	0x49a49d99	1.3485311e+06
212	0x00000000	0.0
213	0x00000000	0.0
214	0x00000000	0.0
215	0x00000000	0.0
216	0x4781ef24	66526.28
217	0x481c2422	159888.53
218	0x47eb6638	120524.44
219	0x49c9e1ee	1.6538218e+06
220	0x44d89199	1732.5499
221	0x44febb0b	2037.8451
222	0x44fb8ec7	2012.4618
223	0x4685436e	17057.715
224	0x4671adf7	15467.491
225	0x469ef61d	20347.057
226	0x46925d13	18734.537
227	0x482f2a2a	179368.66
228	0x45ac8404	5520.502
229	0x46682dca	14859.447
230	0x464209f1	12418.485
231	0x4828c0aa	172802.66
232	0x4381f6d7	259.92844
233	0x4474618e	977.5243
234	0x4527e72c	2686.4482
235	0x45dd45c0	7080.7188
236	0x00000000	0.0
237	0x00000000	0.0
238	0x00000000	0.0
239	0x00000000	0.0
240	0x45919ef9	4659.8716
241	0x461b0859	9922.087
242	0x45f07e90	7695.8203
243	0x47c29be4	99639.78
244	0x471a896a	39561.414
245	0x479769d6	77523.67
246	0x47637d43	58237.26
247	0x4935d014	744705.25
248	0x00000000	0.0
249	0x00000000	0.0
250	0x00000000	0.0
251	0x00000000	0.0
252	0x47d71dfd	110139.98
253	0x475ae87e	56040.492
254	0x477e1f68	65055.406
255	0x4911765d	595813.8

exp_avg f4 [128]
0	0x00000000	0.0
1	0x00000000	0.0
2	0x00000000	0.0
3	0xc122ca97	-10.17446
4	0x434ba7e9	203.6559
5	0x40c4058d	6.1256776
6	0xc289d70d	-68.92002
7	0x40c5511c	6.166151
8	0x413a8a8a	11.658823
9	0xc27f1f35	-63.780476
10	0xc27a1a5e	-62.52575
11	0xc0bb6586	-5.856143
12	0x402b50d0	2.6768074
13	0xc2760ade	-61.510612
14	0x3fd9122b	1.695867
15	0xc134d39e	-11.301664
16	0xc126af3e	-10.417784
17	0x41ddc16a	27.71944
18	0xc2552d92	-53.294502
19	0xc025c5e8	-2.5902042
20	0x00000004	6e-45
21	0x42dff72b	111.98275
22	0xc1da3923	-27.277899
23	0xc085dc2a	-4.1831255
24	0xbee9c93c	-0.45661342
25	0xc06abcc4	-3.6677713
26	0x411cae05	9.792485
27	0xc2838f34	-65.77969
28	0x41c8af5d	25.085627
29	0xbffc8708	-1.9728708
30	0xc2813723	-64.60769
31	0xc0fe397d	-7.9445176
32	0x3f15617e	0.58351886
33	0xc0636936	-3.5532966
34	0xc1408bca	-12.034128
35	0x40c4f1ed	6.154532
36	0x00000004	6e-45
37	0x40d5bfa3	6.679643
38	0x40552555	3.3304036
39	0x00000000	0.0
40	0x423c69cd	47.10332
41	0xc22f540f	-43.83209
42	0x00000004	6e-45
43	0x41823720	16.276917
44	0xc1110271	-9.063096
45	0x40444aca	3.0670648
46	0x42828957	65.26824
47	0x4284542e	66.16441
48	0xbf9171d8	-1.1362867
49	0x00000004	6e-45
50	0xc1019db0	-8.100998
51	0x4073eedc	3.8114538
52	0xc16e9a9f	-14.912749
53	0x00000000	0.0
54	0xc1b1ff0c	-22.249535
55	0x40fe7308	7.951542
56	0xc26a0d0e	-58.51275
57	0xc0aef054	-5.466837
58	0x41057bbe	8.3427105
59	0x00000000	0.0
60	0xc0b90237	-5.7815204
61	0xc26fb45a	-59.926125
62	0x00000000	0.0
63	0xc262cdcd	-56.700977
64	0x00000000	0.0
65	0xc082458e	-4.0709906
66	0x412cdc85	10.803838
67	0x00000000	0.0
68	0xc11bb00a	-9.730478
69	0x3f9b7f73	1.214827
70	0xc2cfae25	-103.840126
71	0xc045d34e	-3.091022
72	0x41947cd7	18.560957
73	0x00000000	0.0
74	0xc091375a	-4.538007
75	0x41881b66	17.013378
76	0x40650701	3.5785525
77	0x41971d00	18.88916
78	0x4372ae7c	242.68158
79	0xc17d3e57	-15.82772
80	0x00000000	0.0
81	0x43c64cc6	396.5998
82	0x00000000	0.0
83	0xc10008e8	-8.002174
84	0x41c20c1f	24.255919
85	0x40b85355	5.7601724
86	0xbea98b35	-0.3311402
87	0x41246311	10.274186
88	0x4206e85c	33.726913
89	0xc09cc335	-4.898829
90	0x00000000	0.0
91	0xc0c267a9	-6.075154
92	0x419e1e9f	19.764952
93	0xc00d8647	-2.2113206
94	0xbfab727a	-1.339431
95	0xbdff034f	-0.12451803
96	0x405d36e2	3.4564748
97	0x00000000	0.0
98	0xc0a67e26	-5.202899
99	0xc1aedada	-21.856861
100	0x3ff0be56	1.8808086
101	0xc24d18a3	-51.27406
102	0xc0296b0f	-2.6471593
103	0x41106ada	9.026087
104	0xc0afb12b	-5.490377
105	0xc248b2d6	-50.174644
106	0x409573ad	4.6703706
107	0xc2444cab	-49.07487
108	0x00000000	0.0
109	0x42ceaaa6	103.3333
110	0xbfc9b697	-1.5758847
111	0x42ac7885	86.23539
112	0x00000000	0.0
113	0xc0754062	-3.8320546
114	0xc067dca5	-3.622842
115	0xbfb397f5	-1.4030749
116	0x418e9ae0	17.825623
117	0x42bc3cae	94.118515
118	0xc16005a8	-14.001381
119	0x00000000	0.0
120	0x4161597c	14.084347
121	0xbf98dcae	-1.1942346
122	0xc15b83f1	-13.719712
123	0x418ca6f1	17.581514
124	0x40b56b51	5.66935
125	0xc25a09c5	-54.50954
126	0x403337bc	2.8002768
127	0xc1f67c6f	-30.810759

exp_avg_sq f4 [128]
0	0x00000000	0.0
1	0x00000000	0.0
2	0x00000000	0.0
3	0x46a1f73a	20731.613
4	0x49bcd159	1.5467951e+06
5	0x4680a6c4	16467.383
6	0x47503a7c	53306.484
7	0x4639167c	11845.621
8	0x45ae7d85	5583.69
9	0x47bcec36	96728.42
10	0x47a62d58	85082.69
11	0x46b104d9	22658.424
12	0x46575d68	13783.352
13	0x479dbb5c	80758.72
14	0x45516f7b	3350.9675
15	0x46ed6a39	30389.111
16	0x48095be0	140655.5
17	0x460afed6	8895.709
18	0x478e32f9	72805.945
19	0x46a424a4	21010.32
20	0x303ad628	6.797074e-10
21	0x48ba499f	381516.97
22	0x48856d28	273257.25
23	0x46b82bdc	23573.93
24	0x46980d03	19462.506
25	0x48243bb8	168174.88
26	0x4632746a	11421.104
27	0x47c3fee2	100349.766
28	0x46c29e00	24911.0
29	0x46a0a38d	20561.775
30	0x47b72157	93762.68
31	0x46ddff70	28415.719
32	0x46572c3a	13771.057
33	0x46d46d15	27190.541
34	0x4717aa36	38826.21
35	0x4728d56d	43221.426
36	0x2c39e98c	2.6419726e-12
37	0x45cd7b04	6575.377
38	0x468f0c0e	18310.027
39	0x00000000	0.0
40	0x4797dc09	77752.07
41	0x47930fce	75295.61
42	0x2c9d659a	4.4734884e-12
43	0x47806b22	65750.266
44	0x48124893	149794.3
45	0x466df070	15228.109
46	0x46d6b034	27480.102
47	0x49244f24	673010.25
48	0x468bb78a	17883.77
49	0x33a954de	7.885113e-08
50	0x46b0194c	22540.648
51	0x45b8499f	5897.2026
52	0x48868f8f	275580.47
53	0x00000000	0.0
54	0x48a78844	343106.12
55	0x46234c3a	10451.057
56	0x47aecdda	89499.7
57	0x470bbd8f	35773.56
58	0x467f37df	16333.968
59	0x00000000	0.0
60	0x46c6256e	25362.715
61	0x4836e430	187280.75
62	0x00000000	0.0
63	0x492343ed	668734.8
64	0x00000000	0.0
65	0x46b5f597	23290.795
66	0x473caca6	48300.65
67	0x00000000	0.0
68	0x4710ad03	37037.01
69	0x46cf9230	26569.094
70	0x48b8c62f	378417.47
71	0x47dc399f	112755.24
72	0x4674053c	15617.309
73	0x00000000	0.0
74	0x467fc7d1	16369.954
75	0x4a721e02	3.9668485e+06
76	0x4674de38	15671.555
77	0x48131586	150614.1
78	0x4952feed	864238.8
79	0x48342e26	184504.6
80	0x00000000	0.0
81	0x49d07195	1.7075706e+06
82	0x00000000	0.0
83	0x47d46ae7	108757.805
84	0x469969c9	19636.893
85	0x468a8071	17728.22
86	0x468816fb	17419.49
87	0x4601d20f	8308.515
88	0x47262120	42529.125
89	0x470ab1c1	35505.754
90	0x00000000	0.0
91	0x475e1504	56853.016
92	0x4582151d	4162.639
93	0x46c4df34	25199.602
94	0x47d2f026	108000.3
95	0x46bc7378	24121.734
96	0x46880843	17412.13
97	0x00000000	0.0
98	0x46d0c434	26722.102
99	0x488c352a	287145.3
100	0x46893e6d	17567.213
101	0x47a126e2	82509.766
102	0x46b2c60b	22883.021
103	0x4650edc9	13371.446
104	0x47db200f	112192.12
105	0x48034481	134418.02
106	0x463cef19	12091.774
107	0x4798ac3f	78168.49
108	0x00000000	0.0
109	0x480bbae4	143083.56
110	0x46de25ed	28434.963
111	0x498bbcf2	1.1447342e+06
112	0x00000000	0.0
113	0x46ab7cfc	21950.492
114	0x466adf93	15031.894
115	0x46b2f7c4	22907.883
116	0x46119ec2	9319.689
117	0x488ffcf3	294887.6
118	0x47015fe7	33119.902
119	0x00000000	0.0
120	0x46027282	8348.627
121	0x469beea3	19959.318
122	0x46f688f4	31556.477
123	0x45df0606	7136.753
124	0x463742de	11728.717
125	0x46e92a96	29845.293
126	0x455e2642	3554.391
127	0x48089e7c	139897.94

exp_avg f4 [64, 128]
0	0x00000000	0.0
1	0x00000000	0.0
2	0x00000000	0.0
3	0x00000004	6e-45
4	0x00000004	6e-45
5	0x00000004	6e-45
6	0x00000000	0.0
7	0x00000004	6e-45
8	0x00000004	6e-45
9	0x00000004	6e-45
10	0x00000004	6e-45
11	0x00000004	6e-45
12	0x00000004	6e-45
13	0x00000004	6e-45
14	0x00000000	0.0
15	0x00000004	6e-45
16	0x00000004	6e-45
17	0x00000004	6e-45
18	0x00000004	6e-45
19	0x00000004	6e-45
20	0x00000000	0.0
21	0x00000004	6e-45
22	0x00000000	0.0
23	0x00000004	6e-45
24	0x00000004	6e-45
25	0x00000000	0.0
26	0x00000004	6e-45
27	0x00000004	6e-45
28	0x00000004	6e-45
29	0x00000004	6e-45
30	0x00000004	6e-45
31	0x00000004	6e-45
32	0x00000004	6e-45
33	0x00000004	6e-45
34	0x00000004	6e-45
35	0x00000004	6e-45
36	0x00000000	0.0
37	0x00000004	6e-45
38	0x00000004	6e-45
39	0x00000000	0.0
40	0x00000004	6e-45
41	0x00000004	6e-45
42	0x00000000	0.0
43	0x00000004	6e-45
44	0x00000004	6e-45
45	0x00000004	6e-45
46	0x00000004	6e-45
47	0x00000004	6e-45
48	0x00000004	6e-45
49	0x00000000	0.0
50	0x00000004	6e-45
51	0x00000000	0.0
52	0x00000004	6e-45
53	0x00000000	0.0
54	0x00000000	0.0
55	0x00000004	6e-45
56	0x00000004	6e-45
57	0x00000004	6e-45
58	0x00000000	0.0
59	0x00000000	0.0
60	0x00000004	6e-45
61	0x00000000	0.0
62	0x00000000	0.0
63	0x00000004	6e-45
64	0x00000000	0.0
65	0x00000004	6e-45
66	0x00000004	6e-45
67	0x00000000	0.0
68	0x00000004	6e-45
69	0x00000004	6e-45
70	0x00000004	6e-45
71	0x00000000	0.0
72	0x00000004	6e-45
73	0x00000000	0.0
74	0x00000004	6e-45
75	0x00000000	0.0
76	0x00000004	6e-45
77	0x00000004	6e-45
78	0x00000000	0.0
79	0x00000004	6e-45
80	0x00000000	0.0
81	0x00000000	0.0
82	0x00000000	0.0
83	0x00000004	6e-45
84	0x00000004	6e-45
85	0x00000004	6e-45
86	0x00000004	6e-45
87	0x00000004	6e-45
88	0x00000000	0.0
89	0x00000004	6e-45
90	0x00000000	0.0
91	0x00000004	6e-45
92	0x00000004	6e-45
93	0x00000004	6e-45
94	0x00000004	6e-45
95	0x00000004	6e-45
96	0x00000004	6e-45
97	0x00000000	0.0
98	0x00000004	6e-45
99	0x00000004	6e-45
100	0x00000004	6e-45
101	0x00000004	6e-45
102	0x00000004	6e-45
103	0x00000004	6e-45
104	0x00000004	6e-45
105	0x00000004	6e-45
106	0x00000004	6e-45
107	0x00000004	6e-45
108	0x00000000	0.0
109	0x00000004	6e-45
110	0x00000004	6e-45
111	0x00000004	6e-45
112	0x00000000	0.0
113	0x00000004	6e-45
114	0x00000004	6e-45
115	0x00000004	6e-45
116	0x00000004	6e-45
117	0x00000004	6e-45
118	0x00000000	0.0
119	0x00000000	0.0
120	0x00000004	6e-45
121	0x00000004	6e-45
122	0x00000004	6e-45
123	0x00000004	6e-45
124	0x00000004	6e-45
125	0x00000000	0.0
126	0x00000004	6e-45
127	0x00000000	0.0
128	0x00000000	0.0
129	0x00000000	0.0
130	0x00000000	0.0
131	0x80000004	-6e-45
132	0x00000004	6e-45
133	0x00000004	6e-45
134	0x00000004	6e-45
135	0x80000004	-6e-45
136	0x00000004	6e-45
137	0x00000004	6e-45
138	0x00000004	6e-45
139	0x00000004	6e-45
140	0x80000004	-6e-45
141	0x00000004	6e-45
142	0x00000004	6e-45
143	0x80000004	-6e-45
144	0x00000004	6e-45
145	0x80000004	-6e-45
146	0x00000004	6e-45
147	0x00000004	6e-45
148	0x00000000	0.0
149	0x00000004	6e-45
150	0x00000004	6e-45
151	0x80000004	-6e-45
152	0x80000004	-6e-45
153	0x00000004	6e-45
154	0x80000004	-6e-45
155	0x00000004	6e-45
156	0x80000004	-6e-45
157	0x80000004	-6e-45
158	0x00000004	6e-45
159	0x00000004	6e-45
160	0x80000004	-6e-45
161	0x00000004	6e-45
162	0x00000004	6e-45
163	0x80000004	-6e-45
164	0x00000000	0.0
165	0x80000004	-6e-45
166	0x80000004	-6e-45
167	0x00000000	0.0
168	0x80000004	-6e-45
169	0x00000004	6e-45
170	0x00000000	0.0
171	0x00000004	6e-45
172	0x00000004	6e-45
173	0x00000004	6e-45
174	0x00000004	6e-45
175	0x00000004	6e-45
176	0x80000004	-6e-45
177	0x00000004	6e-45
178	0x80000004	-6e-45
179	0x00000004	6e-45
180	0x00000004	6e-45
181	0x00000000	0.0
182	0x00000004	6e-45
183	0x80000004	-6e-45
184	0x00000004	6e-45
185	0x80000004	-6e-45
186	0x00000000	0.0
187	0x00000000	0.0
188	0x80000004	-6e-45
189	0x00000004	6e-45
190	0x00000000	0.0
191	0x00000004	6e-45
192	0x00000000	0.0
193	0x00000004	6e-45
194	0x80000004	-6e-45
195	0x00000000	0.0
196	0x00000004	6e-45
197	0x80000004	-6e-45
198	0x00000004	6e-45
199	0x00000004	6e-45
200	0x80000004	-6e-45
201	0x00000000	0.0
202	0x80000004	-6e-45
203	0x00000004	6e-45
204	0x00000004	6e-45
205	0x00000004	6e-45
206	0x00000000	0.0
207	0x00000004	6e-45
208	0x00000000	0.0
209	0x00000004	6e-45
210	0x00000000	0.0
211	0x00000004	6e-45
212	0x80000004	-6e-45
213	0x00000004	6e-45
214	0x00000004	6e-45
215	0x80000004	-6e-45
216	0x00000004	6e-45
217	0x00000004	6e-45
218	0x00000000	0.0
219	0x00000004	6e-45
220	0x00000004	6e-45
221	0x00000004	6e-45
222	0x00000004	6e-45
223	0x80000004	-6e-45
224	0x80000004	-6e-45
225	0x00000000	0.0
226	0x80000004	-6e-45
227	0x00000004	6e-45
228	0x00000004	6e-45
229	0x00000004	6e-45
230	0x80000004	-6e-45
231	0x80000004	-6e-45
232	0x00000004	6e-45
233	0x00000004	6e-45
234	0x80000004	-6e-45
235	0x00000004	6e-45
236	0x00000000	0.0
237	0x00000004	6e-45
238	0x00000004	6e-45
239	0x00000004	6e-45
240	0x00000000	0.0
241	0x00000004	6e-45
242	0x80000004	-6e-45
243	0x00000004	6e-45
244	0x80000004	-6e-45
245	0x80000004	-6e-45
246	0x00000004	6e-45
247	0x00000000	0.0
248	0x00000004	6e-45
249	0x80000004	-6e-45
250	0x80000004	-6e-45
251	0x00000004	6e-45
252	0x00000004	6e-45
253	0x00000004	6e-45
254	0x80000004	-6e-45
255	0x00000004	6e-45
