checkpoint copy.pth (torch, 117474 bytes, 18 tensors)

fc1.weight f4 [128, 5]
000000 c4 4b 62 c0 41 53 c4 c0 97 b5 94 3f 71 6c 01 40
       -3.5358744 -6.135163 1.1617917 2.0222437
000010 dc bf 87 bf 65 53 29 c0 cc 54 34 3f 2f 3d ea bf
       -1.0605426 -2.645715 0.7044189 -1.8299922
000020 4d b1 7e 3f 00 1e 25 3e ed 53 35 40 aa 71 47 40
       0.9948929 0.16124725 2.8332474 3.1163125
000030 04 c4 dd bf 0e bc 24 c0 bb c4 a0 bf 5e 17 35 c0
       -1.7325444 -2.573978 -1.2560037 -2.8295512
000040 65 75 bf 3f 32 8a 7f 3f 0d e3 80 be 2b 43 b6 3f
       1.4957701 0.99820244 -0.25173226 1.4239248
000050 32 ed a0 3d 9f bc cd bf 08 15 9a 3f 92 9a 04 c0
       0.078577414 -1.6073188 1.2037668 -2.0719342
000060 ee 4d aa 3f 63 f2 98 40 c6 3b d0 be 6a 74 fd 3f
       1.3305032 4.779588 -0.40670604 1.9801152
000070 d0 bc e1 bf af 0d 4f 3f a8 f0 5d 3e 9e 3b c5 bd
       -1.7635746 0.80880255 0.21673834 -0.09630512
000080 4f 5b ad be ad e7 32 3e 80 72 da be c5 91 21 c0
       -0.33858725 0.1747119 -0.42665482 -2.524522
000090 2e fd be 3f 18 bb 24 3f c6 85 d6 bb 77 c2 d3 3f
       1.4921014 0.6434798 -0.0065467088 1.6543721
0000a0 90 17 aa 3e c2 19 fc bf ce f6 6b 3f 47 98 01 c0
       0.33221102 -1.9695361 0.9217347 -2.0249193
0000b0 bf ac 9b 3f 5d 02 03 bc 35 15 5e 3e 2f b3 6f 3d
       1.2162093 -0.007996169 0.21687777 0.058520492
0000c0 a7 1b 84 3e 79 56 0f be fd 53 c1 3e e6 b5 e1 3c
       0.25802347 -0.1399783 0.3775939 0.027552556
0000d0 a0 b9 04 be 69 4f 9e 3e e6 9d e3 be 6c 82 1a 3f
       -0.12961435 0.3091996 -0.44456404 0.6035526
0000e0 c5 c2 00 c0 eb 93 02 40 12 1f 79 bf de 4a a4 3f
       -2.0118878 2.0402782 -0.97313035 1.2835348
0000f0 73 bf b0 3e 11 70 03 c0 8c 41 a2 3e ea 86 f7 bf
       0.34521064 -2.053715 0.31690633 -1.9338048
000100 8e d5 c5 3f eb d3 a7 40 7f c3 e9 be 66 d7 f6 3f
       1.5455797 5.244619 -0.45656964 1.9284484
000110 3a c0 00 c0 ca 5d 72 3f 23 f7 0c 3f d5 ae e3 bf
       -2.0117326 0.9467436 0.550646 -1.778773
000120 3e 0b e1 3f ed 30 bb bf 2b bb cf 3f 77 f3 d0 bf
       1.7581556 -1.4624306 1.6228994 -1.63243
000130 f3 70 64 c0 08 7c 87 bf c8 c0 75 3e ea 4c d4 bf
       -3.5693939 -1.0584726 0.23999321 -1.6585972
000140 71 df 2a 40 11 38 58 40 7a 7a b8 bf 38 6e 17 c0
       2.6698878 3.378422 -1.4412377 -2.3661022
000150 c9 e8 9f bf 2e e2 b5 be c8 de 0a 3e 02 eb 4c be
       -1.2492915 -0.35524124 0.13561547 -0.20011523
000160 b5 16 9f 3e 4b f4 a6 be d5 8e d3 be 21 86 b4 be
       0.31072012 -0.32608256 -0.4131991 -0.35258582
000170 d5 8b 44 3e c4 6c b1 3e 37 e6 08 be 5c 60 b4 bf
       0.19193967 0.34653294 -0.1336907 -1.4091907
000180 d5 6e 80 c0 87 4d db 3f f5 e8 eb bf 9b 86 2d 40
       -4.0135293 1.7133034 -1.8430468 2.7113407
000190 f5 8d 09 bf d2 ff 11 c0 32 3b 75 40 5d fb 40 bf
       -0.53732234 -2.281239 3.831738 -0.7538355
0001a0 59 2e d5 3f de 74 0d 3e 89 f0 94 bc 9c 11 c6 be
       1.6654769 0.13814113 -0.018181102 -0.3868531
0001b0 39 ac 50 bd 3d 7e 4e be 73 20 9e bf 84 3f 94 c0
       -0.050945494 -0.20165344 -1.2353653 -4.6327534
0001c0 4c 2a 4c bf 26 02 66 3f 22 b7 00 c0 2e 6f 31 3d
       -0.7975204 0.8984703 -2.0111775 0.04331892
0001d0 a6 4e c1 bf 9e 65 9b 3f 24 e9 f6 bf 26 41 ae 3f
       -1.5102127 1.2140386 -1.9289899 1.3613632
0001e0 77 c5 01 3f 5f 78 04 c0 3f af ef 3f 06 97 84 bf
       0.5069193 -2.0698469 1.8725356 -1.0358589
0001f0 5f a8 8f 3f b4 aa 37 40 06 ac 61 40 26 e2 4a bf
       1.1223258 2.869794 3.5261245 -0.79251325
000200 0a a3 d3 bf 65 80 a8 bf ee be 87 3e c9 88 03 c0
       -1.653413 -1.3164183 0.26512855 -2.0552237
000210 3d 56 01 40 57 98 03 bf 62 3b b3 3f 14 11 ad be
       2.0208886 -0.5140433 1.4002497 -0.33802092
000220 44 03 b9 be f6 e8 9c be be 12 8a 3e a3 44 50 bd
       -0.36135304 -0.30646485 0.26967424 -0.050846707
000230 ff 9a 0b 3e b4 aa c4 bf 88 66 94 3f ff 51 05 c0
       0.13633345 -1.5364594 1.159379 -2.0831296
000240 b1 85 ab 3f 48 82 22 c0 73 b6 23 3f 34 1c c0 bf
       1.3400174 -2.5392017 0.6395027 -1.5008607
000250 25 fe 2a 3f 9b 76 a2 3e e9 49 46 40 5c 11 bf bf
       0.66794044 0.31731114 3.098261 -1.4927173
000260 9b b7 3e 3d b3 0c 3b 3f 40 7c c2 bf 17 43 f7 be
       0.04656182 0.7306625 -1.5194168 -0.48293373
000270 50 81 c7 bf 4a c2 37 40 ea 28 ed be fc 92 c7 3f
       -1.5586338 2.8712335 -0.46320277 1.5591731
000280 05 cb 80 40 49 22 d8 3f a2 eb f7 bf 54 92 3e c0
       4.0247827 1.6885463 -1.9368784 -2.9776812
000290 f8 f6 15 c0 8d 98 d5 bd 90 8b 18 c0 d2 c0 3d 40
       -2.3431988 -0.104294874 -2.3835182 2.9648938
0002a0 61 b0 97 bf 31 31 96 3f 32 ce 48 bd 6d f5 93 bd
       -1.1850702 1.1733762 -0.04902477 -0.07224546
0002b0 9f d0 16 be e2 28 a4 3e 23 e5 b5 be 85 a8 80 40
       -0.1472802 0.3206244 -0.3552638 4.020571
0002c0 b1 21 2c 40 d5 ce e8 bf 69 0e 2f c0 33 5c ca bf
       2.6895564 -1.818812 -2.7352545 -1.5809387
0002d0 70 a2 86 3e 11 5b a0 bf 26 05 04 40 77 9f 9b bf
       0.26295805 -1.2527791 2.0628142 -1.215804
0002e0 fd 3c eb 3f ad 26 c6 be a3 a1 45 3e a6 e7 84 bd
       1.8377987 -0.38701382 0.19299941 -0.06489496
0002f0 8d 35 d1 3e 6b 13 b0 be ca 42 99 40 e5 d2 36 bf
       0.40861169 -0.34389815 4.789403 -0.7141555
000300 29 a2 d8 3f 79 12 e8 bf e6 3a cf 3e d2 22 b8 3e
       1.6924487 -1.8130637 0.40474623 0.35964066
000310 fa 03 07 c0 a7 e3 9d 3f 5f 54 9d bf d4 ac 7a 3f
       -2.1096177 1.2335099 -1.2291373 0.97919965
000320 30 7c 2e 3d 13 c9 97 bf ff 9f d5 3f 10 fc f7 bf
       0.042598903 -1.1858238 1.6689452 -1.9373798
000330 97 ef d4 3f c4 48 62 3f ec 87 1b c0 8f 64 62 40
       1.6635617 0.8839228 -2.430171 3.5373876
000340 84 ba 4d bf eb 2a ab 3f bf 50 26 be 94 e0 e2 3d
       -0.80362725 1.3372473 -0.1624174 0.11077991
000350 87 63 8a be b1 52 02 3e 61 ff bb be 50 a1 32 bd
       -0.27029058 0.12726857 -0.36718276 -0.04361087
000360 88 c5 06 c0 aa 1a 85 3f 60 5f e1 bf be 37 9f 3f
       -2.1058064 1.0398762 -1.7607231 1.2438886
000370 41 d7 49 40 33 e5 4f 40 9b 34 ba bf b5 71 13 c0
       3.153763 3.2483642 -1.4547304 -2.3038151
000380 4b 9e 78 bf cc 6c ce bd 9b ba 23 be ac fb b8 3c
       -0.97116536 -0.10079345 -0.15989153 0.022580944
000390 e5 64 d2 3e fc d7 ac bd f3 b8 27 40 5c c0 64 40
       0.410926 -0.08439633 2.6206634 3.5742407
0003a0 1c db 68 bf e8 45 fc bf ca 5a 6d bf 6b 4e fd bf
       -0.90959334 -1.9708834 -0.9271666 -1.9789556
0003b0 f6 d3 65 c0 b0 90 ad 3f 4f f2 d0 bf d9 49 47 40
       -3.591062 1.355978 -1.6323947 3.1138823
0003c0 5a b0 9e 40 7d 2c d6 be ca 3d f0 3f 07 81 fd bf
       4.9590273 -0.41830817 1.8768857 -1.9805001
0003d0 35 75 61 3f d8 f3 16 3e 51 34 9b bf 70 c9 94 3f
       0.8806947 0.14741457 -1.2125341 1.1623974
0003e0 f3 7c db bf 66 be e3 3f 1c 09 9f 3e 6c fe 08 c0
       -1.7147506 1.779248 0.31061637 -2.1405287
0003f0 96 7a 61 3f 0c 34 a1 bf 49 ac 53 3f a4 0f 13 be
       0.88077676 -1.2594008 0.8268476 -0.14361435

fc1.bias f4 [128]
000000 14 2e a5 be c8 6e 37 3e 7c 30 85 3f 46 9a 34 3f
       -0.32261717 0.17913353 1.0405421 0.705479
000010 d0 ab 0b 40 9f 4d 91 3f 43 c7 02 3e a2 9d 87 3f
       2.1823616 1.1351813 0.12771325 1.0594981
000020 8f 2c 09 40 b8 f6 f6 be e4 08 8f 3e f5 e2 e6 3f
       2.1433446 -0.48235106 0.2793647 1.8038012
000030 c4 9b e4 3f 00 e8 47 3f d6 ef 11 40 30 53 72 bf
       1.7860036 0.7808838 2.2802634 -0.94658184
000040 a2 de 90 3f c6 45 c4 be cf da ea bd 90 23 34 40
       1.1317942 -0.38334483 -0.11467516 2.8146706
000050 4a 9a df 3f 63 e4 86 be 09 c5 54 bf 7d c2 f5 3f
       1.746896 -0.2634612 -0.8311315 1.9199978
000060 65 d9 e4 3f 9d 00 a2 3f fe 04 95 3f 8c 46 45 bd
       1.7878844 1.2656437 1.1642148 -0.048162982
000070 72 ec f6 3f 80 a2 fe bd 1e 17 b1 bf 0a 56 98 3f
       1.9290907 -0.12433338 -1.383518 1.1901257
000080 c9 2f 8d 3f 83 9e b8 3f 48 05 28 bd 3e 6d 56 3f
       1.1030208 1.4423374 -0.04102066 0.8376044
000090 d9 be ea 3f b1 3a d2 bc 2e 5e 4c 3f 9d f5 de 3f
       1.8339492 -0.025662752 0.79831207 1.7418705
0000a0 57 c1 11 40 fd 5d 88 3f 04 3d c5 bd 0f e2 b1 3f
       2.2774255 1.0653683 -0.096307784 1.3897113
0000b0 57 ca 28 3f 51 a9 32 be d1 1d 49 3f 5b ec 36 40
       0.65933746 -0.17447402 0.7856112 2.858176
0000c0 ed e6 78 3f 23 26 07 40 92 b7 e3 3f d6 fc af be
       0.97227365 2.1117027 1.7790396 -0.34372586
0000d0 60 3a f6 3f 8b 5e 4a bd a6 99 60 3e 62 f3 f4 3e
       1.9236565 -0.04940657 0.21933612 0.47841936
0000e0 79 16 c8 3f 31 92 a5 be 1e c5 49 3f 9f 21 ab 3f
       1.5631858 -0.32338098 0.788164 1.3369635
0000f0 dc b0 f6 3f c6 5d 89 3f e8 c9 15 40 dd 76 11 3f
       1.9272723 1.0731742 2.3404484 0.56821996
000100 e0 fd 7b 3f 36 fe cd 3f 88 72 7f be 4c 68 d7 3f
       0.9843426 1.6093204 -0.24946034 1.6828704
000110 8e d0 ed 3f 49 2d 6c 3f 2f 27 44 3d 1b d8 f1 3f
       1.8579271 0.922566 0.04788893 1.8894075
000120 e3 2f 2b bf f6 36 bf 3f 83 cc d8 3e 5b d3 e1 3f
       -0.66869944 1.4938648 0.4234353 1.7642626
000130 13 98 07 40 c5 e0 de be 3a 55 e2 3f 7d ca 7b be
       2.1186569 -0.4353086 1.7682259 -0.24588962
000140 ba 05 37 40 d3 55 f6 3f 0e ec 09 40 94 e5 9e 3f
       2.8597245 1.9244941 2.1550326 1.2413812
000150 d5 5b d0 3f 4b 96 1a 40 b5 bf e8 3f 1e d5 14 bf
       1.6278025 2.4154232 1.8183504 -0.5813769
000160 85 83 16 3e 31 9f b7 3f 66 05 f4 3f b6 70 ed be
       0.14698608 1.4345456 1.9064147 -0.46375054
000170 b7 1f 9e be b2 06 8c 3f 06 33 b6 3f f1 3c a8 3f
       -0.30883572 1.0939543 1.4234321 1.3143598
000180 36 f0 9e 3f 6f 98 8f be 67 d8 3f 3f b5 7f f3 3f
       1.2417057 -0.28045985 0.7493958 1.9023348
000190 f9 dd eb 3f bd e6 cd 3f fb 14 78 bf 9f 8d 95 be
       1.8427116 1.6086041 -0.96907014 -0.2920961
0001a0 16 d9 61 3f 89 c9 c0 3f 00 4b c4 3f 39 eb c0 bd
       0.8822187 1.5061504 1.5335388 -0.09419865
0001b0 11 48 ab 3f f3 58 7c 3f e5 d9 d8 be da 31 be 3e
       1.3381368 0.98573226 -0.4235374 0.3714741
0001c0 ad ed fa 3f 04 a4 14 40 78 84 81 3f 77 0a 68 3f
       1.9603783 2.3225107 1.0118551 0.9064097
0001d0 c9 8e 22 40 89 04 a9 3e 28 72 ce 3f a3 06 15 3e
       2.539965 0.33011273 1.6128588 0.14553313
0001e0 9d 03 87 3f bf e8 59 3d 31 6d b1 3f d5 2e 84 3e
       1.0547978 0.05320048 1.3861448 0.2581698
0001f0 9e 3f f0 3f e3 bf b3 be e7 64 60 3f b6 96 ae 3f
       1.8769414 -0.35107335 0.87653965 1.3639743

fc2.weight f4 [64, 128]
000000 aa aa 3a 3d f7 38 6a bd 5b f3 b4 bd 60 d7 e6 bc
       0.045572914 -0.057183232 -0.08835479 -0.02817887
000010 ac c0 24 3d 89 4a a4 bd b7 ec 48 3b 77 6a 35 3c
       0.04022281 -0.08022029 0.0030658671 0.0110727465
000020 34 ca 22 bd 69 bb 81 bd 7b f9 0e bc ae 69 ae bc
       -0.039743617 -0.06334574 -0.008726473 -0.021290626
000030 6e a5 ac bd e1 79 8f 3c b8 6b 69 bd e8 e5 27 3d
       -0.08429991 0.017514171 -0.056987494 0.04099074
000040 5a 3a ee 3b c7 20 7b 3c 60 a5 aa 3d 4b 50 4b 3c
       0.0072701396 0.015327639 0.08332324 0.01240928
000050 46 9f 89 bd be a6 55 bd ed fa 83 bd 33 f1 0e bd
       -0.06719832 -0.05216097 -0.06444345 -0.034897994
000060 40 a9 a1 3c a1 2c ee bd c1 84 ee 3c 5c 32 63 bd
       0.019734025 -0.11629606 0.029116036 -0.05546795
000070 01 ab ce bd 8a 82 7a bd 93 73 0e bd e3 19 13 bd
       -0.1009121 -0.061159648 -0.03477819 -0.03591336
000080 36 98 43 bd e8 71 57 3d 55 be 85 3c 4b a1 a2 bd
       -0.04775258 0.052598864 0.016326109 -0.079409204
000090 0d 41 df 3c 30 ca 1c 3d 12 ae 69 3c 2c 72 71 bd
       0.027252698 0.03827876 0.014262693 -0.058946773
0000a0 db 25 4e 3b 91 06 b5 bd 95 03 97 3c b8 18 b7 bd
       0.003145567 -0.08839143 0.018434325 -0.089402616
0000b0 f9 1e 61 3d e5 df 95 bd 79 5b 40 bd 01 29 8a bd
       0.05496118 -0.07318095 -0.046962235 -0.06746102
0000c0 d8 ad 63 bd 8a 15 20 bd 6f f4 18 bc d0 53 df bc
       -0.055585712 -0.03908304 -0.009335621 -0.027261645
0000d0 a8 47 28 3d 8e d4 8d 3c 0d 62 e1 bd a1 99 50 3d
       0.04108396 0.017313268 -0.1100503 0.050927762
0000e0 56 90 e0 3c ad 96 12 bd 1c bf 08 3d af 1e cd bd
       0.027412575 -0.035788227 0.03338538 -0.10015618
0000f0 3b 34 52 bd ab b5 09 bd 9e b5 75 3b 91 07 ea bd
       -0.051319342 -0.033620518 0.0037492285 -0.114272244
000100 d3 bb 55 bd 26 1c b0 bc 11 d6 a7 bd 15 c7 2d bc
       -0.052181076 -0.021497797 -0.08195127 -0.010606547
000110 47 a6 c8 3c a5 f3 39 bd 97 0e 6a 3d 43 ba 5f bd
       0.02449335 -0.045398373 0.05714282 -0.054620992
000120 ee 82 8b 3d 85 49 ef 3c 74 60 48 3d a1 07 64 bd
       0.06812082 0.029209862 0.04892011 -0.055671338
000130 8d a4 11 bd d6 51 78 3d 12 97 fb 3c 25 f1 ad bd
       -0.03555732 0.06062492 0.030711684 -0.0849326
000140 47 8c 76 3d 95 62 aa bd 11 d4 ba bb 80 cf 0d 3d
       0.060192373 -0.08319584 -0.00570155 0.034621716
000150 1c 21 57 3c 76 93 05 ba 98 fa e2 bb b7 13 be 3c
       0.0131304525 -0.0005095521 -0.0069268458 0.02320276
000160 b8 16 7e bd f5 8f 7a bd 2d 56 1d bc fa 27 3f 3d
       -0.062033385 -0.061172444 -0.009603065 0.046668984
000170 6d 5b 4e bd 64 18 91 bd 91 0b 77 bd 03 a5 ab bd
       -0.05038016 -0.0708473 -0.060313765 -0.08381083
000180 6d d4 fb bc bf 9d 51 bd 9f d0 79 3c 2a 65 51 bc
       -0.030740941 -0.05117583 0.015247493 -0.012780467
000190 cf 9b b4 bd a6 4b 00 3c da 2b 7e 3d 4c fd 8c 3d
       -0.08818781 0.007830536 0.06205354 0.0688425
0001a0 18 cf 6c bd 9b 5a 2e 3d ba b7 3e bc 32 60 ad bd
       -0.057814687 0.042566877 -0.0116404835 -0.084656134
0001b0 1d 8f a9 bc 7a cd af bd 96 8f af bd 79 e7 0a 3c
       -0.020698125 -0.085841134 -0.08572309 0.008478039
0001c0 4a 6d 59 bd c5 bc 67 3d 63 1c 44 bd b9 52 61 3d
       -0.05308274 0.05657651 -0.047878634 0.05501053
0001d0 94 4c e2 bd 0b 32 2e 3c a8 3d 3f bd 38 d4 d8 bc
       -0.11049762 0.010632048 -0.04668966 -0.026468381
0001e0 e1 0b 84 3d 9f 78 83 3d 43 7c 0f 3c 8f 5e 7b bd
       0.06447578 0.06419491 0.008757654 -0.061369475
0001f0 01 41 3c 3d db ce a5 bd 23 b4 a8 bc 92 11 52 bd
       0.04596043 -0.08096095 -0.020593708 -0.051286288
000200 18 48 8f 40 a8 a7 a0 3f ed aa 29 40 a4 7c 00 3f
       4.4775505 1.2551165 2.6510575 0.50190187
000210 3a 10 96 3f 27 52 ec c0 00 a5 b9 3b e5 66 1f 3f
       1.1723702 -7.3850284 0.0056654215 0.6226638
000220 02 ca 90 3f b0 51 18 bd f4 29 6d bc 36 ff b3 3f
       1.1311648 -0.03718728 -0.014475334 1.4062259
000230 19 7a 8a 3f 80 1e ce c0 3e 30 9e 3f 42 4c dd 3f
       1.0818511 -6.441223 1.2358472 1.7288897
000240 7d ad 19 40 41 b6 93 3d 90 fc 21 bd 1d 11 4a 40
       2.401214 0.072124965 -0.039547503 3.1572945
000250 2a 72 f6 3e b7 b9 5f 3d f0 f8 3e 40 66 aa aa 3f
       0.48133975 0.05462047 2.983944 1.3333251
000260 eb 4e 98 3f c9 c9 13 40 ac b8 77 3f 13 fe 0f 3d
       1.1899084 2.309191 0.9676616 0.035154413
000270 6c 65 b1 3f 4d 0f b6 3f 6c 02 8b c0 49 b7 93 3f
       1.3859076 1.422342 -4.3440456 1.1540309
000280 94 83 20 40 f5 5e 30 3f 56 ea 3c 3d 46 e1 16 40
       2.508031 0.6889489 0.046121918 2.3574996
000290 78 3e c1 3f 02 6c 44 3d 99 7e aa c0 af a2 85 3f
       1.5097189 0.047954567 -5.327954 1.0440272
0002a0 e8 f5 a9 3f f1 19 2f 3f 7b de d5 bc 42 25 93 3f
       1.327817 0.6839896 -0.026107064 1.1495745
0002b0 60 8f 19 40 9f 4e a0 bc 91 63 17 40 de 23 54 40
       2.399376 -0.01956874 2.365452 3.3146892
0002c0 8d 1b d7 c0 f8 6a aa 3f 12 7d 86 3f ad fb b4 3d
       -6.722113 1.3313894 1.0506918 0.08837066
0002d0 76 6e a8 3f 33 c8 af c0 50 14 8c 3f 94 32 ab c0
       1.315871 -5.4931884 1.0943699 -5.349924
0002e0 de 5e 95 3f eb ee 2e bd b3 16 c3 3f 95 0a 1a 40
       1.1669576 -0.04270832 1.5241302 2.4068959
0002f0 3a e4 96 3f 87 3d a9 3f ef 22 a3 3f 1d ae fc 3e
       1.1788399 1.3221902 1.2745036 0.49351588
000300 1f 03 81 3f 51 eb 9f 3f bb cb ee 3d 5a 38 88 3f
       1.0079077 1.2493688 0.11659952 1.0642197
000310 fb cb b0 3f 8d 2e cc c0 34 b4 66 3d d1 a8 91 3f
       1.381225 -6.3806825 0.0563242 1.1379644
000320 be 11 98 40 ed d7 b0 3f 4e 2d cd b9 34 92 8d 3f
       4.752166 1.3815895 -0.00039134402 1.1060243
000330 11 96 8b 3f c8 bf b4 bd 85 09 a8 3f 14 24 25 3d
       1.0905172 -0.08825642 1.3127905 0.04031761
000340 6c 49 45 40 86 d3 a4 3f c5 35 b5 3f be 70 e4 c0
       3.0826063 1.2877052 1.4157034 -7.1387625
000350 4f c8 b7 3f 41 c0 47 40 68 7a a6 3f 14 c9 5a 40
       1.4358004 3.1211092 1.3006105 3.4185228
000360 6e b6 75 bd 96 84 93 3f d7 fa 9b 3f 80 b3 ec 40
       -0.05998843 1.1524837 1.2185925 7.3969116
000370 06 2d 97 bb ea eb a2 3f 78 b2 aa 3f 48 14 1a 40
       -0.0046135215 1.2728245 1.3335714 2.4074879
000380 7c ad 43 3f fe 1c 4a bc ba 97 ab 3f 79 76 97 3f
       0.7643659 -0.012336014 1.3405678 1.183303
000390 27 bf a8 3f 2e ba ba c0 cb af 8f 40 54 dd 5c 3d
       1.3183335 -5.835227 4.490209 0.053922012
0003a0 c6 fd b7 c0 ca f5 d0 c0 47 d4 92 3f c6 79 a3 3d
       -5.749728 -6.5300035 1.1471032 0.07982211
0003b0 24 e3 a6 3f ab ed b4 3e c1 73 44 3d c1 65 b0 c0
       1.3038068 0.35337576 0.047961954 -5.512421
0003c0 5e f2 53 40 10 8b b3 3f 73 f2 84 3f b4 d0 d1 c0
       3.311668 1.4026814 1.038649 -6.5567265
0003d0 74 45 06 c1 43 b9 ee c0 02 9f 8e 3f a3 fa e3 40
       -8.391956 -7.460115 1.1142275 7.1243453
0003e0 b5 85 c1 c0 26 3c b6 3c 12 43 34 3f 75 5e 16 40
       -6.0475717 0.022245478 0.7041484 2.3495152
0003f0 54 ba a9 3f a6 8d 40 bb f2 b8 1a 40 45 c6 66 3f
       1.3259988 -0.0029381304 2.4175382 0.90146285

fc2.bias f4 [64]
000000 a6 7b 79 3c 85 f0 52 3f 48 ab 18 40 35 69 00 40
       0.015227234 0.82398254 2.3854542 2.0064213
000010 61 08 04 40 37 32 73 bd 21 54 57 3d 91 81 1c bd
       2.0630114 -0.05937406 0.052570466 -0.0382095
000020 3a 36 90 be c8 ee ba 3c 6c a4 56 bd 9f 71 bc bd
       -0.28166372 0.022818938 -0.0524029 -0.09201359
000030 90 ec ef bd 03 f5 9e 3d 81 e9 92 bd 7c 5f a7 3c
       -0.117150426 0.07761576 -0.071734436 0.020431273
000040 2d 5c 50 3f d2 ce 58 bc 58 ac 60 3d eb 07 c0 bb
       0.8139065 -0.013232904 0.05485186 -0.005860319
000050 24 2b 98 bd b3 0b af bd c9 b7 74 3c 5d de 68 be
       -0.074301034 -0.08547153 0.014936396 -0.22741075
000060 c6 f7 c8 bd 02 cb 95 bd 61 15 ca bd 98 3e 8e bc
       -0.09812884 -0.07314111 -0.09867359 -0.017363831
000070 7b 40 0d 3d ef 5b dd 3b 49 e4 81 3d 12 f7 90 be
       0.03448532 0.006755344 0.0634237 -0.283135
000080 62 82 35 40 19 d7 b2 3c 8c 80 cc 3f 01 ec 09 40
       2.836083 0.021831082 1.5976729 2.1550295
000090 e4 56 1c 3d 57 2f 97 bc da ce 96 3f d6 f2 89 3d
       0.038168803 -0.01845519 1.1781876 0.067357704
0000a0 ad 40 8d bc d4 fa 45 3d 45 10 6d be 2e 18 f2 bc
       -0.017242754 0.04833491 -0.23150738 -0.029552545
0000b0 f8 94 e9 bc 31 1b f6 be ef f1 ae bd 98 24 4e be
       -0.028513417 -0.4806762 -0.08542239 -0.20131147
0000c0 85 a2 91 3f 85 3c df 3c b8 df 6f 3f 6c 56 b8 bd
       1.1377722 0.027250538 0.9370074 -0.09000859
0000d0 ea 57 04 bd ae a7 a2 3b 26 02 91 bd 60 24 6b 3f
       -0.032310404 0.0049638366 -0.07080488 0.9185238
0000e0 a2 0f a7 3f a6 14 13 be d1 f9 2a bd 2c a4 44 bd
       1.3051646 -0.14363346 -0.04174215 -0.04800813
0000f0 eb e8 82 bb a3 5a d6 3e be a7 d6 3a ec b6 07 be
       -0.003995051 0.41866025 0.0016376895 -0.13253373

fc3.weight f4 [2, 64]
000000 9e f2 bd 3c cd a0 82 be 2e 2e 84 3f 6f 70 0c c0
       0.023186978 -0.25513306 1.0326593 -2.1943624
000010 34 e4 0d c0 84 ba f1 bb 97 c3 da 3b 70 9b ba bd
       -2.2170534 -0.0073769707 0.006676148 -0.091116786
000020 aa a8 bf bf d0 20 64 bd b0 23 29 3d 86 67 80 bc
       -1.4973347 -0.055695355 0.0412938 -0.015674364
000030 91 08 b5 bc 23 de 5e 3c c1 13 92 bc 3a 21 3e 3d
       -0.022098811 0.013602766 -0.017831685 0.046418406
000040 e3 ce 49 bf 28 f3 c4 3b 0c 93 96 bb a6 82 84 bd
       -0.7883131 0.006010432 -0.004595166 -0.06470232
000050 20 50 83 bc c9 2a 9b 3c 27 76 84 bb 35 8b b6 bf
       -0.016029418 0.0189413 -0.004042405 -1.4261233
000060 52 6e 6e bd d4 a9 c1 bf ec d8 d3 3d 15 01 b9 bc
       -0.05821068 -1.5129952 0.10344109 -0.022583524
000070 7e 53 93 bd d0 21 65 bd 07 72 cc bd 94 fa d3 bf
       -0.07193659 -0.05594045 -0.099826865 -1.6560845
000080 48 99 0d 40 2c 33 5e 3d 54 40 df bd 17 e3 0e c0
       2.2124805 0.05424802 -0.109009415 -2.2326105
000090 19 61 81 3d fb 2a 8b 3d 0f e7 09 c0 ac 74 6c bd
       0.06317348 0.06795307 -2.1547277 -0.057728454
0000a0 4e c9 3d 3d 5e 6d b5 3d 34 58 b3 bf 68 dd ac 3d
       0.046334557 0.08858751 -1.4011292 0.084406674
0000b0 dc a6 97 bd 55 14 b8 bf 52 60 29 bc b4 ac bb bf
       -0.07404873 -1.4381205 -0.010337906 -1.466208
0000c0 5c fd 46 40 56 58 6c bc 19 44 08 40 00 6b 17 3a
       3.1092138 -0.014425358 2.1291564 0.0005776137
0000d0 50 9e 29 3d 12 67 fc 3d a4 9d a5 3d 91 1c a1 3e
       0.041410744 0.123243466 0.08086708 0.31467107
0000e0 32 30 05 c0 e0 ae 9b bf 9d 0f 71 3d b1 64 e8 ba
       -2.0810666 -1.2162743 0.05885278 -0.0017730204
0000f0 fa e3 9f bc 3c f9 51 3f 44 1b 2c bd 4c ff 4d bd
       -0.019517887 0.82020926 -0.04201819 -0.0502923
000100 1f e1 cd 3d 56 a5 a9 bf 40 14 0d 40 55 09 be bf
       0.10052704 -1.3253582 2.204361 -1.4846598
000110 24 7f cf bf fe 79 d1 bc 9a 76 04 3e 00 02 86 3c
       -1.6210675 -0.025570866 0.12935868 0.016358376
000120 8a aa 12 c0 41 68 07 3e aa ec e0 3b 40 6b f3 bc
       -2.2916589 0.13223363 0.00686415 -0.029714227
000130 05 5e ba bb ee e2 e6 3c 74 0f 8a bd 4a ff 29 3d
       -0.0056874775 0.02818438 -0.06741229 0.04150323
000140 de 3d c0 bf 6a 27 84 3d 03 65 04 3d 16 bd c0 bd
       -1.501888 0.0645283 0.032322895 -0.09411065
000150 00 f3 3a 3c 7f f3 87 bd ad 6a fa 3c 09 a4 0f c0
       0.011410475 -0.0663824 0.030568445 -2.244387
000160 2b aa 41 bd c8 9f 0d c0 2c e9 b3 3d 50 c1 ab 3c
       -0.047281425 -2.2128773 0.087847084 0.020966202
000170 4a 76 e5 bd b2 6e b4 3d 29 c2 7e bd b7 8a be bf
       -0.112042025 0.08810176 -0.062196884 -1.4886082
000180 02 cd ca 3f f6 99 d5 bd ad da 06 c0 fa 69 cb bf
       1.5843813 -0.10429756 -2.107097 -1.5891716
000190 39 05 28 bd a8 fe 0d bd 39 86 31 3f cb 9e eb 3d
       -0.041020606 -0.034666687 0.6934543 0.11504897
0001a0 10 02 83 3d 6e 8e ec bd 2e f7 14 c0 bd eb 24 bd
       0.06396878 -0.11550604 -2.3275867 -0.04026388
0001b0 6c 41 c4 bd a4 b2 62 bf 66 1d b8 bd 94 f7 0f c0
       -0.09582791 -0.88553834 -0.08989982 -2.249486
0001c0 81 10 da bf 86 28 a0 bb 5c 24 9f bf 9c b4 5e 3c
       -1.7036287 -0.0048876433 -1.2432971 0.013592865
0001d0 c2 29 c4 bd 88 6c 02 3c 5a f5 f4 3c 0f 03 b2 bf
       -0.09578277 0.007960446 0.029902149 -1.3907183
0001e0 9b 24 50 3f a3 a1 05 c0 eb 4f 66 3d 8b cc f4 3d
       0.81305856 -2.0879905 0.05622856 0.11953076
0001f0 ed e6 49 bc fc 58 3e 3f 90 cd 22 bc d1 9e 26 3d
       -0.012323123 0.7435453 -0.009936705 0.040678803

fc3.bias f4 [2]
000000 51 df 99 3f ce 63 4c bf
       1.2021276 -0.7983979

exp_avg f4 [128, 5]
000000 64 36 3c 3f 01 09 cc bf c6 8e a5 3f b3 ce 10 c0
       0.73520494 -1.5940248 1.2934196 -2.262616
000010 07 2d 3d 40 04 00 00 00 04 00 00 00 04 00 00 00
       2.9558733 6e-45 6e-45 6e-45
000020 04 00 00 80 04 00 00 00 b9 4e db c2 b5 cd db c1
       -6e-45 6e-45 -109.653755 -27.475443
000030 ca 14 7f c2 99 c8 99 43 bb 46 65 c3 ed bc d9 41
       -63.7703 307.56717 -229.27629 27.217249
000040 7a 28 3a 41 5b c5 3d 41 e1 b8 95 c2 62 c3 59 42
       11.634882 11.8606825 -74.86109 54.440804
000050 a1 01 f0 c1 06 a6 07 c1 9f ab 67 c1 7b b2 a1 42
       -30.000795 -8.478033 -14.4794 80.848595
000060 44 b2 69 c2 99 ae 22 43 b6 1e 38 42 8e c4 a5 42
       -58.424088 162.68202 46.02999 82.883896
000070 a6 9f dd c3 9c c9 a0 43 00 00 00 00 00 00 00 00
       -443.24725 321.57507 0.0 0.0
000080 00 00 00 00 00 00 00 00 00 00 00 00 7b be c3 41
       0.0 0.0 0.0 24.468008
000090 84 15 08 41 b8 20 1b 41 37 86 81 c2 c5 e9 37 42
       8.505253 9.695488 -64.76214 45.97829
0000a0 98 6f ff c1 f5 d2 13 c1 8a 20 87 c1 69 d3 af 42
       -31.92949 -9.239003 -16.890888 87.91291
0000b0 ff c3 7f c2 04 00 00 00 04 00 00 00 04 00 00 00
       -63.941402 6e-45 6e-45 6e-45
0000c0 04 00 00 80 04 00 00 00 00 00 00 00 00 00 00 00
       -6e-45 6e-45 0.0 0.0
0000d0 00 00 00 00 00 00 00 00 00 00 00 00 2f 02 8d c1
       0.0 0.0 0.0 -17.626066
0000e0 17 dc ae c0 b9 3f 1c c0 f6 ae 21 42 56 28 d5 c1
       -5.4643664 -2.4413893 40.42086 -26.644695
0000f0 1b c8 be c1 27 69 e4 c0 14 48 2b c1 7b ea 7d 42
       -23.847708 -7.137836 -10.705097 63.478985
000100 5f 50 35 c2 9c df 03 43 bb f0 14 42 fc 25 86 42
       -45.328487 131.87347 37.23509 67.07419
000110 cf 72 b3 c3 ed 0a 82 43 b9 8f b9 c1 d3 15 d9 c0
       -358.89694 260.08536 -23.195177 -6.783914
000120 7f 3e 06 c1 e1 e4 6c 42 08 58 26 c2 04 00 00 00
       -8.390258 59.223515 -41.585968 6e-45
000130 04 00 00 80 04 00 00 80 04 00 00 80 04 00 00 00
       -6e-45 -6e-45 -6e-45 6e-45
000140 bf a9 cb c2 d1 2d cc c1 20 2e 6c c2 87 ba 8e 43
       -101.831535 -25.522371 -59.045044 285.45724
000150 c4 c5 54 c3 00 00 00 00 00 00 00 00 00 00 00 00
       -212.77252 0.0 0.0 0.0
000160 00 00 00 00 00 00 00 00 00 00 00 00 00 00 00 00
       0.0 0.0 0.0 0.0
000170 00 00 00 00 00 00 00 00 00 00 00 00 21 ea 0e c3
       0.0 0.0 0.0 -142.91457
000180 5f df 17 c2 9a 4e ca c2 9a 1e d3 43 68 50 9f c3
       -37.968136 -101.15352 422.23907 -318.62817
000190 8f db 12 42 ce 84 00 41 2c 8a 2d 42 ce c2 00 c3
       36.714413 8.032423 43.384933 -128.76096
0001a0 ea 9c d0 42 00 00 00 00 00 00 00 00 00 00 00 00
       104.30647 0.0 0.0 0.0
0001b0 00 00 00 00 00 00 00 00 04 00 00 00 04 00 00 80
       0.0 0.0 6e-45 -6e-45
0001c0 04 00 00 80 04 00 00 80 04 00 00 00 ac 9a e8 c1
       -6e-45 -6e-45 6e-45 -29.075523
0001d0 2b 8f 03 c1 91 10 5d c1 cb 35 9c 42 62 77 61 c2
       -8.222453 -13.816545 78.105064 -56.366585
0001e0 9e 69 8d c1 c9 09 b4 c0 60 1a 27 c0 81 32 23 42
       -17.67657 -5.6261945 -2.6109848 40.79932
0001f0 ca 16 d7 c1 71 89 b7 c2 96 79 b0 c1 b8 81 54 c2
       -26.886127 -91.76844 -22.059368 -53.12668
000200 5b 8e 80 43 4d cc 3f c3 ac 70 1e 41 23 36 b9 3f
       257.11215 -191.79805 9.902508 1.4469646
000210 6f df 9d 41 34 8a 30 c2 49 75 1a 42 00 00 00 00
       19.734098 -44.134964 38.614536 0.0
000220 00 00 00 00 00 00 00 00 00 00 00 00 00 00 00 00
       0.0 0.0 0.0 0.0
000230 0c 0a 05 c2 03 78 14 c1 65 43 8f c1 7d a3 b7 42
       -33.25981 -9.2793 -17.907907 91.81931
000240 8e 45 86 c2 04 00 00 00 04 00 00 00 04 00 00 00
       -67.13585 6e-45 6e-45 6e-45
000250 04 00 00 80 04 00 00 00 04 00 00 00 04 00 00 80
       -6e-45 6e-45 6e-45 -6e-45
000260 04 00 00 00 04 00 00 80 04 00 00 00 a7 bd 59 3f
       6e-45 -6e-45 6e-45 0.8505501
000270 ff 69 c4 be d9 53 2d 41 02 f6 6a c1 b3 53 71 41
       -0.3836212 10.832971 -14.6850605 15.082934
000280 37 c1 10 c3 44 e5 24 c2 b4 5e 88 c2 64 c0 c2 43
       -144.75475 -41.223892 -68.18497 389.50305
000290 8b 31 8d c3 e5 70 99 41 8f 00 64 40 23 39 ec 41
       -282.38705 19.180124 3.562534 29.527899
0002a0 95 65 96 c2 87 14 7d 42 00 00 00 00 00 00 00 00
       -75.1984 63.270046 0.0 0.0
0002b0 00 00 00 00 00 00 00 00 00 00 00 00 6a 6b ec c2
       0.0 0.0 0.0 -118.20979
0002c0 96 ea f1 c1 72 f3 7f c2 49 21 a3 43 b3 5b 71 c3
       -30.239544 -63.98774 326.26004 -241.3582
0002d0 fd c7 ad c1 ed cd c3 c0 55 36 04 c1 34 32 5f 42
       -21.72265 -6.1188874 -8.263265 55.799026
0002e0 8e ac 1d c2 00 00 00 00 00 00 00 00 00 00 00 00
       -39.41851 0.0 0.0 0.0
0002f0 00 00 00 00 00 00 00 00 90 c6 b5 42 67 de cf 41
       0.0 0.0 90.88782 25.983595
000300 61 61 21 42 78 3e 70 c3 05 82 2b 43 50 c9 46 c1
       40.345097 -240.24402 171.50789 -12.424149
000310 a1 9d 8a c0 ec a7 81 bf ad 6e de 41 e2 41 8d c1
       -4.331742 -1.0129371 27.80404 -17.65717
000320 98 cc e9 c1 f4 e2 ff c0 71 80 69 c1 ce 6e 9e 42
       -29.2249 -7.9964542 -14.593858 79.216415
000330 ff 44 66 c2 72 0e 97 41 51 de bb 40 fe 11 00 42
       -57.56738 18.882053 5.870888 32.01757
000340 5c 31 9d c2 bb b3 86 42 00 00 00 00 00 00 00 00
       -78.596405 67.351036 0.0 0.0
000350 00 00 00 00 00 00 00 00 00 00 00 00 7f d2 a3 c1
       0.0 0.0 0.0 -20.477781
000360 c7 09 cb c0 ee 81 ea c0 40 69 51 42 65 18 12 c2
       -6.3449435 -7.3283606 52.352783 -36.523823
000370 69 dd c8 c2 67 6f c9 c1 2c 13 69 c2 d0 c5 8c 43
       -100.43244 -25.179396 -58.268723 281.5454
000380 e2 d1 51 c3 00 00 00 00 00 00 00 00 00 00 00 00
       -209.81985 0.0 0.0 0.0
000390 00 00 00 00 00 00 00 00 21 96 b4 c2 e6 dc a9 c1
       0.0 0.0 -90.29322 -21.23286
0003a0 5f 70 58 c2 70 de 7e 43 97 01 3f c3 bd fe 13 c3
       -54.109737 254.8689 -191.00621 -147.99507
0003b0 6e 8e 19 c2 80 df dc c2 fa dc dd 43 e5 6a a8 c3
       -38.38909 -110.43652 443.72638 -336.8351
0003c0 d8 ab 0e 43 32 1d 21 42 1b 5e 92 42 50 8e c2 c3
       142.67126 40.27851 73.1838 -389.11182
0003d0 9d 29 8d 43 d1 d7 e9 c1 11 ca fc c0 c2 95 7f c1
       282.3251 -29.23038 -7.8996663 -15.974062
0003e0 5b 94 a1 42 ba d6 6c c2 1e 1f 4c c1 88 a9 8e c0
       80.78976 -59.209694 -12.757597 -4.4581947
0003f0 06 28 83 bf 5b a7 e4 41 3b 9d 91 c1 00 00 00 00
       -1.0246589 28.581717 -18.201773 0.0

exp_avg_sq f4 [128, 5]
000000 4d e0 fd 42 0c 51 57 45 ce 65 d5 44 06 85 7a 45
       126.93809 3445.0654 1707.1814 4008.314
000010 42 78 79 46 4c 0f 09 25 de 8c a0 27 d3 30 e7 23
       15966.064 1.1888039e-16 4.456165e-15 2.5065748e-17
000020 1d fb a1 26 20 56 95 27 74 a0 0e 47 e3 de 81 47
       1.1239684e-15 4.1449185e-15 36512.453 66493.77
000030 f6 33 01 46 be f3 43 48 7f 60 0a 48 29 ee 0c 45
       8268.99 200654.97 141697.98 2254.885
000040 e5 b9 a3 45 f6 09 1d 44 63 11 4a 46 77 a8 0b 46
       5239.237 628.15564 12932.347 8938.116
000050 03 30 1d 45 39 ca a1 45 98 9e 30 44 69 b0 5f 46
       2515.0007 5177.278 706.478 14316.103
000060 fc fd 21 46 83 46 8c 47 f9 e8 0d 48 d1 32 a1 46
       10367.496 71821.02 145315.89 20633.408
000070 7e 91 c7 48 92 56 94 48 00 00 00 00 00 00 00 00
       408715.94 303796.56 0.0 0.0
000080 00 00 00 00 00 00 00 00 00 00 00 00 70 e6 e6 44
       0.0 0.0 0.0 1847.2012
000090 53 f3 6f 45 97 c2 f8 43 1b 3a 20 46 19 ca dc 45
       3839.2078 497.52023 10254.526 7065.262
0000a0 80 5f 3f 45 d4 d3 b7 45 61 e7 44 44 19 bc 85 46
       3061.9688 5882.4785 787.6153 17118.049
0000b0 45 cb 41 46 74 ce 17 09 f4 ab 14 0b 8e a1 2e 07
       12402.817 1.8273038e-33 2.8633126e-32 1.3137782e-34
0000c0 5f 4c c4 09 77 0d bd 08 00 00 00 00 00 00 00 00
       4.7257103e-33 1.1378189e-33 0.0 0.0
0000d0 00 00 00 00 00 00 00 00 00 00 00 00 01 70 70 44
       0.0 0.0 0.0 961.75006
0000e0 9f d7 39 45 e2 01 f3 43 dd 35 c0 45 74 23 95 45
       2973.4763 486.0147 6150.733 4772.4316
0000f0 77 f3 c6 44 94 84 55 45 dc cf f0 43 4c 19 0f 46
       1591.6083 3416.2861 481.6239 9158.324
000100 cb 04 d1 45 35 3f 37 47 8a a1 ba 47 e2 0e 57 46
       6688.599 46911.207 95555.08 13763.721
000110 36 cf 82 48 a1 1b 44 48 84 dd b0 44 0b 1c 5a 45
       267897.7 200814.52 1414.9224 3489.7527
000120 5b c5 01 44 af 18 04 46 4c de c3 45 04 d6 89 27
       519.0837 8454.171 6267.787 3.8257175e-15
000130 cd 3f 1f 28 c1 bb 99 26 46 b1 bb 28 c7 d8 5b 28
       8.840108e-15 1.0667398e-15 2.083805e-14 1.2203948e-14
000140 22 8b f5 46 ba 0d 60 47 59 53 df 45 d8 c3 28 48
       31429.566 57357.727 7146.4185 172815.38
000150 5a 52 ee 47 00 00 00 00 00 00 00 00 00 00 00 00
       122020.7 0.0 0.0 0.0
000160 00 00 00 00 00 00 00 00 00 00 00 00 00 00 00 00
       0.0 0.0 0.0 0.0
000170 00 00 00 00 00 00 00 00 00 00 00 00 d8 51 9d 47
       0.0 0.0 0.0 80547.69
000180 d1 4b 00 48 a6 69 82 46 37 c3 d2 48 f6 be 98 48
       131375.27 16692.824 431641.72 312823.7
000190 a0 d8 5c 46 05 9d b3 46 dd 33 43 45 31 92 91 47
       14134.156 22990.51 3123.2415 74532.38
0001a0 e1 36 59 47 00 00 00 00 00 00 00 00 00 00 00 00
       55606.88 0.0 0.0 0.0
0001b0 00 00 00 00 00 00 00 00 63 c6 5f 26 e3 07 65 27
       0.0 0.0 7.763753e-16 3.178441e-15
0001c0 41 92 3c 25 c1 17 d7 27 79 57 96 27 eb 99 12 45
       1.6355953e-16 5.970024e-15 4.17282e-15 2345.6199
0001d0 aa c2 98 45 a8 0b 28 44 40 42 51 46 6e e3 17 46
       4888.333 672.1821 13392.5625 9720.857
0001e0 83 24 6d 44 31 a8 35 45 08 b0 ec 43 f0 1a bd 45
       948.5705 2906.512 473.37524 6051.367
0001f0 05 52 92 45 bf 5d c5 46 1c a7 35 47 9f 5e b4 45
       4682.2524 25262.873 46503.11 5771.8276
000200 9b d6 07 48 47 77 bf 47 42 9e 48 45 7b 2c b9 45
       139098.42 98030.555 3209.891 5925.56
000210 42 fc 66 44 1c 81 88 46 d6 95 54 46 00 00 00 00
       923.9415 17472.555 13605.459 0.0
000220 00 00 00 00 00 00 00 00 00 00 00 00 00 00 00 00
       0.0 0.0 0.0 0.0
000230 a1 bc 4f 45 b0 43 c6 45 76 e4 52 44 fc e6 90 46
       3323.7893 6344.461 843.5697 18547.492
000240 64 b9 51 46 e3 80 cf 26 2a 9f 21 29 67 a6 7b 25
       13422.348 1.4398445e-15 3.5887234e-14 2.1827159e-16
000250 da 6d a1 28 83 08 6d 28 c1 18 9c 30 d0 b8 50 31
       1.7922231e-14 1.31579885e-14 1.1357529e-09 3.0373037e-09
000260 bb c5 d6 30 c7 27 ed 31 f9 c2 b7 31 30 8d ab 44
       1.5626748e-09 6.90213e-09 5.348167e-09 1372.4121
000270 22 8c 3f 45 73 59 03 44 5b df f4 45 8c 9b c7 45
       3064.7583 525.39764 7835.9194 6387.4434
000280 e5 88 5a 47 76 52 e0 47 91 d9 64 46 d0 7f 9a 48
       55944.895 114852.92 14646.392 316414.5
000290 0f 41 56 48 22 3a d4 45 8b eb 37 46 81 66 d1 44
       219396.23 6791.2666 11770.886 1675.2032
0002a0 56 7a 0d 47 85 5c d5 46 00 00 00 00 00 00 00 00
       36218.336 27310.26 0.0 0.0
0002b0 00 00 00 00 00 00 00 00 00 00 00 00 fc 0a 1c 47
       0.0 0.0 0.0 39946.984
0002c0 96 94 94 47 e2 b0 14 46 d1 71 58 48 8a c6 17 48
       76073.17 9516.221 221639.27 155418.16
0002d0 ed 72 9c 44 63 4f 3f 45 d0 eb e9 43 0e dc e9 45
       1251.5914 3060.9617 467.8423 7483.507
0002e0 30 0d b1 45 00 00 00 00 00 00 00 00 00 00 00 00
       5665.6484 0.0 0.0 0.0
0002f0 00 00 00 00 00 00 00 00 c3 b4 a0 46 e4 11 37 47
       0.0 0.0 20570.38 46865.89
000300 85 7f e3 45 ae b8 ed 47 e6 60 b8 47 af 73 06 44
       7279.94 121713.36 94401.8 537.80756
000310 90 cf d2 44 35 a2 90 43 f7 3d 59 45 20 94 2e 45
       1686.4863 289.26724 3475.8728 2793.2578
000320 95 76 17 45 92 a1 99 45 49 b0 27 44 2f a8 56 46
       2423.4114 4916.1963 670.75446 13738.046
000330 34 f3 1b 46 5a e3 fe 45 2a c4 5f 46 40 75 04 45
       9980.801 8156.419 14321.041 2119.3281
000340 9e 90 2b 47 83 c9 02 47 00 00 00 00 00 00 00 00
       43920.617 33481.51 0.0 0.0
000350 00 00 00 00 00 00 00 00 00 00 00 00 1b 36 8b 44
       0.0 0.0 0.0 1113.6908
000360 57 43 2a 45 a6 ec cc 43 99 89 d0 45 86 c5 9b 45
       2724.2087 409.84882 6673.1997 4984.6904
000370 23 53 f0 46 7c 34 5b 47 5f 87 da 45 10 0d 25 48
       30761.568 56116.484 6992.9214 169012.25
000380 c3 0e e9 47 00 00 00 00 00 00 00 00 00 00 00 00
       119325.52 0.0 0.0 0.0
000390 00 00 00 00 00 00 00 00 4c 62 c4 46 96 1a 31 47
       0.0 0.0 25137.148 45338.586
0003a0 91 4f af 45 8c 83 06 48 8c 4d be 47 dd d2 b6 47
       5609.946 137742.19 97435.09 93605.73
0003b0 21 33 13 48 58 be 94 46 7f 92 f3 48 df f3 b0 48
       150732.52 19039.172 498835.97 362398.97
0003c0 0e 53 58 47 16 84 da 47 69 f4 79 46 68 f8 99 48
       55379.055 111880.17 15997.103 315331.25
0003d0 98 05 66 48 e3 c3 22 45 c8 8c 9b 45 8d de 26 44
       235542.38 2604.243 4977.5977 667.47736
0003e0 f6 fd 62 46 4e 22 25 46 d3 b0 0c 44 b3 6a db 44
       14527.49 10568.576 562.7629 1755.3344
0003f0 cd ca 92 43 dc 0d 62 45 99 b6 31 45 00 00 00 00
       293.58438 3616.8662 2843.4124 0.0

exp_avg f4 [128]
000000 85 cf 17 40 04 00 00 00 0f 05 74 c3 28 18 6b 42
       2.372041 6e-45 -244.01976 58.77359
000010 1b 39 7d c2 c1 d2 ad 43 00 00 00 00 a3 58 49 42
       -63.305767 347.6465 0.0 50.33656
000020 a5 0c 8a c2 04 00 00 00 00 00 00 00 ef df f3 c1
       -69.0247 6e-45 0.0 -30.484343
000030 ee d4 45 c2 84 ad 8c 43 3b 4a 37 c2 04 00 00 00
       -49.45794 281.3556 -45.82249 6e-45
000040 d4 77 62 c3 00 00 00 00 00 00 00 00 00 61 a8 c3
       -226.46808 0.0 0.0 -336.7578
000050 25 e1 d3 42 00 00 00 00 04 00 00 00 70 7e 74 c2
       105.939735 0.0 6e-45 -61.123474
000060 01 21 f6 c1 d4 0c 4c c3 21 74 16 42 00 00 00 00
       -30.766115 -204.05011 37.613407 0.0
000070 33 81 90 c2 04 00 00 00 04 00 00 00 9a 7e 58 41
       -72.25234 6e-45 6e-45 13.530909
000080 ca b3 98 c3 c5 c2 7b 42 00 00 00 00 0f 01 81 c3
       -305.4046 62.940205 0.0 -258.00827
000090 6f 1f 2d c2 00 00 00 00 f3 28 3b 43 40 50 a5 c1
       -43.280697 0.0 187.15996 -20.664185
0000a0 a4 b2 78 c2 f2 ad 84 42 00 00 00 00 04 98 21 c2
       -62.174454 66.33974 0.0 -40.398453
0000b0 0d 59 5f c3 00 00 00 00 a6 ab 4a c3 7d 66 b1 c3
       -223.34785 0.0 -202.6705 -354.8007
0000c0 6c 99 98 43 62 8b 7e c2 2e 1f aa c1 00 00 00 00
       305.1986 -63.636116 -21.265224 0.0
0000d0 1c a0 63 c2 be 28 e6 40 04 00 00 00 68 83 2a 43
       -56.906357 7.1924734 6e-45 170.5133
0000e0 a8 a5 d8 c1 00 00 00 00 54 81 8b c2 17 0c 88 c3
       -27.080887 0.0 -69.752594 -272.09445
0000f0 e9 d6 0f c2 1b 5f c2 c1 f0 52 8d c2 90 50 87 42
       -35.959873 -24.296438 -70.66199 67.65735
000100 7d 2e 56 42 4c 04 10 c2 04 00 00 00 3a c5 98 41
       53.5454 -36.004196 6e-45 19.096302
000110 fa e1 44 c2 a9 ab 90 43 ec f4 0c 43 4e ea e3 c1
       -49.22068 289.3411 140.95673 -28.489407
000120 f8 11 1c 40 84 80 d0 c1 00 00 00 00 82 86 b1 c1
       2.4385967 -26.062752 0.0 -22.190678
000130 51 55 32 c2 00 00 00 00 56 49 2b c2 00 00 00 00
       -44.583317 0.0 -42.821617 0.0
000140 dc 49 ae c3 47 98 8b c2 40 b7 41 c2 4b 0a a4 43
       -348.57703 -69.79742 -48.428955 328.0804
000150 15 28 02 c2 d4 87 af c3 24 c1 d5 c1 6b d0 18 31
       -32.539143 -351.06116 -26.719307 2.2237383e-09
000160 00 00 00 00 c9 4a 19 c2 c2 b3 37 c2 e3 8e af 40
       0.0 -38.323032 -45.925545 5.486192
000170 04 00 00 00 c4 cb 17 c1 1d 3c 91 c1 8c 32 5f c3
       6e-45 -9.487247 -18.154352 -223.19745
000180 7b fa 2a 42 00 00 00 00 04 41 0f bf f9 7b 8f c2
       42.74461 0.0 -0.5595858 -71.742134
000190 c5 92 82 c2 3e af 80 43 04 00 00 80 00 00 00 00
       -65.28666 257.36908 -6e-45 0.0
0001a0 c0 89 81 43 59 af 97 43 0e 2c f3 c1 00 00 00 00
       259.07617 303.3699 -30.396511 0.0
0001b0 93 57 15 c2 43 2e 3c 42 00 00 00 00 36 fd 06 42
       -37.33552 47.045177 0.0 33.747276
0001c0 53 ed a1 c3 d5 ab 98 c2 89 9f 22 c2 88 26 8d 43
       -323.8541 -76.33561 -40.655796 282.30103
0001d0 54 be 69 44 d2 c5 2e 43 b2 a3 18 c2 56 6e f7 32
       934.9739 174.77274 -38.15986 2.880476e-08
0001e0 62 88 84 43 04 00 00 00 0d b4 e0 bf 5b d9 8b c2
       265.0655 6e-45 -1.7554947 -69.92452
0001f0 e8 b8 0f c2 00 00 00 00 23 20 55 c3 65 ed b0 41
       -35.930573 0.0 -213.12553 22.115915

exp_avg_sq f4 [128]
000000 90 0c e1 45 da b5 0e 27 73 ed 07 48 a0 b3 0a 46
       7201.5703 1.980504e-15 139189.8 8876.906
000010 6d 40 1c 46 26 bb 8c 48 00 00 00 00 9d a6 db 45
       10000.106 288217.2 0.0 7028.8267
000020 a6 15 3b 46 29 f9 32 09 00 00 00 00 18 f1 88 45
       11973.412 2.1543125e-33 0.0 4382.1367
000030 43 62 c8 45 15 0c 39 48 c8 90 b9 45 51 3b 6e 28
       6412.2827 189488.33 5938.0977 1.3224516e-14
000040 18 1e ea 47 00 00 00 00 00 00 00 00 ad de 93 48
       119868.19 0.0 0.0 302837.4
000050 46 d2 4e 47 00 00 00 00 80 e7 92 27 ba 42 12 46
       52946.273 0.0 4.0774133e-15 9360.682
000060 4c 99 86 45 b9 46 bc 47 5a de 44 46 00 00 00 00
       4307.162 96397.445 12599.588 0.0
000070 0f a3 4a 46 08 2f 65 28 51 25 a7 31 cd 53 b3 45
       12968.765 1.2722252e-14 4.864582e-09 5738.475
000080 71 8e 54 48 4f b8 c9 46 00 00 00 00 cc a5 15 48
       217657.77 25820.154 0.0 153239.19
000090 11 8e a5 45 00 00 00 00 86 fa a9 47 a3 eb 1c 45
       5297.7583 0.0 87029.05 2510.7273
0000a0 0f 25 16 46 1c a4 f5 46 00 00 00 00 8e f3 92 45
       9609.265 31442.055 0.0 4702.4443
0000b0 a9 f3 e4 47 00 00 00 00 8f c1 ba 47 26 1e ab 48
       117223.32 0.0 95619.12 350449.2
0000c0 9e 8e 59 48 5c 00 1f 46 a5 eb 21 45 00 00 00 00
       222778.47 10176.09 2590.7278 0.0
0000d0 86 41 01 46 87 ae e4 46 c1 bd 84 26 9c 77 94 47
       8272.381 29271.264 9.210773e-16 76015.22
0000e0 d9 83 4f 45 00 00 00 00 0a 5a 3c 46 c6 c2 27 48
       3320.2405 0.0 12054.51 171787.1
0000f0 40 27 8d 45 85 8a 81 45 c2 39 44 46 74 74 24 46
       4516.9062 4145.315 12558.439 10525.113
000100 31 8f 94 46 c2 73 92 45 5e 94 24 09 b0 06 02 46
       19015.596 4686.4697 1.9810544e-33 8321.672
000110 a3 40 c7 45 d4 e1 43 48 1a 2c f2 46 fc 1d 40 45
       6376.0796 200583.31 30998.05 3073.874
000120 ae dd 4e 45 3b 9b 94 45 00 00 00 00 18 e0 5f 45
       3309.855 4755.404 0.0 3582.0059
000130 b4 01 ac 45 00 00 00 00 44 d2 a9 45 00 00 00 00
       5504.213 0.0 5434.283 0.0
000140 50 b2 a7 48 67 ef 3d 46 f0 03 c8 45 af 15 7b 48
       343442.5 12155.851 6400.492 257110.73
000150 21 63 7b 45 cb 01 a3 48 e6 50 4c 45 03 ea ed 44
       4022.1956 333838.34 3269.0562 1903.3129
000160 00 00 00 00 aa 7b 8a 45 b2 fe b0 45 12 7b 80 46
       0.0 4431.458 5663.837 16445.535
000170 e9 2b 1c 0b 1e 00 89 45 74 66 88 45 a0 43 e5 47
       3.007754e-32 4384.0146 4364.8066 117383.25
000180 ec e5 68 46 00 00 00 00 10 39 2f 45 19 43 48 46
       14905.48 0.0 2803.5664 12816.774
000190 1a 10 26 46 79 4e 1b 48 12 91 58 39 00 00 00 00
       10628.025 159033.89 0.00020653408 0.0
0001a0 7e 75 1d 48 87 17 57 48 6d 61 82 45 00 00 00 00
       161237.97 220254.11 4172.178 0.0
0001b0 bc 98 81 45 f4 5e 19 46 00 00 00 00 7c d8 25 47
       4147.092 9815.738 0.0 42456.484
0001c0 be 6a 8d 48 8a e6 61 46 3f 4e 80 45 33 a4 3a 48
       289621.94 14457.635 4105.781 191120.8
0001d0 2c dc 04 4a bd d3 e0 47 1c a9 8c 45 fb ac a2 45
       2.176779e+06 115111.48 4501.1387 5205.6226
0001e0 28 d6 24 48 d2 23 f4 09 82 37 f9 43 54 20 62 47
       168792.62 5.877455e-33 498.43365 57888.33
0001f0 15 8b 8c 45 00 00 00 00 a0 a3 cd 47 6c a4 07 46
       4497.3853 0.0 105287.25 8681.105

exp_avg f4 [64, 128]
000000 04 00 00 00 04 00 00 00 04 00 00 00 04 00 00 00
       6e-45 6e-45 6e-45 6e-45
000010 04 00 00 00 00 00 00 00 00 00 00 00 04 00 00 00
       6e-45 0.0 0.0 6e-45
000020 04 00 00 00 04 00 00 00 00 00 00 00 04 00 00 00
       6e-45 6e-45 0.0 6e-45
000030 04 00 00 00 04 00 00 80 04 00 00 00 04 00 00 00
       6e-45 -6e-45 6e-45 6e-45
000040 04 00 00 00 00 00 00 00 00 00 00 00 04 00 00 00
       6e-45 0.0 0.0 6e-45
000050 04 00 00 00 00 00 00 00 04 00 00 00 04 00 00 00
       6e-45 0.0 6e-45 6e-45
000060 04 00 00 00 04 00 00 00 04 00 00 00 00 00 00 00
       6e-45 6e-45 6e-45 0.0
000070 04 00 00 00 04 00 00 00 00 00 00 00 04 00 00 00
       6e-45 6e-45 0.0 6e-45
000080 04 00 00 00 04 00 00 00 00 00 00 00 04 00 00 00
       6e-45 6e-45 0.0 6e-45
000090 04 00 00 00 00 00 00 00 04 00 00 80 04 00 00 00
       6e-45 0.0 -6e-45 6e-45
0000a0 04 00 00 00 04 00 00 00 00 00 00 00 04 00 00 00
       6e-45 6e-45 0.0 6e-45
0000b0 04 00 00 00 00 00 00 00 04 00 00 00 04 00 00 00
       6e-45 0.0 6e-45 6e-45
0000c0 04 00 00 80 04 00 00 00 04 00 00 00 00 00 00 00
       -6e-45 6e-45 6e-45 0.0
0000d0 04 00 00 00 04 00 00 80 04 00 00 00 04 00 00 80
       6e-45 -6e-45 6e-45 -6e-45
0000e0 04 00 00 00 00 00 00 00 04 00 00 00 04 00 00 00
       6e-45 0.0 6e-45 6e-45
0000f0 04 00 00 00 04 00 00 00 04 00 00 00 04 00 00 00
       6e-45 6e-45 6e-45 6e-45
000100 04 00 00 00 04 00 00 00 04 00 00 00 04 00 00 00
       6e-45 6e-45 6e-45 6e-45
000110 04 00 00 00 04 00 00 80 04 00 00 00 04 00 00 00
       6e-45 -6e-45 6e-45 6e-45
000120 04 00 00 00 04 00 00 00 00 00 00 00 04 00 00 00
       6e-45 6e-45 0.0 6e-45
000130 04 00 00 00 00 00 00 00 04 00 00 00 00 00 00 00
       6e-45 0.0 6e-45 0.0
000140 04 00 00 00 04 00 00 00 04 00 00 00 04 00 00 80
       6e-45 6e-45 6e-45 -6e-45
000150 04 00 00 00 04 00 00 00 04 00 00 00 04 00 00 00
       6e-45 6e-45 6e-45 6e-45
000160 00 00 00 00 04 00 00 00 04 00 00 00 04 00 00 00
       0.0 6e-45 6e-45 6e-45
000170 00 00 00 00 04 00 00 00 04 00 00 00 04 00 00 00
       0.0 6e-45 6e-45 6e-45
000180 04 00 00 00 00 00 00 00 04 00 00 00 04 00 00 00
       6e-45 0.0 6e-45 6e-45
000190 04 00 00 00 04 00 00 80 04 00 00 00 00 00 00 00
       6e-45 -6e-45 6e-45 0.0
0001a0 04 00 00 80 04 00 00 80 04 00 00 00 00 00 00 00
       -6e-45 -6e-45 6e-45 0.0
0001b0 04 00 00 00 04 00 00 00 00 00 00 00 00 00 00 00
       6e-45 6e-45 0.0 0.0
0001c0 04 00 00 00 04 00 00 00 04 00 00 00 04 00 00 80
       6e-45 6e-45 6e-45 -6e-45
0001d0 04 00 00 00 00 00 00 00 04 00 00 00 04 00 00 00
       6e-45 0.0 6e-45 6e-45
0001e0 04 00 00 80 00 00 00 00 04 00 00 00 04 00 00 00
       -6e-45 0.0 6e-45 6e-45
0001f0 04 00 00 00 00 00 00 00 04 00 00 00 04 00 00 00
       6e-45 0.0 6e-45 6e-45
000200 44 07 a3 2b 04 00 00 80 6e 9c 99 34 3d df 93 38
       1.1583863e-12 -6e-45 2.8612288e-07 7.0510876e-05
000210 34 f3 b7 39 b8 aa 9c 39 00 00 00 00 8f bc b4 38
       0.0003508568 0.00029881834 0.0 8.6181906e-05
000220 da d6 b5 39 04 00 00 80 00 00 00 00 c8 32 a8 39
       0.00034683087 -6e-45 0.0 0.00032081292
000230 94 1e af 39 b9 48 a1 39 42 83 c2 39 04 00 00 00
       0.00033401384 0.00030762496 0.00037100358 6e-45
000240 0a f7 e3 b3 00 00 00 00 00 00 00 00 14 53 06 3a
       -1.06154474e-07 0.0 0.0 0.0005124074
000250 8e 0f be 39 00 00 00 00 04 00 00 00 e9 a2 ad 39
       0.00036251213 0.0 6e-45 0.0003311851
000260 72 46 a2 39 3c f8 70 b3 0f d5 8d 39 00 00 00 00
       0.00030951534 -5.6105122e-08 0.00027052357 0.0
000270 11 fa b0 39 04 00 00 80 04 00 00 80 21 cc 90 39
       0.0003375565 -6e-45 -6e-45 0.00027617908
000280 cf 7c 98 36 ba da aa 39 00 00 00 00 ee e9 c0 35
       4.5444826e-06 0.0003258789 0.0 1.4373197e-06
000290 d4 a3 b2 39 00 00 00 00 af bb 89 39 25 94 98 39
       0.00034072867 0.0 0.0002627051 0.00029102075
0002a0 28 06 c1 39 fd fb ac 39 00 00 00 00 22 20 9f 39
       0.00036816415 0.00032994142 0.0 0.00030350784
0002b0 5a 6b d8 b3 00 00 00 00 fa 81 95 b3 19 61 03 3a
       -1.0077811e-07 0.0 -6.961996e-08 0.0005011722
0002c0 67 01 a0 39 f6 2a b6 39 ed 16 91 39 00 00 00 00
       0.00030518623 0.00034745754 0.00027673636 0.0
0002d0 e0 ee b5 39 22 17 05 39 04 00 00 80 82 bd 80 39
       0.00034700986 0.00012692486 -6e-45 0.00024555257
0002e0 03 4e 9d 39 00 00 00 00 7d 80 e9 38 60 82 9d 36
       0.00030003497 0.0 0.000111342386 4.6941423e-06
0002f0 b7 53 a1 39 ab 39 95 39 b6 2f ba 39 c3 c9 1c 38
       0.00030770685 0.0002846246 0.00035512232 3.7381204e-05
000300 11 33 90 39 fc 4e b3 39 04 00 00 80 72 ca b8 39
       0.00027503868 0.00034200388 -6e-45 0.00035246048
000310 c8 f5 ad 39 07 2a ae 39 57 0c 9b 38 68 bd 9f 39
       0.00033180253 0.0003321918 7.3932744e-05 0.00030467962
000320 7d f5 79 0f 9b 28 97 39 00 00 00 00 c9 a4 94 39
       1.2323927e-29 0.00028831218 0.0 0.00028351534
000330 82 08 bb 39 00 00 00 00 00 1b b2 39 00 00 00 00
       0.00035673758 0.0 0.00033970922 0.0
000340 70 2f 01 3a 37 eb b0 39 1d 8e b1 39 6a 8a 9c 39
       0.0004928028 0.00033744585 0.00033865953 0.00029857765
000350 07 c2 a1 39 d8 ae 07 3a 43 30 a1 39 af 65 b1 0f
       0.00030852875 0.0005175895 0.0003074427 1.7492715e-29
000360 00 00 00 00 e5 1d b7 39 01 ac b9 39 d3 12 2c 2d
       0.0 0.00034926753 0.00035414103 9.781248e-12
000370 04 00 00 80 32 20 94 39 15 f8 99 39 0f 92 a7 b3
       -6e-45 0.00028252747 0.0002936727 -7.8031114e-08
000380 35 1f a2 39 00 00 00 00 e4 c4 f7 8b 54 a2 ad 39
       0.000309223 0.0 -9.543719e-32 0.00033118075
000390 b6 ef b4 39 1e 82 b0 39 04 00 00 80 00 00 00 00
       0.00034510874 0.0003366628 -6e-45 0.0
0003a0 41 74 b7 39 95 3a a0 39 fd 2e b0 39 00 00 00 00
       0.00034991096 0.00030561225 0.00033604345 0.0
0003b0 67 6c 90 39 8b 64 80 38 00 00 00 00 d4 49 19 39
       0.00027546586 6.122243e-05 0.0 0.0001461872
0003c0 5f e1 e8 39 58 50 a8 39 e3 df 4a 39 c7 75 a6 39
       0.00044418403 0.00032103318 0.00019347625 0.00031749738
0003d0 c6 63 5a 39 3f 68 26 39 0d e7 9a 39 02 55 d0 29
       0.00020827269 0.00015869828 0.00029545315 9.251802e-14
0003e0 ab 06 a6 39 04 00 00 00 2c 59 07 39 c0 8b 8d 9f
       0.00031666955 6e-45 0.00012907822 -5.994702e-20
0003f0 fa 96 b0 39 00 00 00 00 b0 b1 86 b3 ca ee ad 39
       0.00033681822 0.0 -6.2721824e-08 0.00033175043
