checkpoint_3state.pth (torch, 114146 bytes, 18 tensors)

fc1.weight f4 [128, 3]
0	0xbeb4e526	-0.35331076
1	0x3db7cac3	0.089742206
2	0x3ead8d83	0.33897027
3	0x3ec6ff32	0.38866574
4	0x3ef35141	0.4752293
5	0xbf035412	-0.51300156
6	0xbfa30e83	-1.2738804
7	0x3c930d79	0.01795076
8	0x3f57f66f	0.843604
9	0xbe5090ac	-0.20367688
10	0xbe6afe05	-0.22948463
11	0x3f16b131	0.5886412
12	0xbee9e206	-0.45680255
13	0x3efa5bdb	0.48898205
14	0xbe30c771	-0.17263581
15	0xbe3f21c4	-0.18665224
16	0x3ee1b2f5	0.44081846
17	0xbf18cb9e	-0.59685695
18	0x3fdf49a2	1.7444346
19	0x3f0374d7	0.5135016
20	0x3f0d835a	0.5527855
21	0xbed05b0a	-0.40694457
22	0x3e01a351	0.12659957
23	0x3f10efb2	0.56615746
24	0xbf2feaac	-0.68717456
25	0xbe0214ac	-0.12703198
26	0x3f88d1a2	1.0688975
27	0xbf07dd44	-0.53072
28	0xbe6f30dc	-0.23358482
29	0x3f43e8d3	0.76527137
30	0x3fc3c148	1.529336
31	0x3f93b846	1.1540611
32	0x3f774207	0.96585125
33	0xbf023cfc	-0.50874305
34	0xbefede35	-0.49778906
35	0x3f0c4d76	0.54805696
36	0x3ff25fde	1.8935506
37	0x3fc71ab2	1.5555022
38	0x3f302fa8	0.6882272
39	0xbf9da40a	-1.2315686
40	0x3ee38e9a	0.44444734
41	0x3edb4637	0.42827007
42	0x3eee71fd	0.4657134
43	0xbea13972	-0.3148914
44	0xbe90e894	-0.28302443
45	0x3f05015d	0.51955205
46	0xbeaf6692	-0.34257942
47	0xbbb01377	-0.005373414
48	0xbde0cd5f	-0.109766714
49	0xbf0d8a18	-0.5528884
50	0x3ef97c82	0.48727804
51	0xbf2beb8e	-0.671563
52	0xbee7f019	-0.45300367
53	0x3f4df922	0.8045827
54	0x3fbac48e	1.4591234
55	0x3f94fbb9	1.163932
56	0xbd95bdd2	-0.07311596
57	0xbec6aadb	-0.38802227
58	0xbe988841	-0.29791453
59	0x3e17ee9c	0.14837116
60	0xbf0cd0df	-0.5500621
61	0x3e7bf8d6	0.24606642
62	0x3effea37	0.4998338
63	0x3e149350	0.1450932
64	0xbf0e4fe8	-0.5559068
65	0x3efd9028	0.49524045
66	0xbed642b4	-0.41847765
67	0x3ed3a187	0.41334173
68	0xbece2fd3	-0.40270862
69	0xbe6df714	-0.23238784
70	0x3f05f26f	0.5232305
71	0xbde963ab	-0.11395963
72	0xbe831c32	-0.2560745
73	0x3e87d5ce	0.26530308
74	0x3e579f08	0.2105676
75	0xbf2360da	-0.6381966
76	0xbeb09410	-0.34487963
77	0x3f5a80b8	0.8535266
78	0xbea4bb20	-0.32174015
79	0xbc2ffc5f	-0.010741322
80	0x3dd2541e	0.1026995
81	0x3dd86683	0.105664276
82	0xbed0ad76	-0.4075734
83	0x3f2f2e2c	0.6842983
84	0xc0ba70d3	-5.8262725
85	0xbf030ced	-0.511916
86	0x3f40e710	0.75352573
87	0xbef01e37	-0.46898052
88	0x3debb03e	0.11508225
89	0x3f3c213a	0.734882
90	0xbf8e152f	-1.1100215
91	0xbed74790	-0.42046785
92	0x3f6a82a9	0.9160562
93	0x3e71d1d9	0.23615207
94	0xbdb7d211	-0.08975614
95	0x3ce8ce65	0.02841873
96	0xbeb8d2e9	-0.36098412
97	0xbf0825be	-0.5318259
98	0xbf1226a0	-0.5709019
99	0x3f455b8a	0.770928
100	0xbf3fb018	-0.7487807
101	0xbf4689d8	-0.7755408
102	0x3e82a652	0.25517517
103	0x3d9195ff	0.071086876
104	0xbeb5af61	-0.35485366
105	0xbf8c0607	-1.0939339
106	0x3ec0db74	0.3766743
107	0x3f3104d9	0.6914802
108	0xbe9d9200	-0.30775452
109	0xbf0de3cc	-0.55425715
110	0x3dd08b41	0.101828106
111	0x3fd258f2	1.6433394
112	0x3f9d0435	1.2266909
113	0x3e52dde1	0.20592453
114	0x3ecf0679	0.40434626
115	0xbe93f1ac	-0.28895319
116	0x3e2d8a21	0.16947223
117	0x3dbc46cb	0.0919319
118	0xbe824c11	-0.2544866
119	0xbeeeaf24	-0.46617997
120	0xbe3ab534	-0.18233186
121	0xbd7c5532	-0.061604686
122	0xbeb082cc	-0.3447479
123	0xbf12e8c7	-0.5738644
124	0xbe85891b	-0.26081166
125	0xbe3a09c4	-0.18167788
126	0x3dc5b3c0	0.09653425
127	0xbee0b454	-0.4388758
128	0xbecd2fa7	-0.40075418
129	0xbea2d5fb	-0.3180388
130	0x3e16f9ba	0.147437
131	0xbe21653f	-0.15761279
132	0xbeab079e	-0.3340425
133	0xbef4b1d4	-0.47791922
134	0x3e868119	0.2627037
135	0x3e5a804b	0.21338002
136	0xbe381153	-0.17975359
137	0xbe16e8e3	-0.14737277
138	0xbec8d87c	-0.39227664
139	0xbedde95b	-0.433421
140	0x3f82785a	1.0192978
141	0xbe8557c1	-0.26043513
142	0x3dcf153d	0.10111473
143	0xbe16cb92	-0.14726093
144	0x3df1695d	0.117876746
145	0x3eaf2176	0.34205216
146	0x3f6a5ec9	0.9155088
147	0xbfb2b334	-1.3960938
148	0x3e78ffd6	0.24316344
149	0x3e710bcd	0.23539658
150	0xbf8b5f00	-1.0888367
151	0x3f0cc785	0.5499194
152	0x3eeb388d	0.45941582
153	0x3d2ecb07	0.04267409
154	0xbedbf47e	-0.4295997
155	0x3dca1b2c	0.09868464
156	0x3e9f7828	0.3114636
157	0xbd7f042b	-0.062259834
158	0x3e890606	0.26762408
159	0xbf419f29	-0.75633484
160	0xbe09c4aa	-0.13453928
161	0x3d939472	0.07206048
162	0xbf8840de	-1.0644796
163	0x3ed22c35	0.41049352
164	0x3f6ecf15	0.9328473
165	0xbed03e9d	-0.4067277
166	0x3d4152ce	0.04719811
167	0x3e046765	0.12930067
168	0x3fbd76ae	1.4801843
169	0x3fb23e15	1.3925196
170	0x3f5c2d4d	0.86006624
171	0xbf81aad9	-1.0130264
172	0xbe57d72a	-0.21078172
173	0x3f384190	0.7197504
174	0xbf9abd31	-1.2088987
175	0x3e2a09a2	0.16605237
176	0x3f1124a1	0.56696516
177	0xbee74eb0	-0.4517722
178	0x3ebf76d6	0.37395352
179	0x3f69303b	0.9108922
180	0xbf135dcf	-0.57565016
181	0x3eb93c52	0.36178833
182	0x3e89c6a0	0.2690935
183	0x3ff119e1	1.8836023
184	0xbdfe2a33	-0.124103926
185	0xbf4273d2	-0.7595798
186	0xbec91188	-0.39271188
187	0xbf279fbf	-0.6547813
188	0x3ebfee96	0.37486714
189	0x401b4586	2.4261184
190	0x3f38ddd7	0.722135
191	0xbf727d5e	-0.94722545
192	0x40291e4b	2.642474
193	0x3f39f5aa	0.7264048
194	0xbf6cd180	-0.9250717
195	0xbf61e576	-0.88240755
196	0xbd2a113e	-0.04152035
197	0x3f857bee	1.0428445
198	0xbe8b5017	-0.2720954
199	0xbee59dd3	-0.44846973
200	0xbeba5ae3	-0.36397466
201	0xbeec5e2e	-0.46165603
202	0x3e9f7b3a	0.31148702
203	0x3f2b3dd3	0.6689121
204	0xbe9f377f	-0.31097028
205	0xbe4610f7	-0.19342409
206	0x3f846775	1.0344073
207	0x3e11df08	0.14245236
208	0xbe98b24b	-0.29823527
209	0xbef34606	-0.4751436
210	0xbed45c38	-0.41476607
211	0x3f00aa12	0.50259507
212	0xbeb5610d	-0.35425606
213	0xbe778214	-0.24170715
214	0x3e882c6b	0.26596388
215	0xbf05a518	-0.5220504
216	0x3dda5ff0	0.1066283
217	0x3e8ea4fb	0.27860245
218	0x3e3ed78f	0.18636917
219	0xbe20c75b	-0.15701048
220	0xbea0a333	-0.3137451
221	0xbdd4fd08	-0.103998244
222	0x3e33f3fe	0.17573544
223	0xbe6208cd	-0.2207367
224	0x3ed82962	0.42219073
225	0xbc475ad5	-0.012167652
226	0xbf19c8fe	-0.60072315
227	0x3f14ee01	0.58175665
228	0xbf10e39f	-0.5659732
229	0xbf0f57dd	-0.55993444
230	0xbda68a24	-0.08131817
231	0xbeda7b57	-0.42672226
232	0x3e6b3e24	0.22972924
233	0xbd2e1f8e	-0.04251056
234	0xbf05ceb0	-0.52268505
235	0x3f013a0b	0.5047919
236	0x3ebb4dce	0.36582798
237	0xbf93d077	-1.1547993
238	0x3e36655b	0.17812102
239	0x3ef71ef3	0.482658
240	0x3e526387	0.20545779
241	0x3eb9aa0f	0.36262557
242	0x3dce4027	0.1007083
243	0xbea2635b	-0.31716427
244	0xbe616aef	-0.22013448
245	0xbc6bc354	-0.014389832
246	0x40415823	3.0210044
247	0x3edc816d	0.43067494
248	0xbee1c5e8	-0.44096303
249	0xbd7e11ac	-0.062028572
250	0x3f09f263	0.5388548
251	0x3e13b28e	0.14423582
252	0xbee96371	-0.4558368
253	0xbed258f2	-0.41083485
254	0x3ea56ca4	0.3230945
255	0xbda1058b	-0.07862385

fc1.bias f4 [128]
0	0xbe9e8042	-0.30957228
1	0xbf015fa9	-0.5053659
2	0x3f7414f5	0.9534448
3	0x3f2ded8a	0.6794058
4	0xbe1ba036	-0.15197834
5	0xbd71dbd5	-0.05904754
6	0x3e066d1e	0.13127562
7	0x3e926d92	0.2859922
8	0x3f33dfea	0.7026354
9	0x3f79ae48	0.9753156
10	0xbcd1572c	-0.025554262
11	0xbe8153aa	-0.25259143
12	0xbca4329f	-0.02004367
13	0x3f748625	0.9551719
14	0xbe86f5de	-0.26359457
15	0xbefa624b	-0.48903117
16	0x3f327a3d	0.6971777
17	0x3f4033ea	0.75079215
18	0x3e7fb30b	0.24970643
19	0xbd9fec45	-0.07808737
20	0x3f1b5380	0.60674286
21	0xbeae2599	-0.3401306
22	0xbea266c4	-0.3171903
23	0xbe930cd8	-0.28720737
24	0xbed59b3c	-0.41719997
25	0x3f00e5bf	0.50350565
26	0xbf04fcb2	-0.5194808
27	0x3f539abb	0.82657975
28	0x3f501e3a	0.8129612
29	0x3f1edce3	0.62055796
30	0x3f5fde8d	0.8744896
31	0xbe612f1a	-0.21990624
32	0xbe786f3a	-0.2426118
33	0x3f0e4e4f	0.5558824
34	0x3f6906b2	0.9102584
35	0x3f2bd2e9	0.671187
36	0xbee324a5	-0.44363895
37	0x3e5ca72a	0.21548143
38	0xbedc619d	-0.43043223
39	0xbcf8f2eb	-0.03038927
40	0xbe49aba7	-0.19694386
41	0xbecbe57b	-0.39823517
42	0xbeeb9c78	-0.46017814
43	0x3f03b7cf	0.51452345
44	0xbe8bdcd1	-0.27316907
45	0xbefbb007	-0.49157736
46	0x3f000cd4	0.50019574
47	0xbec38dd5	-0.38194147
48	0x3df79f86	0.120909736
49	0x3f1ca61f	0.6119098
50	0x3f0e3045	0.55542403
51	0xbed34334	-0.4126221
52	0xbf04b969	-0.51845413
53	0x3f5920dc	0.84815764
54	0x3f3483d7	0.7051367
55	0xbe32c66c	-0.17458504
56	0xbcfe3df1	-0.031035395
57	0x3f7591dd	0.95925695
58	0x3f512378	0.81694746
59	0x3f68bc74	0.90912557
60	0xbedaf529	-0.42765167
61	0x3ca8577b	0.020549526
62	0x3f7ee2e0	0.99564934
63	0xbfcabb13	-1.583834
64	0xbfde6802	-1.7375491
65	0x3f02e971	0.51137453
66	0x3e04aac4	0.12955767
67	0x3f520ab1	0.82047564
68	0x3f2dac15	0.678407
69	0xbd390f45	-0.045180578
70	0xbed5604a	-0.41675025
71	0xbdc5ee6c	-0.09664616
72	0x3f3ed4e5	0.745436
73	0xbe869598	-0.26286006
74	0xbed9f01c	-0.42566
75	0x3ee668c3	0.45001802
76	0x3dba9df7	0.09112161
77	0xbea72f8b	-0.3265346
78	0x3eb8e889	0.3611491
79	0x3f8811bc	1.0630412
80	0x3f2681b1	0.65041643
81	0xbec5f8dc	-0.38666427
82	0xbf7bdb2f	-0.9838132
83	0x3e91f84f	0.28509757
84	0xbecaf408	-0.39639306
85	0x3f387627	0.72055286
86	0x3f54eee2	0.83177006
87	0xbe5fed2e	-0.2186782
88	0x3f4584e9	0.7715593
89	0xbeb64102	-0.35596472
90	0xbebc8619	-0.36821058
91	0x3ea8c78e	0.32964748
92	0xbeee3506	-0.4652483
93	0x3e49797e	0.19675252
94	0x3d872b93	0.06600108
95	0xbd3241d9	-0.04351983
96	0xbe255211	-0.16144587
97	0x3f71e8b7	0.9449572
98	0x3f295e7d	0.661598
99	0xbd197c26	-0.037471913
100	0xbfd78f12	-1.6840537
101	0x3ed4052c	0.41410196
102	0x3f70a967	0.9400849
103	0x3f7d62f3	0.9897911
104	0x3d31a7e7	0.043373015
105	0x3efe6b69	0.49691322
106	0x3f59c701	0.8506928
107	0xbec7372e	-0.38909286
108	0x3e2b85b6	0.16750225
109	0x3ea0e467	0.31424257
110	0xbef4c0af	-0.47803256
111	0x3f1167ca	0.56798995
112	0xbe109cff	-0.1412239
113	0x3f4db85e	0.80359447
114	0x3f77624e	0.96634376
115	0xbe5ce32f	-0.21571039
116	0x3f2b9413	0.6702282
117	0x3d21feee	0.03954976
118	0xbeee8ea6	-0.46593207
119	0x3f14554c	0.5794265
120	0xbf0b3b7e	-0.5438765
121	0x3f62afe5	0.88549644
122	0xbe89a257	-0.26881668
123	0x3f42e6e0	0.7613354
124	0xbea96953	-0.33088169
125	0xbecc344e	-0.39883655
126	0x3f412f84	0.7546313
127	0xbedcc68f	-0.43120238

fc2.weight f4 [64, 128]
0	0x3c9c2db2	0.019064758
1	0x3d9798eb	0.07402214
2	0xbfbeba78	-1.4900656
3	0xbeada037	-0.33911297
4	0xbd9871d0	-0.07443583
5	0x3ca34538	0.019930467
6	0x3f80206f	1.0009898
7	0xbee66d40	-0.45005226
8	0xbf6d79d5	-0.92764026
9	0xbf3d55ca	-0.7395903
10	0x3f3f9c8a	0.74848235
11	0x3d89a9a5	0.0672181
12	0x3f747c90	0.9550257
13	0xbf9074a8	-1.1285601
14	0xbd3351fb	-0.043779355
15	0x3c3f5511	0.011677996
16	0xbecd62af	-0.40114352
17	0xbfa4e4b0	-1.288229
18	0x3f75fdd8	0.9609046
19	0x3d8dac0f	0.06917583
20	0xbf0fc6f3	-0.5616295
21	0x3d4394fb	0.0477495
22	0x3ceabd94	0.028654851
23	0x3d1b567e	0.037924282
24	0xbd285dcb	-0.041105073
25	0xbf8dfd73	-1.1092972
26	0xbda061e7	-0.078311734
27	0xbe9a3eea	-0.30126125
28	0xc0005e11	-2.0057414
29	0xbef30389	-0.47463635
30	0xbfc66715	-1.5500208
31	0xbd269583	-0.04066993
32	0x3be7530b	0.00705946
33	0xbb427c1c	-0.0029676026
34	0x3c67d868	0.014150716
35	0xbf792720	-0.97325325
36	0xbd3acde8	-0.045606524
37	0x3f5f4dfd	0.87228376
38	0xbd236377	-0.03988978
39	0x38324780	4.2505097e-05
40	0xbda5a671	-0.08088387
41	0x3a355863	0.00069177727
42	0x3d904852	0.07045044
43	0xbe800894	-0.25006545
44	0x3d4319a3	0.04763187
45	0xbd855488	-0.06510264
46	0xbf39e18c	-0.7260978
47	0xbc83d07c	-0.016090624
48	0xbd8badb2	-0.06820239
49	0xbf4f65fb	-0.81014985
50	0xbf67b369	-0.90508133
51	0xbd5f85ad	-0.054570843
52	0x3dae6da9	0.0851701
53	0xbf65930a	-0.8967749
54	0xbf77f4aa	-0.968577
55	0x3d06a61e	0.032873265
56	0x3f472996	0.7779783
57	0xbfa22673	-1.2667984
58	0xbfa35c78	-1.2762594
59	0xbf00ad3d	-0.5026434
60	0x3c44bceb	0.012007932
61	0x3f9b8830	1.2150936
62	0xbf53d962	-0.82753575
63	0x40397469	2.89773
64	0x40366d0e	2.8504062
65	0xbf8a24c0	-1.0792465
66	0x3d85fb98	0.06542128
67	0xbf03ce97	-0.51487106
68	0xbf0bf012	-0.54663193
69	0x3d8ad8af	0.0677961
70	0xbd95aa0b	-0.07307824
71	0xbd86479a	-0.06556626
72	0xbcc9523f	-0.02457535
73	0x3d084377	0.033267464
74	0x3d3ea282	0.0465417
75	0xbeaca93c	-0.33722866
76	0x3d9ccca9	0.07656223
77	0xbd37e726	-0.044898175
78	0xbecfac42	-0.4056111
79	0xbf884184	-1.0644994
80	0x3d6477fa	0.05577848
81	0xbd5cc147	-0.05389526
82	0x401d0be2	2.4538503
83	0xbda37bca	-0.07982595
84	0xbb02b71f	-0.0019945574
85	0xbe1ecae3	-0.15507083
86	0xbf8ab4bc	-1.0836406
87	0x3d1bb656	0.038015686
88	0xbebf4743	-0.37359056
89	0xbd857521	-0.06516481
90	0xbc8333ed	-0.016015971
91	0xbf83479a	-1.0256226
92	0x3d8bedd2	0.0683247
93	0xbf45944f	-0.77179426
94	0x3f80e7fa	1.0070794
95	0xbe2a623b	-0.16639034
96	0x3d58a65d	0.05289303
97	0xbfd40e5c	-1.6566882
98	0xbf3d86e1	-0.74033934
99	0xbd30028b	-0.042971175
100	0x4035b466	2.8391356
101	0xbec23f56	-0.37938946
102	0x3cace47d	0.021105045
103	0xbf07bb3a	-0.5302006
104	0x3db2f512	0.0873815
105	0x3ef63094	0.48083937
106	0xbefacf9d	-0.4898652
107	0xbd9e1409	-0.07718665
108	0xbf23cb26	-0.63981855
109	0xbf90667a	-1.1281273
110	0xbc7292de	-0.014805524
111	0xbe0ebeeb	-0.13940017
112	0xbd883ffe	-0.066528305
113	0xbf778f88	-0.96703386
114	0xbf5e891c	-0.8692796
115	0xbd9e8e33	-0.07741966
116	0xbfc0f264	-1.5073972
117	0xbe3bcd8c	-0.18340129
118	0x3c7322fc	0.014839884
119	0xbea63aba	-0.3246668
120	0x3d841bb4	0.064505965
121	0xbf28cbc0	-0.659359
122	0x3febf61d	1.8434483
123	0xbf8be72a	-1.0929921
124	0xbf9bd761	-1.2175103
125	0xbce919cd	-0.028454686
126	0xbedb951c	-0.428872
127	0xbd5b90f5	-0.05360504
128	0x3d870239	0.06592221
129	0x3da6ffa9	0.08154232
130	0xbcb50ad2	-0.022099886
131	0xbc93f6c1	-0.018061997
132	0xbd1febb4	-0.039043143
133	0x3c1c3b3e	0.009535609
134	0xbdbc5e94	-0.09197727
135	0x3d0c53f2	0.034259744
136	0xbd0789a6	-0.033090256
137	0x3bf9591c	0.0076094996
138	0x3d81f84e	0.063461885
139	0xbd9e58c3	-0.07731774
140	0x3d39db36	0.04537507
141	0xbcf65206	-0.030068409
142	0xbd89a7fb	-0.06721493
143	0xbc2e120c	-0.01062442
144	0x3d7b0d8a	0.06129221
145	0x3c30282c	0.010751765
146	0xbd03716f	-0.0320906
147	0xbcf6a114	-0.030106105
148	0xbcd1c116	-0.025604766
149	0x3d82fc69	0.063958
150	0x3cadd076	0.021217566
151	0x3d993821	0.07481409
152	0x3cbc9349	0.02301945
153	0xbb25a0d4	-0.0025272863
154	0xbd0e5b60	-0.03475511
155	0xbd3695be	-0.0445764
156	0xbd405f64	-0.04696597
157	0xbdd6cab1	-0.10487879
158	0x3d7a06c2	0.0610416
159	0xbc870c81	-0.016485455
160	0xbd765702	-0.06014157
161	0x3d039e20	0.03213322
162	0xbd5ff051	-0.054672543
163	0xbd999889	-0.07499797
164	0x3d8656df	0.06559538
165	0xbd00051e	-0.03125488
166	0xbc45fe9b	-0.012084628
167	0xbd91e531	-0.07123793
168	0xbda89dc3	-0.08233216
169	0x3da5664e	0.08076154
170	0x3d995dd5	0.074886
171	0xbcb75121	-0.022377552
172	0xbd172d6f	-0.036908563
173	0x3d6556c4	0.05599095
174	0xbc68236a	-0.0141686
175	0x3d9c1f60	0.07623172
176	0xbce5f1d0	-0.028069407
177	0x3d4e6c07	0.05039599
178	0xbdb2d927	-0.08732825
179	0xbd84d349	-0.06485612
180	0x3cdfa91c	0.027302317
181	0xbcc07327	-0.023492409
182	0xbc3267e8	-0.010889031
183	0xbc68c476	-0.014206996
184	0x3d6e0c94	0.058117464
185	0x3d3d3e6e	0.046202116
186	0x3d761602	0.060079582
187	0xbd951dcd	-0.07281075
188	0x3ceda608	0.029009834
189	0x3c0532b9	0.008129769
190	0xbdcce535	-0.10004655
191	0x3d56ba51	0.05242378
192	0xbcf0bd54	-0.029387154
193	0xbb7c243f	-0.0038473753
194	0xbb1024e6	-0.002199465
195	0x3d2b371a	0.041800596
196	0x3d757813	0.059928965
197	0xbb8619db	-0.0040924377
198	0xbd0e9e44	-0.034818903
199	0x3daca10c	0.08429155
200	0xbd32ce19	-0.04365358
201	0x3c1dcd24	0.009631429
202	0x3d5ad951	0.053429905
203	0x3c775154	0.015095074
204	0xbda0a8c1	-0.07844687
205	0x3b88b8fd	0.004172443
206	0x3ca00e5b	0.019538095
207	0xbd2afcf4	-0.04174514
208	0xbd35d410	-0.04439169
209	0xbda47056	-0.08029239
210	0x3d8e27a9	0.06941158
211	0x3ca77312	0.020440612
212	0x3d970b11	0.073751576
213	0x3b9534ed	0.0045534284
214	0xbd18b4df	-0.037281867
215	0xbd1117a5	-0.03542294
216	0x3bd2df4d	0.006435311
217	0xbd0ab27c	-0.033861622
218	0xbd51536a	-0.05110494
219	0xbc0e8ed0	-0.008701041
220	0xbd7dffe7	-0.062011626
221	0xbd695bbf	-0.05697226
222	0xbcd32e28	-0.025778845
223	0x3d90781b	0.07054158
224	0xbd7d08c2	-0.06177593
225	0x3c5927ef	0.01325415
226	0x3d1d6cff	0.038434025
227	0xbd976938	-0.07393116
228	0xbcd6d1d6	-0.026223104
229	0xbce084b0	-0.02740702
230	0xbd983654	-0.07432237
231	0xbd67ef63	-0.05662478
232	0xbc52abb2	-0.012858318
233	0x3d1b316f	0.03788894
234	0x3cd715da	0.026255537
235	0x3cd6cdf8	0.02622126
236	0xbd100a6b	-0.035166185
237	0x3d25d955	0.040490467
238	0x3cc2cbc7	0.02377881
239	0xbca022c7	-0.019547833
240	0x3d0dfaa6	0.034662865
241	0xbd835ad8	-0.064138114
242	0x3ca9c856	0.02072541
243	0x3d762dd4	0.0601023
244	0x3d68298a	0.05668024
245	0xbc1abb05	-0.009444003
246	0x3da6aa47	0.081379466
247	0xbca06eca	-0.019584078
248	0xbd8434c4	-0.06455377
249	0x3d4d2208	0.050081283
250	0xbda8d926	-0.08244543
251	0x3d77a7f9	0.060462926
252	0x3d9ca22e	0.07648121
253	0xbd88a087	-0.06671243
254	0x3d071ced	0.03298657
255	0xbc80a673	-0.01570437

fc2.bias f4 [64]
0	0xbf3b1ca9	-0.73090607
1	0x3d882b39	0.06648869
2	0xbd8674ff	-0.06565284
3	0x3d354687	0.044256713
4	0xbbd15ea3	-0.0063894554
5	0xbd8933eb	-0.06699356
6	0x3d9967f0	0.07490528
7	0xbd194b14	-0.037425116
8	0xbd32434a	-0.043521203
9	0x3cffccfc	0.031225674
10	0x3f1d097d	0.613426
11	0x3d292573	0.04129548
12	0x3c008a46	0.007845467
13	0xbcdca04c	-0.026931904
14	0xbe780cdf	-0.2422366
15	0x3e8f9eb1	0.2805076
16	0xbce48af7	-0.027898295
17	0x3ce25d4a	0.027632374
18	0xbd486ffb	-0.048934918
19	0x3d8bd25c	0.06827232
20	0x3be969f8	0.007123228
21	0xbd3e275a	-0.046424247
22	0xbd142546	-0.03616836
23	0xb93e4d08	-0.00018148508
24	0xbdf05865	-0.1173561
25	0xbcc5e121	-0.024155201
26	0xbd8ede9d	-0.06976054
27	0x3e843a66	0.25825804
28	0xbda87353	-0.08225121
29	0xbd2d08d7	-0.04224476
30	0x3e274586	0.16335115
31	0x3c560379	0.013062351
32	0xba425041	-0.00074124715
33	0xbd86b122	-0.06576754
34	0xbd802581	-0.06257153
35	0xbe4d4379	-0.2004527
36	0xbc347086	-0.011013156
37	0x3db411a9	0.08792431
38	0xbd121eba	-0.035673834
39	0x3f04c680	0.51865387
40	0xbdb02e7f	-0.086026184
41	0xbe59529e	-0.21222922
42	0x3d20d17b	0.039262276
43	0xbd1d33a7	-0.038379338
44	0xbd7959dd	-0.060876716
45	0xbdadd8f2	-0.08488645
46	0xbcd1e2b1	-0.02562079
47	0xbdb27b96	-0.087149784
48	0xbcbddedf	-0.023177562
49	0xbd9b7998	-0.075915515
50	0x3d10e785	0.035377044
51	0xbd5e5c0f	-0.054287013
52	0x3c961982	0.01832271
53	0xbd8b974b	-0.06815966
54	0xbd8a7ac9	-0.06761701
55	0xbd433ad4	-0.047663525
56	0xbd903ddc	-0.07043049
57	0x3e93080f	0.28717086
58	0xbc254bf1	-0.010088907
59	0x39939212	0.00028146856
60	0xbd823a5c	-0.063587874
61	0x3f23a1b6	0.63918626
62	0x3d14a880	0.036293507
63	0xbd46d282	-0.0485406

fc3.weight f4 [2, 64]
0	0xbf92d618	-1.1471586
1	0xbdad8f40	-0.084745884
2	0xbde578b2	-0.112046614
3	0xc028af49	-2.6356986
4	0xbdc1a670	-0.094555736
5	0xbdcd91aa	-0.10037549
6	0x3ca166b0	0.019702286
7	0xbdc44984	-0.095843345
8	0x3ddfcdb8	0.109279096
9	0x3cc84995	0.02444915
10	0xbf8e280a	-1.1105969
11	0x3d0b3171	0.033982698
12	0xbd1f05c8	-0.038823873
13	0xbd4d4e1d	-0.050123323
14	0x3f1bc75b	0.6085107
15	0x3ea46827	0.32110712
16	0xbd4f11aa	-0.050553955
17	0xbf9b910a	-1.2153637
18	0xbfc7df1a	-1.561496
19	0x3d1bbbc7	0.038020875
20	0xbddeb84f	-0.10874998
21	0x3dc0f948	0.094225466
22	0xc03048a5	-2.7544339
23	0x3d50d897	0.050987806
24	0x3d5fef2c	0.05467145
25	0x3cbb0be8	0.022832826
26	0x3d3165ea	0.043310083
27	0xbfbc270f	-1.469942
28	0xbda4d2ff	-0.08048057
29	0x3afdab88	0.0019353488
30	0xc00c9506	-2.1965957
31	0x3d4391bc	0.047746405
32	0xbdc4b1b4	-0.09604207
33	0xbd9d1c21	-0.07671381
34	0xbc051c2b	-0.008124392
35	0xbfc4b147	-1.5366601
36	0xbdcfc052	-0.10144104
37	0x3d3b55e4	0.04573621
38	0xbd586d7c	-0.052838787
39	0xbf31d85e	-0.69470775
40	0x3b2c7560	0.0026315078
41	0xbfda5712	-1.7057822
42	0xbdbc6af4	-0.09200087
43	0xbd41a199	-0.047273252
44	0xbcacd448	-0.021097317
45	0xbe1ccae9	-0.15311779
46	0x3ce9b3dd	0.028528148
47	0x3de92baa	0.113852814
48	0xbda112b0	-0.078648925
49	0xc03f3548	-2.987627
50	0xbd7c9abb	-0.061671
51	0xc02671ff	-2.6007078
52	0xbdaa8a38	-0.083271444
53	0xbdb22798	-0.08698958
54	0xbd726558	-0.05917868
55	0xc00eb9d9	-2.2300932
56	0x3dd15a34	0.10222283
57	0xbfce15dc	-1.6100421
58	0x3dc67705	0.0969067
59	0x3dca7355	0.09885279
60	0x3cb6a344	0.022294648
61	0xbf79773b	-0.97447556
62	0xc01b7c80	-2.4294739
63	0xc0065cd8	-2.0994167
64	0x401125ad	2.2679245
65	0x3d156e57	0.03648218
66	0x3d49102c	0.04908769
67	0xbffc17cd	-1.9694763
68	0x3cc42d0f	0.023947267
69	0x3d13a6d5	0.036047775
70	0xbca7d288	-0.020486131
71	0xbc6c80d0	-0.014435008
72	0x3ddef17a	0.10885902
73	0x3c59ac57	0.013285718
74	0xc0110420	-2.2658768
75	0xbc080182	-0.008301141
76	0x3d69e1fc	0.05710028
77	0x3c89b3f2	0.016809437
78	0x3e976ac7	0.29573652
79	0xbed9450b	-0.42435488
80	0xbd21481f	-0.03937542
81	0xbff60563	-1.9220394
82	0xbfe1a992	-1.7629874
83	0x3bb87c02	0.0056300173
84	0xbafaccc2	-0.0019134509
85	0x3c98ce70	0.018653125
86	0xc006b1d9	-2.104605
87	0xbdda5ca8	-0.10662204
88	0x3da0aea6	0.078458115
89	0x3dcc5372	0.099768534
90	0xbdaa3ff8	-0.08312982
91	0xc0025bad	-2.0368454
92	0x3d27c91f	0.04096329
93	0x3ddd5d24	0.10808781
94	0xc00ea476	-2.228788
95	0x3aa5df80	0.0012655109
96	0xbdbc9b36	-0.09209292
97	0x3da0e072	0.078553095
98	0x3d020271	0.03174061
99	0xbf44e43c	-0.7691076
100	0x3d85e5d0	0.06537974
101	0xbd0e531c	-0.034747228
102	0x3d375731	0.044760887
103	0x4024204f	2.564472
104	0xbd21b394	-0.0394779
105	0xbf6547e2	-0.8956281
106	0xbd9b29cc	-0.075763315
107	0x3bb263a0	0.005444005
108	0xbd9c45ca	-0.07630499
109	0x3d2a10fa	0.041520096
110	0x3d38ca48	0.045114785
111	0x3dfc35aa	0.12314923
112	0x3d44f394	0.048083857
113	0xc0055128	-2.0830784
114	0xbcbbe58c	-0.022936605
115	0xbffaf039	-1.960456
116	0x3d9a46ca	0.07533033
117	0xbd7cdb72	-0.061732717
118	0xbd6ded68	-0.058087736
119	0xbff91b13	-1.9461387
120	0xbdc908dc	-0.09816143
121	0xc0114fd3	-2.270497
122	0x3dc8a437	0.097969465
123	0x3d355071	0.044266168
124	0x3c9db749	0.019252436
125	0xc009c122	-2.152413
126	0xc00627fd	-2.0961907
127	0xbf967786	-1.1755226

fc3.bias f4 [2]
0	0x3fa021bb	1.2510294
1	0xbfc66e12	-1.5502341

exp_avg f4 [128, 3]
0	0x00000000	0.0
1	0x00000000	0.0
2	0x00000000	0.0
3	0x00000000	0.0
4	0x00000000	0.0
5	0x00000000	0.0
6	0x40ddfc4b	6.9370475
7	0x4101000c	8.062511
8	0x40c1b017	6.0527453
9	0x402417a6	2.5639434
10	0x406d46e4	3.7074518
11	0x409e62f1	4.949578
12	0x00000004	6e-45
13	0x00000004	6e-45
14	0x00000004	6e-45
15	0x00000004	6e-45
16	0x00000004	6e-45
17	0x00000004	6e-45
18	0xc14e1c63	-12.88193
19	0xc182b4ef	-16.338346
20	0xc1c4cf92	-24.601353
21	0x4068c8a8	3.637247
22	0x40985019	4.7597775
23	0x40d491ae	6.642783
24	0x40a3a91b	5.1143928
25	0x40cbcf83	6.369081
26	0x40dfab38	6.9896507
27	0x40655b04	3.5836802
28	0x4099265c	4.7859325
29	0x40b163f2	5.5434504
30	0xc15e816e	-13.906599
31	0xc1934b42	-18.411747
32	0xc1ed353c	-29.650993
33	0x00000000	0.0
34	0x00000000	0.0
35	0x00000000	0.0
36	0xc163c002	-14.234377
37	0xc1968e31	-18.81943
38	0xc1f2659c	-30.299614
39	0x40b2909d	5.580153
40	0x40d6d2ee	6.7132483
41	0x40c35a3f	6.1047664
42	0x00000000	0.0
43	0x00000000	0.0
44	0x00000000	0.0
45	0x00000000	0.0
46	0x00000000	0.0
47	0x00000000	0.0
48	0x402f53af	2.7394826
49	0x40853591	4.162789
50	0x40c77001	6.2324224
51	0x40c42c71	6.130425
52	0x40e8f08d	7.279364
53	0x40cdc4e0	6.4302826
54	0xc1542d83	-13.261111
55	0xc182e4b9	-16.361681
56	0xc1b5d5a6	-22.72932
57	0x00000000	0.0
58	0x00000000	0.0
59	0x00000000	0.0
60	0x402e77f7	2.726072
61	0x40770314	3.8595629
62	0x40a35fe9	5.105458
63	0x00000000	0.0
64	0x00000000	0.0
65	0x00000000	0.0
66	0x00000000	0.0
67	0x00000000	0.0
68	0x00000000	0.0
69	0x00000000	0.0
70	0x00000000	0.0
71	0x00000000	0.0
72	0x00000000	0.0
73	0x00000000	0.0
74	0x00000000	0.0
75	0x40c8705b	6.2637153
76	0x40f31f4d	7.597571
77	0x40f61c53	7.6909575
78	0x00000000	0.0
79	0x00000000	0.0
80	0x00000000	0.0
81	0x3fdca01d	1.7236363
82	0x403cce15	2.9500782
83	0x40a42258	5.1291924
84	0x434d0907	205.03526
85	0x4351a1af	209.63158
86	0x43175420	151.32861
87	0x40355a4b	2.833636
88	0x40787847	3.8823411
89	0x40a1799a	5.046094
90	0x40ff92a2	7.9866495
91	0x4117b6d7	9.482139
92	0x410ece92	8.925432
93	0x00000004	6e-45
94	0x00000004	6e-45
95	0x00000004	6e-45
96	0x00000000	0.0
97	0x00000000	0.0
98	0x00000000	0.0
99	0xc11f261f	-9.946807
100	0xc177b7fc	-15.482418
101	0xc12cc304	-10.797611
102	0xbeebb3fc	-0.46035755
103	0x3f5322d9	0.8247505
104	0x4068ea31	3.639294
105	0x40b9ef6b	5.810476
106	0x40dda530	6.9264145
107	0x40d3dab0	6.6204453
108	0x00000000	0.0
109	0x00000000	0.0
110	0x00000000	0.0
111	0xc16e16e6	-14.88059
112	0xc19b4783	-19.409918
113	0xc1f6f9af	-30.871916
114	0x00000000	0.0
115	0x00000000	0.0
116	0x00000000	0.0
117	0x00000004	6e-45
118	0x00000004	6e-45
119	0x00000004	6e-45
120	0x00000000	0.0
121	0x00000000	0.0
122	0x00000000	0.0
123	0x00000000	0.0
124	0x00000000	0.0
125	0x00000000	0.0
126	0x00000000	0.0
127	0x00000000	0.0
128	0x00000000	0.0
129	0x3feec369	1.8653384
130	0x4053d33d	3.309768
131	0x40c73188	6.2247963
132	0x00000000	0.0
133	0x00000000	0.0
134	0x00000000	0.0
135	0x00000000	0.0
136	0x00000000	0.0
137	0x00000000	0.0
138	0x409372fa	4.607785
139	0x40bc5955	5.885905
140	0x40cbcc3b	6.3686805
141	0x00000000	0.0
142	0x00000000	0.0
143	0x00000000	0.0
144	0x3f834d90	1.0258045
145	0x3feee50f	1.8663653
146	0x4099e9b6	4.809779
147	0x40c19758	6.0497246
148	0x40de4587	6.945987
149	0x4132fdee	11.186995
150	0x40a451f5	5.1350045
151	0x40d06ba7	6.513141
152	0x40ddff08	6.9373817
153	0x00000000	0.0
154	0x00000000	0.0
155	0x00000000	0.0
156	0x00000000	0.0
157	0x00000000	0.0
158	0x00000000	0.0
159	0x408af2ec	4.3421535
160	0x40b66b01	5.700562
161	0x40c82c9a	6.2554445
162	0x40a476c9	5.1395
163	0x40c527e4	6.1611195
164	0x40cb05b9	6.3444486
165	0x00000004	6e-45
166	0x00000004	6e-45
167	0x00000004	6e-45
168	0xc158600d	-13.52345
169	0xc190af22	-18.085514
170	0xc1e8c1b3	-29.09458
171	0x40c31585	6.096377
172	0x40ea5ed2	7.3240747
173	0x40d6be5c	6.710737
174	0x40cadb5c	6.3392773
175	0x40f30f33	7.5956054
176	0x40cdfac4	6.436861
177	0x400074fd	2.0071404
178	0x404a7096	3.1631217
179	0x4097ea8a	4.7473803
180	0x00000000	0.0
181	0x00000000	0.0
182	0x00000000	0.0
183	0xc29e553d	-79.16648
184	0xc2a270b7	-81.220146
185	0xc1848ed0	-16.569733
186	0x40699055	3.6494343
187	0x40a4ce44	5.150179
188	0x40c780af	6.2344584
189	0x08fefffd	1.53472515e-33
190	0x08d6f8a2	1.293811e-33
191	0x088e500a	8.565131e-34
192	0x09ed05ea	5.7061236e-33
193	0x09d540b7	5.1338742e-33
194	0x098aad55	3.3385292e-33
195	0x40dd24d3	6.910745
196	0x40fef00f	7.966804
197	0x40ea7bc5	7.3276086
198	0x00000004	6e-45
199	0x00000004	6e-45
200	0x00000004	6e-45
201	0x4015a91a	2.3384461
202	0x404b2590	3.1741676
203	0x40805e9a	4.011548
204	0x40453e19	3.0819151
205	0x408bcd8e	4.368842
206	0x40bbcdc0	5.868866
207	0x00000000	0.0
208	0x00000000	0.0
209	0x00000000	0.0
210	0x00000000	0.0
211	0x00000000	0.0
212	0x00000000	0.0
213	0x00000000	0.0
214	0x00000000	0.0
215	0x00000000	0.0
216	0x3e8e2f3d	0.27770415
217	0x3fa22f76	1.2670734
218	0x405dc4a6	3.4651275
219	0x00000000	0.0
220	0x00000000	0.0
221	0x00000000	0.0
222	0x00000004	6e-45
223	0x00000004	6e-45
224	0x00000004	6e-45
225	0x401e42dd	2.472831
226	0x407ecf3c	3.9813986
227	0x40c989f3	6.2980895
228	0x00000000	0.0
229	0x00000000	0.0
230	0x00000000	0.0
231	0x00000000	0.0
232	0x00000000	0.0
233	0x00000000	0.0
234	0x4022b2d2	2.5421643
235	0x4064de83	3.576081
236	0x40b11673	5.5339904
237	0x40a2b803	5.0849624
238	0x40cceb95	6.4037576
239	0x40c9fa6e	6.31182
240	0xbe7f9260	-0.24958181
241	0x3f1b572c	0.6067989
242	0x402f7035	2.7412236
243	0x00000000	0.0
244	0x00000000	0.0
245	0x00000000	0.0
246	0xc3754eb7	-245.30748
247	0xc36e24f1	-238.1443
248	0xc357348b	-215.20525
249	0x3ef6db09	0.48213986
250	0x3fd4287a	1.6574852
251	0x40a49f13	5.1444182
252	0x00000000	0.0
253	0x00000000	0.0
254	0x00000000	0.0
255	0x3f11669e	0.56797206

exp_avg_sq f4 [128, 3]
0	0x00000000	0.0
1	0x00000000	0.0
2	0x00000000	0.0
3	0x00000000	0.0
4	0x00000000	0.0
5	0x00000000	0.0
6	0x4406ce5d	539.2244
7	0x448e552d	1138.6617
8	0x4521fc9a	2591.7876
9	0x43a9c0a5	339.50504
10	0x4413a9e6	590.65466
11	0x44a79506	1340.657
12	0x26eae81d	1.6299926e-15
13	0x2a89dd1f	2.4489522e-13
14	0x2b0bed06	4.9711656e-13
15	0x2e1f1168	3.6167874e-11
16	0x2dbcb60a	2.1453967e-11
17	0x2c16906f	2.1396459e-12
18	0x463f41a8	12240.414
19	0x46aa6c2a	21814.082
20	0x474056ac	49238.67
21	0x44444782	785.1173
22	0x44ace8dd	1383.277
23	0x4542f16a	3119.0884
24	0x443dbccd	758.95
25	0x44af06d4	1400.2134
26	0x45472590	3186.3477
27	0x43b879e3	368.95224
28	0x4425716f	661.7724
29	0x44bd5b7b	1514.8588
30	0x468c0b05	17925.51
31	0x46f67683	31547.256
32	0x478a995c	70962.72
33	0x00000000	0.0
34	0x00000000	0.0
35	0x00000000	0.0
36	0x46926fa5	18743.822
37	0x47005a1a	32858.1
38	0x4790259e	73803.234
39	0x440216a8	520.354
40	0x447fdc49	1023.44196
41	0x4512f003	2351.0007
42	0x00000000	0.0
43	0x00000000	0.0
44	0x00000000	0.0
45	0x00000000	0.0
46	0x00000000	0.0
47	0x00000000	0.0
48	0x44012579	516.5855
49	0x445843fc	865.06226
50	0x44f3d2ef	1950.5917
51	0x440092bf	514.2929
52	0x4481b4c4	1037.6489
53	0x45152560	2386.336
54	0x46238c3d	10467.06
55	0x46953882	19100.254
56	0x4729206f	43296.434
57	0x00000000	0.0
58	0x00000000	0.0
59	0x00000000	0.0
60	0x43ce0ece	412.11566
61	0x442e3dc3	696.965
62	0x44c3685a	1563.261
63	0x00000000	0.0
64	0x00000000	0.0
65	0x00000000	0.0
66	0x00000000	0.0
67	0x00000000	0.0
68	0x00000000	0.0
69	0x00000000	0.0
70	0x00000000	0.0
71	0x00000000	0.0
72	0x00000000	0.0
73	0x00000000	0.0
74	0x00000000	0.0
75	0x445f30d6	892.76306
76	0x44d4c879	1702.2648
77	0x4573502c	3893.0107
78	0x00000000	0.0
79	0x00000000	0.0
80	0x00000000	0.0
81	0x43b5156d	362.1674
82	0x4411bf5b	582.9899
83	0x44a21af8	1296.8428
84	0x471a9a9d	39578.613
85	0x493cf470	773959.0
86	0x49d43644	1.7384405e+06
87	0x43c511f5	394.1403
88	0x442a0149	680.0201
89	0x44bfaaec	1533.3413
90	0x449724ec	1209.1538
91	0x4513d3f9	2365.2483
92	0x45a92c08	5413.504
93	0x26e6de81	1.6019766e-15
94	0x268851d9	9.459081e-16
95	0x25f8dbb6	4.3170024e-16
96	0x00000000	0.0
97	0x00000000	0.0
98	0x00000000	0.0
99	0x455bda8d	3517.6594
100	0x45320067	2848.0251
101	0x45998bef	4913.4917
102	0x4314a0b3	148.62773
103	0x4344a785	196.65437
104	0x43cd131b	410.14926
105	0x443221c7	712.5278
106	0x44ad4021	1386.004
107	0x4546576f	3173.4646
108	0x00000000	0.0
109	0x00000000	0.0
110	0x00000000	0.0
111	0x469c8430	20034.094
112	0x4709fa23	35322.137
113	0x479afcdd	79353.73
114	0x00000000	0.0
115	0x00000000	0.0
116	0x00000000	0.0
117	0x26490089	6.973661e-16
118	0x2500b63c	1.1163974e-16
119	0x2277bbf8	3.3574252e-18
120	0x00000000	0.0
121	0x00000000	0.0
122	0x00000000	0.0
123	0x00000000	0.0
124	0x00000000	0.0
125	0x00000000	0.0
126	0x00000000	0.0
127	0x00000000	0.0
128	0x00000000	0.0
129	0x440aabca	554.6842
130	0x445acfe8	875.24854
131	0x44f3af15	1949.4713
132	0x00000000	0.0
133	0x00000000	0.0
134	0x00000000	0.0
135	0x00000000	0.0
136	0x00000000	0.0
137	0x00000000	0.0
138	0x44185d3f	609.457
139	0x448d7315	1131.5963
140	0x4521213c	2578.0771
141	0x00000000	0.0
142	0x00000000	0.0
143	0x00000000	0.0
144	0x44094c90	549.1963
145	0x445fe6f9	895.60895
146	0x44f2e295	1943.0807
147	0x455de388	3550.2207
148	0x45cf9e40	6643.7812
149	0x466b9c8d	15079.138
150	0x44597572	869.8351
151	0x44c5eaa7	1583.3329
152	0x455fb446	3579.267
153	0x00000000	0.0
154	0x00000000	0.0
155	0x00000000	0.0
156	0x00000000	0.0
157	0x00000000	0.0
158	0x00000000	0.0
159	0x43d36fdd	422.87393
160	0x4441e0a0	775.50977
161	0x44e0700f	1795.5018
162	0x44269185	666.27374
163	0x449c9e5a	1252.9485
164	0x45326942	2854.5786
165	0x23ef6c46	2.5958288e-17
166	0x272b0b56	2.3737162e-15
167	0x27ae1cc2	4.832588e-15
168	0x46879664	17355.195
169	0x46edb157	30424.67
170	0x4785777f	68334.99
171	0x4410ba33	578.90936
172	0x448edcbc	1142.898
173	0x45244e3c	2628.8896
174	0x441b7dde	621.9667
175	0x449b5df2	1242.9358
176	0x453159fd	2837.6243
177	0x43ae01f0	348.01514
178	0x440c1410	560.3135
179	0x449af3b2	1239.6155
180	0x00000000	0.0
181	0x00000000	0.0
182	0x00000000	0.0
183	0x47edb3f1	121703.88
184	0x47cea05c	105792.72
185	0x47c889f2	102675.89
186	0x43d0d2f0	417.64795
187	0x4435039d	724.05646
188	0x44cecb4c	1654.353
189	0x43098ef3	137.5584
190	0x42a22115	81.06461
191	0x4214d120	37.204224
192	0x4315f407	149.95323
193	0x42b1bd50	88.86975
194	0x4222e11e	40.71984
195	0x4468516e	929.27234
196	0x44e88eb5	1860.4596
197	0x45852b9d	4261.4517
198	0x2e52d7d7	4.7940176e-11
199	0x2cacb886	4.9090202e-12
200	0x2e867ce8	6.115802e-11
201	0x43589758	216.59119
202	0x43bbcb80	375.58984
203	0x4454d745	851.3636
204	0x440c86a3	562.1037
205	0x446ea7d7	954.6225
206	0x45057c24	2135.7588
207	0x00000000	0.0
208	0x00000000	0.0
209	0x00000000	0.0
210	0x00000000	0.0
211	0x00000000	0.0
212	0x00000000	0.0
213	0x00000000	0.0
214	0x00000000	0.0
215	0x00000000	0.0
216	0x43324bd8	178.29626
217	0x43827e9c	260.98914
218	0x440c821d	562.033
219	0x00000000	0.0
220	0x00000000	0.0
221	0x00000000	0.0
222	0x2b1ab2ea	5.4960084e-13
223	0x2b108397	5.1341695e-13
224	0x2aa57ac5	2.9395076e-13
225	0x4406aa50	538.66113
226	0x4460d262	899.28723
227	0x44fc0381	2016.1095
228	0x00000000	0.0
229	0x00000000	0.0
230	0x00000000	0.0
231	0x00000000	0.0
232	0x00000000	0.0
233	0x00000000	0.0
234	0x4411e4ea	583.5768
235	0x4474cbcc	979.1843
236	0x45086d3a	2182.8267
237	0x44082e10	544.7197
238	0x447fc067	1023.0063
239	0x45122972	2338.5903
240	0x42d5dd76	106.93254
241	0x4317a23e	151.63376
242	0x43a01e92	320.23883
243	0x00000000	0.0
244	0x00000000	0.0
245	0x00000000	0.0
246	0x482dea9d	178090.45
247	0x4831f42c	182224.69
248	0x4816c926	154404.6
249	0x440988a2	550.1349
250	0x445290be	842.2616
251	0x44e22e88	1809.4541
252	0x00000000	0.0
253	0x00000000	0.0
254	0x00000000	0.0
255	0x43463bb1	198.23317

exp_avg f4 [128]
0	0x00000000	0.0
1	0x00000000	0.0
2	0x410d754e	8.841139
3	0x4100c524	8.04813
4	0x00000004	6e-45
5	0x00000004	6e-45
6	0xc22a525b	-42.580425
7	0x4137e210	11.492691
8	0x4138d153	11.551105
9	0x4112010a	9.125254
10	0xc24cc3af	-51.191097
11	0x00000000	0.0
12	0xc251de42	-52.46705
13	0x4118b95a	9.545252
14	0x00000000	0.0
15	0x00000000	0.0
16	0x4127e599	10.493554
17	0x4124cfe9	10.300759
18	0xc21b3241	-38.799076
19	0x00000000	0.0
20	0x410601d9	8.375451
21	0x00000000	0.0
22	0x00000000	0.0
23	0x00000000	0.0
24	0x00000000	0.0
25	0x4148047c	12.501095
26	0x00000000	0.0
27	0x410d29b0	8.822678
28	0x43b74d75	366.60513
29	0x410655ff	8.395995
30	0x41653b32	14.326952
31	0x00000004	6e-45
32	0x00000000	0.0
33	0xc15b9719	-13.724389
34	0x40c5613b	6.168119
35	0x41282958	10.510094
36	0x00000000	0.0
37	0xc255b5de	-53.427605
38	0x00000000	0.0
39	0x00000004	6e-45
40	0x00000000	0.0
41	0x00000000	0.0
42	0x00000000	0.0
43	0x412b4740	10.704895
44	0x00000000	0.0
45	0x00000000	0.0
46	0x4122d38a	10.176645
47	0x00000000	0.0
48	0x410f6328	8.961708
49	0x41a32407	20.392591
50	0x412c8293	10.781878
51	0x00000000	0.0
52	0x00000000	0.0
53	0x4121a4c8	10.10273
54	0x4127a843	10.4785795
55	0x00000004	6e-45
56	0xc247d30c	-49.9561
57	0x412b6883	10.713016
58	0x4119ba74	9.608021
59	0x40fe00b7	7.9375873
60	0x00000000	0.0
61	0xc147006e	-12.437605
62	0x4122a054	10.164143
63	0x094af0bd	2.442806e-33
64	0x0a3da37d	9.130768e-33
65	0x413c286c	11.759869
66	0x00000004	6e-45
67	0x40da00b9	6.812588
68	0x411ac9d9	9.674279
69	0x00000000	0.0
70	0x00000000	0.0
71	0x00000000	0.0
72	0x40bfd4f0	5.9947433
73	0x00000000	0.0
74	0x00000004	6e-45
75	0x4128d64f	10.552321
76	0x00000000	0.0
77	0x00000000	0.0
78	0x41185482	9.520632
79	0x411da569	9.852883
80	0x409afde2	4.8434916
81	0x00000000	0.0
82	0xc42b6113	-685.5168
83	0x4113f219	9.246606
84	0x00000000	0.0
85	0x40ce39cc	6.4445553
86	0x411fc4aa	9.985514
87	0x00000000	0.0
88	0x4121f8b1	10.123216
89	0x00000000	0.0
90	0x00000000	0.0
91	0x428a54ee	69.16588
92	0x00000000	0.0
93	0x42b7dc1e	91.92992
94	0xc2059b93	-33.401928
95	0x4123daf5	10.240956
96	0x00000000	0.0
97	0x41548ebd	13.284848
98	0x4120eb7e	10.057493
99	0x00000000	0.0
100	0x42c3a76e	97.82701
101	0x410d5c2e	8.835005
102	0x40bb005f	5.8437953
103	0x41014a42	8.080629
104	0x00000000	0.0
105	0xc2861df2	-67.05849
106	0x4109e654	8.618732
107	0x00000000	0.0
108	0x41243c76	10.264761
109	0x412e26cc	10.884472
110	0x00000000	0.0
111	0x40f6cbd3	7.712381
112	0x00000000	0.0
113	0x411a15a8	9.630287
114	0x41137d5e	9.218107
115	0x00000000	0.0
116	0x41f5e8b9	30.738634
117	0x4117f3d2	9.497026
118	0x00000000	0.0
119	0x410c19a4	8.75626
120	0x00000000	0.0
121	0x4103e9b3	8.244555
122	0x4320b6a3	160.71342
123	0x4129cc12	10.612322
124	0x2205de86	1.8142664e-18
125	0x00000000	0.0
126	0x410c1c5e	8.756926
127	0x00000000	0.0

exp_avg_sq f4 [128]
0	0x00000000	0.0
1	0x00000000	0.0
2	0x46444b4f	12562.827
3	0x45a577e2	5294.9854
4	0x2b640206	8.100468e-13
5	0x2f61cf5c	2.05373e-10
6	0x48275e8a	171386.16
7	0x46313ef9	11343.743
8	0x4648a601	12841.501
9	0x45c657fd	6346.9985
10	0x486e503f	244032.98
11	0x00000000	0.0
12	0x4876da69	252777.64
13	0x4624f4ae	10557.17
14	0x00000000	0.0
15	0x00000000	0.0
16	0x45e64a55	7369.2915
17	0x462a2538	10889.305
18	0x48164c2a	153904.66
19	0x00000000	0.0
20	0x45bb5a5c	5995.295
21	0x00000000	0.0
22	0x00000000	0.0
23	0x00000000	0.0
24	0x00000000	0.0
25	0x467cee61	16187.595
26	0x00000000	0.0
27	0x4592ee2e	4701.7725
28	0x4ac265f3	6.3700415e+06
29	0x45b86fd8	5901.9805
30	0x46b4fca9	23166.33
31	0x26fcad39	1.7532965e-15
32	0x00000000	0.0
33	0x4708988f	34968.56
34	0x44ba5ac6	1490.8367
35	0x46530132	13504.299
36	0x00000000	0.0
37	0x4884c232	271889.56
38	0x00000000	0.0
39	0x2730a969	2.4516744e-15
40	0x00000000	0.0
41	0x00000000	0.0
42	0x00000000	0.0
43	0x45d97abf	6959.3433
44	0x00000000	0.0
45	0x00000000	0.0
46	0x46259fe8	10599.977
47	0x00000000	0.0
48	0x45bd100f	6050.0073
49	0x475d8d3b	56717.23
50	0x466336e3	14541.722
51	0x00000000	0.0
52	0x00000000	0.0
53	0x45f60230	7872.2734
54	0x46355dc7	11607.444
55	0x2811a08f	8.0839325e-15
56	0x48657d7a	234997.9
57	0x4638a7bc	11817.934
58	0x464b86e1	13025.72
59	0x45904c4c	4617.537
60	0x00000000	0.0
61	0x49322da7	729818.44
62	0x45dab784	6998.9395
63	0x43adc1a8	347.51294
64	0x43bd721f	378.89157
65	0x468c569a	17963.3
66	0x30ae09e0	1.2662973e-09
67	0x4552f9f0	3375.621
68	0x45fc835b	8080.4194
69	0x00000000	0.0
70	0x00000000	0.0
71	0x00000000	0.0
72	0x44f1af3b	1933.476
73	0x00000000	0.0
74	0x2b22bc03	5.781488e-13
75	0x45e8737b	7438.435
76	0x00000000	0.0
77	0x00000000	0.0
78	0x45f19ac7	7731.347
79	0x462061b5	10264.427
80	0x4488f4c2	1095.6487
81	0x00000000	0.0
82	0x494c7fb8	837627.5
83	0x45b2bca3	5719.5796
84	0x00000000	0.0
85	0x450cdad8	2253.6777
86	0x4637a825	11754.036
87	0x00000000	0.0
88	0x45bdb3c1	6070.469
89	0x00000000	0.0
90	0x00000000	0.0
91	0x4921f061	663302.06
92	0x00000000	0.0
93	0x4910d7b6	593275.4
94	0x47e0fd82	115195.016
95	0x46243392	10508.893
96	0x00000000	0.0
97	0x46aa9776	21835.73
98	0x46169148	9636.32
99	0x00000000	0.0
100	0x47a305f3	83467.9
101	0x45be12b0	6082.336
102	0x44a8f4a5	1351.6451
103	0x4599643a	4908.5283
104	0x00000000	0.0
105	0x497950ba	1.0211956e+06
106	0x459f621d	5100.264
107	0x00000000	0.0
108	0x465fb3cf	14316.952
109	0x47980ce4	77849.78
110	0x00000000	0.0
111	0x45557ce8	3415.8066
112	0x00000000	0.0
113	0x46245751	10517.829
114	0x45e406ee	7296.866
115	0x00000000	0.0
116	0x47df4bee	114327.86
117	0x460b1cc9	8903.196
118	0x00000000	0.0
119	0x459990c5	4914.096
120	0x00000000	0.0
121	0x45a09542	5138.657
122	0x4a08ed0b	2.2433948e+06
123	0x4637238e	11720.889
124	0x4794005b	75776.71
125	0x00000000	0.0
126	0x45ba675f	5964.9214
127	0x00000000	0.0

exp_avg f4 [64, 128]
0	0x00000000	0.0
1	0x00000000	0.0
2	0xbf45206b	-0.7700259
3	0xbf803a7d	-1.0017849
4	0x00000000	0.0
5	0x00000004	6e-45
6	0xc0280ec1	-2.6259005
7	0xbef54c97	-0.47909996
8	0xbf6b82d8	-0.91996527
9	0xbfa05a22	-1.2527506
10	0xc03cf131	-2.9522212
11	0x00000000	0.0
12	0xc0612757	-3.518026
13	0xbf788dce	-0.97091377
14	0x00000000	0.0
15	0x00000000	0.0
16	0xbf47ee59	-0.78098065
17	0xbf15c9c3	-0.5851099
18	0xc032609a	-2.787146
19	0x00000000	0.0
20	0xbf6d492b	-0.9268977
21	0x00000000	0.0
22	0x00000000	0.0
23	0x00000000	0.0
24	0x00000000	0.0
25	0xbeaef331	-0.34169915
26	0x00000000	0.0
27	0xbfb6a2fe	-1.4268491
28	0x00000004	6e-45
29	0xbf84783b	-1.0349191
30	0xbee6e6b9	-0.45097902
31	0x00000000	0.0
32	0x00000000	0.0
33	0xbf0e7a44	-0.5565531
34	0xbfca12b3	-1.5786957
35	0xbf39e7d4	-0.72619367
36	0x00000000	0.0
37	0xc0471f8e	-3.111301
38	0x00000000	0.0
39	0x00000000	0.0
40	0x00000000	0.0
41	0x00000000	0.0
42	0x00000000	0.0
43	0xbf113766	-0.56725156
44	0x00000000	0.0
45	0x00000000	0.0
46	0xbf14b945	-0.580952
47	0x00000000	0.0
48	0xbf8ba9fb	-1.0911249
49	0x32b951b7	2.1573994e-08
50	0xbf137592	-0.57601273
51	0x00000000	0.0
52	0x00000000	0.0
53	0xbf0e135a	-0.5549828
54	0xbf7744ae	-0.9658917
55	0x00000000	0.0
56	0xc04347d9	-3.0512602
57	0xbf42f72f	-0.7615842
58	0xbf1925a4	-0.5982306
59	0xbfeaedf7	-1.8353871
60	0x00000000	0.0
61	0xbfa96793	-1.3234733
62	0xbf56ebe2	-0.8395368
63	0x83b3fd53	-1.0578835e-36
64	0x842156ca	-1.896531e-36
65	0xbefa08b2	-0.4883476
66	0x00000000	0.0
67	0xbfc028fc	-1.5012507
68	0xbf9506fa	-1.1642754
69	0x00000000	0.0
70	0x00000000	0.0
71	0x00000000	0.0
72	0xbfd20e91	-1.6410695
73	0x00000000	0.0
74	0x00000000	0.0
75	0xbef8ac62	-0.48569018
76	0x00000000	0.0
77	0x00000000	0.0
78	0xbf3797b4	-0.71715856
79	0xbf815d52	-1.0106604
80	0xbfce5fab	-1.6122946
81	0x00000000	0.0
82	0xbfba8b34	-1.4573731
83	0xbf730177	-0.9492411
84	0x00000000	0.0
85	0xbf8f2eb9	-1.1186134
86	0xbf2aefad	-0.66771966
87	0x00000000	0.0
88	0xbf703532	-0.9383117
89	0x00000000	0.0
90	0x00000000	0.0
91	0x37a69130	1.985635e-05
92	0x00000000	0.0
93	0xbdcbfa18	-0.09959811
94	0xc017e0b2	-2.3730893
95	0xbf22d5d4	-0.63607526
96	0x00000000	0.0
97	0xbeddbabf	-0.43306538
98	0xbf5375f6	-0.8260187
99	0x00000000	0.0
100	0xbdd46e5d	-0.103726126
101	0xbf69674f	-0.9117326
102	0xbfd7e24c	-1.6865935
103	0xbfb039d2	-1.3767645
104	0x00000000	0.0
105	0xbfc5ea5a	-1.5462143
106	0xbfa637ca	-1.2985775
107	0x00000000	0.0
108	0xbf387645	-0.72055465
109	0x214693c5	6.728058e-19
110	0x00000000	0.0
111	0xbf68f64b	-0.91000813
112	0x00000000	0.0
113	0xbf8721cc	-1.0557189
114	0xbfac232b	-1.3448232
115	0x00000000	0.0
116	0x00000004	6e-45
117	0xbf5cb26c	-0.8620975
118	0x00000000	0.0
119	0xbf71cc4b	-0.9445235
120	0x00000000	0.0
121	0xbf86759d	-1.0504643
122	0xc02e12c3	-2.7198951
123	0xbf438c32	-0.76385796
124	0x80000004	-6e-45
125	0x00000000	0.0
126	0xbf896d4c	-1.073648
127	0x00000000	0.0
128	0x00000000	0.0
129	0x00000000	0.0
130	0x00000004	6e-45
131	0x00000004	6e-45
132	0x00000000	0.0
133	0x00000000	0.0
134	0x00000004	6e-45
135	0x00000004	6e-45
136	0x00000004	6e-45
137	0x00000004	6e-45
138	0x80000004	-6e-45
139	0x00000000	0.0
140	0x00000004	6e-45
141	0x00000004	6e-45
142	0x00000000	0.0
143	0x00000000	0.0
144	0x00000004	6e-45
145	0x00000004	6e-45
146	0x00000000	0.0
147	0x00000000	0.0
148	0x00000004	6e-45
149	0x00000000	0.0
150	0x00000000	0.0
151	0x00000000	0.0
152	0x00000000	0.0
153	0x00000004	6e-45
154	0x00000000	0.0
155	0x00000004	6e-45
156	0x00000000	0.0
157	0x00000004	6e-45
158	0x00000004	6e-45
159	0x00000000	0.0
160	0x00000000	0.0
161	0x00000004	6e-45
162	0x00000004	6e-45
163	0x00000004	6e-45
164	0x00000000	0.0
165	0x00000004	6e-45
166	0x00000000	0.0
167	0x00000000	0.0
168	0x00000000	0.0
169	0x00000000	0.0
170	0x00000000	0.0
171	0x00000004	6e-45
172	0x00000000	0.0
173	0x00000000	0.0
174	0x00000004	6e-45
175	0x00000000	0.0
176	0x00000004	6e-45
177	0x00000004	6e-45
178	0x00000004	6e-45
179	0x00000000	0.0
180	0x00000000	0.0
181	0x00000004	6e-45
182	0x00000004	6e-45
183	0x00000000	0.0
184	0x00000004	6e-45
185	0x00000004	6e-45
186	0x00000004	6e-45
187	0x00000004	6e-45
188	0x00000000	0.0
189	0x00000000	0.0
190	0x00000004	6e-45
191	0x00000000	0.0
192	0x00000000	0.0
193	0x00000004	6e-45
194	0x00000000	0.0
195	0x00000004	6e-45
196	0x00000004	6e-45
197	0x00000000	0.0
198	0x00000000	0.0
199	0x00000000	0.0
200	0x00000004	6e-45
201	0x00000000	0.0
202	0x00000000	0.0
203	0x00000004	6e-45
204	0x00000000	0.0
205	0x00000000	0.0
206	0x00000004	6e-45
207	0x00000004	6e-45
208	0x00000004	6e-45
209	0x00000000	0.0
210	0x00000000	0.0
211	0x00000004	6e-45
212	0x00000000	0.0
213	0x00000004	6e-45
214	0x00000004	6e-45
215	0x00000000	0.0
216	0x00000004	6e-45
217	0x00000000	0.0
218	0x00000000	0.0
219	0x00000004	6e-45
220	0x00000000	0.0
221	0x00000004	6e-45
222	0x00000000	0.0
223	0x00000004	6e-45
224	0x00000000	0.0
225	0x00000004	6e-45
226	0x00000004	6e-45
227	0x00000000	0.0
228	0x00000000	0.0
229	0x00000004	6e-45
230	0x00000004	6e-45
231	0x00000004	6e-45
232	0x00000000	0.0
233	0x00000000	0.0
234	0x00000004	6e-45
235	0x00000000	0.0
236	0x00000004	6e-45
237	0x00000000	0.0
238	0x00000000	0.0
239	0x00000004	6e-45
240	0x00000000	0.0
241	0x00000004	6e-45
242	0x00000004	6e-45
243	0x00000000	0.0
244	0x00000004	6e-45
245	0x00000004	6e-45
246	0x00000000	0.0
247	0x00000004	6e-45
248	0x00000000	0.0
249	0x00000004	6e-45
250	0x00000000	0.0
251	0x00000004	6e-45
252	0x00000000	0.0
253	0x00000000	0.0
254	0x00000004	6e-45
255	0x00000000	0.0

exp_avg_sq f4 [64, 128]
0	0x00000000	0.0
1	0x00000000	0.0
2	0x3fabb7fb	1.3415521
3	0x4001aed2	2.0262952
4	0x00000000	0.0
5	0x29f997d2	1.1084158e-13
6	0x411ff495	9.997212
7	0x3ef0637c	0.469509
8	0x3fd1cfe4	1.6391568
9	0x4043549e	3.0520396
10	0x41404c79	12.01867
11	0x00000000	0.0
12	0x418a784c	17.308739
13	0x3feead58	1.864665
14	0x00000000	0.0
15	0x00000000	0.0
16	0x3fae1b6c	1.3602118
17	0x3f6571d2	0.896268
18	0x4130171f	11.005645
19	0x00000000	0.0
20	0x3fc91dc3	1.5712208
21	0x00000000	0.0
22	0x00000000	0.0
23	0x00000000	0.0
24	0x00000000	0.0
25	0x3eb10700	0.34575653
26	0x00000000	0.0
27	0x4072aaf5	3.7916844
28	0x3723b232	9.757046e-06
29	0x3ffa08b3	1.9533905
30	0x3f13a35b	0.57671136
31	0x00000000	0.0
32	0x00000000	0.0
33	0x3f2be66d	0.67148477
34	0x408b2ea5	4.349444
35	0x3f85bb6f	1.0447825
36	0x00000000	0.0
37	0x415d4bd9	13.8310175
38	0x00000000	0.0
39	0x00000000	0.0
40	0x00000000	0.0
41	0x00000000	0.0
42	0x00000000	0.0
43	0x3f2e3da9	0.68062836
44	0x00000000	0.0
45	0x00000000	0.0
46	0x3f48dd85	0.7846301
47	0x00000000	0.0
48	0x3ff1f9ec	1.8904395
49	0x3b8106b0	0.003937565
50	0x3f23515a	0.6379601
51	0x00000000	0.0
52	0x00000000	0.0
53	0x3f55856e	0.8340672
54	0x3fd5a31a	1.66904
55	0x00000000	0.0
56	0x414c0a90	12.752579
57	0x3faa8dc6	1.3324516
58	0x3f5693c5	0.8381923
59	0x40b0f098	5.5293694
60	0x00000000	0.0
61	0x4016706c	2.3506117
62	0x3fd5e772	1.6711257
63	0x3ab2a064	0.0013628122
64	0x3ac6994b	0.0015151886
65	0x3f0fe734	0.5621216
66	0x00000000	0.0
67	0x407d4eb3	3.9579284
68	0x401e3be7	2.4724061
69	0x00000000	0.0
70	0x00000000	0.0
71	0x00000000	0.0
72	0x4091c9b8	4.555874
73	0x00000000	0.0
74	0x00000000	0.0
75	0x3f152112	0.58253586
76	0x00000000	0.0
77	0x00000000	0.0
78	0x3f674170	0.90334225
79	0x40035546	2.0520797
80	0x4089f985	4.311709
81	0x00000000	0.0
82	0x3f9ad17e	1.2095182
83	0x3fba8328	1.4571276
84	0x00000000	0.0
85	0x4011dc3e	2.2790675
86	0x3f7a557f	0.97786707
87	0x00000000	0.0
88	0x3feca952	1.8489172
89	0x00000000	0.0
90	0x00000000	0.0
91	0x3902df6f	0.00012481002
92	0x00000000	0.0
93	0x3cb820cf	0.022476582
94	0x4100bd4e	8.046217
95	0x3f344683	0.7042009
96	0x00000000	0.0
97	0x3f11c855	0.5694631
98	0x3faab645	1.3336874
99	0x00000000	0.0
100	0x3e6b80e6	0.2299839
101	0x3fb53d37	1.4159306
102	0x409faf3a	4.99014
103	0x4053f1a7	3.3116243
104	0x00000000	0.0
105	0x4063f6e2	3.5619435
106	0x40523786	3.284639
107	0x00000000	0.0
108	0x3f5fdca6	0.8744606
109	0x3bde3e79	0.0067823497
110	0x00000000	0.0
111	0x3fcfcb72	1.6233962
112	0x00000000	0.0
113	0x400117d2	2.0170789
114	0x404f660c	3.2406034
115	0x00000000	0.0
116	0x37686f44	1.3854184e-05
117	0x3f9959fb	1.1980585
118	0x00000000	0.0
119	0x3fcdd302	1.608002
120	0x00000000	0.0
121	0x40103085	2.2529614
122	0x41392e4b	11.573802
123	0x3fa26b60	1.2689018
124	0x3507beb1	5.056891e-07
125	0x00000000	0.0
126	0x400c1043	2.1884925
127	0x00000000	0.0
128	0x00000000	0.0
129	0x00000000	0.0
130	0x2b78a512	8.833638e-13
131	0x2b16d94b	5.359226e-13
132	0x00000000	0.0
133	0x00000000	0.0
134	0x1b2e7759	1.4431506e-22
135	0x27f83abb	6.8897503e-15
136	0x2b4c13cf	7.250285e-13
137	0x2bb45f3d	1.2816203e-12
138	0x18d813e8	5.585479e-24
139	0x00000000	0.0
140	0x220f76d3	1.9443019e-18
141	0x2b7b011b	8.917465e-13
142	0x00000000	0.0
143	0x00000000	0.0
144	0x2a8d47e7	2.5096524e-13
145	0x2a10526e	1.2818368e-13
146	0x00000000	0.0
147	0x00000000	0.0
148	0x2af7d12c	4.4021156e-13
149	0x00000000	0.0
150	0x00000000	0.0
151	0x00000000	0.0
152	0x00000000	0.0
153	0x28b8c624	2.0514033e-14
154	0x00000000	0.0
155	0x2ba9e97d	1.2072978e-12
156	0x00000000	0.0
157	0x2b57da13	7.6685983e-13
158	0x2b0d8e6c	5.0290913e-13
159	0x00000000	0.0
160	0x00000000	0.0
161	0x29530fb8	4.6865045e-14
162	0x2b45075e	6.9998683e-13
163	0x2b054580	4.734754e-13
164	0x00000000	0.0
165	0x2221c9be	2.192637e-18
166	0x00000000	0.0
167	0x00000000	0.0
168	0x00000000	0.0
169	0x00000000	0.0
170	0x00000000	0.0
171	0x2685187b	9.235364e-16
172	0x00000000	0.0
173	0x00000000	0.0
174	0x2a1b2bad	1.3781919e-13
175	0x00000000	0.0
176	0x2a67dbd3	2.0593188e-13
177	0x2943a2c1	4.3439864e-14
178	0x2a60ae79	1.9955729e-13
179	0x00000000	0.0
180	0x00000000	0.0
181	0x295a5aab	4.8484366e-14
182	0x2b821f5e	9.245762e-13
183	0x00000000	0.0
184	0x2193d406	1.001723e-18
185	0x2b34c226	6.421828e-13
186	0x2ac7aef5	3.5470902e-13
187	0x2c3fa6e7	2.7235382e-12
188	0x00000000	0.0
189	0x00000000	0.0
190	0x2a871ba7	2.4000005e-13
191	0x00000000	0.0
192	0x00000000	0.0
193	0x2a8d6245	2.511482e-13
194	0x00000000	0.0
195	0x2bddb9b9	1.5754543e-12
196	0x2b93b970	1.0496447e-12
197	0x00000000	0.0
198	0x00000000	0.0
199	0x00000000	0.0
200	0x2bb8a164	1.3118781e-12
201	0x00000000	0.0
202	0x00000000	0.0
203	0x2919dbaa	3.4163353e-14
204	0x00000000	0.0
205	0x00000000	0.0
206	0x2a266fa6	1.4782498e-13
207	0x2b9681c7	1.0694161e-12
208	0x2b6fb6de	8.5163636e-13
209	0x00000000	0.0
210	0x00000000	0.0
211	0x298baf03	6.2032e-14
212	0x00000000	0.0
213	0x2afbc1d5	4.4721055e-13
214	0x2ac5e286	3.5151412e-13
215	0x00000000	0.0
216	0x2ab9412b	3.290782e-13
217	0x00000000	0.0
218	0x00000000	0.0
219	0x2b0135b8	4.5904556e-13
220	0x00000000	0.0
221	0x2a27cd5b	1.4903827e-13
222	0x00000000	0.0
223	0x27d12312	5.8047176e-15
224	0x00000000	0.0
225	0x2aa4f864	2.9304608e-13
226	0x2b052daa	4.7314464e-13
227	0x00000000	0.0
228	0x00000000	0.0
229	0x2a888d4d	2.42565e-13
230	0x2b9df523	1.122356e-12
231	0x2bac49d9	1.2241832e-12
232	0x00000000	0.0
233	0x00000000	0.0
234	0x2bb96752	1.3173718e-12
235	0x00000000	0.0
236	0x2a852d56	2.3657004e-13
237	0x00000000	0.0
238	0x00000000	0.0
239	0x2a58d26d	1.925766e-13
240	0x00000000	0.0
241	0x2bbb870d	1.3324633e-12
242	0x2bfd88a3	1.8014656e-12
243	0x00000000	0.0
244	0x296a0074	5.195883e-14
245	0x2a03eea3	1.1717931e-13
246	0x00000000	0.0
247	0x2ac6d191	3.531728e-13
248	0x00000000	0.0
249	0x2b80ade6	9.143214e-13
250	0x00000000	0.0
251	0x2b60a205	7.9805634e-13
252	0x00000000	0.0
253	0x00000000	0.0
254	0x2b3fe810	6.817888e-13
255	0x00000000	0.0
