checkpoint.pth (torch, 117474 bytes, 18 tensors)

fc1.weight f4 [128, 5]
0	0xc0d973f8	-6.7954063
1	0xc0e1d8be	-7.057708
2	0x3ea43494	0.32071364
3	0x40065c28	2.0993748
4	0xbc882b2c	-0.016622148
5	0xc0295365	-2.645715
6	0x3f3454cc	0.7044189
7	0xbfea3d2f	-1.8299922
8	0x3f7eb14d	0.9948929
9	0x3e251e00	0.16124725
10	0x406bace3	3.6824272
11	0x4094aedc	4.646345
12	0xc017f82e	-2.3745227
13	0xc0413e74	-3.0194368
14	0xbfce8d31	-1.6136838
15	0xc0470ab3	-3.110028
16	0x403b889e	2.9302135
17	0x3f4fbb6e	0.8114537
18	0x3c2eb334	0.010662843
19	0x3ff47108	1.9096994
20	0xbfcdc5e7	-1.607602
21	0xc0490a62	-3.1412587
22	0x3eb93a34	0.36177218
23	0xc01c6f59	-2.4442961
24	0x4000abcb	2.0104854
25	0x40c55147	6.1661716
26	0x3e66608f	0.22497772
27	0x403ae4d2	2.920216
28	0xbfa99bf1	-1.3250715
29	0x3e8d1f03	0.27562723
30	0x3e5df0a8	0.21673834
31	0xbdc53b9e	-0.09630512
32	0xbead5b4f	-0.33858725
33	0x3e32e7ad	0.1747119
34	0xbeda7280	-0.42665482
35	0xc03fc27c	-2.9962454
36	0x4041a5e7	3.0257509
37	0x3f0573e4	0.5212996
38	0x3ed7a452	0.42117554
39	0x400c3dca	2.1912713
40	0xbfa5dabd	-1.2957379
41	0xc04ef9eb	-3.2340038
42	0x3e882900	0.2659378
43	0xc02538e7	-2.581598
44	0x3fee946e	1.8639047
45	0xbc03025d	-0.007996169
46	0x3e5e1535	0.21687777
47	0x3d6fb32f	0.058520492
48	0x3e841ba7	0.25802347
49	0xbe0f5679	-0.1399783
50	0x3ec153fd	0.3775939
51	0x3ce1b5e6	0.027552556
52	0xbe04b9a0	-0.12961435
53	0x3e9e4f69	0.3091996
54	0xbee39de6	-0.44456404
55	0xbf8b32e4	-1.0874906
56	0xc038edda	-2.8895173
57	0x3f9c3e28	1.2206469
58	0xbfc52886	-1.5402992
59	0x4005d0f0	2.0908775
60	0xbfbde402	-1.4835207
61	0xc04b9836	-3.1811652
62	0xbe907029	-0.2821057
63	0xc01f613e	-2.4903102
64	0x40184b85	2.3796093
65	0x40d5cd83	6.681337
66	0x3e424fc7	0.18975745
67	0x4036e9f7	2.85803
68	0xbfc95fea	-1.5732396
69	0x3ec52bee	0.38510078
70	0xbf8f7e69	-1.1210452
71	0xc0517ad8	-3.2731228
72	0x3f53f8db	0.828016
73	0xbff43573	-1.9078811
74	0x40148a95	2.3209584
75	0xbfd0f377	-1.63243
76	0xc06470f3	-3.5693939
77	0xbf877c08	-1.0584726
78	0x3e75c0c8	0.23999321
79	0xbfd44cea	-1.6585972
80	0x404f7198	3.2413082
81	0x40a33f91	5.1015096
82	0xbff3e5d3	-1.9054512
83	0xc020ce00	-2.5125732
84	0xbfd00cc1	-1.6253892
85	0xbeb5e22e	-0.35524124
86	0x3e0adec8	0.13561547
87	0xbe4ceb02	-0.20011523
88	0x3e9f16b5	0.31072012
89	0xbea6f44b	-0.32608256
90	0xbed38ed5	-0.4131991
91	0xbeb48621	-0.35258582
92	0x3e448bd5	0.19193967
93	0x3eb16cc4	0.34653294
94	0xbe08e637	-0.1336907
95	0xc02fefd0	-2.749012
96	0xc08feed2	-4.497903
97	0x40021285	2.0323803
98	0xc02018e7	-2.50152
99	0x407159d1	3.771107
100	0xbfdb166a	-1.7116215
101	0xbfe02b2e	-1.7513177
102	0x4034d829	2.8256934
103	0xbfaf1ca9	-1.3680621
104	0x402dcc4f	2.715595
105	0x3e0d74de	0.13814113
106	0xbc94f089	-0.018181102
107	0xbec6119c	-0.3868531
108	0xbd50ac39	-0.050945494
109	0xbe4e7e3d	-0.20165344
110	0xbf9e2073	-1.2353653
111	0xc0943f84	-4.6327534
112	0xbf4c2a4c	-0.7975204
113	0x3f660226	0.8984703
114	0xc000b722	-2.0111775
115	0xbfd1c1ec	-1.6387305
116	0xc040e413	-3.0139205
117	0x3edfeb7d	0.4373435
118	0xc0141f16	-2.3143973
119	0x40055990	2.0835915
120	0xbf9628ea	-1.1731236
121	0xc041b719	-3.0268004
122	0x3fa4680c	1.2844253
123	0xbfda9871	-1.7077771
124	0x40019e92	2.0253034
125	0x407a7300	3.913269
126	0x40a0f071	5.0293508
127	0xbfa5464f	-1.2912081
128	0xc00a77a1	-2.1635516
129	0xbfce652a	-1.6124623
130	0xbf89ca23	-1.0764812
131	0xbff5af2c	-1.9194083
132	0x3f044e93	0.51682395
133	0xbfaf2b08	-1.3685007
134	0x4029c409	2.65259
135	0xbead1114	-0.33802092
136	0xbeb90344	-0.36135304
137	0xbe9ce8f6	-0.30646485
138	0x3e8a12be	0.26967424
139	0xbd5044a3	-0.050846707
140	0xbfce5cf8	-1.6122122
141	0xc048bebb	-3.1366413
142	0x3ebf4943	0.37360582
143	0xc0158972	-2.336514
144	0x4000b4b0	2.0110283
145	0xc0228248	-2.5392017
146	0x3f23b673	0.6395027
147	0xbfc01c34	-1.5008607
148	0x3f2afe25	0.66794044
149	0x3ea2769b	0.31731114
150	0x40926dc9	4.5759015
151	0xc02e907e	-2.727569
152	0x3ffaa2d0	1.9580936
153	0xbe157a2c	-0.14597386
154	0xbef1b7b3	-0.47210464
155	0xbfd0dd27	-1.631749
156	0xbfcfa438	-1.622199
157	0x3f8ff18c	1.1245589
158	0xbf91cf9f	-1.1391486
159	0x401fbaa9	2.4957678
160	0x40929ce3	4.581651
161	0x405155f0	3.2708702
162	0xc016347f	-2.346954
163	0xc04ac0d9	-3.1680205
164	0xc03f98d8	-2.9937038
165	0xbfb1e271	-1.389723
166	0xc00fa97c	-2.2447195
167	0x3fe48d73	1.7855667
168	0xc00063cb	-2.0060909
169	0x40087955	2.1324055
170	0xbd48ce32	-0.04902477
171	0xbd93f56d	-0.07224546
172	0xbe16d09f	-0.1472802
173	0x3ea428e2	0.3206244
174	0xbeb5e523	-0.3552638
175	0x4098c361	4.77385
176	0x4087b982	4.241395
177	0xc01b27ec	-2.4243116
178	0xc0461e7f	-3.0956113
179	0xc0037631	-2.0540888
180	0xbf5846ce	-0.8448304
181	0xbfdfc759	-1.7482711
182	0xbd7a820c	-0.06115918
183	0xbfe97997	-1.8240231
184	0x402ddf46	2.7167525
185	0xbec626ad	-0.38701382
186	0x3e45a1a3	0.19299941
187	0xbd84e7a6	-0.06489496
188	0x3ed1358d	0.40861169
189	0xbeb0136b	-0.34389815
190	0x40caebb3	6.341272
191	0xbce67100	-0.028130054
192	0x4028eb3c	2.6393576
193	0xbfaa8bf8	-1.3323965
194	0xbe538dc7	-0.20659553
195	0xbfa44a17	-1.283511
196	0xc040489a	-3.0044312
197	0x3f457865	0.7713683
198	0xbffc024a	-1.9688199
199	0x3ff7a801	1.9348146
200	0xbf4f2fad	-0.8093212
201	0xbfb80d5e	-1.4379079
202	0x3d9a9402	0.075477615
203	0xc0252585	-2.580415
204	0x401794a4	2.3684473
205	0xbedc289d	-0.42999735
206	0xc013f077	-2.3115518
207	0x4016ae74	2.3543978
208	0xbfc7a988	-1.5598612
209	0x40128e88	2.2899494
210	0xbe2650bf	-0.1624174
211	0x3de2e094	0.11077991
212	0xbe8a6387	-0.27029058
213	0x3e0252b1	0.12726857
214	0xbebbff61	-0.36718276
215	0xbfdd1387	-1.7271584
216	0xc043cfe4	-3.0595636
217	0x3f21efc7	0.63256496
218	0xc01ae21a	-2.4200501
219	0x400b44ed	2.176082
220	0x407e5716	3.9740653
221	0x4099c48b	4.805242
222	0xbfffae39	-1.9975044
223	0xc02be238	-2.6856823
224	0xbfab4927	-1.3381699
225	0xbdce6ccc	-0.10079345
226	0xbe23ba9b	-0.15989153
227	0x3cb8fbac	0.022580944
228	0x3ed264e5	0.410926
229	0xbdacd7fc	-0.08439633
230	0x4052eaf0	3.2955894
231	0x40a8fb5b	5.280683
232	0xbfb03c47	-1.3768395
233	0xc009b88e	-2.1518893
234	0xbf98d1e6	-1.1939056
235	0xc05654f8	-3.348936
236	0xc08ddaa1	-4.432938
237	0x3ff25093	1.8930839
238	0xc013cd02	-2.3093877
239	0x408911d3	4.283426
240	0x40cc23d4	6.3793736
241	0x3e68721a	0.22699776
242	0x40337f68	2.8046513
243	0xbfc56dec	-1.542417
244	0x3ea549e5	0.3228294
245	0xbf4cf802	-0.8006593
246	0xbfca037b	-1.5782312
247	0xbf12bcb2	-0.57319176
248	0xc015f95e	-2.3433452
249	0x40231db6	2.5486884
250	0xbfa44589	-1.283372
251	0xc03c4a1b	-2.942023
252	0x3edc998f	0.43085906
253	0xc0038b5a	-2.0553803
254	0x3fe7dc7c	1.8114161
255	0xbe130fa4	-0.14361435

fc1.bias f4 [128]
0	0x3ea58dc3	0.32334718
1	0x3e376ec8	0.17913353
2	0x3f962eda	1.1733048
3	0x3f6808bf	0.90638345
4	0x40353bfb	2.831786
5	0x3efdee04	0.49595654
6	0x3e02c743	0.12771325
7	0x3f97d8ff	1.1863097
8	0x40381e49	2.8768485
9	0xbef6f6b8	-0.48235106
10	0x3e8f08e4	0.2793647
11	0x402af560	2.6712265
12	0x4028b912	2.6362958
13	0x3dfd35ad	0.123637535
14	0x403f701c	2.9912176
15	0xbf725330	-0.94658184
16	0x3f88c3bf	1.0684737
17	0xbec445c6	-0.38334483
18	0xbdeadacf	-0.11467516
19	0x406fc3c7	3.7463243
20	0x4031f6da	2.7806916
21	0xbe86e463	-0.2634612
22	0xbf54c509	-0.8311315
23	0x4026219e	2.5958018
24	0x402f97d6	2.7436423
25	0x3fba937f	1.4576262
26	0x4019278a	2.3930383
27	0xbd45468c	-0.048162982
28	0x401fc103	2.4961555
29	0xbdfea280	-0.12433338
30	0xbefe8cf3	-0.4971691
31	0x4009a4a9	2.150675
32	0x3f7bd18d	0.98366624
33	0x4022b01e	2.5419993
34	0xbd280548	-0.04102066
35	0x3f60cd45	0.87813216
36	0x402e5ac6	2.7242904
37	0xbcd23ab1	-0.025662752
38	0x3d9b0e42	0.07571079
39	0x40300e67	2.750879
40	0x40462373	3.0959136
41	0x40082dbb	2.1277912
42	0xbdc53d04	-0.096307784
43	0x40152712	2.3305097
44	0x3f3e30ee	0.7429341
45	0xbe32a951	-0.17447402
46	0x3f4869a0	0.7828617
47	0x4076874c	3.8520079
48	0x3ea36cbc	0.31918895
49	0x403ccbb6	2.9499335
50	0x403548df	2.8325727
51	0xbeaffcd6	-0.34372586
52	0x40323167	2.7842653
53	0xbe4f794d	-0.20261116
54	0x3e6099a6	0.21933612
55	0xbe6967ca	-0.22793499
56	0x4023811d	2.5547554
57	0xbea59231	-0.32338098
58	0x3fa8b425	1.3179976
59	0x3fb1ddb1	1.389578
60	0x4037b5d9	2.870474
61	0x400549ca	2.0826287
62	0x4035b2cb	2.8390377
63	0x3fe48432	1.7852843
64	0x3fecade6	1.849057
65	0x4021bea6	2.5272613
66	0xbe7f7288	-0.24946034
67	0x40390138	2.8906994
68	0x402fa3e4	2.744378
69	0x3e8ed3fd	0.2789611
70	0x3f529106	0.8225254
71	0x40381eb7	2.8768747
72	0x3ca7f14f	0.020500807
73	0x401dbf21	2.4647906
74	0x3ed8cc83	0.4234353
75	0x402d50db	2.70806
76	0x40533f06	3.3007216
77	0xbedee0c5	-0.4353086
78	0x403d47bd	2.9575036
79	0xbe7bca7d	-0.24588962
80	0x3f6ca24a	0.92435133
81	0x401b2e44	2.4246988
82	0x4035db63	2.8415153
83	0x3f17dbb8	0.5931964
84	0x40235a81	2.552399
85	0x3ff9a4a4	1.9503369
86	0x402d465c	2.7074194
87	0x3dd1c028	0.10241729
88	0x3e168385	0.14698608
89	0x4014eaaa	2.3268228
90	0x402958bb	2.6460407
91	0x3e738f33	0.23785095
92	0xbe9e1fb7	-0.30883572
93	0x4001d0bc	2.0283651
94	0x4012ccee	2.293758
95	0x3f9a5249	1.2056361
96	0x401e7993	2.4761703
97	0xbe8f986f	-0.28045985
98	0x3fd52be5	1.665402
99	0x401ed305	2.4816296
100	0x401d56f3	2.458432
101	0x3f750030	0.9570341
102	0xbf7814fb	-0.96907014
103	0xbe958d9f	-0.2920961
104	0x3e766ae9	0.2406422
105	0x3f5c5dde	0.8608073
106	0x401f8666	2.492578
107	0xbdc0eb39	-0.09419865
108	0x4003aa2d	2.0572617
109	0x3fe94ffe	1.8227537
110	0xbed8d9e5	-0.4235374
111	0x3e1072f5	0.14106353
112	0x3d9d2e03	0.07674792
113	0x40472ac2	3.1119847
114	0x3fd98906	1.6994941
115	0x3e7aaee1	0.24480774
116	0x40273aab	2.6129558
117	0x3e302a2a	0.17203584
118	0x40231bb8	2.5485668
119	0x3f4fe54b	0.8120925
120	0x3ecbee14	0.39830077
121	0x3d59e8bf	0.05320048
122	0x4004c3be	2.0744472
123	0x3f44c401	0.7686158
124	0x4047ee18	3.123907
125	0xbeb3bfe3	-0.35107335
126	0x3f8918ef	1.0710734
127	0x4028baa6	2.636392

fc2.weight f4 [64, 128]
0	0x3d3aaaaa	0.045572914
1	0xbd6a38f7	-0.057183232
2	0xbdb4f35b	-0.08835479
3	0xbce6d760	-0.02817887
4	0x3d24c0ac	0.04022281
5	0xbda44a89	-0.08022029
6	0x3b48ecb7	0.0030658671
7	0x3c356a77	0.0110727465
8	0xbd22ca34	-0.039743617
9	0xbd81bb69	-0.06334574
10	0xbc0ef97b	-0.008726473
11	0xbcae69ae	-0.021290626
12	0xbdaca56e	-0.08429991
13	0x3c8f79e1	0.017514171
14	0xbd696bb8	-0.056987494
15	0x3d27e5e8	0.04099074
16	0x3bee3a5a	0.0072701396
17	0x3c7b20c7	0.015327639
18	0x3daaa560	0.08332324
19	0x3c4b504b	0.01240928
20	0xbd899f46	-0.06719832
21	0xbd55a6be	-0.05216097
22	0xbd83faed	-0.06444345
23	0xbd0ef133	-0.034897994
24	0x3ca1a940	0.019734025
25	0xbdee2ca1	-0.11629606
26	0x3cee84c1	0.029116036
27	0xbd63325c	-0.05546795
28	0xbdceab01	-0.1009121
29	0xbd7a828a	-0.061159648
30	0xbd0e7393	-0.03477819
31	0xbd1319e3	-0.03591336
32	0xbd439836	-0.04775258
33	0x3d5771e8	0.052598864
34	0x3c85be55	0.016326109
35	0xbda2a14b	-0.079409204
36	0x3cdf410d	0.027252698
37	0x3d1cca30	0.03827876
38	0x3c69ae12	0.014262693
39	0xbd71722c	-0.058946773
40	0x3b4e25db	0.003145567
41	0xbdb50691	-0.08839143
42	0x3c970395	0.018434325
43	0xbdb718b8	-0.089402616
44	0x3d611ef9	0.05496118
45	0xbd95dfe5	-0.07318095
46	0xbd405b79	-0.046962235
47	0xbd8a2901	-0.06746102
48	0xbd63add8	-0.055585712
49	0xbd20158a	-0.03908304
50	0xbc18f46f	-0.009335621
51	0xbcdf53d0	-0.027261645
52	0x3d2847a8	0.04108396
53	0x3c8dd48e	0.017313268
54	0xbde1620d	-0.1100503
55	0x3d5099a1	0.050927762
56	0x3ce09056	0.027412575
57	0xbd1296ad	-0.035788227
58	0x3d08bf1c	0.03338538
59	0xbdcd1eaf	-0.10015618
60	0xbd52343b	-0.051319342
61	0xbd09b5ab	-0.033620518
62	0x3b75b59e	0.0037492285
63	0xbdea0791	-0.114272244
64	0xbd55bbd3	-0.052181076
65	0xbcb01c26	-0.021497797
66	0xbda7d611	-0.08195127
67	0xbc2dc715	-0.010606547
68	0x3cc8a647	0.02449335
69	0xbd39f3a5	-0.045398373
70	0x3d6a0e97	0.05714282
71	0xbd5fba43	-0.054620992
72	0x3d8b82ee	0.06812082
73	0x3cef4985	0.029209862
74	0x3d486074	0.04892011
75	0xbd6407a1	-0.055671338
76	0xbd11a48d	-0.03555732
77	0x3d7851d6	0.06062492
78	0x3cfb9712	0.030711684
79	0xbdadf125	-0.0849326
80	0x3d768c47	0.060192373
81	0xbdaa6295	-0.08319584
82	0xbbbad411	-0.00570155
83	0x3d0dcf80	0.034621716
84	0x3c57211c	0.0131304525
85	0xba059376	-0.0005095521
86	0xbbe2fa98	-0.0069268458
87	0x3cbe13b7	0.02320276
88	0xbd7e16b8	-0.062033385
89	0xbd7a8ff5	-0.061172444
90	0xbc1d562d	-0.009603065
91	0x3d3f27fa	0.046668984
92	0xbd4e5b6d	-0.05038016
93	0xbd911864	-0.0708473
94	0xbd770b91	-0.060313765
95	0xbdaba503	-0.08381083
96	0xbcfbd46d	-0.030740941
97	0xbd519dbf	-0.05117583
98	0x3c79d09f	0.015247493
99	0xbc51652a	-0.012780467
100	0xbdb49bcf	-0.08818781
101	0x3c004ba6	0.007830536
102	0x3d7e2bda	0.06205354
103	0x3d8cfd4c	0.0688425
104	0xbd6ccf18	-0.057814687
105	0x3d2e5a9b	0.042566877
106	0xbc3eb7ba	-0.0116404835
107	0xbdad6032	-0.084656134
108	0xbca98f1d	-0.020698125
109	0xbdafcd7a	-0.085841134
110	0xbdaf8f96	-0.08572309
111	0x3c0ae779	0.008478039
112	0xbd596d4a	-0.05308274
113	0x3d67bcc5	0.05657651
114	0xbd441c63	-0.047878634
115	0x3d6152b9	0.05501053
116	0xbde24c94	-0.11049762
117	0x3c2e320b	0.010632048
118	0xbd3f3da8	-0.04668966
119	0xbcd8d438	-0.026468381
120	0x3d840be1	0.06447578
121	0x3d83789f	0.06419491
122	0x3c0f7c43	0.008757654
123	0xbd7b5e8f	-0.061369475
124	0x3d3c4101	0.04596043
125	0xbda5cedb	-0.08096095
126	0xbca8b423	-0.020593708
127	0xbd521192	-0.051286288
128	0x40c04066	6.007861
129	0x3fa0a7a8	1.2551165
130	0x406eb144	3.7295694
131	0x3fa2791a	1.2693207
132	0x3fd0367a	1.6266625
133	0xc102b310	-8.168716
134	0x3bb9a500	0.0056654215
135	0x3faeab41	1.3646013
136	0x3fcd14bf	1.6021956
137	0xbd1851b0	-0.03718728
138	0xbc6d29f4	-0.014475334
139	0x3feba8b9	1.8410865
140	0x3fd9609b	1.6982607
141	0xc0e727c3	-7.2236037
142	0x3fd357b6	1.6511142
143	0x3fdd4c42	1.7288897
144	0x40591a64	3.3922358
145	0x3d93b641	0.072124965
146	0xbd21fc90	-0.039547503
147	0x4076590d	3.8491852
148	0x3ef921be	0.48658556
149	0x3d5fb9b7	0.05462047
150	0x403ef8f0	2.983944
151	0x3fe75e7f	1.8075713
152	0x3fd32b5f	1.6497611
153	0x40595a33	3.3961303
154	0x3fa51b28	1.2898912
155	0x3d0ffe13	0.035154413
156	0x3fedd487	1.8580483
157	0x3fb60f4d	1.422342
158	0xc0ffb126	-7.9903746
159	0x3fb3cacb	1.4046263
160	0x4068c67d	3.6371148
161	0x3f4856a3	0.782572
162	0x3d3cea56	0.046121918
163	0x405d3f78	3.4569988
164	0x3fdd3ed0	1.7284794
165	0x3d446c02	0.047954567
166	0xc0ccd4b0	-6.400963
167	0x3fc9e241	1.5772172
168	0x3fc3f50d	1.5309159
169	0x3f24fb0e	0.6444558
170	0xbcd5de7b	-0.026107064
171	0x3fde2b10	1.7356892
172	0x405e5ca5	3.4744046
173	0xbca04e9f	-0.01956874
174	0x4057bb04	3.3707895
175	0x4080f278	4.029598
176	0xc0ef3d9e	-7.4762716
177	0x3fcb600b	1.5888685
178	0x3fce06b4	1.6095796
179	0x3db4fbad	0.08837066
180	0x3fc88e58	1.566844
181	0xc0daee91	-6.841622
182	0x3f8c1450	1.0943699
183	0xc0d232ff	-6.568725
184	0x3fd493d3	1.6607612
185	0xbd2eeeeb	-0.04270832
186	0x4009fa19	2.1558897
187	0x40608866	3.508325
188	0x3fda3a50	1.7049046
189	0x3fe5f567	1.7965516
190	0x3fe20e71	1.7660657
191	0x3fab4d95	1.3383051
192	0x3f8edffc	1.1162105
193	0x3fd834dd	1.6891133
194	0x3deecbbb	0.11659952
195	0x3fa5178a	1.2897809
196	0x3fcbc1b3	1.5918487
197	0xc0e1aaf0	-7.0521164
198	0xbf2aaa45	-0.6666606
199	0x3fda3832	1.70484
200	0x40cc648c	6.387274
201	0x3fea7b0b	1.83188
202	0xb9cd2d4e	-0.00039134402
203	0x3fd0578b	1.6276716
204	0x3fc86d1b	1.5658296
205	0xbdb4bfc8	-0.08825642
206	0x3fe31b4b	1.7742704
207	0x3d252414	0.04031761
208	0x405e7b37	3.4762704
209	0x3fe67a82	1.8006136
210	0x3ff08a45	1.8792197
211	0xc0fc90c6	-7.8926725
212	0x3feb70d1	1.8393804
213	0x4082988b	4.081121
214	0x3fe8a426	1.8175094
215	0x40a27c05	5.077639
216	0xbd75b66e	-0.05998843
217	0x3fd780f3	1.6836227
218	0x3fd7a862	1.6848261
219	0x41136405	9.211919
220	0xbb972d06	-0.0046135215
221	0x3fd93e84	1.6972203
222	0x3fe1465f	1.75996
223	0x4059fb6e	3.405971
224	0x3f7d9287	0.9905171
225	0xbc4a1cfe	-0.012336014
226	0x401247f1	2.285641
227	0x3fdb8c2c	1.7152152
228	0x3fe5f6a8	1.7965899
229	0xc0ce54e5	-6.447863
230	0x408fafcb	4.490209
231	0x3d5cdd54	0.053922012
232	0xc0c9cae6	-6.306018
233	0xc0e936d0	-7.287941
234	0x3fcc1f42	1.5947039
235	0x3da379c6	0.07982211
236	0x3fe9f67b	1.8278345
237	0x3f9dd424	1.2330365
238	0x3d4473c1	0.047961954
239	0xc0ccbfaa	-6.3983965
240	0x407f5b80	3.9899597
241	0x3fd339f4	1.6502061
242	0x3fde3cc9	1.73623
243	0xc0ebf3c8	-7.3735085
244	0xc0ee2a3e	-7.4426565
245	0xc11b1561	-9.692719
246	0x3fd5d90b	1.6706861
247	0x41111f64	9.070164
248	0xc0da12fe	-6.8148184
249	0x3cb63c26	0.022245478
250	0x3fb00770	1.375227
251	0x4056a002	3.353516
252	0x3fd58ed2	1.668421
253	0xbb408da6	-0.0029381304
254	0x40603715	3.503362
255	0x3f9218d6	1.1413829

fc2.bias f4 [64]
0	0x3c797ba6	0.015227234
1	0x3f861128	1.0473986
2	0x4027c9fb	2.621703
3	0x4003ab96	2.0573478
4	0x4006435b	2.097861
5	0xbd733237	-0.05937406
6	0x3d575421	0.052570466
7	0xbd1c8191	-0.0382095
8	0x3f1b79f8	0.60732985
9	0x3cbaeec8	0.022818938
10	0xbd56a46c	-0.0524029
11	0xbdbc719f	-0.09201359
12	0xbdefec90	-0.117150426
13	0x3d9ef503	0.07761576
14	0xbd92e981	-0.071734436
15	0x3ca75f7c	0.020431273
16	0x3fa9c622	1.326359
17	0xbc58ced2	-0.013232904
18	0x3d60ac58	0.05485186
19	0xbbc007eb	-0.005860319
20	0xbd982b24	-0.074301034
21	0xbdaf0bb3	-0.08547153
22	0x3c74b7c9	0.014936396
23	0x3f231319	0.63701016
24	0xbdc8f7c6	-0.09812884
25	0x3f10ae24	0.5651572
26	0xbdca1561	-0.09867359
27	0xbc8e3e98	-0.017363831
28	0x3d0d407b	0.03448532
29	0x3bdd5bef	0.006755344
30	0x3d81e449	0.0634237
31	0x3e658968	0.22415698
32	0x4044f6fb	3.0775745
33	0x3cb2d719	0.021831082
34	0x3fd74b59	1.6819869
35	0x400c65cf	2.193714
36	0x3d1c56e4	0.038168803
37	0x3fde81dc	1.738338
38	0x3fb4dd47	1.4130028
39	0x3d89f2d6	0.067357704
40	0xbc8d40ad	-0.017242754
41	0x3d45fad4	0.04833491
42	0x3f205cba	0.6264149
43	0xbcf2182e	-0.029552545
44	0x3f890ea0	1.0707588
45	0x3dd5ca0e	0.104389295
46	0xbdaef1ef	-0.08542239
47	0x3f2998ca	0.6624876
48	0x3fc1ba1e	1.5134923
49	0x3cdf3c85	0.027250538
50	0x3f896d0e	1.0736406
51	0xbdb8566c	-0.09000859
52	0xbd0457ea	-0.032310404
53	0x3ba2a7ae	0.0049638366
54	0xbd910226	-0.07080488
55	0x3fb03f92	1.37694
56	0x3fab04ed	1.3360878
57	0x3f38ca9e	0.7218417
58	0xbd2af9d1	-0.04174215
59	0xbd44a42c	-0.04800813
60	0xbb82e8eb	-0.003995051
61	0x3f8eae38	1.1146917
62	0x3ad6a7be	0.0016376895
63	0xbe07b6ec	-0.13253373

fc3.weight f4 [2, 64]
0	0x3cbdf29e	0.023186978
1	0xbf9f1fa4	-1.2431531
2	0x3f8db8cb	1.1072019
3	0xc0398abc	-2.8990927
4	0xc03b11db	-2.9229648
5	0xbbf1ba84	-0.0073769707
6	0x3bdac397	0.006676148
7	0xbdba9b70	-0.091116786
8	0xc044d58d	-3.075534
9	0xbd6420d0	-0.055695355
10	0x3d2923b0	0.0412938
11	0xbc806786	-0.015674364
12	0xbcb50891	-0.022098811
13	0x3c5ede23	0.013602766
14	0xbc9213c1	-0.017831685
15	0x3d3e213a	0.046418406
16	0xc01d4c09	-2.4577658
17	0x3bc4f328	0.006010432
18	0xbb96930c	-0.004595166
19	0xbd8482a6	-0.06470232
20	0xbc835020	-0.016029418
21	0x3c9b2ac9	0.0189413
22	0xbb847627	-0.004042405
23	0xc03adfd5	-2.9199116
24	0xbd6e6e52	-0.05821068
25	0xc0465bb0	-3.0993462
26	0x3dd3d8ec	0.10344109
27	0xbcb90115	-0.022583524
28	0xbd93537e	-0.07193659
29	0xbd6521d0	-0.05594045
30	0xbdcc7207	-0.099826865
31	0xc068e871	-3.639187
32	0x40136d11	2.303532
33	0x3d5e332c	0.05424802
34	0xbf2c85e8	-0.67391825
35	0xc03c0a7f	-2.9381406
36	0x3d816119	0.06317348
37	0x3fbb1c5a	1.4618027
38	0xc03ddc26	-2.9665618
39	0xbd6c74ac	-0.057728454
40	0x3d3dc94e	0.046334557
41	0x3db56d5e	0.08858751
42	0xc037be57	-2.8709924
43	0x3dacdd68	0.084406674
44	0xbf89dd85	-1.0770727
45	0xc075f73e	-3.8432155
46	0xbc296052	-0.010337906
47	0xc03d2552	-2.9554029
48	0x40763a91	3.8473246
49	0xbc6c5856	-0.014425358
50	0x4044a245	3.0724041
51	0x3a176b00	0.0005776137
52	0x3d299e50	0.041410744
53	0x3dfc6712	0.123243466
54	0x3da59da4	0.08086708
55	0xbcb32b97	-0.021871371
56	0xc03fac32	-2.994885
57	0xc02a0186	-2.656343
58	0x3d710f9d	0.05885278
59	0xbae864b1	-0.0017730204
60	0xbc9fe3fa	-0.019517887
61	0x4007c6e7	2.121515
62	0xbd2c1b44	-0.04201819
63	0xbd4dff4c	-0.0502923
64	0x3dcde11f	0.10052704
65	0xc049820a	-3.148562
66	0x400b61c6	2.1778426
67	0xbfe68e28	-1.8012133
68	0xbff7770e	-1.9333208
69	0xbcd179fe	-0.025570866
70	0x3e04769a	0.12935868
71	0x3c860200	0.016358376
72	0xc04e5949	-3.2241995
73	0x3e076841	0.13223363
74	0x3be0ecaa	0.00686415
75	0xbcf36b40	-0.029714227
76	0xbbba5e05	-0.0056874775
77	0x3ce6e2ee	0.02818438
78	0xbd8a0f74	-0.06741229
79	0x3d29ff4a	0.04150323
80	0xc01493b6	-2.3215156
81	0x3d84276a	0.0645283
82	0x3d046503	0.032322895
83	0xbdc0bd16	-0.09411065
84	0x3c3af300	0.011410475
85	0xbd87f37f	-0.0663824
86	0x3cfa6aad	0.030568445
87	0xc04ed018	-3.231451
88	0xbd41aa2b	-0.047281425
89	0xc050630e	-3.2560458
90	0x3db3e92c	0.087847084
91	0x3cabc150	0.020966202
92	0xbde5764a	-0.112042025
93	0x3db46eb2	0.08810176
94	0xbd7ec229	-0.062196884
95	0x3eab9c5f	0.3351774
96	0x3fcc9708	1.5983591
97	0xbdd599f6	-0.10429756
98	0xc01b7a5f	-2.429344
99	0xbff3683b	-1.9016184
100	0xbd280539	-0.041020606
101	0x3f264aa9	0.6495767
102	0x3fc64159	1.5488693
103	0x3deb9ecb	0.11504897
104	0x3d830210	0.06396878
105	0xbdec8e6e	-0.11550604
106	0xc0546ffa	-3.3193345
107	0xbd24ebbd	-0.04026388
108	0xbff986fc	-1.9494319
109	0x3fb8f776	1.4450519
110	0xbdb81d66	-0.08989982
111	0xc04fac14	-3.2448778
112	0xc001b167	-2.0264528
113	0xbba02886	-0.0048876433
114	0xbf8b706b	-1.0893682
115	0x3c5eb49c	0.013592865
116	0xbdc429c2	-0.09578277
117	0x3c026c88	0.007960446
118	0x3cf4f55a	0.029902149
119	0xc0673d1e	-3.6131053
120	0x3fcf0178	1.6172323
121	0xc04558b9	-3.0835402
122	0x3d664feb	0.05622856
123	0x3df4cc8b	0.11953076
124	0xbc49e6ed	-0.012323123
125	0x3e96b4bc	0.29434764
126	0xbc22cd90	-0.009936705
127	0x3d269ed1	0.040678803

fc3.bias f4 [2]
0	0x3fb04bbb	1.3773111
1	0xbf722c7c	-0.9459913

exp_avg f4 [128, 5]
0	0x00000004	6e-45
1	0x80000004	-6e-45
2	0x00000004	6e-45
3	0x80000004	-6e-45
4	0x00000004	6e-45
5	0x00000004	6e-45
6	0x00000004	6e-45
7	0x00000004	6e-45
8	0x80000004	-6e-45
9	0x00000004	6e-45
10	0xc39fa585	-319.29312
11	0xc435fb48	-727.9263
12	0xc31bc6f8	-155.77722
13	0x440527d9	532.6226
14	0xc3bca113	-377.2584
15	0xc0336de4	-2.8035822
16	0xc20b69b8	-34.85324
17	0xc1025ee6	-8.148169
18	0xc06178c8	-3.522997
19	0xc15f2ece	-13.948927
20	0xc30f9b3b	-143.60637
21	0xc3bb2c08	-374.344
22	0xc24bffeb	-50.99992
23	0x4370ee5d	240.9311
24	0xc30d1d80	-141.11523
25	0x43a3d44b	327.65854
26	0x444b9c8d	814.4461
27	0x42f40570	122.01062
28	0xc4039e91	-526.4776
29	0x4397cde0	303.6084
30	0x00000000	0.0
31	0x00000000	0.0
32	0x00000000	0.0
33	0x00000000	0.0
34	0x00000000	0.0
35	0xc09cb8c2	-4.8975534
36	0xc22b79e3	-42.86903
37	0xc13bed12	-11.7453785
38	0xbe504da0	-0.20342112
39	0xc1a9f98a	-21.246845
40	0xc3164088	-150.25208
41	0xc3bee1a2	-381.76276
42	0xc2539df9	-52.90427
43	0x437e1170	254.06812
44	0xc30eade4	-142.67926
45	0x00000004	6e-45
46	0x00000004	6e-45
47	0x00000004	6e-45
48	0x80000004	-6e-45
49	0x00000004	6e-45
50	0x00000000	0.0
51	0x00000000	0.0
52	0x00000000	0.0
53	0x00000000	0.0
54	0x00000000	0.0
55	0xc2fe1f55	-127.061195
56	0xc39f1cdb	-318.22543
57	0xc233c1c3	-44.93922
58	0x435394e6	211.58163
59	0xc2ef8b91	-119.77259
60	0xc307be9b	-135.74455
61	0xc3b00d85	-352.10562
62	0xc23f9f5a	-47.905617
63	0x43640e53	228.05595
64	0xc303ea01	-131.91408
65	0x4382e220	261.7666
66	0x4420beac	642.97925
67	0x42c28aad	97.27085
68	0xc3d0f654	-417.92444
69	0x436d5a07	237.35167
70	0xc2f96d54	-124.71353
71	0xc39e9574	-317.1676
72	0xc2308618	-44.13095
73	0x434fc801	207.78127
74	0xc2eeed7c	-119.46384
75	0x00000004	6e-45
76	0x80000004	-6e-45
77	0x80000004	-6e-45
78	0x80000004	-6e-45
79	0x00000004	6e-45
80	0xc3969526	-301.16522
81	0xc4262503	-664.5783
82	0xc317d7a5	-151.84236
83	0x43fd27a4	506.3097
84	0xc3b3284e	-358.31488
85	0x00000000	0.0
86	0x00000000	0.0
87	0x00000000	0.0
88	0x00000000	0.0
89	0x00000000	0.0
90	0x00000000	0.0
91	0x00000000	0.0
92	0x00000000	0.0
93	0x00000000	0.0
94	0x00000000	0.0
95	0xc3a37f25	-326.99332
96	0xc488fd60	-1095.918
97	0xc311f773	-145.9666
98	0x4400019a	512.025
99	0xc3e7af38	-463.3689
100	0x42aceb3e	86.45946
101	0x43e9847b	467.035
102	0x4236be85	45.686054
103	0xc2d8f10d	-108.4708
104	0x4354e016	212.87534
105	0x00000000	0.0
106	0x00000000	0.0
107	0x00000000	0.0
108	0x00000000	0.0
109	0x00000000	0.0
110	0x00000004	6e-45
111	0x80000004	-6e-45
112	0x80000004	-6e-45
113	0x80000004	-6e-45
114	0x00000004	6e-45
115	0xc30d00f3	-141.00371
116	0xc3baf044	-373.87708
117	0xc249cddd	-50.45104
118	0x436aa51e	234.64499
119	0xc30dde5d	-141.8686
120	0xc30882ea	-136.51138
121	0xc3b105b5	-354.0446
122	0xc245fd12	-49.49714
123	0x4361a075	225.62679
124	0xc30739e5	-135.22615
125	0xc38d06ab	-282.0521
126	0xc41ff675	-639.8509
127	0xc309bbbc	-137.73334
128	0x43eafdee	469.98383
129	0xc3a6191b	-332.19614
130	0x4276e57b	61.724102
131	0x43a50ac6	330.08417
132	0x42107d83	36.12257
133	0xc294dd1a	-74.43184
134	0x431b7f9e	155.4985
135	0x00000000	0.0
136	0x00000000	0.0
137	0x00000000	0.0
138	0x00000000	0.0
139	0x00000000	0.0
140	0xc3379ba7	-183.60802
141	0xc4043e7b	-528.97626
142	0xc291df34	-72.93594
143	0x439a0bfe	308.0937
144	0xc35a83f8	-218.5155
145	0x00000004	6e-45
146	0x00000004	6e-45
147	0x00000004	6e-45
148	0x80000004	-6e-45
149	0x00000004	6e-45
150	0x41b0123d	22.008905
151	0x41b3c1bc	22.469597
152	0xc1999c55	-19.201334
153	0x41e234d2	28.275791
154	0xc22be12e	-42.969902
155	0x424ec34d	51.690723
156	0x4392175d	292.18253
157	0x41f67139	30.805285
158	0xc2757540	-61.364502
159	0x43099152	137.56766
160	0xc3c6ca5c	-397.58093
161	0xc4559a33	-854.40936
162	0xc33b28fb	-187.16008
163	0x4428cd15	675.2044
164	0xc3d826d1	-432.30325
165	0x4281a2c9	64.81794
166	0x43d28437	421.03293
167	0x421e68b2	39.60224
168	0xc287ac31	-67.83631
169	0x4345f010	197.93774
170	0x00000000	0.0
171	0x00000000	0.0
172	0x00000000	0.0
173	0x00000000	0.0
174	0x00000000	0.0
175	0xc3a84cd7	-336.6003
176	0xc43c8797	-754.1186
177	0xc3227645	-162.46199
178	0x440d1466	564.3187
179	0xc3c1a2e6	-387.27264
180	0xc138e8e9	-11.556863
181	0x42431038	48.76584
182	0x3f7d3c3d	0.9892004
183	0x41e6714f	28.805326
184	0x41f71bd1	30.888582
185	0x00000000	0.0
186	0x00000000	0.0
187	0x00000000	0.0
188	0x00000000	0.0
189	0x00000000	0.0
190	0x4342e1ce	194.88205
191	0x43d94246	434.51776
192	0x428c911c	70.28342
193	0xc39cc0ed	-313.50723
194	0x43186d54	152.42706
195	0xc2f82a36	-124.08244
196	0xc3a1b96d	-323.44864
197	0xc2328b11	-44.635807
198	0x434ce47d	204.89253
199	0xc2f5c370	-122.881714
200	0xc22f53f7	-43.831997
201	0xc282106c	-65.032074
202	0xc1569f5a	-13.413904
203	0x429bae8b	77.840904
204	0xc190d9b0	-18.106293
205	0x426d4518	59.317474
206	0x43c8b865	401.44058
207	0x42135a66	36.83828
208	0xc2722d4c	-60.544235
209	0x433d67ae	189.405
210	0x00000000	0.0
211	0x00000000	0.0
212	0x00000000	0.0
213	0x00000000	0.0
214	0x00000000	0.0
215	0xc3127a20	-146.47705
216	0xc3c6b4c1	-397.41214
217	0xc25be2f2	-54.971626
218	0x43714010	241.25024
219	0xc31b009a	-155.00235
220	0xc39564e2	-298.78815
221	0xc42a2ff9	-680.7496
222	0xc312056a	-146.02115
223	0x43f91706	498.17987
224	0xc3b0c060	-353.50293
225	0x00000000	0.0
226	0x00000000	0.0
227	0x00000000	0.0
228	0x00000000	0.0
229	0x00000000	0.0
230	0xc38ad63d	-277.67374
231	0xc419fa33	-615.90936
232	0xc30c8007	-140.5001
233	0x43e8d9bc	465.70105
234	0xc3a6b224	-333.39172
235	0xc39e7d2b	-316.97787
236	0xc48af088	-1111.5166
237	0xc303fdf4	-131.992
238	0x43edc570	475.54248
239	0xc3e5f0be	-459.8808
240	0x438e589a	284.6922
241	0x4430cc75	707.19464
242	0x42d42b75	106.08488
243	0xc3e38519	-455.03983
244	0x4383362c	262.42322
245	0xc20215c9	-32.521275
246	0xc1e718d0	-28.887115
247	0xc1048784	-8.283085
248	0x427272ad	60.611988
249	0xc01608a8	-2.3442783
250	0xc2fbe72f	-125.95153
251	0xc3a2425c	-324.51843
252	0xc2313f70	-44.31195
253	0x43536c23	211.42241
254	0xc2f21e29	-121.05891
255	0x00000000	0.0

exp_avg_sq f4 [128, 5]
0	0x42153b3b	37.307842
1	0x429db82c	78.85971
2	0x42d5111b	106.53341
3	0x4324a798	164.65466
4	0x4392274d	292.30704
5	0x15f719d9	9.9803286e-26
6	0x1890b9c1	3.741069e-24
7	0x14d0674c	2.1043376e-26
8	0x179203f6	9.436029e-25
9	0x18869e02	3.4797735e-24
10	0x4b3519cf	1.1868623e+07
11	0x4cbccafb	9.898185e+07
12	0x4a833861	4.2998245e+06
13	0x4bee7966	3.1257292e+07
14	0x4b122f15	9.580309e+06
15	0x488a0bf5	282719.66
16	0x4a1741e5	2.4782012e+06
17	0x47c58e94	101149.16
18	0x49325549	730452.56
19	0x48548fc9	217663.14
20	0x4833facf	184299.23
21	0x4917c509	621648.56
22	0x4782472d	66702.35
23	0x4929da8c	695720.75
24	0x48960b25	307289.16
25	0x4b602777	1.4690167e+07
26	0x4ce46ddd	1.19762664e+08
27	0x4a9f8da9	5.2282445e+06
28	0x4c16b252	3.95042e+07
29	0x4b3d020a	1.2386826e+07
30	0x00000000	0.0
31	0x00000000	0.0
32	0x00000000	0.0
33	0x00000000	0.0
34	0x00000000	0.0
35	0x48ab1ef6	350455.7
36	0x4a3b605e	3.0699755e+06
37	0x47f59861	125744.76
38	0x495c7d48	903124.5
39	0x48836fdf	269182.97
40	0x483b4249	191753.14
41	0x491d158a	643416.6
42	0x4788c163	70018.77
43	0x49325a70	730535.0
44	0x489bfcb6	319461.7
45	0x00000490	1.637e-42
46	0x00004306	2.4043e-41
47	0x000001f4	7e-43
48	0x00000b25	3.998e-42
49	0x000002b6	9.73e-43
50	0x00000000	0.0
51	0x00000000	0.0
52	0x00000000	0.0
53	0x00000000	0.0
54	0x00000000	0.0
55	0x4809ae4c	140985.19
56	0x48edd50c	487080.38
57	0x47420e2b	49678.168
58	0x49068588	551000.5
59	0x487292d7	248395.36
60	0x4827e9e3	171943.55
61	0x4909edc9	564956.56
62	0x476decc7	60908.777
63	0x491e7181	648984.06
64	0x488a7c49	283618.28
65	0x4b210f93	1.0555283e+07
66	0x4ca4e374	8.644906e+07
67	0x4a64aef6	3.7467495e+06
68	0x4bd813e1	2.832173e+07
69	0x4b06da4b	8.837707e+06
70	0x480abd54	142069.31
71	0x48ee7577	488363.72
72	0x4747bff3	51135.95
73	0x4905abe8	547518.5
74	0x486f016c	244741.69
75	0x18788070	3.2118093e-24
76	0x190f8d93	7.4215174e-24
77	0x178a94b4	8.955579e-25
78	0x19a93155	1.7494115e-23
79	0x19462d90	1.0245561e-23
80	0x4b1decb1	1.0349745e+07
81	0x4ca4f65c	8.648778e+07
82	0x4a64b349	3.7470262e+06
83	0x4bcfc483	2.7232518e+07
84	0x4afe5376	8.333755e+06
85	0x00000000	0.0
86	0x00000000	0.0
87	0x00000000	0.0
88	0x00000000	0.0
89	0x00000000	0.0
90	0x00000000	0.0
91	0x00000000	0.0
92	0x00000000	0.0
93	0x00000000	0.0
94	0x00000000	0.0
95	0x498e1c10	1.164162e+06
96	0x4a43688d	3.2015712e+06
97	0x48ea373d	479673.9
98	0x4a758244	4.022417e+06
99	0x4a084725	2.2327772e+06
100	0x4ad47eda	6.963053e+06
101	0x4c62ac8f	5.9421244e+07
102	0x4a1d3156	2.5754455e+06
103	0x4b886936	1.787966e+07
104	0x4aa53c6a	5.414453e+06
105	0x00000000	0.0
106	0x00000000	0.0
107	0x00000000	0.0
108	0x00000000	0.0
109	0x00000000	0.0
110	0x1749b80b	6.51789e-25
111	0x184e74f1	2.6683916e-24
112	0x1629fc34	1.3731293e-25
113	0x18c1e438	5.0119773e-24
114	0x18878609	3.5032023e-24
115	0x48362d73	186549.8
116	0x491707ed	618622.8
117	0x47847708	67822.06
118	0x492b6fbb	702203.7
119	0x48993d54	313834.62
120	0x4823679a	167326.4
121	0x490bf47e	573255.9
122	0x476e29d4	60969.83
123	0x491c79c6	640924.4
124	0x488de177	290571.72
125	0x4b13ec8a	9.694346e+06
126	0x4c9aa674	8.108125e+07
127	0x4a562957	3.5088218e+06
128	0x4bc2a39b	2.5511734e+07
129	0x4aee2f16	7.804811e+06
130	0x4a80a0c0	4.21488e+06
131	0x4c0a42e8	3.6244384e+07
132	0x49bb11e8	1.532477e+06
133	0x4b254857	1.0831959e+07
134	0x4a47a39e	3.2708875e+06
135	0x00000000	0.0
136	0x00000000	0.0
137	0x00000000	0.0
138	0x00000000	0.0
139	0x00000000	0.0
140	0x484ed948	211813.12
141	0x491d4dbc	644315.75
142	0x4797bb9c	77687.22
143	0x493e9972	780695.1
144	0x48ae458c	356908.38
145	0x17bb0d05	1.2087878e-24
146	0x1a11b117	3.012835e-23
147	0x1662d8b7	1.8324518e-25
148	0x199184ad	1.5046236e-23
149	0x1955abae	1.1046512e-23
150	0x4910949f	592201.94
151	0x48ddff92	454652.56
152	0x4833438f	183566.23
153	0x4a166a26	2.4643935e+06
154	0x4980ed71	1.0561741e+06
155	0x4a3d7896	3.1042935e+06
156	0x4bcad825	2.658721e+07
157	0x498aa846	1.1358808e+06
158	0x4af3a63e	7.983903e+06
159	0x4a13a273	2.4188448e+06
160	0x4b4d126d	1.3439597e+07
161	0x4cd33731	1.107378e+08
162	0x4a94c27d	4.8745585e+06
163	0x4c08bcb4	3.5844816e+07
164	0x4b29664b	1.1101771e+07
165	0x4ad6738c	7.027142e+06
166	0x4c66a7d2	6.046497e+07
167	0x4a1e880d	2.5973792e+06
168	0x4b896890	1.80104e+07
169	0x4aa5a591	5.4279125e+06
170	0x00000000	0.0
171	0x00000000	0.0
172	0x00000000	0.0
173	0x00000000	0.0
174	0x00000000	0.0
175	0x4b3b71a6	1.2284326e+07
176	0x4cc30c0d	1.0226084e+08
177	0x4a87dfeb	4.4523415e+06
178	0x4bf76b7c	3.2429816e+07
179	0x4b17cf12	9.948946e+06
180	0x487138fc	247011.94
181	0x49e69ab2	1.8891102e+06
182	0x47a7042b	85512.336
183	0x492db689	711528.56
184	0x485ae4d1	224147.27
185	0x00000000	0.0
186	0x00000000	0.0
187	0x00000000	0.0
188	0x00000000	0.0
189	0x00000000	0.0
190	0x4aaab196	5.593291e+06
191	0x4c2c056e	4.509433e+07
192	0x49eea8b5	1.9550946e+06
193	0x4b692a4e	1.5280718e+07
194	0x4a93132b	4.8193495e+06
195	0x480d7d21	144884.52
196	0x48ec82d0	484374.5
197	0x474b0bd3	51979.824
198	0x4906a19f	551449.94
199	0x4872c535	248596.83
200	0x4809d9a3	141158.55
201	0x4957a409	883264.56
202	0x4728dbc7	43227.777
203	0x48e10728	460857.25
204	0x48144004	151808.06
205	0x4ac914c1	6.5890245e+06
206	0x4c57e16b	5.6591788e+07
207	0x4a14ae4b	2.4359868e+06
208	0x4b80ecd5	1.6898474e+07
209	0x4a9b966b	5.0982935e+06
210	0x00000000	0.0
211	0x00000000	0.0
212	0x00000000	0.0
213	0x00000000	0.0
214	0x00000000	0.0
215	0x48412944	197797.06
216	0x49185c2f	624066.94
217	0x478a202e	70720.36
218	0x49338e79	735463.56
219	0x48a31e56	334066.7
220	0x4b220b36	1.0619702e+07
221	0x4ca9285f	8.868735e+07
222	0x4a6ac4a2	3.8464405e+06
223	0x4bd540db	2.7951542e+07
224	0x4b029684	8.558212e+06
225	0x00000000	0.0
226	0x00000000	0.0
227	0x00000000	0.0
228	0x00000000	0.0
229	0x00000000	0.0
230	0x4b0c2779	9.185145e+06
231	0x4c92a0ab	7.6875096e+07
232	0x4a4b3bc9	3.3297782e+06
233	0x4bb82e18	2.4140848e+07
234	0x4ae11d2d	7.3765345e+06
235	0x49d7f4e5	1.7691166e+06
236	0x4a986540	4.993696e+06
237	0x4934a89a	739977.6
238	0x4ab6e181	5.9926405e+06
239	0x4a4c4bae	3.3471795e+06
240	0x4b383f3a	1.207481e+07
241	0x4cbc68f6	9.87811e+07
242	0x4a82f9d7	4.2918195e+06
243	0x4bf725bc	3.2394104e+07
244	0x4b1a7747	1.0123079e+07
245	0x480c22cc	143499.19
246	0x49611805	921984.3
247	0x472b6696	43878.586
248	0x48e172be	461717.94
249	0x4811e123	149380.55
250	0x4805898e	136742.22
251	0x48dbbbc1	450014.03
252	0x473d934f	48531.31
253	0x48feeb52	522074.56
254	0x4863057f	232469.98
255	0x00000000	0.0

exp_avg f4 [128]
0	0x00000004	6e-45
1	0x00000004	6e-45
2	0xc3ceca89	-413.5823
3	0xc097a65f	-4.739059
4	0xc32da84e	-173.65744
5	0x43bca7eb	377.31186
6	0x00000000	0.0
7	0xc1190b09	-9.565194
8	0xc33456f7	-180.3397
9	0x00000004	6e-45
10	0x00000000	0.0
11	0xc3169d96	-150.61557
12	0xc3239f6d	-163.62276
13	0x4394ed28	297.85278
14	0xc314bf6e	-148.74777
15	0x00000004	6e-45
16	0xc3c4816e	-393.01117
17	0x00000000	0.0
18	0x00000000	0.0
19	0xc3ddae31	-443.36087
20	0x43121101	146.06642
21	0x00000000	0.0
22	0x00000004	6e-45
23	0xc32b247e	-171.14255
24	0xc324062a	-164.02408
25	0xc3b6504b	-364.6273
26	0x42d1070f	104.51379
27	0x00000000	0.0
28	0xc36f5e29	-239.36781
29	0x00000004	6e-45
30	0xc201899e	-32.38439
31	0x42b4d8f0	90.423706
32	0xc3fbb4d0	-503.4126
33	0x42f19cde	120.80638
34	0x00000000	0.0
35	0xc3d84553	-432.5416
36	0x3f7269d2	0.9469272
37	0x00000000	0.0
38	0x4353c9d1	211.78835
39	0xc314fd01	-148.9883
40	0xc22e730d	-43.612354
41	0x42e33a01	113.61329
42	0x00000000	0.0
43	0xc3341d66	-180.11484
44	0xc3c19075	-387.12857
45	0x00000000	0.0
46	0xc3b59cac	-363.224
47	0xc3d498a1	-425.1924
48	0x43a30f50	326.11963
49	0xc1e4ee91	-28.616488
50	0xc31720bd	-151.12788
51	0x00000000	0.0
52	0xc0be9745	-5.9559655
53	0x42beab3e	95.33446
54	0x00000004	6e-45
55	0x4351b620	209.71143
56	0xc326864e	-166.52463
57	0x00000000	0.0
58	0xc2f92ddf	-124.58959
59	0xc3e288b1	-453.0679
60	0xc319ded5	-153.87044
61	0xc3187cd4	-152.48761
62	0xc285c2f2	-66.88075
63	0x4283d9fc	65.92575
64	0x42dc9d96	110.307785
65	0xc321b2c8	-161.69836
66	0x00000004	6e-45
67	0x425957ae	54.335625
68	0xc1a1c194	-20.21952
69	0x4395b1d8	299.3894
70	0x438db50c	283.41443
71	0xc31cbad4	-156.7298
72	0x00000004	6e-45
73	0xc318ccc9	-152.79994
74	0x00000000	0.0
75	0xc3167b9e	-150.48288
76	0xc2e1b398	-112.85077
77	0x00000000	0.0
78	0xc2a389ae	-81.768906
79	0x00000000	0.0
80	0x4244efd8	49.234222
81	0xc282de11	-65.43372
82	0xc3197a62	-153.47806
83	0x43b036c0	352.42773
84	0xc30e5ba3	-142.35796
85	0x440db2bb	566.79266
86	0xc31a665b	-154.39983
87	0x00000004	6e-45
88	0x00000000	0.0
89	0xc321258e	-161.1467
90	0xc31bacaf	-155.67455
91	0x00000004	6e-45
92	0x00000004	6e-45
93	0xc30df51b	-141.95744
94	0xc3159a16	-149.6019
95	0xc3c18f77	-387.12082
96	0x42a991b2	84.78456
97	0x00000000	0.0
98	0xc2af09a9	-87.51887
99	0xc33e0252	-190.00906
100	0xc32c0874	-172.03302
101	0x4382b062	261.378
102	0x80000004	-6e-45
103	0x00000000	0.0
104	0x438361e1	262.76468
105	0x43a3474b	326.55698
106	0xc326b78a	-166.71695
107	0x00000000	0.0
108	0xc31525dd	-149.1479
109	0x4207eb8b	33.980022
110	0x00000000	0.0
111	0x42d6dbc2	107.429214
112	0x42a2c039	81.375435
113	0xc2620666	-56.50625
114	0xc3323357	-178.20055
115	0x4398882b	305.0638
116	0x44689a2e	930.40906
117	0x43c81f9e	400.247
118	0xc3681d05	-232.11336
119	0x00000004	6e-45
120	0x438d8b3e	283.08783
121	0x00000004	6e-45
122	0x42180d68	38.013092
123	0xc3b11955	-354.1979
124	0xc2838796	-65.76482
125	0x00000000	0.0
126	0xc3bc5c67	-376.7219
127	0x42570361	53.7533

exp_avg_sq f4 [128]
0	0x43362c02	182.1719
1	0x1800a4f1	1.6626886e-24
2	0x4b6b72a2	1.5430306e+07
3	0x48ae901a	357504.8
4	0x48be7e5c	390130.88
5	0x4b95bad6	1.9625388e+07
6	0x00000000	0.0
7	0x48d7d724	442041.12
8	0x48c73909	408008.28
9	0x00000534	1.867e-42
10	0x00000000	0.0
11	0x48980d30	311401.5
12	0x48b0ef76	362363.7
13	0x4b565ae7	1.4047975e+07
14	0x48969f7d	308475.9
15	0x1956c030	1.1102353e-23
16	0x4b4d0818	1.3436952e+07
17	0x00000000	0.0
18	0x00000000	0.0
19	0x4a176b1f	2.4808398e+06
20	0x4b0631d9	8.794585e+06
21	0x00000000	0.0
22	0x18846ce5	3.4231156e-24
23	0x48c12789	395580.28
24	0x48b14b45	363098.16
25	0x4b400d54	1.2586324e+07
26	0x4aa28433	5.3253375e+06
27	0x00000000	0.0
28	0x48d899e9	443599.28
29	0x194e982a	1.068068e-23
30	0x49a7b490	1.373842e+06
31	0x4a6fc7ef	3.9285718e+06
32	0x4b87707f	1.7752318e+07
33	0x4b06f60b	8.844811e+06
34	0x00000000	0.0
35	0x4b745a13	1.6013843e+07
36	0x48ad2f04	354680.12
37	0x00000000	0.0
38	0x4ae80019	7.6021885e+06
39	0x48982f4e	311674.44
40	0x4863d057	233281.36
41	0x4afd5ab1	8.3019125e+06
42	0x00000000	0.0
43	0x48cb913b	416905.84
44	0x4b527b00	1.3794048e+07
45	0x00000000	0.0
46	0x4b35a7d8	1.1904984e+07
47	0x4a624d5e	3.7077355e+06
48	0x4b754bd2	1.607573e+07
49	0x486306f5	232475.83
50	0x488f5ebd	293621.9
51	0x00000000	0.0
52	0x48cc3e52	418290.56
53	0x49e4fb3d	1.8758156e+06
54	0x176f50ac	7.7326887e-25
55	0x4aca751f	6.6341275e+06
56	0x48b6ea4a	374610.3
57	0x00000000	0.0
58	0x49e2b99c	1.8573315e+06
59	0x4b7d4877	1.6599159e+07
60	0x48a5b743	339386.1
61	0x489fa054	326914.62
62	0x48cbd519	417448.78
63	0x48634106	232708.1
64	0x4a751f24	4.016073e+06
65	0x48ab85f5	351279.66
66	0x000004e0	1.749e-42
67	0x4a87bf15	4.4481385e+06
68	0x483f1c26	195696.6
69	0x4b592f60	1.423344e+07
70	0x4ab61f51	5.9677845e+06
71	0x4899fd2e	315369.44
72	0x41d0124c	26.008934
73	0x489ba563	318763.1
74	0x00000000	0.0
75	0x4899bc0e	314848.44
76	0x488aab83	283996.1
77	0x00000000	0.0
78	0x48e3e296	466708.7
79	0x00000000	0.0
80	0x48a2e290	333588.5
81	0x48bf3f09	391672.28
82	0x48a777a9	342973.28
83	0x4b89cace	1.80607e+07
84	0x4876ac20	252592.5
85	0x498a458c	1.1327215e+06
86	0x48a057c6	328382.2
87	0x41a63e88	20.780533
88	0x00000000	0.0
89	0x48abb83d	351681.9
90	0x48992342	313626.06
91	0x424c421c	51.06456
92	0x00004668	2.5257e-41
93	0x4862fe57	232441.36
94	0x4890aadb	296278.84
95	0x4b4b96bb	1.3342395e+07
96	0x4aa2ebe3	5.3386095e+06
97	0x00000000	0.0
98	0x49e6d484	1.8909605e+06
99	0x48c2679a	398140.8
100	0x48c68cf1	406631.53
101	0x4b2f2210	1.147752e+07
102	0x2a433896	1.7339111e-13
103	0x00000000	0.0
104	0x4b328a79	1.1700857e+07
105	0x4b6af4b0	1.5398064e+07
106	0x48aa3f59	348666.78
107	0x00000000	0.0
108	0x4898ffa2	313341.06
109	0x4739461a	47430.1
110	0x00000000	0.0
111	0x49ec07d8	1.933563e+06
112	0x497d46a0	1.037418e+06
113	0x48a9f6f8	348087.75
114	0x48bb4783	383548.1
115	0x4b59e282	1.4279298e+07
116	0x4c991efa	8.02795e+07
117	0x4b5f0e7f	1.4618239e+07
118	0x48bde5ab	388909.34
119	0x42566fc6	53.609154
120	0x4b42a89a	1.2757146e+07
121	0x00000db6	4.919e-42
122	0x4753d33e	54227.242
123	0x4b37ad7d	1.2037501e+07
124	0x494230ac	795402.75
125	0x00000000	0.0
126	0x4b489320	1.3144864e+07
127	0x4a72df47	3.9792178e+06

exp_avg f4 [64, 128]
0	0x00000004	6e-45
1	0x00000004	6e-45
2	0x00000004	6e-45
3	0x00000004	6e-45
4	0x00000004	6e-45
5	0x00000000	0.0
6	0x00000000	0.0
7	0x00000004	6e-45
8	0x00000004	6e-45
9	0x00000004	6e-45
10	0x00000000	0.0
11	0x00000004	6e-45
12	0x00000004	6e-45
13	0x80000004	-6e-45
14	0x00000004	6e-45
15	0x00000004	6e-45
16	0x00000004	6e-45
17	0x00000000	0.0
18	0x00000000	0.0
19	0x00000004	6e-45
20	0x00000004	6e-45
21	0x00000000	0.0
22	0x00000004	6e-45
23	0x00000004	6e-45
24	0x00000004	6e-45
25	0x00000004	6e-45
26	0x00000004	6e-45
27	0x00000000	0.0
28	0x00000004	6e-45
29	0x00000004	6e-45
30	0x00000000	0.0
31	0x00000004	6e-45
32	0x00000004	6e-45
33	0x00000004	6e-45
34	0x00000000	0.0
35	0x00000004	6e-45
36	0x00000004	6e-45
37	0x00000000	0.0
38	0x80000004	-6e-45
39	0x00000004	6e-45
40	0x00000004	6e-45
41	0x00000004	6e-45
42	0x00000000	0.0
43	0x00000004	6e-45
44	0x00000004	6e-45
45	0x00000000	0.0
46	0x00000004	6e-45
47	0x00000004	6e-45
48	0x80000004	-6e-45
49	0x00000004	6e-45
50	0x00000004	6e-45
51	0x00000000	0.0
52	0x00000004	6e-45
53	0x80000004	-6e-45
54	0x00000004	6e-45
55	0x80000004	-6e-45
56	0x00000004	6e-45
57	0x00000000	0.0
58	0x00000004	6e-45
59	0x00000004	6e-45
60	0x00000004	6e-45
61	0x00000004	6e-45
62	0x00000004	6e-45
63	0x00000004	6e-45
64	0x00000004	6e-45
65	0x00000004	6e-45
66	0x00000004	6e-45
67	0x00000004	6e-45
68	0x00000004	6e-45
69	0x80000004	-6e-45
70	0x00000004	6e-45
71	0x00000004	6e-45
72	0x00000004	6e-45
73	0x00000004	6e-45
74	0x00000000	0.0
75	0x00000004	6e-45
76	0x00000004	6e-45
77	0x00000000	0.0
78	0x00000004	6e-45
79	0x00000000	0.0
80	0x00000004	6e-45
81	0x00000004	6e-45
82	0x00000004	6e-45
83	0x80000004	-6e-45
84	0x00000004	6e-45
85	0x00000004	6e-45
86	0x00000004	6e-45
87	0x00000004	6e-45
88	0x00000000	0.0
89	0x00000004	6e-45
90	0x00000004	6e-45
91	0x00000004	6e-45
92	0x00000000	0.0
93	0x00000004	6e-45
94	0x00000004	6e-45
95	0x00000004	6e-45
96	0x00000004	6e-45
97	0x00000000	0.0
98	0x00000004	6e-45
99	0x00000004	6e-45
100	0x00000004	6e-45
101	0x80000004	-6e-45
102	0x00000004	6e-45
103	0x00000000	0.0
104	0x80000004	-6e-45
105	0x80000004	-6e-45
106	0x00000004	6e-45
107	0x00000000	0.0
108	0x00000004	6e-45
109	0x00000004	6e-45
110	0x00000000	0.0
111	0x00000000	0.0
112	0x00000004	6e-45
113	0x00000004	6e-45
114	0x00000004	6e-45
115	0x80000004	-6e-45
116	0x00000004	6e-45
117	0x00000000	0.0
118	0x00000004	6e-45
119	0x00000004	6e-45
120	0x80000004	-6e-45
121	0x00000000	0.0
122	0x00000004	6e-45
123	0x00000004	6e-45
124	0x00000004	6e-45
125	0x00000000	0.0
126	0x00000004	6e-45
127	0x00000004	6e-45
128	0x00000004	6e-45
129	0x80000004	-6e-45
130	0x40a4b3d0	5.14695
131	0x408ab0f1	4.3340993
132	0x40864ebe	4.197112
133	0x40d2f1c3	6.592012
134	0x00000000	0.0
135	0x4087742d	4.2329316
136	0x408624f0	4.192009
137	0x80000004	-6e-45
138	0x00000000	0.0
139	0x408a933b	4.3304725
140	0x40738b0d	3.805362
141	0x40d620fd	6.691527
142	0x4090d359	4.5257993
143	0x00000004	6e-45
144	0x40c2d01b	6.0879035
145	0x00000000	0.0
146	0x00000000	0.0
147	0x40d79cda	6.737897
148	0x40da4083	6.820375
149	0x00000000	0.0
150	0x00000004	6e-45
151	0x4082782e	4.0771704
152	0x408e3a37	4.4446063
153	0x40b8b9c3	5.772676
154	0x408cfe1c	4.406019
155	0x00000000	0.0
156	0x4074869e	3.8207164
157	0x80000004	-6e-45
158	0x3f1c02c4	0.6094172
159	0x408e1a9d	4.4407487
160	0x40715d50	3.7713203
161	0x40b2da7b	5.58917
162	0x00000000	0.0
163	0x40937e19	4.609143
164	0x409b2717	4.8485217
165	0x00000000	0.0
166	0x40af2d1e	5.4742575
167	0x4084dd75	4.1520333
168	0x40bf4667	5.977344
169	0x40b5cad5	5.68101
170	0x00000000	0.0
171	0x40852804	4.1611347
172	0x40ab88df	5.360458
173	0x00000000	0.0
174	0x40c99ac2	6.3001413
175	0x40d988dc	6.7979565
176	0x40d520af	6.6602397
177	0x40a290cd	5.080176
178	0x407bea17	3.9361627
179	0x00000000	0.0
180	0x4090a151	4.519692
181	0x408dbc9c	4.4292736
182	0x80000004	-6e-45
183	0x40a46d74	5.138361
184	0x40922c3d	4.5679
185	0x00000000	0.0
186	0x407b2f69	3.9247687
187	0x408a1752	4.3153467
188	0x4083bbfa	4.1166964
189	0x408624fd	4.192015
190	0x40601d9b	3.501807
191	0x40be26be	5.9422293
192	0x40ab8c1c	5.360853
193	0x40972a91	4.723946
194	0x80000004	-6e-45
195	0x40b88208	5.765873
196	0x40a70742	5.219636
197	0x40f35a82	7.6047983
198	0x40d2afd3	6.583963
199	0x40828787	4.079044
200	0x00000004	6e-45
201	0x4085e311	4.183968
202	0x00000000	0.0
203	0x4083d1d8	4.1193657
204	0x40aea3e3	5.4575057
205	0x00000000	0.0
206	0x40a0777c	5.0145855
207	0x00000000	0.0
208	0x3e2e0223	0.16993003
209	0x404736a9	3.1127112
210	0x40804829	4.0088086
211	0x40cdceae	6.4314795
212	0x40944244	4.633089
213	0xbf273dd3	-0.6532871
214	0x40890963	4.282396
215	0x00000004	6e-45
216	0x00000000	0.0
217	0x4086ef30	4.2166977
218	0x408c0531	4.3756337
219	0x00000004	6e-45
220	0x80000004	-6e-45
221	0x408fd223	4.4944015
222	0x40875270	4.228813
223	0x40bd3346	5.912509
224	0x40aab034	5.334009
225	0x00000000	0.0
226	0x409a85eb	4.8288474
227	0x4051c7da	3.277823
228	0x407ea35c	3.9787207
229	0x40f5cae3	7.6810164
230	0x80000004	-6e-45
231	0x00000000	0.0
232	0x41047e49	8.280831
233	0x40d47981	6.639832
234	0x4091c0d1	4.554787
235	0x00000000	0.0
236	0x4060c65b	3.5121067
237	0x409f9951	4.9874654
238	0x00000000	0.0
239	0x40ae8f60	5.455002
240	0x3e47db0a	0.1951715
241	0x40abaa35	5.364527
242	0x405b0874	3.422391
243	0x40e07579	7.01434
244	0x3f5350c4	0.82545114
245	0x404dbf24	3.2147913
246	0x40791301	3.891785
247	0x00000004	6e-45
248	0x40dffb82	6.9994516
249	0x00000004	6e-45
250	0x40a2779d	5.077101
251	0x40c47fe1	6.14061
252	0x40b44a47	5.634067
253	0x00000000	0.0
254	0x40bbe358	5.871502
255	0x40b334be	5.6001883
