checkpoint.pth (torch, 118754 bytes, 18 tensors)

fc1.weight f4 [128, 6]
000000 7f 4f 0b 40 da 2f c3 3e 15 7f 12 40 73 14 aa bf
       2.176727 0.38122445 2.2890065 -1.3287491
000010 ae cb a9 3f 77 bb 8e 3f 09 6d 8e bf d3 05 6c bf
       1.3265283 1.115096 -1.1127025 -0.9219639
000020 3e 94 b3 3e 7b 72 fb 3f 0e 2b 98 3f c4 05 cf 3f
       0.35074037 1.9644312 1.1888139 1.6173635
000030 d0 71 0b c0 ac 32 cd be 61 5d 07 40 ec d0 f5 3f
       -2.1788216 -0.40077722 2.1150744 1.9204383
000040 82 e9 af 3f 28 a6 bf 3f 97 76 ad 40 6f 38 17 bd
       1.3743136 1.4972582 5.4207263 -0.036919054
000050 35 d4 76 3f 1a 3a 28 be 02 15 9f 3e 04 f7 b7 3e
       0.9641755 -0.16428414 0.31070715 0.35930645
000060 66 9a 1e c0 6a 8a 2d bf 94 22 d5 3f 11 1b 24 40
       -2.4781737 -0.6778933 1.6651177 2.564152
000070 cc 48 08 3f e5 a1 b4 3f e0 53 d1 bf fa 37 33 bf
       0.5323608 1.4111906 -1.6353722 -0.7000729
000080 4e 41 3a 3f 3a c1 ef 3f 5b 3e d8 3f 04 92 cf 3f
       0.727559 1.8730843 1.6894029 1.6216435
000090 3e 9e b2 bf 86 70 5a bf 20 12 21 3f 7b 6b e0 3f
       -1.3954542 -0.8532795 0.6291828 1.75328
0000a0 74 db c8 3f fc ae ae 3f 04 4b 80 bf 45 a6 78 bf
       1.5691972 1.3647151 -1.0022893 -0.9712871
0000b0 a1 1b 0c 3f 23 40 03 40 ec 6f bf 3f 99 ae 99 3f
       0.5472966 2.0507896 1.4956031 1.2006408
0000c0 82 c2 d3 bf 99 a4 4b bf 4f 84 2c 3f 1c fe e6 3f
       -1.6543734 -0.7954803 0.67389387 1.8046298
0000d0 40 ce ca 3f 41 5f d6 3f 9f 01 d9 bf c5 b9 8e bf
       1.5844193 1.6747819 -1.695362 -1.1150442
0000e0 5a 93 71 3f 17 5a f6 3f 6d f5 ac 3f 27 43 c7 3f
       0.94365466 1.9246243 1.3512398 1.5567368
0000f0 cd 1f b0 40 3a a5 09 3f 64 db ae 3f 50 7d f2 3d
       5.503882 0.5376774 1.3660703 0.11840308
000100 d9 68 4e 3f 0d 81 fa 3e 05 03 09 c0 68 ba 61 bf
       0.80628735 0.48926583 -2.1408093 -0.8817506
000110 1a 75 9d 3f 56 62 0d 40 38 f1 9a 3f 91 8f 9b 3f
       1.2301362 2.209127 1.2104864 1.2153188
000120 f1 58 fa bf d3 eb 72 bf 15 66 e5 3f dc 45 06 40
       -1.9558393 -0.9489109 1.7921778 2.0980139
000130 cf 93 7c 3f 37 59 ad 3f 8a 3f ab 3d 7e 19 81 be
       0.9866304 1.3542851 0.083617285 -0.25214761
000140 a7 28 66 be ca e6 12 be 55 39 89 3d 4b 2c 91 be
       -0.22476445 -0.14345852 0.06700388 -0.28354105
000150 9e 6e 4b 3f 9c 25 c6 3d f7 00 5b 40 ac 8f e2 bf
       0.79465663 0.09675142 3.421934 -1.7700095
000160 0e 26 de 3e 11 f5 d9 3e db ea bc be 0f e3 3c 3e
       0.43388408 0.42569783 -0.3689793 0.18445991
000170 62 87 65 3c f1 29 b9 3d cc 52 9e be b9 ac 7d 3e
       0.014009329 0.09041203 -0.30922544 0.2477292
000180 9a 0a ba 40 13 b5 46 3e a1 43 49 3f 76 00 ae be
       5.813794 0.19405012 0.7861882 -0.33984727
000190 3d 95 dc 3d 33 bf cb be ad 25 61 40 75 4c 92 3f
       0.107706524 -0.3979431 3.5179245 1.1429583
0001a0 67 96 5d 3f 71 6b 66 bf 15 36 67 bd d1 9f ad be
       0.8655762 -0.9000769 -0.05644806 -0.33910993
0001b0 3d 12 d0 bf 6f bc 61 bf 81 bc df 3f 10 9e 02 40
       -1.6255566 -0.8817815 1.7479402 2.0408974
0001c0 f7 60 7d 3f 37 e4 d4 3f ee bf a4 bd d0 2c d8 3d
       0.9897608 1.6632146 -0.0804442 0.10555422
0001d0 6d a9 1f be 8e 1f 54 3b 34 f8 b8 3e 67 c2 25 be
       -0.15591975 0.003236744 0.36126864 -0.1618744
0001e0 0a 09 2f c0 c3 a5 91 bf 6a 9a 07 40 77 c8 e2 3f
       -2.7349267 -1.1378711 2.1187997 1.7717427
0001f0 c9 73 86 3f ab 6e bb 3f 25 d8 87 3f 53 b1 46 3f
       1.0504085 1.4643148 1.0612837 0.77614325
000200 2c 03 81 3f 08 7f 6b 3f 73 c1 78 3f 21 bd 18 3f
       1.0079093 0.9199071 0.9717018 0.5966359
000210 78 c3 b8 bd a0 2d b5 bd 61 35 b2 be 43 56 78 bd
       -0.09021658 -0.08846593 -0.3480635 -0.06062914
000220 e7 f7 cb be 5e 56 6a be fd 34 27 c0 e1 b4 18 bf
       -0.39837572 -0.22884509 -2.6126091 -0.59651
000230 36 4d c0 3f 35 ad 1b 40 39 18 8a 3f cc 0e ef 3f
       1.5023563 2.4324467 1.0788642 1.8676391
000240 87 3c be bf 87 f3 a5 bf c2 06 2f 3f a8 e8 13 40
       -1.4862221 -1.2964944 0.68369687 2.3110752
000250 4b d2 c3 3f 49 17 d4 3f be 3f a0 be 0d db 89 bd
       1.5298551 1.6569606 -0.3129863 -0.06731234
000260 9b 58 15 be 13 77 9d 3e b0 28 31 be 00 f5 b7 bd
       -0.14584582 0.3075491 -0.17300677 -0.08982277
000270 ae 3f de bf 46 42 87 bf 1d 9c 87 3f a0 72 1b 40
       -1.7363183 -1.05671 1.0594517 2.4288712
000280 4b 98 76 3f 05 bb dc 3f ae 10 2e c0 eb c2 a2 bf
       0.9632613 1.7244574 -2.719768 -1.2715734
000290 39 f8 06 40 04 d0 0a 40 4c a2 3d 3f 35 6a bc 3f
       2.1089003 2.1689463 0.7407577 1.4719912
0002a0 88 ff aa 40 de 20 94 3e 63 ab 84 3f fe 43 a9 be
       5.343693 0.28931326 1.0364803 -0.33059686
0002b0 6a c0 10 3f a4 e7 0e 3f 38 00 ce bf f2 16 2f bf
       0.565436 0.55822206 -1.6093817 -0.68394387
0002c0 0c 11 1d 3f c9 54 ca 3f ba 92 e0 3f b8 4e ee 3f
       0.61354136 1.5807124 1.7544777 1.8617773
0002d0 c9 ec 37 40 44 77 1f bf 86 6c 3a bf 47 6e d2 bf
       2.8738272 -0.6229136 -0.72821844 -1.6439904
0002e0 25 a6 96 3f 77 0d 42 3f 5b 82 0d c0 0d 80 10 bf
       1.1769453 0.75801796 -2.2110813 -0.5644539
0002f0 0c c4 90 3f c0 3b e9 3f fc 32 c3 3f 54 81 93 3f
       1.1309829 1.8221359 1.5249934 1.1523843
000300 7c 9c c9 be 62 87 80 bc 6a 09 99 be a3 8f 06 be
       -0.393772 -0.015689556 -0.29889995 -0.1314073
000310 84 25 a1 be 88 e7 48 3c f4 ce e7 bf 75 9d 22 bf
       -0.31473935 0.012262233 -1.8110032 -0.6352151
000320 d5 b3 4e 3f 2e 3b f9 3f 0e 15 ce 3f 7a 6e db 3f
       0.8074315 1.9471185 1.6100175 1.714309
000330 a8 df b9 40 a5 a1 84 bd a3 95 36 3f 86 4d 63 be
       5.808552 -0.06476144 0.7132208 -0.22197542
000340 9c d3 28 3f 30 2d b7 3e 27 7f 6d 40 d0 ba 97 3f
       0.6594789 0.35776663 3.7108858 1.1853886
000350 e9 61 f8 3d 06 10 19 bf fc e6 a3 3d 6d 30 f0 be
       0.1212805 -0.59790075 0.08003041 -0.46911946
000360 12 5e a9 bf c7 4d 9a bf 8c 41 a4 3f 54 ca fc 3f
       -1.3231833 -1.2054986 1.2832503 1.9749246
000370 86 7b 5d 3f 19 d6 c5 3f 60 15 1b c0 91 56 f3 be
       0.86516607 1.5455962 -2.4231796 -0.47526982
000380 a0 72 df 3f c8 45 da 3f 06 f5 66 3f e3 64 d7 3f
       1.7456856 1.7052546 0.90217626 1.6827663
000390 99 d2 42 40 a0 c3 9f 3f 62 9e 21 3f c1 b2 78 bf
       3.0441039 1.2481575 0.631323 -0.97147757
0003a0 c3 c6 b2 3e 31 49 0a bf 10 e2 f1 bf ba f6 27 bf
       0.34917268 -0.5401793 -1.8897114 -0.6561085
0003b0 a9 a5 f7 3f 47 5b 24 40 8b fd 99 3f 97 47 87 3f
       1.934743 2.5680711 1.20305 1.0568722
0003c0 c0 4c 9e 3f ca 9e 1e 3f 51 96 49 3f 72 96 76 3f
       1.2367172 0.6196104 0.7874499 0.9632331
0003d0 6e 53 41 3f 4b ac 3e 3f c0 d4 b2 40 76 31 92 3b
       0.7551793 0.7448165 5.5884705 0.0044614626
0003e0 dc 5d 7d 3f 93 83 00 bf 59 55 1e 3f 43 6e e4 3e
       0.98971343 -0.50200766 0.6184898 0.44615373
0003f0 b6 28 6a c0 73 16 cb 3f 94 31 ab 3e 3a df d2 3e
       -3.6587348 1.5866226 0.33436263 0.41185933

fc1.bias f4 [128]
000000 86 0e 18 be 9d 2f 8e 3f 75 61 14 40 63 0e 33 be
       -0.1484929 1.110828 2.3184483 -0.17485957
000010 e4 09 1d 40 20 52 8f 3f f7 b1 9e 3f 4c 03 86 3f
       2.4537287 1.1196938 1.239806 1.0469756
000020 21 24 bb 3f 4a 59 c4 3f ba 4e a2 be bb 42 e6 3f
       1.4620401 1.5339749 -0.3170069 1.7989115
000030 2a 10 c3 3f 98 41 82 be 6d 87 00 bf 89 85 ce be
       1.5239308 -0.2544067 -0.50206643 -0.40336254
000040 13 97 08 3f 5e d0 61 3e eb 88 58 3f c0 fd 97 be
       0.5335552 0.22052142 0.8458392 -0.29685783
000050 01 2f 2f 40 ee e2 33 3f cd 71 cf be 5c 13 16 40
       2.737244 0.7026814 -0.4051651 2.3449316
000060 3f 74 c5 3f 67 99 8d be 7d f5 a3 3f f3 48 28 40
       1.54261 -0.276561 1.2809292 2.6294525
000070 aa ed 16 bc b6 b5 b1 3f 51 90 32 bf f0 81 df 3f
       -0.009211937 1.3883579 -0.6975146 1.7461529
000080 68 f7 86 be c8 e3 9b 3f 17 fc 00 bf a1 e5 84 3e
       -0.2636063 1.2178888 -0.5038466 0.25956443
000090 dd 0c b1 3f 44 b1 15 40 8f c8 c6 3e b9 1e c9 3f
       1.383205 2.3389444 0.3882489 1.5712501
0000a0 61 0b 74 3e 59 dd 80 bd a6 7a 33 3f 7c 0d aa 3f
       0.23832466 -0.06292219 0.7010902 1.3285365
0000b0 7c 99 c3 3e 02 65 c6 3f 03 01 d6 3e db 4a 1c 40
       0.38203037 1.5499575 0.41797647 2.4420688
0000c0 78 db e7 3f c8 71 b9 3f fc bb fb bd a7 6a 05 be
       1.8113852 1.4487848 -0.122917145 -0.13028966
0000d0 b7 27 bc 3f c4 7a b3 3f 90 62 3d 3f 64 2b 85 3e
       1.469962 1.402184 0.7397852 0.26009667
0000e0 f7 19 14 40 c5 19 f3 3f 22 a1 a6 be 43 4f a1 3e
       2.3140848 1.8992239 -0.3254481 0.31505784
0000f0 d5 cd 88 3e 41 1d d3 3f 92 87 97 3f 01 6f af bf
       0.26719537 1.6493303 1.1838248 -1.3705751
000100 db 55 aa 3e 7e 3e 41 3f 7e 52 10 40 5b 8f e7 3f
       0.33268628 0.7548598 2.255035 1.8090624
000110 49 78 c5 be 97 08 b8 3f d8 5d bc 3f 83 37 76 3e
       -0.38568333 1.4377621 1.4716139 0.24044614
000120 a5 c2 bb be b5 4a d0 3f 87 e5 e3 3e 3d a3 c1 be
       -0.3667194 1.6272799 0.44511053 -0.37819853
000130 db da a5 3f dc 2f db be 02 7a b9 3e 20 1b 38 3f
       1.2957414 -0.4280995 0.36225897 0.7191639
000140 a2 1b 48 3f 66 09 9f bf 87 6f cb 3e 1b ea e6 3f
       0.78167164 -1.2424743 0.39733526 1.8040193
000150 c4 31 2a 3e 54 fe f4 3e 35 ca 80 3e b6 fe 36 40
       0.16620547 0.47850287 0.25154272 2.8592963
000160 b8 85 db 3e 4d 8b cf 3e 04 0c cf 3f 6f 50 ba be
       0.42875457 0.40535966 1.6175542 -0.3638949
000170 eb ab a7 3f 8e fb 8b bf 10 bc 9b be 63 f1 8a be
       1.309934 -1.0936143 -0.30416918 -0.27137288
000180 8e d1 ad be c3 3e 7a 3f bf 8b c9 3f 81 79 6a 3f
       -0.3394894 0.97752017 1.5745772 0.9159165
000190 86 23 c7 3e cf d7 65 be 23 8a 05 40 e1 93 f0 bd
       0.3889429 -0.22445606 2.0865562 -0.11746956
0001a0 86 d8 a9 be 4f b9 dc 3f 7c c2 84 3f c0 b3 ac 3f
       -0.33173007 1.7244052 1.0371852 1.3492355
0001b0 f8 cb 07 40 a9 91 f8 3e 75 04 98 3f db 29 0f 40
       2.1218243 0.4854863 1.187636 2.2369297
0001c0 4d 0f 72 3e 95 0f 91 3e 87 6b c4 3f 85 93 c3 3f
       0.2363865 0.283322 1.5345315 1.5279394
0001d0 82 b5 96 3b 4e 01 af be d7 cf 93 3f a4 cf eb 3f
       0.004599274 -0.34180683 1.1547803 1.8422742
0001e0 31 1a e3 3f 37 d8 3e bd 46 c7 d0 be d5 17 c4 3f
       1.7742368 -0.046592917 -0.40777034 1.5319773
0001f0 06 2c ba 3f b4 f8 b3 3f 61 de 03 3e 7a 8c 02 3e
       1.4544685 1.4060273 0.128778 0.127489

fc2.weight f4 [64, 128]
000000 d1 cd a6 c0 d6 1f a3 3f 20 22 96 3f 1d 2f 0e c0
       -5.212624 1.274409 1.1729164 -2.2216256
000010 1a 64 b1 3f a4 d3 94 3f 1b 06 a2 3f d8 68 94 3f
       1.3858674 1.1627088 1.2658113 1.1594496
000020 9e 7f a2 3f c9 14 9a 3f c5 92 b1 bf d4 90 9d 3f
       1.2695196 1.2037593 -1.3872916 1.2309823
000030 1d 30 8e 3f f1 38 2b bd 7a de 91 40 a9 3a ed bb
       1.1108433 -0.04180235 4.558408 -0.007239659
000040 ef 44 21 c0 e0 e8 5b 40 ed 3a a1 3f 4b 4d 9f bd
       -2.5198324 3.4360886 1.2596108 -0.07778414
000050 01 3b 8c 3f 85 c3 24 3f eb 68 a4 bc 95 d2 9a 3f
       1.0955507 0.6436084 -0.02006956 1.2095515
000060 e7 15 a5 3f e2 36 32 bc a7 3c ae 3f d1 56 98 3f
       1.2897309 -0.010877343 1.361226 1.1901494
000070 fc 37 eb bf 91 8e 94 3f 07 c2 79 c0 0d d2 8f 3f
       -1.837646 1.1606008 -3.9024675 1.1235977
000080 4e 01 a8 bc d6 55 a0 3f 0f 46 0f c0 67 53 45 40
       -0.020508435 1.2526195 -2.238651 3.0832155
000090 cb 0a a5 3f 78 a1 88 3f ce c4 3a 40 cf b1 a9 3f
       1.2893919 1.0674276 2.918262 1.3257388
0000a0 e0 68 32 3f e1 08 0f c0 b6 f1 bc 3e 38 54 a1 3f
       0.69691277 -2.234917 0.3690316 1.2603827
0000b0 54 f3 2f c0 a8 20 9a 3f 97 4b 59 40 3a 38 97 3f
       -2.7492266 1.2041216 3.3952386 1.1814034
0000c0 d8 20 93 3f ad dc a0 3f 0e 2e 85 3d 09 d8 d4 3c
       1.1494398 1.2567345 0.06502925 0.02598192
0000d0 c6 bd 90 3f 49 93 92 3f 5d e8 32 3e cc f7 33 3f
       1.1307914 1.1451198 0.17471452 0.70299983
0000e0 b6 c0 93 3f 8c c2 92 3f 13 65 91 3d db e6 f4 bf
       1.1543186 1.1465621 0.070993565 -1.9132951
0000f0 a5 f4 14 c0 24 78 97 3f 9e d8 94 3f 3a 23 46 c0
       -2.327432 1.1833539 1.1628606 -3.0959
000100 28 c8 c2 3e 87 a4 bc 3e bf bb 88 3f 57 57 9b 3f
       0.38043332 0.36844274 1.0682296 1.2136029
000110 5b a3 58 3c 7e cc 9e 3f 26 91 94 3f b1 dc 0c c0
       0.013222541 1.2406156 1.1606796 -2.20097
000120 ce ee eb bc a5 63 8e 3f aa 10 1d c0 5e c0 81 3d
       -0.028800394 1.1124159 -2.454142 0.06335519
000130 03 34 a2 3f b4 83 0b c0 4a aa 6a 40 51 29 8b c0
       1.2672123 -2.1799135 3.6666436 -4.3487935
000140 de 8a 34 40 c0 ba 54 c0 c2 69 e2 3e 97 79 98 3f
       2.8209758 -3.3238983 0.44221312 1.1912106
000150 9e 5a 04 c0 9f 4d 61 3f c1 08 11 c0 10 8d 98 3f
       -2.0680308 0.88009065 -2.2661593 1.1918049
000160 1f 0f 17 41 1d 15 04 c0 86 2d 8f 3f 1e c7 11 bc
       9.441192 -2.0637887 1.1185768 -0.008897571
000170 d7 39 a6 3f 90 bb bd c0 a9 f4 0f bd 0e 49 22 3d
       1.2986401 -5.929146 -0.035145435 0.03962045
000180 78 4f 62 3c 61 7f 97 3f 90 0c a3 3f a6 74 b0 3f
       0.013812892 1.1835748 1.2738209 1.3785598
000190 b9 47 15 3f 18 4e bd bc 27 55 de bf 22 9c 90 3c
       0.58312565 -0.023108527 -1.7369736 0.017652575
0001a0 e3 9d 65 3d 48 f5 91 3f b6 32 39 3f 89 38 a1 3f
       0.056058776 1.1402979 0.72343004 1.2595378
0001b0 64 f3 8a 3f 23 56 83 40 62 ca 9e 3f 94 12 11 c0
       1.0855527 4.1042647 1.2405512 -2.266759
0001c0 85 14 98 3d 59 36 40 40 cb 45 9f 3f 82 e8 a3 3f
       0.07425789 3.003317 1.2443174 1.2805331
0001d0 de 87 ac 3d 7b bb 40 3d 61 f8 6a 3f 79 b5 90 3f
       0.08424352 0.047053795 0.91785246 1.1305381
0001e0 d9 dd 98 3f 25 82 a3 40 b9 23 85 3d a0 8e 9e 3f
       1.1942703 5.109637 0.06500954 1.2387276
0001f0 7a 25 98 3f d2 e6 97 3f b1 cc 03 c0 d9 18 0a 40
       1.1886437 1.1867316 -2.0593684 2.1577666
000200 f8 41 a1 c0 5e 39 80 3f 3b 93 59 3f 69 fd f1 bf
       -5.039303 1.0017507 0.8499028 -1.890546
000210 87 13 89 3f 3e 3e 8a 3f 99 75 6c 3f 96 ae 80 3f
       1.0709084 1.0800245 0.9236694 1.0053279
000220 5c 76 82 3f 2f b8 5c 3f 65 40 8e bf ff f2 6a 3f
       1.019237 0.8621854 -1.1113402 0.9177703
000230 e7 4a 86 3f e0 7e 1d bd f0 da 9a 40 df d3 0e 3c
       1.0491608 -0.038451076 4.839226 0.008717506
000240 e0 08 ff bf ae 59 47 40 e5 0e 9e 3f 4f 58 86 bd
       -1.9924583 3.1148486 1.2348295 -0.06559812
000250 1f 73 72 3f 1e a2 0b 3f 59 e1 bd 3c d8 3b 87 3f
       0.9470691 0.54544246 0.023178743 1.0565138
000260 ec fa 71 3f 38 4f 5b 3c 33 47 97 3f f5 44 81 3f
       0.945235 0.013385586 1.1818603 1.0099169
000270 a8 6b ce bf f9 d9 7d 3f 99 5c 6b c0 73 a3 53 3f
       -1.6126604 0.99160725 -3.6775267 0.8267128
000280 c7 04 a0 bd ce 6e 8b 3f 38 36 f3 bf 6c 1e 36 40
       -0.07813411 1.089319 -1.9000921 2.8456068
000290 a0 1a 84 3f 91 f2 6c 3f 36 4c 26 40 ff 4c 82 3f
       1.0320625 0.92557627 2.5984015 1.0179747
0002a0 bb 8e 0c 3f 5b 85 fa bf 8d 6d f5 3e 10 74 7b 3f
       0.5490529 -1.9571947 0.47935143 0.9822397
0002b0 9d 05 06 c0 e9 b1 73 3f bf 81 48 40 4e 64 60 3f
       -2.0940926 0.95193344 3.132919 0.8765305
0002c0 89 ea 6a 3f a8 68 7e 3f 31 6b ad 3d a7 aa 68 3c
       0.9176412 0.9937844 0.08467711 0.014200843
0002d0 20 8b 60 3f 5d 19 8b 3f 9f 1a 44 3e f8 b4 14 3f
       0.8771229 1.0867115 0.1915078 0.58088636
0002e0 90 2a 6b 3f 4f a8 72 3f ea de a1 3d 48 c0 ca bf
       0.9186182 0.9478807 0.079038456 -1.583993
0002f0 a1 0c ee bf 91 65 85 3f 4b 10 87 3f db 88 0f c0
       -1.8597604 1.0421621 1.0551847 -2.242728
000300 b3 f9 d7 3e 6e 6e b8 3e 56 80 72 3f 5a c1 77 3f
       0.42182693 0.3602175 0.94727075 0.96779406
000310 f9 eb f0 bb 4e b2 6c 3f 47 d2 5e 3f 2f ec eb bf
       -0.007352349 0.9245957 0.8703961 -1.8431453
000320 49 ee a2 3d 70 0a 5c 3f 25 ca fb bf 91 ec 92 3d
       0.079556055 0.85953426 -1.9671065 0.07174028
000330 ab 8e 7e 3f bd c0 e8 bf 03 c3 59 40 85 b2 65 c0
       0.99436444 -1.8183819 3.4025276 -3.589021
000340 53 39 33 40 b5 d9 10 c0 c9 03 e1 3e 0f 65 90 3f
       2.8003738 -2.2632878 0.439482 1.1280841
000350 ff b2 cd bf df 73 68 3f ac 32 dc bf 9e 37 79 3f
       -1.607025 0.90801805 -1.7202964 0.9735049
000360 62 49 1c 41 2f 64 d3 bf 02 08 6b 3f 24 aa 08 bb
       9.767916 -1.6514949 0.91809094 -0.0020853365
000370 3c b5 84 3f f5 69 a0 c0 4d ae 86 3d a2 4c b5 3c
       1.0367808 -5.012934 0.06576214 0.022131268
000380 a8 7e ba 3c 7b 26 94 3f 03 81 6f 3f 33 2a 8d 3f
       0.022765473 1.1574243 0.9355623 1.1028503
000390 52 88 ed 3e b5 63 ae bd 22 12 eb bf f1 ce 97 3c
       0.46393067 -0.08515111 -1.8364909 0.018531295
0003a0 18 d6 d3 bc b6 98 7d 3f 04 4e 30 3f d7 e0 80 3f
       -0.025858924 0.99061143 0.6886904 1.0068616
0003b0 63 28 3f 3f 4f a5 81 40 3c b2 7f 3f 63 f3 16 c0
       0.74671 4.0514293 0.9988134 -2.3586051
0003c0 7f 1d de 3d 38 70 27 40 64 d0 8a 3f 15 2d 70 3f
       0.1084547 2.6162243 1.0844846 0.9381879
0003d0 31 33 08 3d c4 bb cf bb e9 f0 37 3f 47 64 6a 3f
       0.033251945 -0.006339522 0.71851975 0.9155926
0003e0 ce 51 6a 3f 8f ba a3 40 e4 b0 97 b9 f4 ef 78 3f
       0.91531074 5.1165233 -0.00028932758 0.9724114
0003f0 89 a9 61 3f fa 9b 85 3f 9a 6a d2 bf a8 5f 16 40
       0.88149315 1.0438225 -1.6438782 2.3495884

fc2.bias f4 [64]
000000 32 35 f3 3e b9 fc 81 3e c8 db 67 bd 83 c9 9d bd
       0.47501522 0.25388125 -0.056606084 -0.07704451
000010 f6 af 36 3e 3c 8f 59 3e 36 88 05 3f f9 19 25 3c
       0.17840561 0.21246046 0.52160966 0.010076993
000020 95 7b 99 bd 93 24 70 3f 4b dd 6e 3c 0c 87 15 3f
       -0.074942745 0.9380581 0.014579128 0.5840919
000030 b2 7f c7 3b e9 1d 93 3d 0d 5c a2 be 03 f8 3a 3f
       0.0060882205 0.07183439 -0.31710854 0.73034686
000040 22 d3 dd bb 42 9f c9 bc c9 1a 25 bd 76 f9 33 3e
       -0.0067695538 -0.024612073 -0.040308747 0.1757563
000050 73 b9 90 3e 1d 22 4e bd db 62 3e bd 4c 97 17 3f
       0.28266487 -0.0503255 -0.046480995 0.59215236
000060 5f 58 79 3d d2 9e f2 be bb c1 45 3d 6e be 3a 3e
       0.060875293 -0.47386795 0.04828046 0.18236706
000070 d2 af 04 bd 40 05 d5 bd 74 63 0b 3e b0 c8 88 bd
       -0.032394238 -0.10401392 0.13612157 -0.06678903
000080 7c 8b 80 bb dc d1 ad 3e ba ef d2 3b 07 7c 82 be
       -0.003922878 0.33949172 0.006437269 -0.2548525
000090 f7 26 48 3e 1d 38 2b 3d 8a fa 0c 40 3c 56 bf bd
       0.19546114 0.04180156 2.2027917 -0.0934262
0000a0 7c 97 f1 be 42 e5 63 3e 50 59 a7 bd 29 4e 50 3e
       -0.47185886 0.22255424 -0.08171332 0.20342316
0000b0 ff 21 54 3e 83 7e 1a 3e 59 a6 44 3d f4 f5 db bd
       0.20716093 0.15087323 0.048010204 -0.10740271
0000c0 30 ed 1c 3e 71 b6 8d 3f 8a c1 02 bc bd 77 92 3e
       0.15324855 1.1071302 -0.007980714 0.28606978
0000d0 42 74 b4 bb d8 6f e0 3c 6e 94 19 3d 61 5a 02 3f
       -0.005507023 0.027397081 0.03749507 0.5091916
0000e0 9c ae 2d bd 55 94 41 3e 35 f5 3a 3e 94 eb 10 bd
       -0.04240285 0.1890424 0.18257602 -0.035380915
0000f0 03 8a 50 3e e7 16 ad bc f4 8e 68 3f 92 28 7c 3c
       0.20365147 -0.021129085 0.9084313 0.015390532

fc3.weight f4 [2, 64]
000000 c6 51 3d bf d1 66 97 bf 42 7e 9b 3b 40 0f 00 3b
       -0.739529 -1.1828252 0.0047452757 0.001954034
000010 51 9a 9a bf 55 8d a0 bf 97 8d ee bf 66 e5 d0 bd
       -1.2078344 -1.2543131 -1.863696 -0.10200004
000020 e0 06 01 3c 59 f1 2b c0 26 c5 42 3d 07 27 02 c0
       0.007875174 -2.6866057 0.047551297 -2.033632
000030 5d 09 d3 bd 9a 25 88 3d 7b 93 ed bf b2 ff 06 c0
       -0.1030452 0.06647797 -1.8560632 -2.1093564
000040 34 59 e5 3d 74 d5 26 3d ba 2e 8f bb bf 49 a8 bf
       0.11198655 0.04073091 -0.004369584 -1.3147506
000050 6d dd a3 bf e0 1a 8c 3d 60 3c 26 3c 40 0d 02 c0
       -1.2801949 0.068410635 0.01014623 -2.0320587
000060 e8 41 86 3c 28 dc 1c c0 59 19 7a 3d 34 16 91 bf
       0.016388848 -2.4509373 0.06105933 -1.1334901
000070 1a 37 c2 bd 6f b3 3e bc 06 b1 9e bf 2e 5a d2 bd
       -0.09483166 -0.01163946 -1.2397773 -0.10271107
000080 68 6c ef 3c 28 c1 aa bf 63 03 4e 3d d5 03 e7 bf
       0.029226497 -1.3340197 0.0502962 -1.8048044
000090 9a 16 94 bf fe 4e a1 3d 46 79 39 40 94 ca 1e 3d
       -1.1569397 0.07876395 2.898027 0.038767412
0000a0 ce b3 01 bf 54 5a 56 3f 51 06 b4 3d 47 f5 92 3f
       -0.50664985 0.8373158 0.08790267 1.1481103
0000b0 f0 0b 9f bf 40 31 9c bf f5 5a 90 3c 28 c5 d6 3d
       -1.2425518 -1.220253 0.017621497 0.10486823
0000c0 ea ca 96 bf f9 44 ac 3f b5 6e 09 3d cf c6 88 bf
       -1.1780674 1.3458549 0.033552844 -1.0685672
0000d0 bc bc 69 bd 76 5a be bd ab 18 0e 3c 96 e2 11 c0
       -0.057064757 -0.09294598 0.0086728735 -2.2794547
0000e0 7c e0 e5 bd 17 d1 83 bf f6 25 a5 bf 2a 2f dc bd
       -0.112244576 -1.0298184 -1.290221 -0.10751183
0000f0 8e aa 20 c0 f2 29 84 b9 b6 27 a4 3f 62 9e bc 3c
       -2.5104098 -0.00025208254 1.2824619 0.023024742
000100 df f3 a4 bf da 28 9b bf f9 19 f1 bb f0 b5 75 3d
       -1.2886924 -1.2121842 -0.0073578325 0.059987962
000110 75 af ae bf 45 b5 90 bf 7c db ad bf 3b 7a df 3c
       -1.3647295 -1.1305319 -1.3582606 0.027279964
000120 fe 4c ac 3d b9 88 c7 bf 23 52 ce 3d 27 f1 de bf
       0.084131226 -1.55886 0.1007426 -1.7417344
000130 72 24 1d bd 07 c1 c3 bc 87 11 04 3f d0 bb 02 c0
       -0.038364835 -0.023895754 0.51589245 -2.0427132
000140 b0 6f bf bd a8 c1 dd 3d a6 c8 ba 3c 6b 7f 76 bf
       -0.093474746 0.108279526 0.022800755 -0.96288174
000150 fa 33 87 bf 6e c1 30 be 7c 08 f0 3d 3c dd f3 bf
       -1.0562737 -0.17261288 0.11720368 -1.905189
000160 30 eb 85 bc 65 a6 bc bf 6c 2d 51 3d df 7a b6 bf
       -0.016347498 -1.473828 0.05106871 -1.4256247
000170 8e 8d 60 3b e4 4c 9b 3c 63 0b 9e bf e0 7f b2 3d
       0.003426406 0.018957563 -1.2347225 0.087157965
000180 32 82 61 3d 9a e6 71 bf ed 6f 62 3d 47 62 37 3e
       0.055055805 -0.94492495 0.055282522 0.17908584
000190 6a 2b 9b bf 3d 33 13 3c b8 fb 45 3f 66 19 f5 bd
       -1.2122624 0.008984384 0.7733722 -0.11967735
0001a0 8d 6b 2d bf 3a 89 0e c0 33 f3 7c 3d d2 bf 1f c0
       -0.67742234 -2.2271256 0.06175537 -2.4960828
0001b0 9b 8b 96 bf 46 86 8d bf d4 fa ac bd 9c 58 c9 ba
       -1.1761354 -1.1056602 -0.08446279 -0.0015361491
0001c0 b6 08 95 bf 5f 41 2f 40 48 f5 45 3c 97 ed 9d bf
       -1.1643283 2.738365 0.012082405 -1.2338132
0001d0 be 6e a3 bd 09 fe bd 3d 0e 76 51 3d 7a 33 f9 bf
       -0.07980107 0.09276969 0.051137976 -1.9468834
0001e0 4e 81 fc 3d f3 6e b2 bf 6e c5 8a bf a2 de 46 3d
       0.123293504 -1.3940109 -1.0841501 0.048552163
0001f0 bb 01 c0 be 20 ac 16 bc ec b7 3d 40 88 f7 c6 3d
       -0.3750132 -0.009196311 2.9643507 0.097151816

fc3.bias f4 [2]
000000 b2 15 a7 3e 7d f9 a6 bf
       0.3263374 -1.3044888

exp_avg f4 [128, 6]
000000 84 bc 93 c5 77 86 29 46 ec 68 d6 c5 72 41 21 c6
       -4727.5645 10849.616 -6861.115 -10320.361
000010 4f 1c 38 c6 83 d9 5e c6 c1 7f 1c 44 65 6a d5 c4
       -11783.077 -14262.378 625.99615 -1707.3248
000020 6b 8e 5b 44 b1 02 b3 44 5c d0 dc 44 e3 a5 06 45
       878.2253 1432.0841 1766.5112 2154.368
000030 2f c2 f2 43 ac 7b 73 c4 ea b5 3e 44 71 ee 82 44
       485.51706 -973.9324 762.8424 1047.4513
000040 8e 68 72 44 c1 51 90 44 ad c1 ff c4 ed a1 60 45
       969.63367 1154.5548 -2046.0524 3594.1204
000050 83 6c 4f c5 e2 0b 86 c5 9e cd 5f c5 3f e0 83 c5
       -3318.782 -4289.4854 -3580.851 -4220.031
000060 23 eb 27 44 89 10 8d c4 a6 39 86 44 34 1b af 44
       671.674 -1128.5167 1073.8015 1400.8501
000070 38 d5 94 44 44 3d af 44 36 9c 18 44 57 6a be c4
       1190.6631 1401.9146 610.4408 -1523.3231
000080 58 b8 5a 44 3d 04 ab 44 e3 3f c9 44 1c 57 f4 44
       874.8804 1368.1324 1609.9965 1954.7222
000090 b1 70 10 44 14 00 ba c4 4e a0 4d 44 24 24 a3 44
       577.7608 -1488.0024 822.50476 1305.1294
0000a0 14 3d c2 44 9d 1d ec 44 43 99 1c 44 e0 ea d8 c4
       1553.9087 1888.9254 626.3947 -1735.3398
0000b0 68 82 54 44 91 1c b3 44 ca 70 e5 44 33 23 0c 45
       850.0376 1432.8927 1835.5247 2242.2
0000c0 89 cd 1c 44 e0 ff ac c4 ea 74 69 44 58 7e ab 44
       627.2115 -1383.9961 933.8268 1371.9482
0000d0 f1 4f b9 44 03 59 df 44 54 e9 06 44 35 db a7 c4
       1482.4982 1786.7816 539.64575 -1342.8502
0000e0 ed de 45 44 81 b9 97 44 cc a2 a9 44 af 71 cd 44
       791.4832 1213.797 1357.0874 1643.5526
0000f0 8c da b5 c4 35 23 13 45 1c 72 15 c5 77 30 3c c5
       -1454.8296 2354.2004 -2391.1318 -3011.029
000100 91 c4 13 c5 58 e0 2c c5 18 a6 11 44 e3 e3 98 c4
       -2364.2854 -2766.0215 582.5952 -1223.1215
000110 80 55 62 44 e7 63 9e 44 10 42 98 44 1e ff b5 44
       905.33594 1267.122 1218.0645 1455.9724
000120 fc 8d 10 44 55 30 99 c4 52 ac 5c 44 ae 29 9d 44
       578.2185 -1225.5104 882.6925 1257.3025
000130 21 60 9b 44 72 fd b9 44 00 00 00 00 00 00 00 00
       1243.004 1487.9202 0.0 0.0
000140 00 00 00 00 00 00 00 00 00 00 00 00 00 00 00 00
       0.0 0.0 0.0 0.0
000150 85 8e 9d 44 4b 41 57 c6 6a 63 8f 45 86 ae 0d 46
       1260.4537 -13776.323 4588.427 9067.631
000160 7d 2b 1c 46 a9 d4 39 46 00 00 00 00 00 00 00 00
       9994.872 11893.165 0.0 0.0
000170 00 00 00 00 00 00 00 00 00 00 00 00 00 00 00 00
       0.0 0.0 0.0 0.0
000180 1c 48 14 c5 2b 85 81 45 18 ac 74 c5 b2 9c 9b c5
       -2372.5068 4144.646 -3914.7559 -4979.587
000190 c6 1a 7c c5 25 3d 94 c5 8f 4e 55 c4 32 fa 89 c4
       -4033.6733 -4743.643 -853.2275 -1103.8186
0001a0 60 c1 6d c4 7b 42 18 43 21 84 04 45 fa 15 39 45
       -951.0215 152.25969 2120.258 2961.3735
0001b0 1c c2 2c 44 f3 82 b3 c4 eb 44 80 44 a0 10 ba 44
       691.03296 -1436.0922 1026.1537 1488.5195
0001c0 47 25 c4 44 3e 8d eb 44 00 00 00 00 00 00 00 00
       1569.1649 1884.4138 0.0 0.0
0001d0 00 00 00 00 00 00 00 00 00 00 00 00 00 00 00 00
       0.0 0.0 0.0 0.0
0001e0 f9 f8 fc 43 ee bb 67 c4 e6 0d 4c 44 6b ac 86 44
       505.9451 -926.9364 816.21716 1077.3881
0001f0 9d 3b 64 44 da a6 86 44 83 f9 1b 43 b8 c7 4b c4
       912.93146 1077.2141 155.97466 -815.1206
000200 69 05 47 43 99 e7 dd 43 20 27 32 44 fd b9 5e 44
       199.02113 443.80936 712.6113 890.90607
000210 00 00 00 00 00 00 00 00 00 00 00 00 00 00 00 00
       0.0 0.0 0.0 0.0
000220 00 00 00 00 00 00 00 00 93 78 11 44 11 03 85 c4
       0.0 0.0 581.884 -1064.0958
000230 81 cb 67 44 80 40 9a 44 f5 c3 89 44 49 3d a3 44
       927.17975 1234.0156 1102.1237 1305.9152
000240 3f 17 1c 44 14 54 b3 c4 f7 c2 66 44 d6 06 ac 44
       624.3632 -1434.6274 923.0463 1376.2136
000250 36 3c bb 44 0e f0 e1 44 00 00 00 00 00 00 00 00
       1497.8816 1807.5017 0.0 0.0
000260 00 00 00 00 00 00 00 00 00 00 00 00 00 00 00 00
       0.0 0.0 0.0 0.0
000270 58 c1 31 44 43 c3 b6 c4 1f d4 85 44 83 4c bf 44
       711.021 -1462.1019 1070.6288 1530.391
000280 98 b6 c3 44 8e a6 ea 44 97 7a 14 44 89 47 80 c4
       1565.706 1877.2048 593.91547 -1026.2355
000290 0f d4 70 44 b3 eb 9b 44 95 fe 7c 44 d8 6d 94 44
       963.3134 1247.3656 1011.97784 1187.4326
0002a0 8c 87 e5 c4 5b eb 44 45 8a 4d 3a c5 df 8c 6f c5
       -1836.2358 3150.7097 -2980.8462 -3832.8044
0002b0 fb 6d 44 c5 65 f2 66 c5 55 d4 0d 44 ba bb b2 c4
       -3142.8738 -3695.1497 567.3177 -1429.8665
0002c0 4c 10 4f 44 2d d9 9f 44 f2 33 b9 44 ff da e0 44
       828.25464 1278.7867 1481.6233 1798.8436
0002d0 e4 03 99 c4 db 71 c8 43 ad f6 0f c4 f8 b9 0b c5
       -1224.1216 400.8895 -575.8543 -2235.623
0002e0 3f 9b 44 c5 e0 37 74 c5 e9 66 fe 43 ff fd 93 c4
       -3145.703 -3907.4922 508.804 -1183.9374
0002f0 1b a9 43 44 24 8d 8d 44 ae 05 90 44 1d 46 ad 44
       782.6423 1132.4106 1152.1775 1386.191
000300 00 00 00 00 00 00 00 00 00 00 00 00 00 00 00 00
       0.0 0.0 0.0 0.0
000310 00 00 00 00 00 00 00 00 a3 67 1c 44 33 0b b3 c4
       0.0 0.0 625.6193 -1432.35
000320 fd b1 66 44 eb 87 ac 44 44 ce bf 44 54 ba e7 44
       922.78107 1380.2474 1534.4458 1853.8228
000330 5c 9e f8 c4 e4 a1 56 45 39 13 4d c5 b6 3e 82 c5
       -1988.9487 3434.1182 -3281.2014 -4167.839
000340 53 97 4e c5 99 65 72 c5 fb d5 5b c4 94 93 07 c4
       -3305.4578 -3878.3499 -879.34344 -542.3059
000350 a4 2a 97 c4 9c 8c 66 c3 8a a5 ec 44 b9 35 28 45
       -1209.3325 -230.54926 1893.1731 2691.3577
000360 0e 72 1e 44 1f 8b af c4 bb 4b 6b 44 0e 62 ad 44
       633.7821 -1404.3475 941.1833 1387.0642
000370 bc 29 b8 44 ec b2 dd 44 d9 55 04 44 43 b5 80 c4
       1473.3042 1773.5913 529.3414 -1029.6644
000380 1e 4b 54 44 7d 23 8e 44 d6 92 7a 44 fe 96 94 44
       849.1737 1137.109 1002.2943 1188.7185
000390 0c 87 98 c4 58 27 00 44 35 36 a3 c4 bd 18 41 c4
       -1220.2202 512.61475 -1305.694 -772.38654
0003a0 bf 07 6e 44 d4 c8 b6 44 aa 51 22 44 c0 01 9c c4
       952.12103 1462.2759 649.276 -1248.0547
0003b0 62 68 79 44 a1 d4 ac 44 c2 35 a6 44 27 17 c6 44
       997.631 1382.6447 1329.6799 1584.7235
0003c0 c3 05 80 43 7f f0 90 c4 65 c6 92 43 40 3f 29 44
       256.045 -1159.5155 293.54996 676.9883
0003d0 1b 67 8e 44 5c 85 b1 44 79 57 01 c5 ec 57 61 45
       1139.222 1420.1675 -2069.467 3605.495
0003e0 ef 5f 50 c5 cf 30 87 c5 43 ac 63 c5 24 2e 86 c5
       -3333.9958 -4326.101 -3642.7664 -4293.7676
0003f0 df 64 bf 42 32 89 86 44 e4 2c 65 44 c5 aa b1 43
       95.697014 1076.2874 916.7014 355.33414

exp_avg_sq f4 [128, 6]
000000 43 2b d3 4d c1 e6 25 4f 6a 88 0b 4e 01 75 39 4e
       4.4285347e+08 2.7833633e+09 5.8524326e+08 7.7786323e+08
000010 24 57 0a 4e fa d4 30 4e e5 a1 05 4b de 96 47 4c
       5.8024166e+08 7.416869e+08 8.757733e+06 5.2321144e+07
000020 7e a7 22 4b be f7 49 4b 16 cc 17 4b 58 da 3e 4b
       1.065971e+07 1.3236158e+07 9.948182e+06 1.2507736e+07
000030 72 e5 cc 48 a3 36 11 4b f3 ad 09 4a 25 1b ab 4a
       419627.56 9.516707e+06 2.2557408e+06 5.6068025e+06
000040 c0 ec 76 4a 8f 7a ab 4a 73 f5 ab 4a e2 21 19 4d
       4.045616e+06 5.6190155e+06 5.6347455e+06 1.6057091e+08
000050 ea 7b 1a 4c 56 66 be 4c 9e 45 87 4c e5 f3 ba 4c
       4.0497064e+07 9.98243e+07 7.092146e+07 9.8017064e+07
000060 67 6e 02 49 fd 18 89 4b 8b d5 93 4a 25 21 3a 4b
       534246.44 1.7969658e+07 4.8442295e+06 1.2198181e+07
000070 8a 34 05 4b 97 08 39 4b 63 9d aa 4a ce c6 10 4c
       8.729738e+06 1.2126359e+07 5.5907055e+06 3.795231e+07
000080 30 5b ed 4a 4b 67 2f 4b 18 07 05 4b 11 c6 2d 4b
       7.777688e+06 1.1495243e+07 8.718104e+06 1.1388433e+07
000090 ef 3b a3 4a 33 e7 06 4c 6b 03 dc 4a 45 73 1d 4b
       5.3488555e+06 3.5364044e+07 7.2093975e+06 1.0318661e+07
0000a0 d8 9c ee 4a 7d e0 1a 4b e6 ea 17 4b d5 f7 5c 4c
       7.81886e+06 1.0150013e+07 9.95607e+06 5.792546e+07
0000b0 d4 71 34 4b 26 f4 58 4b 45 bf 24 4b b5 73 4e 4b
       1.182562e+07 1.4218278e+07 1.0796869e+07 1.3530037e+07
0000c0 3d 3b 40 4a 40 d0 d7 4b 6e 72 b7 4a 72 a9 2b 4b
       3.1495192e+06 2.8287104e+07 6.011191e+06 1.1250034e+07
0000d0 d2 77 01 4b 7e 58 2f 4b 0a 74 35 4a b2 93 b0 4b
       8.484818e+06 1.1491454e+07 2.9729305e+06 2.3144292e+07
0000e0 5f ed 8f 4a 27 61 f1 4a 61 9a b5 4a 77 8c f1 4a
       4.7162075e+06 7.9095235e+06 5.9507685e+06 7.9150675e+06
0000f0 67 5d f1 49 63 6e 91 4c 4b 69 9f 4b c5 ce 45 4c
       1.9772609e+06 7.624783e+07 2.0894358e+07 5.18541e+07
000100 cc 4a 0a 4c a8 c2 3e 4c dc cc 80 49 ab ce 75 4b
       3.6252464e+07 5.000669e+07 1.0551315e+06 1.6109227e+07
000110 41 7a 5c 4a cf fc fd 4a 96 bc b9 4a 7c 2a 00 4b
       3.6123042e+06 8.3226635e+06 6.086219e+06 8.399484e+06
000120 42 5f 8d 49 9b 2a 7e 4b 6d 6c 62 4a 0f b1 01 4b
       1.1581202e+06 1.6657051e+07 3.7097232e+06 8.499471e+06
000130 cc da c0 4a c6 82 05 4b 00 00 00 00 00 00 00 00
       6.319462e+06 8.749766e+06 0.0 0.0
000140 00 00 00 00 00 00 00 00 00 00 00 00 00 00 00 00
       0.0 0.0 0.0 0.0
000150 1c 2d 2c 4e 76 d1 4b 4f d6 d4 37 4e a5 2e 21 4e
       7.2215936e+08 3.419502e+09 7.7104474e+08 6.7604717e+08
000160 1e 9c e5 4d 3d e3 02 4e 00 00 00 00 00 00 00 00
       4.8152672e+08 5.489826e+08 0.0 0.0
000170 00 00 00 00 00 00 00 00 00 00 00 00 00 00 00 00
       0.0 0.0 0.0 0.0
000180 c0 16 fd 4a 14 44 53 4d 2e 5a 53 4c 21 2b 00 4d
       8.293216e+06 2.2152838e+08 5.540473e+07 1.3439438e+08
000190 48 87 b4 4c b4 4f f8 4c 6a 4a 2a 4d 12 84 34 4e
       9.46489e+07 1.3018666e+08 1.7856272e+08 7.5713856e+08
0001a0 b1 2d 35 4d 17 25 05 4d 7f 5e 9e 4c 65 96 93 4c
       1.8997941e+08 1.3961253e+08 8.303103e+07 7.7378344e+07
0001b0 68 76 43 4a ed 8a f7 4b 8c f3 d7 4a 3c 2f 59 4b
       3.202458e+06 3.2445914e+07 7.076294e+06 1.4233404e+07
0001c0 b8 58 25 4b 46 b5 62 4b 00 00 00 00 00 00 00 00
       1.0836152e+07 1.4857542e+07 0.0 0.0
0001d0 00 00 00 00 00 00 00 00 00 00 00 00 00 00 00 00
       0.0 0.0 0.0 0.0
0001e0 62 95 b3 48 0d a4 15 4b 4f 4b 1f 4a 5d e1 c3 4a
       367787.06 9.806861e+06 2.6098758e+06 6.4186065e+06
0001f0 92 fd 88 4a 7c 21 bd 4a 58 85 67 4a 2e c1 83 4b
       4.488905e+06 6.197438e+06 3.793238e+06 1.726934e+07
000200 0e d8 66 4a 1d 23 24 4a 14 09 d9 49 a9 92 d1 49
       3.7821475e+06 2.6892232e+06 1.7779545e+06 1.7168211e+06
000210 00 00 00 00 00 00 00 00 00 00 00 00 00 00 00 00
       0.0 0.0 0.0 0.0
000220 00 00 00 00 00 00 00 00 9d 8b fe 48 57 28 55 4b
       0.0 0.0 521308.9 1.3969495e+07
000230 3c ec 53 4a 79 7a 04 4b 7e b6 be 4a 0d 68 04 4b
       3.472143e+06 8.682105e+06 6.249279e+06 8.677389e+06
000240 c2 62 58 4a 33 91 e1 4b 12 9a bc 4a 36 30 27 4b
       3.5452645e+06 2.9565542e+07 6.180105e+06 1.0956854e+07
000250 91 31 fc 4a ca 64 29 4b 00 00 00 00 00 00 00 00
       8.2638805e+06 1.1101386e+07 0.0 0.0
000260 00 00 00 00 00 00 00 00 00 00 00 00 00 00 00 00
       0.0 0.0 0.0 0.0
000270 e3 44 2a 4a 1e bf eb 4b b1 a6 cf 4a d9 25 58 4b
       2.7896888e+06 3.0899772e+07 6.8043125e+06 1.4165465e+07
000280 d3 9f 22 4b a8 39 5f 4b ba be e9 48 64 58 4a 4b
       1.0657747e+07 1.4629288e+07 478709.8 1.32609e+07
000290 a3 7e 5e 4a d4 c4 07 4b cc 44 bd 4a 70 72 02 4b
       3.6453528e+06 8.897748e+06 6.201958e+06 8.548976e+06
0002a0 03 5d 76 4a 0e 0d f3 4c 7c d6 fb 4b 0e 33 9c 4c
       4.0364168e+06 1.2742872e+08 3.3008888e+07 8.189349e+07
0002b0 73 cc 5d 4c 2d 65 99 4c 89 2e 8c 4a 28 cb ef 4b
       5.814318e+07 8.042327e+07 4.5934765e+06 3.1430224e+07
0002c0 3b 25 c4 4a d8 37 11 4b 65 85 d9 4a 03 87 0d 4b
       6.4272935e+06 9.517016e+06 7.1277305e+06 9.275139e+06
0002d0 01 f1 a6 4b b6 2c 19 4d 1d 36 25 4c e7 3c 9b 4c
       2.1881346e+07 1.6061526e+08 4.3309172e+07 8.138937e+07
0002e0 2a c1 f0 4c 16 ea 22 4d 85 ef 9c 49 9d 5b 57 4b
       1.2622472e+08 1.7082813e+08 1.2856166e+06 1.4113693e+07
0002f0 0b 41 34 4a d2 06 ba 4a c3 57 88 4a c5 97 b9 4a
       2.9532828e+06 6.095721e+06 4.4676815e+06 6.0815065e+06
000300 00 00 00 00 00 00 00 00 00 00 00 00 00 00 00 00
       0.0 0.0 0.0 0.0
000310 00 00 00 00 00 00 00 00 95 71 6c 4a 88 f1 f1 4b
       0.0 0.0 3.8738932e+06 3.1712016e+07
000320 e5 a3 ca 4a 78 33 32 4b 0f 2c 07 4b 8d af 35 4b
       6.6401145e+06 1.1678584e+07 8.858639e+06 1.1906957e+07
000330 78 d2 6f 4a 33 4a 04 4d 14 6d 0c 4c 78 02 ae 4c
       3.929246e+06 1.3871595e+08 3.6811856e+07 9.123117e+07
000340 66 27 71 4c 92 fe a5 4c 1f 79 02 4d 75 c0 09 4e
       6.321705e+07 8.702888e+07 1.3681099e+08 5.7777286e+08
000350 8c f1 0a 4d f0 dc cd 4c 5c cb 7a 4c 07 d5 6d 4c
       1.4569286e+08 1.0793152e+08 6.574424e+07 6.2346268e+07
000360 a5 0f 1f 4a 75 cc c7 4b 3d 42 aa 4a 86 4d 2a 4b
       2.6060572e+06 2.618801e+07 5.5790385e+06 1.1160966e+07
000370 5e 11 01 4b a2 75 30 4b d6 9b c0 48 aa cf 21 4b
       8.45859e+06 1.156445e+07 394462.7 1.0604458e+07
000380 da 0b 1e 4a 78 7f c5 4a 17 94 8b 4a 2b 17 c1 4a
       2.5894305e+06 6.471612e+06 4.5737075e+06 6.3271895e+06
000390 f6 d7 d5 4c 75 64 e1 4d 87 f4 e2 4c c7 93 a5 4c
       1.1211563e+08 4.7268214e+08 1.1898988e+08 8.681017e+07
0003a0 36 ad 47 4c 90 74 3a 4c a8 08 94 49 36 33 9f 4b
       5.2344024e+07 4.8878144e+07 1.212693e+06 2.0866668e+07
0003b0 12 a7 95 4a 17 fc 31 4b ec b1 04 4b 8f ab 38 4b
       4.903817e+06 1.1664407e+07 8.6963e+06 1.2102543e+07
0003c0 68 bc 18 4b a2 ee 2e 4c 4c df 16 4b d4 ca d7 4a
       1.0009704e+07 4.5857416e+07 9.887564e+06 7.071082e+06
0003d0 12 c1 92 4a 79 af 91 4a 0e 58 bd 4a fd 7a 20 4d
       4.808841e+06 4.7738205e+06 6.204423e+06 1.6827592e+08
0003e0 7c 27 22 4c a0 34 c7 4c d4 70 8e 4c 49 1a c5 4c
       4.250776e+07 1.0444109e+08 7.467997e+07 1.0333857e+08
0003f0 ec 61 37 4c 90 8c 38 4d c7 dd 35 4c f9 28 ee 4b
       4.8072624e+07 1.9351373e+08 4.7675164e+07 3.1216114e+07

exp_avg f4 [128]
000000 21 d2 d4 c5 61 82 6a 44 44 65 47 44 33 51 55 c5
       -6810.266 938.0372 797.5823 -3413.075
000010 4b ad 85 44 a9 9e 61 44 4f 8c 58 44 93 96 67 44
       1069.4154 902.47906 866.1923 926.3527
000020 5e a0 67 44 32 26 54 44 88 1c 18 c5 6e 58 6c 44
       926.50574 848.5968 -2433.7832 945.3817
000030 e2 f2 68 44 00 00 00 00 cf 71 db 45 00 00 00 00
       931.79504 0.0 7022.226 0.0
000040 0f 11 77 c5 b9 2f 4a c5 f7 bc 7d 44 00 00 00 00
       -3953.0662 -3234.9827 1014.9526 0.0
000050 07 09 50 44 b6 bc 78 43 00 00 00 00 1a c0 65 44
       832.14105 248.73715 0.0 919.0016
000060 e0 8c 6f 44 00 00 00 00 39 6c 87 44 dd 65 78 44
       958.2012 0.0 1083.382 993.5916
000070 2f 59 40 c5 38 e0 52 44 91 24 9a c5 94 e7 4e 44
       -3077.574 843.5034 -4932.571 827.6184
000080 00 00 00 00 a4 d6 62 44 df 82 54 c5 5f 34 50 c5
       0.0 907.35376 -3400.1794 -3331.2732
000090 86 4e 74 44 a3 86 5c 44 ef 35 88 c5 1a 94 7a 44
       977.2269 882.1037 -4358.7417 1002.3141
0000a0 e2 08 b3 43 6f c8 56 c5 f9 17 4c 43 3d f0 65 44
       358.0694 -3436.527 204.09364 919.7537
0000b0 1b ba 82 c5 a1 cf 68 44 fe 0b a8 c5 c2 3d 54 44
       -4183.263 931.2442 -5377.499 848.96497
0000c0 1a 0d 69 44 b7 79 83 44 00 00 00 00 00 00 00 00
       932.2047 1051.8036 0.0 0.0
0000d0 ca 62 62 44 32 ae 6d 44 66 d3 88 c3 bf 36 b8 43
       905.5436 950.7218 -273.65155 368.4277
0000e0 e6 a0 57 44 9a 7e 58 44 00 00 00 00 49 5d 41 c5
       862.51404 865.97815 0.0 -3093.8303
0000f0 59 28 58 c5 e1 4d 5f 44 8e f2 54 44 04 00 00 00
       -3458.5217 893.21686 851.7899 6e-45
000100 e5 eb 35 42 c4 5f be c0 16 5a 60 44 29 89 78 44
       45.480366 -5.94919 897.4076 994.1431
000110 00 00 00 00 27 81 62 44 db f1 54 44 57 67 56 c5
       0.0 906.018 851.779 -3430.4587
000120 00 00 00 00 ea 2a 52 44 0b 64 69 c5 00 00 00 00
       0.0 840.67053 -3734.2527 0.0
000130 b8 33 62 44 a5 f5 59 c5 95 ea 83 c5 63 ee ca c5
       904.8081 -3487.3528 -4221.3228 -6493.7983
000140 cf 80 93 c5 21 69 09 42 12 69 78 42 23 62 5a 44
       -4720.101 34.352665 62.102608 873.5334
000150 bb ab 49 c5 3b ef 81 44 82 c9 51 c5 0b ab 61 44
       -3226.7332 1039.476 -3356.5942 902.67255
000160 1b cf ac 46 6d 0f 43 c5 a3 cb 4b 44 04 00 00 00
       22119.553 -3120.964 815.1818 6e-45
000170 35 26 6d 44 04 00 00 00 00 00 00 00 00 00 00 00
       948.597 6e-45 0.0 0.0
000180 00 00 00 00 fe fb 64 44 39 3b 74 44 63 be 8f 44
       0.0 915.9374 976.92535 1149.9496
000190 79 25 7f 43 00 00 00 00 c8 4b 0f c5 00 00 00 00
       255.14638 0.0 -2292.7363 0.0
0001a0 00 00 00 00 d7 18 69 44 7e 7b 46 44 d1 18 5f 44
       0.0 932.3881 793.92957 892.38776
0001b0 3f 43 4e 44 cf c5 10 c5 87 76 6e 44 06 7c 3d c5
       825.0507 -2316.363 953.852 -3031.7515
0001c0 04 00 00 00 dc 3a 9a c5 32 29 73 44 2a 63 66 44
       6e-45 -4935.3574 972.6437 921.54944
0001d0 00 00 00 00 04 00 00 00 19 f6 5b 44 9f d5 57 44
       0.0 6e-45 879.8453 863.3378
0001e0 8f f9 5c 44 92 f9 4a 46 00 00 00 00 10 68 68 44
       883.89935 12990.393 0.0 929.626
0001f0 a1 03 4c 44 84 53 6c 44 b9 c9 4f c5 17 99 bb 45
       816.0567 945.30493 -3324.6077 6003.136

exp_avg_sq f4 [128]
000000 b0 df f3 4e 6e 3e 0a 4c 36 88 6a 4b 60 ff 83 4d
       2.0457615e+09 3.62398e+07 1.5370294e+07 2.7681894e+08
000010 15 31 00 4c 5c 87 ed 4b 2d f4 d5 4b 4d 98 13 4c
       3.3604692e+07 3.1133368e+07 2.8043354e+07 3.8691124e+07
000020 4a d4 e6 4b 29 e6 a4 4b 4a 31 0a 4d d7 5e ad 4b
       3.0255252e+07 2.161365e+07 1.4490538e+08 2.2724014e+07
000030 35 cc af 4b 00 00 00 00 fb 46 be 4e 00 00 00 00
       2.3042154e+07 0.0 1.5961614e+09 0.0
000040 39 fd b2 4d e2 b7 d6 4d b0 7e 10 4c 00 00 00 00
       3.7536746e+08 4.502969e+08 3.7878464e+07 0.0
000050 33 0e 87 4b ab 7f 01 4b 00 00 00 00 13 de b5 4b
       1.770199e+07 8.486827e+06 0.0 2.3837734e+07
000060 8d 0a e1 4b 00 00 00 00 e7 e0 10 4c 47 12 bc 4b
       2.9496602e+07 0.0 3.7979036e+07 2.4650894e+07
000070 18 af 58 4d 85 ba c6 4b 6d 1a b1 4d 36 56 80 4b
       2.272096e+08 2.6047754e+07 3.7141238e+08 1.6821356e+07
000080 00 00 00 00 26 bc ef 4b fc dc 71 4d 68 ef a7 4d
       0.0 3.142254e+07 2.5361197e+08 3.521856e+08
000090 72 38 e5 4b 9a 76 88 4b 8a 91 86 4d 91 46 f0 4b
       3.0044388e+07 1.7886516e+07 2.8221062e+08 3.149341e+07
0000a0 00 2d 9e 4b ed 9d 89 4d 1d 7d a4 4c ba 28 d7 4b
       2.0732416e+07 2.8860355e+08 8.6239464e+07 2.8201332e+07
0000b0 f3 c7 c4 4d 11 17 bb 4b 5f a3 c5 4d d4 28 b4 4b
       4.1267978e+08 2.4522274e+07 4.1447728e+08 2.3613864e+07
0000c0 7d 0a bc 4b 2e a9 02 4c 00 00 00 00 00 00 00 00
       2.4646906e+07 3.425196e+07 0.0 0.0
0000d0 9e e6 b9 4b af 3d c7 4b a5 74 21 4b 48 c4 a9 4b
       2.4366396e+07 2.611491e+07 1.0581157e+07 2.2251664e+07
0000e0 19 7a 9a 4b 55 f8 98 4b 00 00 00 00 80 ab 5d 4d
       2.0247602e+07 2.005009e+07 0.0 2.3243776e+08
0000f0 62 c5 90 4d e9 2c cb 4b 7e ce 03 4c bd 7f a5 47
       3.0360685e+08 2.663061e+07 3.455231e+07 84735.48
000100 d1 2c 9d 4b aa b1 05 4b d6 71 80 4b cb 9d bd 4b
       2.060125e+07 8.76177e+06 1.68355e+07 2.4853398e+07
000110 00 00 00 00 2f 12 bd 4b 96 af a2 4b 77 49 8b 4d
       0.0 2.4781918e+07 2.1323564e+07 2.9210595e+08
000120 00 00 00 00 41 77 94 4b f0 42 a7 4d 00 00 00 00
       0.0 1.9459714e+07 3.5077274e+08 0.0
000130 75 55 dc 4b 64 86 79 4d f0 87 ec 4d 4b 6e 68 4e
       2.8879594e+07 2.6164589e+08 4.9604147e+08 9.7488557e+08
000140 4a ba a8 4d 16 1b 36 49 3b a2 84 4b 30 8f c4 4b
       3.538476e+08 745905.4 1.7384566e+07 2.5763424e+07
000150 95 97 6a 4d 89 92 09 4c 21 5a 83 4d 99 71 c3 4b
       2.4598766e+08 3.606378e+07 2.7546525e+08 2.5617202e+07
000160 d0 87 d3 4f 0d ba 6c 4d 37 e6 96 4b fe 42 9a 05
       7.0977864e+09 2.48226e+08 1.977867e+07 1.45067e-35
000170 63 d7 e7 4b 9c 54 db 47 00 00 00 00 00 00 00 00
       3.038791e+07 112297.22 0.0 0.0
000180 00 00 00 00 fb 3a e9 4b d8 b5 bc 4b 60 c2 2d 4c
       0.0 3.0569974e+07 2.473464e+07 4.554995e+07
000190 94 db 86 4b 00 00 00 00 2b 32 9b 4d 00 00 00 00
       1.7676072e+07 0.0 3.2546954e+08 0.0
0001a0 00 00 00 00 8a 2f b0 4b 24 03 41 4b 4c 04 c5 4b
       0.0 2.3093012e+07 1.2649252e+07 2.5823384e+07
0001b0 f0 d1 64 4b 0e 2c 60 4e 55 f2 12 4c c5 a9 13 4e
       1.4995952e+07 9.402459e+08 3.8521172e+07 6.193442e+08
0001c0 7e 66 03 00 d3 32 85 4d d2 db f4 4b ce c7 d6 4b
       3.12274e-40 2.7933757e+08 3.2094116e+07 2.8151708e+07
0001d0 00 00 00 00 cc 89 03 00 06 ac 74 4b 57 88 8e 4b
       0.0 3.24939e-40 1.6034822e+07 1.868203e+07
0001e0 7a 68 a9 4b 93 68 32 4e 00 00 00 00 1e 70 c3 4b
       2.220466e+07 7.4829946e+08 0.0 2.5616444e+07
0001f0 57 90 bc 4b 00 bb cc 4b 16 1c 7f 4d 82 f7 53 4d
       2.4715438e+07 2.6834432e+07 2.6750192e+08 2.2226333e+08

exp_avg f4 [64, 128]
000000 c4 0a 8c 43 30 f9 0f 44 1b 7a 2b 44 1b 79 9c 43
       280.0841 575.89355 685.9079 312.94614
000010 d4 aa 25 44 85 c6 13 44 9e 3c 0f 44 96 57 12 44
       662.6692 591.10187 572.94714 585.3685
000020 2c f4 18 44 dd 08 21 44 06 3c b1 43 c4 e0 1b 44
       611.8152 644.1385 354.46893 623.51196
000030 13 ad 1f 44 00 00 00 00 c1 5e 90 42 00 00 00 00
       638.7043 0.0 72.18507 0.0
000040 2a 0b 73 43 25 8e 97 c2 fb 4e 1a 44 00 00 00 00
       243.04361 -75.777626 617.2341 0.0
000050 52 90 34 44 8d 79 98 43 00 00 00 00 a3 b8 30 44
       722.255 304.94962 0.0 706.88495
000060 07 06 32 44 00 00 00 00 1a e7 23 44 df 94 38 44
       712.0942 0.0 655.61096 738.3261
000070 b6 22 a0 43 7a 4e 17 44 07 35 f0 41 18 38 0d 44
       320.27118 605.2262 30.025892 564.87646
000080 00 00 00 00 5e d7 15 44 b3 b5 9c 43 69 88 94 c2
       0.0 599.3651 313.41953 -74.266426
000090 96 ba 20 44 44 63 1b 44 f7 8c 97 c2 91 37 24 44
       642.9154 621.551 -75.77532 656.8682
0000a0 90 8b 8b 43 42 46 a4 43 82 1d 13 43 29 49 1e 44
       279.09033 328.5489 147.11526 633.1431
0000b0 be c1 55 43 45 99 19 44 7a 4d ab c2 ff f4 04 44
       213.7568 614.39484 -85.65132 531.82806
0000c0 6b 1c 25 44 74 72 21 44 00 00 00 00 00 00 00 00
       660.44403 645.7883 0.0 0.0
0000d0 88 d4 1a 44 3a 4b 20 44 76 98 54 43 f9 8b 6e 43
       619.3208 641.1754 212.59555 238.54677
0000e0 6d e4 29 44 ee 6c 33 44 00 00 00 00 d7 a8 8d 43
       679.56915 717.702 0.0 283.31906
0000f0 7a cc 96 43 d5 13 1b 44 bf 41 14 44 04 00 00 80
       301.59747 620.3099 593.0273 -6e-45
000100 3d b6 80 43 d3 82 7a 43 84 55 24 44 9f 6e 25 44
       257.42374 250.51103 657.3362 661.72845
000110 00 00 00 00 89 0d 1d 44 23 0c 14 44 91 89 96 43
       0.0 628.2115 592.18964 301.07474
000120 00 00 00 00 89 9d 23 44 a0 5e 86 43 00 00 00 00
       0.0 654.4615 268.73926 0.0
000130 96 3b 12 44 13 57 98 43 d8 08 ab c2 d2 93 69 43
       584.931 304.68027 -85.51727 233.57742
000140 0d 25 c2 c2 ca af 10 be 1b df 75 43 4f 6c 21 44
       -97.072365 -0.14129558 245.8715 645.6923
000150 06 b1 92 43 67 f0 84 43 0d 0a 96 43 e7 6f 22 44
       293.383 265.87814 300.07852 649.7485
000160 f1 f9 2c c3 5c d7 94 43 8d 1d 24 44 04 00 00 80
       -172.97633 297.6825 656.46173 -6e-45
000170 8d 57 26 44 04 00 00 80 00 00 00 00 00 00 00 00
       665.368 -6e-45 0.0 0.0
000180 00 00 00 00 71 d0 0d 44 73 76 21 44 16 3e 17 44
       0.0 567.2569 645.85077 604.9701
000190 a6 f1 71 43 00 00 00 00 4e 16 8f 43 00 00 00 00
       241.94394 0.0 286.17426 0.0
0001a0 00 00 00 00 34 24 1a 44 6b 17 47 43 90 eb 04 44
       0.0 616.5657 199.09148 531.68066
0001b0 c4 ed 22 44 2f 4b 97 c2 1c 9d 16 44 49 e5 ca 43
       651.7151 -75.64684 602.45483 405.7913
0001c0 04 00 00 80 f5 32 9c c2 c7 72 16 44 44 6e 20 44
       -6e-45 -78.099525 601.7934 641.7229
0001d0 00 00 00 00 04 00 00 80 4d 9e 8a 43 45 f0 28 44
       0.0 -6e-45 277.23672 675.7542
0001e0 a6 5b 21 44 6d c9 59 40 00 00 00 00 76 12 12 44
       645.432 3.402919 0.0 584.28845
0001f0 f5 c8 17 44 a9 19 0a 44 fd ef a6 43 46 da 96 42
       607.13995 552.40094 333.8749 75.426315
000200 6d 53 94 43 7c 1e 0a 44 a5 9d 19 44 28 6e 8e 43
       296.65176 552.4763 614.4632 284.8606
000210 8c 91 0e 44 c3 de 0f 44 0b da 08 44 6d 86 0a 44
       570.2742 575.48065 547.4069 554.1004
000220 6f d1 12 44 d3 43 16 44 0e 7c a8 43 b6 79 0c 44
       587.2724 601.05975 336.96918 561.90173
000230 4f 58 0f 44 00 00 00 00 80 7b 85 42 00 00 00 00
       573.3798 0.0 66.74121 0.0
000240 93 4e 3a 43 7d b5 b7 c2 9e 18 10 44 00 00 00 00
       186.30693 -91.85447 576.38464 0.0
000250 6a 12 1d 44 f5 bd 8f 43 00 00 00 00 0a 1c 20 44
       628.2877 287.48404 0.0 640.4381
000260 4c 1e 27 44 00 00 00 00 a6 2f 18 44 4a d7 1e 44
       668.4734 0.0 608.7445 635.3639
000270 c5 de 96 43 dd 91 14 44 4d 59 7e 42 fa 17 02 44
       301.7404 594.2791 63.587208 520.37463
000280 00 00 00 00 d0 50 11 44 60 ce 96 43 68 6c ad c2
       0.0 581.2627 301.6123 -86.71173
000290 10 a4 12 44 c8 00 0b 44 8a 8c ac c2 01 b3 11 44
       586.5635 556.0122 -86.27449 582.79694
0002a0 ec b2 88 43 d4 cc 99 43 39 1e 59 43 24 55 12 44
       273.39783 307.60022 217.11806 585.3303
0002b0 44 72 21 43 fc 31 0c 44 4a a1 c9 c2 0c 9b e5 43
       161.44635 560.781 -100.81502 459.2113
0002c0 dc f7 15 44 d2 33 15 44 00 00 00 00 00 00 00 00
       599.8728 596.8097 0.0 0.0
0002d0 c3 36 0e 44 3f 7c 13 44 bb 8d 34 43 d6 2c 68 43
       568.85565 589.94135 180.55363 232.17514
0002e0 64 aa 16 44 a6 6e 23 44 00 00 00 00 e0 79 7e 43
       602.66235 653.7289 0.0 254.47607
0002f0 05 74 7f 43 1c 36 0f 44 63 f1 12 44 04 00 00 80
       255.4532 572.84546 587.77167 -6e-45
000300 2e 7e 71 43 23 2d 5f 43 30 88 14 44 78 a6 15 44
       241.49289 223.17632 594.1279 598.6011
000310 00 00 00 00 e2 9a 15 44 f3 d5 0a 44 22 46 86 43
       0.0 598.42004 555.34296 268.5479
000320 00 00 00 00 3d b9 15 44 3a 34 5d 43 00 00 00 00
       0.0 598.89435 221.20401 0.0
000330 38 bb 08 44 47 97 8e 43 c7 83 d5 c2 01 18 12 43
       546.9253 285.18185 -106.75738 146.09377
000340 1b e4 01 c3 ae 48 45 be 8b 24 62 43 4b 8f 14 44
       -129.89104 -0.19266006 226.14275 594.23895
000350 bf 03 86 43 6a a8 8d 43 bf 64 84 43 72 6c 0d 44
       268.02927 283.31573 264.78708 565.69446
000360 4f 06 25 c3 d0 0c 86 43 f5 bb 1b 44 04 00 00 80
       -165.02464 268.1001 622.9368 -6e-45
000370 16 e6 1a 44 04 00 00 80 00 00 00 00 00 00 00 00
       619.5951 -6e-45 0.0 0.0
000380 00 00 00 00 7f 5d 05 44 3c 51 0f 44 f3 66 0e 44
       0.0 533.4609 573.2693 569.6086
000390 b4 d3 66 43 00 00 00 00 95 de 63 43 00 00 00 00
       230.82697 0.0 227.86946 0.0
0003a0 00 00 00 00 e6 eb 0c 44 1c 1c 2e 43 cd d9 f3 43
       0.0 563.6859 174.1098 487.70157
0003b0 03 5d 13 44 20 b8 b6 c2 8b aa 0e 44 09 2d a8 43
       589.4533 -91.35962 570.66473 336.35184
0003c0 04 00 00 80 49 13 b7 c2 7f d9 0d 44 eb a6 16 44
       -6e-45 -91.53767 567.3984 602.6081
0003d0 00 00 00 00 04 00 00 80 25 af 7b 43 fe f8 1a 44
       0.0 -6e-45 251.68416 619.8905
0003e0 5d 70 14 44 0c e4 f7 40 00 00 00 00 7b 99 07 44
       593.7557 7.7465878 0.0 542.39813
0003f0 f5 82 0e 44 ae fe 02 44 ef 3e 9c 43 0f 23 e3 42
       570.0462 523.9794 312.49167 113.568474
