checkpoint.pth (torch, 117218 bytes, 18 tensors)

fc1.weight f4 [128, 5]
0.1419965 -0.27882725 0.67912716 -0.07837296 0.7707938 0.17059243 -0.4470893 0.24540156
0.18005586 0.6792864 0.893408 -0.1380786 0.8475951 0.45063925 0.46195567 -0.08562653
0.66020477 -0.43545866 0.2391213 -0.24432136 -0.18002966 0.04738809 0.15658656 -0.33434236
-0.18222606 0.5481806 0.289898 0.8432608 0.68939525 -0.1902136 -0.26043063 -0.6375258
-1.5909108 0.4778477 0.16734365 -0.6345646 -0.98866737 0.27923596 0.63277984 -0.028524665
-0.0077748904 -0.42163464 0.35634446 0.68498844 0.06405382 -0.2971575 -0.832573 -1.2708536
-0.38365248 0.04140391 -0.10045404 0.7392436 -0.32526925 -0.23984815 0.093890406 0.51945573
0.78166586 -0.20159581 -0.08706543 0.5912532 0.028278166 -0.48892063 0.4639568 0.20206116
0.6091888 0.16070133 -0.17954521 -0.008208131 0.19224638 -0.021810371 1.0757208 0.22451301
0.82239807 0.017660402 0.4894721 0.9617944 0.83729696 0.33933145 -0.5820389 -0.07652567
-0.14405441 0.75485665 -0.6549953 0.11691094 0.13168907 0.9726925 1.0214852 0.17324267
-0.23865226 0.12007013 0.26930273 -0.115119286 -0.15112269 0.3362201 0.76740503 -0.14742768
-0.14476019 -0.18694639 -0.18934074 -0.34199673 0.641913 0.9545557 0.08107677 0.44164997
0.09277726 0.07384212 -0.2644987 0.51072574 0.4858197 0.71524864 -0.03604264 -0.4318373
0.28564936 0.65346146 0.9182874 -0.75163245 -0.38522777 -1.6828997 0.34419784 0.18052118
1.2239734 -0.13085797 0.41972548 0.23313412 0.732276 -0.14081217 0.5625345 -1.1830409
-0.40576208 0.05999291 -0.30446222 -0.50188863 0.64832246 0.45883915 0.3088604 0.60028076
0.05504082 1.0067208 0.7734155 0.1311692 1.1064404 -0.20877403 0.82613313 0.3511851
0.41947076 0.65219694 0.9440593 -0.111923076 0.040316302 -0.120311856 0.8602208 0.232891
0.8506088 0.42747238 0.14152625 0.313792 0.11243115 1.1829382 0.14167853 0.4817276
1.1306642 -0.0041542994 0.92179453 0.7909498 0.5945534 -0.31099853 -0.034726698 0.21293704
-0.0006903906 -0.44526514 1.1461556 -0.0060522943 1.0712814 0.51085407 0.2673264 -0.6561929
-0.982421 0.7069299 -0.019021321 0.87909365 0.23120005 1.1251994 0.6590312 -0.14183763
0.5091047 -0.026025051 -1.0381379 0.22657937 0.32542092 0.18974169 0.55465096 -0.4537176
0.50050944 0.60326165 0.21892036 0.34038466 -0.15502949 -0.056973148 -0.06856569 0.51969796
-0.2502115 -1.0094922 0.7141248 0.3413206 -0.023909004 -0.046033055 -0.9426557 0.44206142
0.10351054 0.34490862 -0.17801163 0.8997328 -0.4253688 -0.11795878 0.004374207 -0.3602393
-0.7404628 0.6725873 0.22313303 0.66217697 -0.66515017 -0.8644307 -0.100204155 0.14419831
0.18905757 -0.06872532 -0.25969598 -0.30313247 -0.41609862 0.34486794 -0.13501558 0.61177194
-1.1979235 -0.28873634 -0.387142 -0.3495529 -0.8523025 0.050692793 0.06489008 0.24547572
0.620103 0.7059637 -0.55824184 -0.40194738 -0.19656058 0.15560012 0.023467436 0.09558405
0.3385232 0.9330245 0.500634 -0.26406288 0.5838991 0.44741067 0.08324321 -0.2800691
00000000: 8867 113e 72c2 8ebe 47db 2d3f 0182 a0bd
00000010: be52 453f c8af 2e3e e4e8 e4be 8c4a 7b3e
00000020: 9060 383e b7e5 2d3f 63b6 643f 7a64 0dbe
00000030: fefb 583f 30ba e63e 7485 ec3e f65c afbd
00000040: 2e03 293f 70f4 debe 37dc 743e 612f 7abe
00000050: b259 38be 041a 423d 3a58 203e ec2e abbe
00000060: 7899 3abe 9055 0c3f 836d 943e f1df 573f
00000070: 357c 303f 5bc7 42be 2a57 85be e434 23bf
00000080: f7a2 cbbf 74a8 f43e 225c 2b3e d372 22bf
00000090: 4e19 7dbf 04f8 8e3e dcfd 213f 8fac e9bc
000000a0: 82c4 febb 7fe0 d7be c872 b63e 675b 2f3f
000000b0: a62e 833d 0725 98be 8123 55bf 55ab a2bf
000000c0: 196e c4be 2597 293d d9ba cdbd 123f 3d3f
000000d0: b189 a6be c19a 75be 9d49 c03d 0dfb 043f
000000e0: 411b 483f 226f 4ebe 5c4f b2bd 5f5c 173f
000000f0: 9da7 e73c ce53 fabe bf8b ed3e 1fe9 4e3e
00000100: ccf3 1b3f e48e 243e b3da 37be 667b 06bc
00000110: 3cdc 443e aaab b2bc 38b1 893f bde6 653e
00000120: ae88 523f 8cac 903c 169c fa3e 2838 763f
00000130: 1859 563f dabc ad3e 8000 15bf 7eb9 9cbd
00000140: 0083 13be 493e 413f c6ad 27bf 016f ef3d
00000150: 80d9 063e 6002 793f 07c0 823f 8766 313e
00000160: 4261 74be 54e7 f53d 0ce2 893e a9c3 ebbd
00000170: e8bf 1abe 0a25 ac3e a874 443f 48f7 16be
00000180: 043c 14be e06e 3fbe 8ae2 41be 321a afbe
00000190: 6954 243f c35d 743f 940b a63d f21f e23e
000001a0: 0102 be3d 8a3a 973d 606c 87be ecbe 023f
000001b0: 5cbd f83e 891a 373f 73a1 13bd c719 ddbe
000001c0: a240 923e 4049 273f e214 6b3f fc6a 40bf
000001d0: 933c c5be 4269 d7bf b33a b03e 8bda 383e
000001e0: 29ab 9c3f a2ff 05be 42e6 d63e b6ba 6e3e
000001f0: 7176 3b3f 1131 10be 4302 103f e26d 97bf
00000200: 0cc0 cfbe 20bb 753d 79e2 9bbe c67b 00bf
00000210: 76f8 253f f7ec ea3e f322 9e3e 00ac 193f
00000220: 7c72 613d 3adc 803f 8ffe 453f 3851 063e
00000230: d79f 8d3f dcc8 55be 767d 533f 89ce b33e
00000240: dfc4 d63e 61f6 263f dfad 713f ed37 e5bd
00000250: b522 253d 1066 f6bd 6e37 5c3f fa7a 6e3e
00000260: 80c1 593f a9dd da3e 42ec 103e 58a9 a03e
00000270: 4e42 e63d 856a 973f 2d14 113e 00a5 f63e
00000280: 9bb9 903f ca20 88bb bafa 6b3f b07b 4a3f
00000290: a734 183f 333b 9fbe 953d 0ebd 2b0c 5a3e
000002a0: 54fb 34ba cbf9 e3be 3ab5 923f 5352 c6bb
000002b0: c01f 893f 55c7 023f 02df 883e 42fc 27bf
000002c0: f17f 7bbf 5cf9 343f 9ad2 9bbc 480c 613f
000002d0: b5bf 6c3e 8906 903f 45b6 283f e23d 11be
000002e0: b054 023f 7d32 d5bc b4e1 84bf 6c04 683e
000002f0: 929d a63e a54b 423e 9bfd 0d3f ac4d e8be
00000300: 6321 003f 5b6f 1a3f a92c 603e e646 ae3e
00000310: 0dc0 1ebe ad5c 69bd 2b6c 8cbd ed0a 053f
00000320: b91b 80be 0a37 81bf e2d0 363f 93c1 ae3e
00000330: d1dc c3bc 288d 3cbd e251 71bf e055 e23e
00000340: 56fd d33d dd97 b03e ae48 36be e454 663f
00000350: f0c9 d9be 5f94 f1bd 8255 8f3b 4971 b8be
00000360: f88e 3dbf ae2e 2c3f fc7c 643e 6e84 293f
00000370: 4847 2abf 554b 5dbf d637 cdbd b9a8 133e
00000380: 4f98 413e dcbf 8cbd dff6 84be 2e34 9bbe
00000390: e10a d5be 8892 b03e 8641 0abe 169d 1c3f
000003a0: 8f55 99bf 40d5 93be 7a37 c6be 99f8 b2be
000003b0: 7f30 5abf 3fa3 4f3d 17e5 843d fd5d 7b3e
000003c0: 12bf 1e3f 09ba 343f f0e8 0ebf 0ccc cdbe
000003d0: 2d47 49be a355 1f3e c83e c03c 92c1 c33d
000003e0: ea52 ad3e b2da 6e3f 8d29 003f 4033 87be
000003f0: 697a 153f 0313 e53e 6b7b aa3d 3865 8fbe

fc1.bias f4 [128]
1.0455332 1.0817556 -0.49273074 1.1543756 -0.22359474 -0.035260946 0.14855386 0.9641256
0.9663232 0.24921241 1.0470282 0.12576316 0.8722867 -0.36299548 -0.27611786 0.30384228
0.658956 0.36845845 0.94742167 -0.03076028 0.29032195 1.1342207 0.9295121 0.46374667
-0.37329894 -0.17137872 0.9561146 -0.29670653 -0.57552874 0.53680503 -0.18580577 -0.31046793
-0.50558126 0.052648492 -0.35209674 0.5610727 0.20902835 0.74878573 0.84171647 1.0081426
0.9543581 0.6211662 0.88488984 0.3198925 0.5839315 -0.29839513 -0.0011235139 0.82104594
1.2137992 0.8326526 1.0468836 0.76684064 1.0245565 0.27770314 0.3242849 0.5955006
1.0172808 -0.3045715 1.110417 0.4136063 1.019376 0.2400266 1.1198311 0.752138
0.81941485 0.6185056 0.6279074 0.54003435 0.50586677 0.6885259 -0.29360953 0.5327961
0.40307152 1.0804788 -0.3073548 -0.42844793 -0.25269178 -0.31533718 1.1252657 -0.3588874
0.82107383 -0.011256309 0.65973747 0.8940098 0.8221371 0.16075401 0.91516966 0.47432688
0.16860256 0.7773251 -0.5685888 0.2513543 0.6276992 -0.42112157 0.15647252 -0.42188925
-0.15267786 0.52650356 1.1159387 0.33866656 0.7497022 0.7868 0.9168438 1.0828776
-0.26618865 0.36156666 0.812082 0.37632516 0.97883815 0.61103433 -0.23419131 0.7396678
-0.42380875 -0.07251276 1.0933847 -0.2734077 1.125441 0.75876933 0.8600519 0.08891688
1.0358949 1.1289226 1.1484199 0.82709026 0.26822546 -0.24134852 0.925877 -0.42343324
00000000: 08d4 853f f876 8a3f 3447 fcbe 94c2 933f
00000010: 05f6 64be c86d 10bd 811e 183e efd0 763f
00000020: f560 773f 8a31 7f3e 0505 863f 0fc8 003e
00000030: 2e4e 5f3f 8bda b9be 525f 8dbe 3791 9b3e
00000040: 57b1 283f 96a6 bc3e 3a8a 723f fcfc fbbc
00000050: 14a5 943e 252e 913f 81f4 6d3f 3470 ed3e
00000060: 0a21 bfbe e77d 2fbe edc3 743f ebe9 97be
00000070: da55 13bf 0e6c 093f de43 3ebe a7f5 9ebe
00000080: c66d 01bf f2a5 573d 0646 b4be 76a2 0f3f
00000090: 870b 563e 6cb0 3f3f bb7a 573f d10a 813f
000000a0: d050 743f c004 1f3f 2488 623f f3c8 a33e
000000b0: 897c 153f 3fc7 98be df42 93ba 1130 523f
000000c0: c65d 9b3f b928 553f 4800 863f ab4f 443f
000000d0: ab24 833f 1b2f 8e3e ac08 a63e ba72 183f
000000e0: 4236 823f ccf0 9bbe 2522 8e3f 34c4 d33e
000000f0: ea7a 823f 88c9 753e a056 8f3f 1e8c 403f
00000100: 2cc5 513f 6256 1e3f 8abe 203f b13f 0a3f
00000110: 7c80 013f 3c43 303f fd53 96be 5365 083f
00000120: 645f ce3e 214d 8a3f 9c5d 9dbe 875d dbbe
00000130: d160 81be e073 a1be b508 903f 17c0 b7be
00000140: e531 523f 626c 38bc 8ee4 283f d4dd 643f
00000150: 9477 523f b39c 243e 8f48 6a3f f9da f23e
00000160: 26a6 2c3e c7fe 463f 098f 11bf 83b1 803e
00000170: e5b0 203f 3f9d d7be 553a 203e de01 d8be
00000180: 9657 1cbe f0c8 063f 14d7 8e3f b465 ad3e
00000190: 7cec 3f3f ba6b 493f 46b6 6a3f bc9b 8a3f
000001a0: e149 88be 441f b93e 9be4 4f3f b1ad c03e
000001b0: 2395 7a3f bf6c 1c3f d9cf 6fbe de5a 3d3f
000001c0: 76fd d8be 9281 94bd 08f4 8b3f 18fc 8bbe
000001d0: 730e 903f b53e 423f 5c2c 5c3f 0e1a b63d
000001e0: 3498 843f 8980 903f 6cff 923f 30bc 533f
000001f0: d954 893e 1124 77be 4606 6d3f 3ecc d8be

fc2.weight f4 [64, 128]
0.4861182 0.4058213 -1.21687 0.5935118 0.059773598 -0.41212445 0.9700482 0.5403809
0.52609867 0.8174662 0.60916483 0.49640054 0.44024673 0.0722109 -0.5146795 0.65954137
0.512614 0.7322469 0.58295274 -0.0055574104 0.6406628 0.42595768 0.42786476 1.4457129
-1.1344484 0.53877467 0.46024206 -0.958459 -1.1031965 0.64030874 -0.4882616 -0.8368106
-1.0336139 -0.045571562 -1.0454384 0.41907418 0.7471894 0.43273017 0.5076889 0.5973797
0.5035769 0.58237416 0.65110695 0.45268983 0.6466871 0.039979592 0.5909388 0.50314474
0.55080557 0.5479931 0.53022474 0.717177 0.48876265 0.3102017 0.80940676 0.5327721
0.56219524 -0.82161635 0.47744742 0.46768758 0.56721973 0.62815017 0.46143287 0.6267236
0.7760758 0.6184236 0.4242181 0.5814141 0.4237167 0.3675306 -0.008704883 0.42326152
0.48040628 0.45917174 -0.6308903 -0.010960372 -0.60784084 -0.5767573 0.5558193 -0.0003061547
0.56566447 -0.30753627 0.47960377 0.4501011 0.52599484 0.5412131 0.4353688 0.5170829
0.5160862 0.67882216 -1.1693834 0.71191525 0.534216 -0.038808122 0.77589124 -0.94479007
-0.70446414 0.6028179 0.506502 0.4788851 0.45939234 0.5879236 0.5968599 0.46033674
-1.1348181 0.6071883 0.47937432 0.6151717 0.5051127 0.58921343 0.05521396 0.5980279
0.042175297 0.5312641 0.5034885 -0.77350813 0.6336314 0.48867646 0.47844523 0.58568066
0.38469985 0.469515 0.5243834 0.48189625 0.54180634 -1.0921302 0.42106792 0.010697049
0.11449002 0.04020688 -0.5271202 0.6820838 -0.013147161 0.086673506 0.92520446 -0.046265107
-0.06128049 0.68045366 0.7161575 0.62284106 -0.047862783 -0.06898706 0.057143874 0.8944432
0.64873654 0.6772127 0.26414302 0.023387138 0.6982149 0.049800824 0.048099015 1.1970211
-0.32216808 0.66807365 -0.0027318755 -0.6056461 -0.40756413 0.68094355 0.06854918 -0.26961693
-0.3321827 -0.038430613 -0.2340947 -0.09572196 0.7497564 -0.015370994 -0.02718023 0.19328886
-0.023099449 0.002934922 0.77252924 -0.03131041 0.016148183 0.015688185 0.6497784 -0.025639575
0.7586998 0.24806304 0.08326861 0.6117639 -0.03764805 0.65883887 0.8140654 0.00045656023
0.33143514 -0.11355448 0.3323528 -0.100278705 0.10385509 0.6398553 0.3289494 0.13119803
0.7009482 0.020098226 -0.102306664 0.016490744 -0.15825945 -0.036890976 0.056835003 -0.0984345
-0.093386844 0.112166286 -0.08299586 0.058511067 -0.08933287 0.096740596 0.25640127 0.037783943
0.066960745 -0.2572082 -0.09449543 -0.00047294574 0.027550837 0.7080174 -0.035616927 -0.066091485
0.76466495 0.11134828 -0.37635165 0.7762436 0.0155029185 0.0045620487 0.83342683 -0.50656146
-0.013422291 -0.06596125 0.11754052 -0.21785793 0.11465949 0.044623196 0.043623883 -0.10306348
-0.19824895 0.6851557 -0.005322123 0.77157956 0.25816166 -0.03954089 0.047504377 -0.013075984
0.06637041 0.72272635 0.076696426 -0.21287583 0.15009542 0.07214246 -0.030502263 0.68376946
-0.02648565 0.087577485 0.1525676 0.25801462 -0.049064163 -0.2634959 -0.1082571 0.024729842
00000000: 7ce4 f83e cfc7 cf3e 65c2 9bbf 64f0 173f
00000010: 29d5 743d fa01 d3be 1455 783f 6756 0a3f
00000020: 67ae 063f 7745 513f 3af2 1b3f 3628 fe3e
00000030: 0568 e13e 4fe3 933d 09c2 03bf b4d7 283f
00000040: ac3a 033f 8874 3b3f 643c 153f f01a b6bb
00000050: 7a02 243f 2017 da3e 1711 db3e 1f0d b93f
00000060: 9b35 91bf 23ed 093f d9a4 eb3e 925d 75bf
00000070: 8b35 8dbf 46eb 233f 6dfd f9be 3839 56bf
00000080: 764d 84bf 3fa9 3abd edd0 85bf e490 d63e
00000090: ce47 3f3f cf8e dd3e e6f7 013f e0ed 183f
000000a0: 6aea 003f 7916 153f f2ae 263f f6c6 e73e
000000b0: 498d 253f a4c1 233d c447 173f 18ce 003f
000000c0: 9801 0d3f 4749 0c3f cfbc 073f e998 373f
000000d0: 193f fa3e c2d2 9e3e 4835 4f3f c163 083f
000000e0: 07ec 0f3f 7355 52bf fd73 f43e bf74 ef3e
000000f0: 5035 113f 73ce 203f ee40 ec3e f570 203f
00000100: e7ac 463f 0251 1e3f 1d33 d93e 8ed7 143f
00000110: 65f1 d83e f92c bc3e ed9e 0ebc bcb5 d83e
00000120: d0f7 f53e 8f18 eb3e 0782 21bf 2293 33bc
00000130: 759b 1bbf 5ea6 13bf 2c4a 0e3f 6383 a0b9
00000140: 63cf 103f 6575 9dbe a08e f53e a773 e63e
00000150: 99a7 063f f18c 0a3f a9e8 de3e 8c5f 043f
00000160: 3a1e 043f 4ac7 2d3f 5bae 95bf 1440 363f
00000170: 61c2 083f 44f5 1ebd cfa0 463f c3dd 71bf
00000180: c357 34bf 4652 1a3f 1daa 013f 6e30 f53e
00000190: 7935 eb3e 2982 163f cfcb 183f 42b1 eb3e
000001a0: b841 91bf b170 1b3f 8d70 f53e e47b 1d3f
000001b0: 114f 013f b1d6 163f 0928 623d 5b18 193f
000001c0: 01c0 2c3d ed00 083f 9fe4 003f a104 46bf
000001d0: ab35 223f cd33 fa3e c6f6 f43e 2bef 153f
000001e0: 61f7 c43e 4564 f03e fe3d 063f 1bbb f63e
000001f0: d2b3 0a3f ecca 8bbf 3796 d73e ad42 2f3c
00000200: be79 ea3d f8af 243d 59f1 06bf 0b9d 2e3f
00000210: 3167 57bc e181 b13d 33da 6c3f 7b80 3dbd
00000220: 4001 7bbd 3632 2e3f 1956 373f 8372 1f3f
00000230: c40b 44bd 1649 8dbd b20f 6a3d 3bfa 643f
00000240: 9913 263f d05d 2d3f c13d 873e 6296 bf3c
00000250: 36be 323f f3fb 4b3d 7903 453d fd37 993f
00000260: 37f3 a4be e006 2b3f 4409 33bb 9f0b 1bbf
00000270: 3fac d0be 5152 2e3f 8363 8c3d 3b0b 8abe
00000280: da13 aabe 6b69 1dbd 85b6 6fbe e009 c4bd
00000290: 09f0 3f3f 9fd6 7bbc 13a9 debc 84ed 453e
000002a0: 0e3b bdbc d257 403b 7ac4 453f 583f 00bd
000002b0: 3249 843c 8284 803c e157 263f 160a d2bc
000002c0: 263a 423f 3d04 7e3e bc88 aa3d 8f9c 1c3f
000002d0: d734 1abd aaa9 283f 9766 503f 7a5e ef39
000002e0: deb1 a93e 408f e8bd 252a aa3e ec5e cdbd
000002f0: fab1 d43d 8fcd 233f 0e6c a83e c758 063e
00000300: 5771 333f 09a5 a43c 2886 d1bd 9917 873c
00000310: c40e 22be fe1a 17bd d2cb 683d 0798 c9bd
00000320: 9a41 bfbd 70b7 e53d bcf9 a9bd 4da9 6f3d
00000330: 27f4 b6bd ef1f c63d 0747 833e 56c3 1a3d
00000340: b722 893d cbb0 83be d286 c1bd b4f5 f7b9
00000350: 4bb2 e13c a140 353f 0ee3 11bd f95a 87bd
00000360: 15c1 433f 910a e43d 2ab1 c0be e7b7 463f
00000370: f4ff 7d3c 3d7d 953b 765b 553f 03ae 01bf
00000380: 2be9 5bbc b116 87bd 16b9 f03d 2616 5fbe
00000390: 98d2 ea3d d0c6 363d f5ae 323d f212 d3bd
000003a0: c601 4bbe 5d66 2f3f 3465 aebb 3d86 453f
000003b0: c42d 843e a1f5 21bd f393 423d a73c 56bc
000003c0: 36ed 873d 9804 393f 0413 9d3d 1ffc 59be
000003d0: 9db2 193e 6dbf 933d e2df f9bc 840b 2f3f
000003e0: 6ff8 d8bc d35b b33d ae3a 1c3e 7e1a 843e
000003f0: 81f7 48bd efe8 86be e6b5 ddbd 3d96 ca3c

fc2.bias f4 [64]
0.4914141 0.55309755 0.0512787 0.038805906 0.50339055 -0.026307145 -0.070061624 0.22495419
-0.04404411 -0.027178785 0.57552 -0.048138075 -0.029761512 0.025902156 0.5983522 0.4261165
-0.009038674 0.5886324 0.601777 -0.05566628 0.43943334 0.026022328 -0.19099934 0.4650395
0.47777107 0.025036177 -0.010479914 0.054508537 0.0026018794 0.5762296 0.5401473 0.31454152
0.48296037 0.5497311 -0.11021732 0.79679036 -0.010879229 -0.040664036 -0.021473618 0.014492394
0.56433 0.020844609 0.56096566 -0.07579675 -0.0034921633 -0.07366272 0.058407992 0.3965419
0.23940913 0.5043646 0.00037147177 -0.04736537 0.41262436 -0.02659682 -0.05858508 0.4837604
-0.0041061356 -0.101382405 0.3609911 0.018641276 -0.10723915 -0.16785008 0.41618645 -0.19835326
00000000: a19a fb3e cd97 0d3f 9d09 523d f1f2 1e3d
00000010: 34de 003f 1582 d7bc 787c 8fbd 645a 663e
00000020: 9967 34bd 0ba6 debc 4755 133f 6e2c 45bd
00000030: 6ace f3bc c230 d43c 9c2d 193f f12b da3e
00000040: f216 14bc 9db0 163f 0f0e 1a3f 5302 64bd
00000050: 68fd e03e c72c d53c 5595 43be a819 ee3e
00000060: 699e f43e ab18 cd3c f2b3 2bbc 5844 5f3d
00000070: 4b84 2a3b c883 133f 1847 0a3f 960b a13e
00000080: 9546 f73e 2dbb 0c3f 9eb9 e1bd 74fa 4b3f
00000090: cb3e 32bc 558f 26bd 71e9 afbc 8271 6d3c
000000a0: ee77 103f 50c2 aa3c 729b 0f3f 543b 9bbd
000000b0: c7dc 64bb 7bdc 96bd 383d 6f3d 8a07 cb3e
000000c0: ab27 753e 0a1e 013f 19c2 c239 3102 42bd
000000d0: 8043 d33e 93e1 d9bc e9f6 6fbd 71af f73e
000000e0: c38c 86bb 94a1 cfbd d3d3 b83e 97b5 983c
000000f0: 33a0 dbbd e4e0 2bbe 6416 d53e 1e1d 4bbe

fc3.weight f4 [2, 64]
-0.57955414 -0.81653225 0.05449458 0.064918645 -0.5137522 -0.050427794 -0.083763175 -0.39444232
-0.09386593 0.084583014 -0.5169255 -0.010003269 -0.08710322 -0.04498996 -0.5322527 -0.6430578
0.028480532 -0.53447664 -0.5732305 0.015562102 -0.65221053 0.060217798 0.88708234 -0.55680394
-0.5474906 0.08712554 -0.08780414 0.029788787 0.0441717 -0.498804 -0.55014485 -0.5454496
-0.6177462 -0.57479584 0.74385357 -0.44616494 0.084762886 -0.01667863 -0.10619822 0.064067215
-0.34168065 0.060430657 -0.5935059 0.05780855 -0.016479569 -0.053232968 0.06554533 -0.7029739
-0.76680034 -0.593771 -0.11084445 -0.02089377 -0.5549381 0.056564182 0.012631184 -0.6277037
0.05194944 -0.08234347 -0.78452545 -0.11157683 -0.035237595 0.84761876 -0.56724715 0.8663057
-0.6441088 -0.42856458 0.08803672 0.0044463575 -0.6192657 0.078017265 -0.0013010337 -0.20774876
0.06704666 -0.041517287 -0.51843506 -0.050866112 -0.0011596382 -0.12212464 -0.47217163 -0.68159705
-0.081058025 -0.53839904 -0.4270428 0.06951938 -0.70635605 0.053169444 0.9864044 -0.50340414
-0.5858892 -0.05251439 0.074773535 -0.0642674 -0.054497465 -0.64641196 -0.68452376 -0.6541557
-0.6756044 -0.5108007 0.78164333 -0.4226822 0.12323329 0.09039016 -0.03208199 -0.12484057
-0.626004 0.06205402 -0.49570733 -0.024980351 0.07706866 -0.0019640326 -0.07357698 -0.53108704
-0.39516348 -0.6894046 -0.037708938 0.038194582 -0.68361235 -0.03488249 0.03588698 -0.49888924
-0.016489103 0.0016295761 -0.34561533 0.02935328 -0.019048462 0.92032593 -0.67334825 0.68529373
00000000: a95d 14bf 4208 51bf b535 5f3d 11f4 843d
00000010: 4485 03bf 608d 4ebd 078c abbd 58f4 c9be
00000020: c83c c0bd dc39 ad3d 3b55 04bf c0e4 23bc
00000030: 2c63 b2bd 6447 38bd b741 08bf 709f 24bf
00000040: 0150 e93c 76d3 08bf 3cbf 12bf 30f8 7e3c
00000050: 45f7 26bf f0a6 763d d417 633f b48a 0ebf
00000060: 5828 0cbf e06e b23d a8d2 b3bd 9d07 f43c
00000070: 62ed 343d 3d63 ffbe 4bd6 0cbf 96a2 0bbf
00000080: 9d24 1ebf d225 13bf 306d 3e3f bb6f e4be
00000090: 2a98 ad3d 9fa1 88bc 747e d9bd ac35 833d
000000a0: c4f0 aebe 2386 773d 01f0 17bf a8c8 6c3d
000000b0: 2900 87bc d00a 5abd a13c 863d 19f6 33bf
000000c0: 074d 44bf 6001 18bf 6a02 e3bd 6929 abbc
000000d0: 6c10 0ebf d8af 673d 07f3 4e3c 31b1 20bf
000000e0: f0c8 543d b1a3 a8bd a9d6 48bf 6582 e4bd
000000f0: 4c55 10bd 8bfd 583f 1c37 11bf 36c6 5d3f
00000100: 50e4 24bf d16c dbbe 994c b43d c0b2 913b
00000110: 3288 1ebf 84c7 9f3d 7287 aaba 17bc 54be
00000120: c24f 893d 080e 2abd 29b8 04bf fc58 50bd
00000130: 00ff 97ba 7c1c fabd 7bc0 f1be 257d 2ebf
00000140: c001 a6bd 85d4 09bf 5ba5 dabe 2d60 8e3d
00000150: c0d3 34bf 34c8 593d 0085 7c3f 18df 00bf
00000160: d6fc 15bf 5419 57bd de22 993d a09e 83bd
00000170: bc38 5fbd 417b 25bf f33c 2fbf bf76 27bf
00000180: 69f4 2cbf d6c3 02bf c719 483f cd69 d8be
00000190: bc61 fc3d 7a1e b93d 6868 03bd 6aac ffbd
000001a0: cc41 20bf 5b2c 7e3d 5acd fdbe 98a3 ccbc
000001b0: 2cd6 9d3d 00b7 00bb 87af 96bd 52f5 07bf
000001c0: de52 cabe d27c 30bf b074 1abd ec71 1c3d
000001d0: 3801 2fbf f1e0 0ebd 3afe 123d 696e ffbe
000001e0: 2814 87bc 8097 d53a 7ef4 b0be 4a76 f03c
000001f0: 850b 9cbc 7b9a 6b3f 8d60 2cbf 696f 2f3f

fc3.bias f4 [2]
-0.22848047 -0.22246635
00000000: c9f6 69be 38ce 63be

exp_avg f4 [128, 5]
8.204777 -22.956566 14.762661 -6.1782117 -6.255675 8.466131 -18.29547 14.15749
-5.8161535 -6.2393436 -11.231621 197.73804 -64.613014 19.583145 10.972388 11.280653
-50.79763 23.810732 -8.352543 -4.8343167 0.0 0.0 0.0 0.0
0.0 -18.242159 68.55867 -29.397173 -0.9655571 -17.66932 88.172325 -25.754475
107.96998 -53.759098 -53.975273 17.084555 -14.003283 23.916283 -1.3445821 -3.6261556
8.468434 -15.320631 13.5897455 -5.813442 -6.787568 88.63002 -63.89205 123.80994
-33.645863 -19.52952 11.389606 -50.832844 24.081308 -8.895926 -5.576314 -1.78877
-68.60711 -2.9375107 -15.933831 -4.158108 8.067201 -13.2429695 12.760778 -5.722152
-7.105936 0.0 0.0 0.0 0.0 0.0 -19.6945 84.01983
-37.76709 2.09027 -16.58782 -39.418957 -67.19545 -48.122345 9.959334 24.069008
-3.6527114 -0.623299 2.1260686 -31.398434 -42.029984 -5.810302 -119.42746 5.978687
18.548502 47.71659 9.210781 -25.062004 16.666233 -7.2725563 -7.62902 1.2023297e-23
-1.3648085e-22 1.4622932e-23 9.098707e-24 5.78418e-23 0.8562008 -84.81921 8.783194 -0.91879976
15.740326 7.8596616 -21.361105 14.057974 -5.843474 -6.0686746 7.77994 -15.4038105
12.809931 -5.4663224 -6.3683968 85.03739 23.010494 110.34656 -106.767 -129.37206
-23.487951 74.59524 -44.81042 12.251462 6.8870616 -11.242108 -11.931886 -9.918614
-7.9883375 -5.086676 8.370204 -13.434734 13.170143 -5.8550997 -7.35095 -22.853863
155.27498 -64.389915 9.912238 -14.679056 1.251947 164.41673 -61.41043 8.381747
7.921161 -6.73645 -93.88485 -3.8863707 17.042725 38.494698 -20.229311 84.810555
-38.596943 1.8908323 -17.714043 -30.512985 139.92563 -51.930717 -0.29241788 -30.264753
-23.686552 129.97946 -65.35153 13.113403 -8.575947 0.0 0.0 0.0
0.0 0.0 -25.543543 134.26273 -66.178955 12.420062 -11.5176735 13.864361
-16.669825 20.339405 -2.6101403 -5.727813 -10.576223 -85.30694 -0.45337102 -3.7362149
8.451212 19.094181 -8.172934 21.46241 -1.6067257 -1.1006237 6.7789006 -12.570468
11.008734 -5.3338284 -6.784144 9.832778 -31.46881 18.444391 -7.2916603 -6.544054
18.42599 -8.99239 20.741291 -1.7424139 -1.6249846 19.572386 -7.8324676 21.848963
-1.6595637 -1.2950116 -8.423094 -7.3618627 -10.311332 -40.559204 -53.65667 11.853523
-10.058529 16.908857 -3.2462056 -7.755106 32.246265 -11.581793 44.72268 0.047010247
3.3004153 0.0 0.0 0.0 0.0 0.0 -12.32417 -12.48469
-10.972342 -8.900261 -5.3720956 24.129705 -7.4628806 27.258131 0.08919221 2.1163044
9.962267 -51.467285 22.632013 -8.864377 -5.614738 9.182998 -26.977373 16.669218
-6.9396815 -6.8311405 7.971574 -22.289951 14.500362 -6.321815 -6.7580547 12.344438
00000000: c446 0341 0ca7 b7c1 dc33 6c41 e9b3 c5c0
00000010: 7d2e c8c0 4675 0741 1f5d 92c1 1485 6241
00000020: ee1d bac0 b4a8 c7c0 b8b4 33c1 f0bc 4543
00000030: dd39 81c2 48aa 9c41 e78e 2f41 8e7d 3441
00000040: c630 4bc2 617c be41 04a4 05c1 b9b2 9ac0
00000050: 0000 0000 0000 0000 0000 0000 0000 0000
00000060: 0000 0000 f1ef 91c1 0a1e 8942 692d ebc1
00000070: c02e 77bf c45a 8dc1 3b58 b042 2a09 cec1
00000080: a1f0 d742 5109 57c2 aee6 57c2 2bad 8841
00000090: 720d 60c1 8c54 bf41 441b acbf ef12 68c0
000000a0: b57e 0741 4e21 75c1 996f 5941 b807 bac0
000000b0: c233 d9c0 9242 b142 7691 7fc2 b09e f742
000000c0: 5d95 06c2 753c 9cc1 d43b 3641 d554 4bc2
000000d0: 85a6 c041 b755 0ec1 2a71 b2c0 6af6 e4bf
000000e0: d736 89c2 2d00 3cc0 f9f0 7ec1 390f 85c0
000000f0: 4113 0141 34e3 53c1 262c 4c41 df1b b7c0
00000100: d463 e3c0 0000 0000 0000 0000 0000 0000
00000110: 0000 0000 0000 0000 568e 9dc1 270a a842
00000120: 8011 17c2 fcc6 0540 dbb3 84c1 03ad 1dc2
00000130: 1264 86c2 487d 40c2 6f59 1f41 548d c041
00000140: 06c6 69c0 8690 1fbf 8211 0840 fe2f fbc1
00000150: b41e 28c2 feed b9c0 dcda eec2 6751 bf40
00000160: 5563 9441 cadd 3e42 5c5f 1341 fc7e c8c1
00000170: 7254 8541 c8b8 e8c0 ef20 f4c0 7c90 6819
00000180: c7fe 249b a06c 8d19 9dfe 2f19 57da 8b1a
00000190: fa2f 5b3f 6fa3 a9c2 f687 0c41 7636 6bbf
000001a0: 60d8 7b41 5982 fb40 8be3 aac1 76ed 6041
000001b0: bdfd bac0 9532 c2c0 45f5 f840 0276 76c1
000001c0: 7af5 4c41 1dec aec0 e8c9 cbc0 2513 aa42
000001d0: 7e15 b841 70b1 dc42 b488 d5c2 3f5f 01c3
000001e0: 53e7 bbc1 c330 9542 df3d 33c2 fd05 4441
000001f0: cf62 dc40 addf 33c1 01e9 3ec1 a5b2 1ec1
00000200: 76a0 ffc0 0dc6 a2c0 5bec 0541 acf4 56c1
00000210: e8b8 5241 fa5c bbc0 fb3a ebc0 b6d4 b6c1
00000220: 6546 1b43 a3c7 80c2 8798 1e41 6add 6ac1
00000230: cd3f a03f af6a 2443 48a4 75c2 a31b 0641
00000240: 277a fd40 0091 d7c0 0bc5 bbc2 4cba 78c0
00000250: 8057 8841 92fa 1942 a1d5 a1c1 019f a942
00000260: 4563 1ac2 cb06 f23f 5cb6 8dc1 981a f4c1
00000270: f6ec 0b43 0eb9 4fc2 ccb7 95be 371e f2c1
00000280: 0f7e bdc1 befa 0143 fcb3 82c2 80d0 5141
00000290: 1437 09c1 0000 0000 0000 0000 0000 0000
000002a0: 0000 0000 0000 0000 2d59 ccc1 4243 0643
000002b0: a05b 84c2 93b8 4641 6448 38c1 6cd4 5d41
000002c0: cd5b 85c1 1ab7 a241 8a0c 27c0 3e4a b7c0
000002d0: 3638 29c1 279d aac2 3f20 e8be 251e 6fc0
000002e0: 2a38 0741 e2c0 9841 56c4 02c1 04b3 ab41
000002f0: 30a9 cdbf 3de1 8cbf c1ec d840 a320 49c1
00000300: c623 3041 b9ae aac0 b517 d9c0 0f53 1d41
00000310: 1fc0 fbc1 1d8e 9341 4855 e9c0 e468 d1c0
00000320: 6d68 9341 d4e0 0fc1 2aee a541 6b07 dfbf
00000330: 7fff cfbf 3f94 9c41 93a3 fac0 adca ae41
00000340: 956c d4bf f1c2 a5bf fec4 06c1 6194 ebc0
00000350: 37fb 24c1 a03c 22c2 6ea0 56c2 08a8 3d41
00000360: bcef 20c1 5745 8741 d5c1 4fc0 d429 f8c0
00000370: 2dfc 0042 064f 39c1 06e4 3242 d18d 403d
00000380: 013a 5340 0000 0000 0000 0000 0000 0000
00000390: 0000 0000 0000 0000 cd2f 45c1 4ac1 47c1
000003a0: b68e 2fc1 7867 0ec1 35e8 abc0 a309 c141
000003b0: ebcf eec0 a710 da41 68aa b63d 8871 0740
000003c0: 7265 1f41 80de 4dc2 5d0e b541 7dd4 0dc1
000003d0: efab b3c0 8fed 1241 a9d1 d7c1 8f5a 8541
000003e0: df11 dec0 b498 dac0 2217 ff40 d251 b2c1
000003f0: 7c01 6841 4f4c cac0 fc41 d8c0 d182 4541

exp_avg_sq f4 [128, 5]
7371.3906 61656.01 16557.24 5606.178 9368.306 5629.1553 49505.965 12723.003
4376.846 7363.9556 60416.91 350487.25 112956.54 45513.574 88985.336 20498.58
151836.6 45124.02 15020.234 23737.688 0.0 0.0 0.0 0.0
0.0 4259.866 35455.113 8573.917 3873.9375 7576.1226 27879.855 105438.06
17139.516 43560.81 109934.7 4108.9585 26152.637 11801.906 4369.3467 8094.9834
4904.035 44682.25 11191.034 3890.85 6643.8354 25618.273 97077.05 16041.389
33901.98 88002.94 21130.59 156705.7 46597.12 15510.507 24525.389 20655.027
93969.055 29293.854 17141.682 41310.844 4510.8013 41996.17 10389.708 3612.9807
6303.9834 0.0 0.0 0.0 0.0 0.0 8330.76 67746.59
17320.223 7075.183 12916.122 39909.68 150449.36 71677.86 25619.182 66166.77
16774.713 115835.68 24396.236 14104.414 28912.986 28967.73 136017.8 53032.85
22293.51 53367.797 9702.939 81452.69 21569.758 7316.517 12168.916 1.4004357e-06
0.00018045047 2.071498e-06 8.0200186e-07 3.2411528e-05 23859.51 103009.266 37328.043 18167.578
44243.69 6716.2275 56549.0 15060.631 5101.968 8569.263 4807.715 43080.008
10842.106 3739.4172 6391.9585 48376.324 209446.92 29035.22 78651.8 198173.92
34717.824 250016.58 76058.75 26961.432 43315.418 4980.8438 30222.11 770.7477
1312.4569 4018.7668 4510.3315 42092.09 10487.53 3661.094 6378.528 49724.543
309231.34 92540.7 37544.164 72039.34 53722.516 312540.38 99609.9 40742.25
81054.6 21503.924 126060.83 42970.97 16827.121 36660.05 8487.169 68537.01
17467.72 7394.5537 13918.294 22595.95 146669.42 41361.754 18590.945 38898.05
38049.625 282797.16 80460.984 29828.963 51411.18 0.0 0.0 0.0
0.0 0.0 37460.883 264777.75 74647.766 29079.365 51849.688 3422.2583
22195.994 9930.383 3643.792 6821.4033 32453.316 130821.45 59575.3 25001.002
62794.523 4079.3547 24925.736 11550.914 4192.356 7779.2866 4571.2876 41482.97
10322.406 3528.892 6218.107 11823.235 96315.516 26282.428 8879.657 14646.293
4161.6006 25743.258 11916.889 4220.509 7766.6577 4212.329 26539.232 12031.421
4352.251 8083.587 22536.08 155252.84 33958.684 18755.154 37443.477 2861.3115
19577.258 8239.739 3005.841 5808.4478 5706.99 27512.535 15206.58 6078.723
11884.632 0.0 0.0 0.0 0.0 0.0 6384.133 38548.133
979.29517 1603.4445 4944.651 5105.458 31552.486 14522.397 5333.015 9770.629
22166.533 162140.19 48575.76 16090.182 25659.316 10021.639 82869.15 22244.797
7510.339 12548.4795 7814.9614 65928.94 17547.744 5935.3257 10025.923 24223.53
00000000: 205b e645 03d8 7047 7b5a 8146 6d31 af45
00000010: 3961 1246 3ee9 af45 f761 4147 03cc 4646
00000020: c5c6 8845 a51f e645 e900 6c47 e822 ab48
00000030: 459e dc47 93c9 3147 abcc ad47 2925 a046
00000040: 2647 1448 0544 3047 f0b0 6a46 6073 b946
00000050: 0000 0000 0000 0000 0000 0000 0000 0000
00000060: 0000 0000 ee1e 8545 1d7f 0a47 abf7 0546
00000070: 001f 7245 fbc0 ec45 b6cf d946 08ef cd47
00000080: 08e7 8546 cf28 2a47 5ab7 d647 ab67 8045
00000090: 4651 cc46 a067 3846 c68a 8845 def7 fc45
000000a0: 4840 9945 408a 2e47 23dc 2e46 9a2d 7345
000000b0: af9e cf45 8c24 c846 869a bd47 8ea5 7a46
000000c0: fb6d 0447 78e1 ab47 2e15 a546 6d08 1948
000000d0: 1f05 3647 075a 7246 c79a bf46 0e5e a146
000000e0: 8788 b747 b5db e446 5deb 8546 d85e 2147
000000f0: 69f6 8c45 2c0c 2447 d556 2246 b1cf 6145
00000100: deff c445 0000 0000 0000 0000 0000 0000
00000110: 0000 0000 0000 0000 0a2b 0246 4c51 8447
00000120: 7250 8746 7719 dd45 7dd0 4946 aee5 1b47
00000130: 57ec 1248 eefe 8b47 5d26 c846 633b 8147
00000140: 6d0d 8346 d73d e247 7998 be46 a861 5c46
00000150: f9e1 e146 764f e246 73d4 0448 da28 4f47
00000160: 052b ae46 cc77 5047 c29b 1746 5816 9f47
00000170: 8483 a846 23a4 e445 aa23 3e46 9bf6 bb35
00000180: 4e37 3d39 1104 0b36 2649 5735 9df1 0738
00000190: 0567 ba46 a230 c947 0bd0 1147 28ef 8d46
000001a0: b1d3 2c47 d2e1 d145 00e5 5c47 8652 6b46
000001b0: be6f 9f45 0de5 0546 b83d 9645 0248 2847
000001c0: 6d68 2946 adb6 6945 abbf c745 53f8 3c47
000001d0: bb89 4c48 71d6 e246 e69d 9947 7b87 4148
000001e0: d39d 0747 2528 7448 608d 9447 dda2 d246
000001f0: 6b33 2947 c0a6 9b45 381c ec46 daaf 4044
00000200: 9f0e a444 452c 7b45 a7f2 8c45 176c 2447
00000210: 1fde 2346 81d1 6445 3954 c745 8b3c 4247
00000220: ebfd 9648 5abe b447 2aa8 1247 acb3 8c47
00000230: 84da 5147 8c9b 9848 f38c c247 4026 1f47
00000240: 4d4f 9e47 d9ff a746 6a36 f647 f8da 2747
00000250: 3e76 8346 0d34 0f47 ad9c 0446 81dc 8547
00000260: 7177 8846 6e14 e745 2d79 5946 e687 b046
00000270: 5b3b 0f48 c191 2147 e43d 9146 0df2 1747
00000280: a0a1 1447 a515 8a48 7e26 9d47 ed09 e946
00000290: 2ed3 4847 0000 0000 0000 0000 0000 0000
000002a0: 0000 0000 0000 0000 e254 1247 3849 8148
000002b0: e2cb 9147 bb2e e346 b089 4a47 22e4 5545
000002c0: fd67 ad46 8829 1b46 acbc 6345 3a2b d545
000002d0: a28a fd46 ba82 ff47 4db7 6847 0152 c346
000002e0: 864a 7547 adf5 7e45 79bb c246 a87b 3446
000002f0: d902 8345 4b1a f345 4dda 8e45 f80a 2247
00000300: a049 2146 468e 5c45 db50 c245 f1bc 3846
00000310: c21d bc47 db54 cd46 a1be 0a46 2cd9 6446
00000320: ce0c 8245 841e c946 8e33 3a46 12e4 8345
00000330: 43b5 f245 a2a2 8345 7756 cf46 affd 3b46
00000340: 0202 8845 b29c fc45 2910 b046 369d 1748
00000350: afa6 0447 4f86 9246 7a43 1247 fcd4 3245
00000360: 84f2 9846 f5be 0046 75dd 3b45 9583 b545
00000370: ec57 b245 12f1 d646 529a 6d46 c9f5 bd45
00000380: 87b2 3946 0000 0000 0000 0000 0000 0000
00000390: 0000 0000 0000 0000 1081 c745 2294 1647
000003a0: e4d2 7444 396e c844 3585 9a45 aa8b 9f45
000003b0: f980 f646 97e9 6246 1fa8 a645 84aa 1846
000003c0: 112d ad46 0c57 1e48 c3bf 3d47 ba68 7b46
000003d0: a276 c846 8e96 1c46 93da a147 98c9 ad46
000003e0: b6b2 ea45 eb11 4446 b137 f445 78c4 8047
000003f0: 7d17 8946 9b7a b945 b1a7 1c46 0f3f bd46

exp_avg f4 [128]
-0.30987027 -1.6927528 -34.442974 14.0728655 0.0 -66.815056 -0.86461663 -9.126302
-3.8965294 56.465336 13.278427 47.10287 -5.5351233 0.0 -74.71238 56.43869
-42.526253 116.67238 -1.425842 1.9497254e-22 66.63645 -0.90082717 -3.608297 -90.420235
-21.457647 11.606644 -5.9834 -98.36524 -1.842284 85.807945 -78.41955 -119.8894
-86.75742 0.0 -95.750984 -12.470663 48.749683 2.0244136 -5.801275 2.9903977
0.46973097 1.4581878 -52.38984 -18.035614 13.013598 0.0 14.112659 8.10844
12.998577 0.4341572 -1.7449489 14.095495 -1.6002599 59.672226 52.957428 -12.086567
-2.2943394 -125.151276 0.111531176 -8.220994 -0.74607176 29.297733 1.7587304 -2.3036463
16.011126 0.66042256 -11.167774 -9.034769 -10.976604 -6.9672327 0.0 -12.835833
-9.144335 -2.0430312 -93.91579 0.0 -67.203545 -81.19346 -0.86843425 0.0
1.3165888 35.2065 -2.9284768 -1.9966395 8.113781 60.01716 -4.270176 -9.40675
10.58496 14.952383 45.199364 104.59423 -10.387632 0.0 11.196001 -32.395092
-82.31792 0.6414565 -0.16725661 -12.704104 -2.5391676 -10.021721 -1.9283599 -2.4765637
-51.012993 39.519966 -2.7829642 105.178955 2.0858057 11.526233 0.0 -10.474936
0.0 6.023822 -2.829959 -65.388245 2.807869 -3.2924938 -7.019432 117.123764
-2.3871791 -1.5859252 0.8088564 -1.8899302 -11.704185 -137.44537 -2.9767182 0.0
00000000: 51a7 9ebe 20ac d8bf 9bc5 09c2 752a 6141
00000010: 0000 0000 4fa1 85c2 8457 5dbf 5505 12c1
00000020: bd60 79c0 81dc 6142 7074 5441 5769 3c42
00000030: bb1f b1c0 0000 0000 bd6c 95c2 38c1 6142
00000040: e21a 2ac2 4258 e942 fe81 b6bf 14b5 6b1b
00000050: dd45 8542 9c9c 66bf 57ee 66c0 29d7 b4c2
00000060: 43a9 abc1 d0b4 3941 0378 bfc0 01bb c4c2
00000070: f6cf ebbf ab9d ab42 cfd6 9cc2 5fc7 efc2
00000080: cd83 adc2 0000 0000 8180 bfc2 d687 47c1
00000090: adff 4242 fe8f 0140 0ba4 b9c0 ad62 3f40
000000a0: 9480 f03e e6a5 ba3f 328f 51c2 f048 90c1
000000b0: b337 5041 0000 0000 74cd 6141 2cbc 0141
000000c0: 2cfa 4f41 da49 de3e 7c5a dfbf 2687 6141
000000d0: 51d5 ccbf 5cb0 6e42 68d4 5342 9462 41c1
000000e0: 75d6 12c0 744d fac2 756a e43d 3189 03c1
000000f0: 8ffe 3ebf c261 ea41 141e e13f f16e 13c0
00000100: c916 8041 7411 293f 34af 32c1 6a8e 10c1
00000110: 2ca0 2fc1 92f3 dec0 0000 0000 925f 4dc1
00000120: 324f 12c1 06c1 02c0 e2d4 bbc2 0000 0000
00000130: 3768 86c2 0d63 a2c2 b551 5ebf 0000 0000
00000140: fb85 a83f 75d3 0c42 2a6c 3bc0 e291 ffbf
00000150: 0cd2 0141 9211 7042 48a5 88c0 0c82 16c1
00000160: ff5b 2941 f63c 6f41 26cc 3442 3f30 d142
00000170: be33 26c1 0000 0000 d222 3341 9394 01c2
00000180: c6a2 a4c2 7e36 243f 5145 2bbe 0344 4bc1
00000190: b981 22c0 f858 20c1 7fd4 f6bf 0580 1ec0
000001a0: 4e0d 4cc2 7214 1e42 161c 32c0 a05b d242
000001b0: d77d 0540 736b 3841 0000 0000 5699 27c1
000001c0: 0000 0000 26c3 c040 0c1e 35c0 c8c6 82c2
000001d0: 20b4 3340 38b8 52c0 309f e0c0 5e3f ea42
000001e0: 8bc7 18c0 99ff cabf 3711 4f3f 3ce9 f1bf
000001f0: 5744 3bc1 0472 09c3 8d82 3ec0 0000 0000

exp_avg_sq f4 [128]
19600.613 16387.62 198542.31 37589.227 0.0 18920.977 303779.4 20573.176
15649.515 262244.84 38855.09 103613.22 15631.558 0.0 29598.355 191984.81
65689.12 139649.6 25460.24 0.00036826625 114582.64 18305.543 14991.016 550300.0
73227.83 13669.46 15799.833 156569.4 185020.66 88958.14 32178.31 92983.64
97977.13 0.0 106927.68 17756.072 170909.6 19710.549 15445.299 29016.225
19202.18 20664.09 81792.23 16362.8125 31207.752 0.0 17176.363 24051.95
40905.74 26144.877 21598.678 44408.832 15382.736 43440.707 266122.44 18198.973
24216.97 64353.266 24637.482 18270.438 20336.145 150286.62 24455.791 19240.63
48869.348 24066.014 19076.504 25655.568 12060.232 12175.17 0.0 13494.42
13548.965 19885.582 47683.027 0.0 40121.1 35774.758 22059.604 0.0
21772.04 790.6099 15246.017 17371.188 21856.479 94821.57 15860.267 15614.95
96510.27 30267.37 161753.69 214627.0 21495.07 0.0 185486.61 129733.64
49076.35 21037.94 18906.28 12822.318 18772.605 20236.08 20082.693 13359.23
99647.1 123991.25 16472.182 124725.555 24420.979 28006.031 0.0 24089.207
0.0 122963.945 17032.936 52313.32 26243.967 17049.12 13336.323 124226.09
16521.37 16951.45 20613.686 23618.473 18251.404 139046.7 14212.463 0.0
00000000: 3a21 9946 3d07 8046 94e3 4148 3ad5 1247
00000010: 0000 0000 f4d1 9346 6d54 9448 5aba a046
00000020: 0f86 7446 9b0c 8048 17c7 1747 9c5e ca47
00000030: 3b3e 7446 0000 0000 b63c e746 347c 3b48
00000040: 8f4c 8047 6660 0848 7be8 c646 dc13 c139
00000050: 52cb df47 1603 8f46 103c 6a46 c059 0649
00000060: ea05 8f47 d795 5546 55df 7646 5ae6 1848
00000070: 2aaf 3448 12bf ad47 9f64 fb46 d29b b547
00000080: 915c bf47 0000 0000 d7d7 d047 25b8 8a46
00000090: 66e7 2648 19fd 9946 3255 7146 73b0 e246
000000a0: 5c04 9646 2e70 a146 1dc0 9f47 40ab 7f46
000000b0: 81cf f346 0000 0000 ba30 8646 e6e7 bb46
000000c0: bdc9 1f47 c141 cc46 5bbd a846 d578 2d47
000000d0: f25a 7046 b5b0 2947 4ef1 8148 f22d 8e46
000000e0: f131 bd46 4461 7b47 f77a c046 e0bc 8e46
000000f0: 4ae0 9e46 a8c3 1248 950f bf46 4351 9646
00000100: 59e5 3e47 0704 bc46 0209 9546 236f c846
00000110: ee70 3c46 ae3c 3e46 0000 0000 aed9 5246
00000120: dcb3 5346 2a5b 9b46 0743 3a47 0000 0000
00000130: 1ab9 1c47 c2be 0b47 3557 ac46 0000 0000
00000140: 1418 aa46 09a7 4544 1138 6e46 60b6 8746
00000150: f5c0 aa46 c932 b947 11d1 7746 cdfb 7346
00000160: 237f bc47 bd76 ec46 6cf6 1d48 c098 5148
00000170: 24ee a746 0000 0000 a723 3548 d262 fd47
00000180: 5ab4 3f47 e15b a446 8fb4 9346 4659 4846
00000190: 36a9 9246 2918 9e46 63e5 9c46 ecbc 5046
000001a0: 8d9f c247 a02b f247 5db0 8046 c79a f347
000001b0: f5c9 be46 10cc da46 0000 0000 6a32 bc46
000001c0: 0000 0000 f929 f047 df11 8546 5259 4c47
000001d0: ef07 cd46 3d32 8546 4b61 5046 0ca1 f247
000001e0: bd12 8146 e66e 8446 5f0b a146 f284 b846
000001f0: cf96 8e46 adc9 0748 da11 5e46 0000 0000

exp_avg f4 [64, 128]
1.1558522 0.7149506 2.23548 -2.495185 0.0 0.34520277 -8.69902 0.16546588
0.7997439 -5.8902245 -2.400831 -3.1037312 1.1119514 0.0 1.0142263 -4.7510815
-2.6220536 -4.3564544 -0.7071209 -1.4648459e-23 -3.5809395 0.42218947 0.09293318 -10.841037
1.6321427 0.6146638 1.1380717 1.3522985 2.9385934 -2.8826542 0.7827625 1.5586057
1.3899724 0.0 2.448958 1.2726175 -4.3845696 1.3627857 1.6517812 0.038451765
2.0325952 1.7471709 -2.7170064 1.5725825 -0.9797404 0.0 0.8387759 0.113243766
-1.7128015 -0.80589247 1.4737636 -1.9424291 0.51144165 -2.9344437 -5.440298 1.1375229
-0.26181927 2.0769184 -0.608633 0.26700014 0.5256361 -3.7355692 -0.50637144 -0.062451415
-1.1734858 -0.9377953 0.5577811 0.864328 1.6991922 1.0742645 0.0 1.7249471
0.93291426 1.2599721 1.0009086 0.0 1.8097206 0.7537052 0.23699945 0.0
2.709242 -0.80808914 1.4948653 0.32918957 -0.45750228 -3.362018 0.51866984 2.0828328
-1.9693592 -1.0365158 2.63021 -5.1142626 1.791424 0.0 -4.488527 2.419892
0.9866265 1.2003859 1.1528205 0.46753633 0.68127894 0.46955562 1.2418611 0.46693787
2.0962636 -3.7270503 0.6556943 -3.1280982 -0.9517858 -1.309739 0.0 1.0227615
0.0 -4.3903413 1.1500343 1.0988733 -0.3742692 0.097755335 0.7946582 -3.9621444
1.6065396 -0.3905358 -0.5206032 0.07566348 1.4551959 2.2659447 0.28286982 0.0
3.6758094 3.430443 1.7847325 -2.1306162 0.0 -0.09841626 -8.636678 3.3575926
3.1334553 -4.0229626 -2.1482239 -4.4172354 3.64781 0.0 0.35988513 -5.9459844
-4.1509895 -5.6548634 0.83564043 -1.0581881e-23 -4.7941 2.764395 2.3320656 -10.8273
0.8073698 0.3906484 3.8903944 0.98588914 2.5975506 -3.9768016 0.22264688 1.4974415
0.4389904 0.0 1.862583 4.045191 -5.329489 4.3440895 3.724817 1.9965321
5.5893693 4.515453 -3.4335072 3.4158955 1.118522 0.0 0.5436762 3.052611
-1.2843007 0.31662363 3.610598 -1.5159776 3.8191392 -4.0203238 -3.4318614 3.638573
1.0280751 1.5183457 0.88474625 2.1159275 3.2227225 -4.7728415 1.1660286 1.4544669
-0.52802664 1.2069948 3.2638452 3.2140338 4.017379 2.718022 0.0 4.183059
2.8500469 3.7072425 0.6049039 0.0 1.1837398 0.24118616 2.1968644 0.0
6.127728 -0.3212482 4.541261 2.5559096 2.6931517 -4.824172 3.216451 4.373533
-3.6304 1.5860542 2.2237594 -6.2921157 4.683364 0.0 -5.398886 1.8953248
0.53883404 3.766297 4.3186603 1.450655 2.5255616 3.7027893 3.7049675 3.8287947
1.2714506 -4.817342 3.0367432 -4.1188226 0.27607924 0.9279506 0.0 4.014451
0.0 -5.0956216 3.6606557 0.44408995 2.0090032 1.8320364 3.4044042 -5.1131954
4.7550755 2.5292184 2.1683316 1.2421747 3.2315335 1.8315735 2.9008617 0.0
00000000: f7f2 933f 0107 373f 1b12 0f40 1cb1 1fc0
00000010: 0000 0000 6bbe b03e 302f 0bc1 e36f 293e
00000020: 04bc 4c3f b87c bcc0 37a7 19c0 88a3 46c0
00000030: 6c54 8e3f 0000 0000 2bd2 813f dc08 98c0
00000040: bacf 27c0 1368 8bc0 e005 35bf d4ab 8d99
00000050: 1d2e 65c0 3829 d83e c053 be3d e374 2dc1
00000060: 0dea d03f 9b5a 1d3f 55ac 913f 1e18 ad3f
00000070: ea11 3c40 687d 38c0 2063 483f 6480 c73f
00000080: 9eea b13f 0000 0000 babb 1c40 21e5 a23f
00000090: 654e 8cc0 c36f ae3f 916d d33f 997f 1d3d
000000a0: 0a16 0240 4ca3 df3f 6fe3 2dc0 624a c93f
000000b0: 44d0 7abf 0000 0000 04ba 563f 59ec e73d
000000c0: 143d dbbf f84e 4ebf 49a4 bc3f 84a1 f8bf
000000d0: d7ed 023f edcd 3bc0 ec16 aec0 5a9a 913f
000000e0: 2d0d 86be 3bec 0440 5fcf 1bbf 3eb4 883e
000000f0: 1690 063f 9113 6fc0 8fa1 01bf 0ecd 7fbd
00000100: c834 96bf 5a13 70bf beca 0e3f 9a44 5d3f
00000110: 217f d93f 8081 893f 0000 0000 11cb dc3f
00000120: 78d3 6e3f c446 a13f c61d 803f 0000 0000
00000130: eda4 e73f d3f2 403f fcaf 723e 0000 0000
00000140: 3964 2d40 eede 4ebf bf57 bf3f 898b a83e
00000150: bd3d eabe 4e2b 57c0 8cc7 043f 224d 0540
00000160: f613 fcbf 8dac 84bf 5c55 2840 0aa8 a3c0
00000170: 624d e53f 0000 0000 03a2 8fc0 83df 1a40
00000180: 8e93 7c3f 3fa6 993f 9f8f 933f ec60 ef3e
00000190: 4c68 2e3f 9869 f03e 4ef5 9e3f 7b12 ef3e
000001a0: 2f29 0640 fe87 6ec0 95db 273f c332 48c0
000001b0: 3ca8 73bf 87a5 a7bf 0000 0000 d9e9 823f
000001c0: 0000 0000 ad7d 8cc0 5334 933f e1a7 8c3f
000001d0: 36a0 bfbe f333 c83d b86e 4b3f c693 7dc0
000001e0: 17a3 cd3f 4ff4 c7be 4046 05bf 74f5 9a3d
000001f0: dc43 ba3f 3d05 1140 50d4 903e 0000 0000
00000200: 7640 6b40 618c 5b40 1d72 e43f 045c 08c0
00000210: 0000 0000 778e c9bd d52f 0ac1 cce2 5640
00000220: 888a 4840 1cbc 80c0 807c 09c0 fe59 8dc0
00000230: b875 6940 0000 0000 dd42 b83e 8145 bec0
00000240: e8d4 84c0 a4f4 b4c0 88ec 553f f0ae 4c99
00000250: 4469 99c0 d9eb 3040 9040 1540 9f3c 2dc1
00000260: caaf 4e3f 1103 c83e 39fc 7840 3b63 7c3f
00000270: 453e 2640 eb83 7ec0 8bfd 633e 2aac bf3f
00000280: 5ac3 e03e 0000 0000 1f69 ee3f 3472 8140
00000290: 2d8b aac0 c802 8b40 6763 6e40 5d8e ff3f
000002a0: 1ddc b240 977e 9040 95be 5bc0 089e 5a40
000002b0: bb2b 8f3f 0000 0000 5d2e 0b3f fb5d 4340
000002c0: f763 a4bf 7e1c a23e 0a14 6740 8e0b c2bf
000002d0: c76c 7440 7ea6 80c0 9ea3 5bc0 61de 6840
000002e0: f797 833f 2759 c23f bb7e 623f 5b6b 0740
000002f0: 1641 4e40 1ebb 98c0 6d40 953f f92b ba3f
00000300: c12c 07bf ce7e 9a3f d7e2 5040 bbb2 4d40
00000310: 5e8e 8040 13f4 2d40 0000 0000 9fdb 8540
00000320: 2b67 3640 7643 6d40 fbda 1a3f 0000 0000
00000330: c984 973f 81f9 763e 6d99 0c40 0000 0000
00000340: 5916 c440 a57a a4be 0352 9140 0694 2340
00000350: 995c 2c40 9e5f 9ac0 55da 4d40 fbf3 8b40
00000360: 7958 68c0 d303 cb3f 1352 0e40 0359 c9c0
00000370: 1ede 9540 0000 0000 adc3 acc0 019a f23f
00000380: 07f1 093f 030b 7140 7732 8a40 10af b93f
00000390: cda2 2140 80fa 6c40 301e 6d40 f90a 7540
000003a0: e5be a23f aa27 9ac0 005a 4240 65cd 83c0
000003b0: 425a 8d3e 2c8e 6d3f 0000 0000 6276 8040
000003c0: 0000 0000 550f a3c0 2f48 6a40 c25f e33e
000003d0: 8293 0040 2b80 ea3f c2e1 5940 4c9f a3c0
000003e0: 9429 9840 b7de 2140 f2c5 0a40 95ff 9e3f
000003f0: 72d1 4e40 0071 ea3f b8a7 3940 0000 0000

exp_avg_sq f4 [64, 128]
897.31647 993.3273 248.97372 407.37177 0.0 255.17014 144.84232 1156.8059
650.80676 124.39115 430.49786 416.3394 817.973 0.0 350.7652 521.58624
394.07135 784.21136 645.40106 2.078738e-06 640.1275 1092.9388 1118.57 181.37721
218.25974 15.795311 870.9594 281.8294 262.54153 625.27606 311.52026 263.93396
427.8835 0.0 403.62402 1086.8464 773.22534 1021.5431 720.96545 495.89444
1262.5725 844.7194 502.77542 567.171 491.67014 0.0 17.73875 820.714
543.67206 594.00085 684.1722 229.08037 1380.3995 532.73944 124.18052 733.134
777.191 454.60474 809.23846 610.7141 610.79645 571.2055 739.63196 485.06076
204.09282 761.1751 1039.7417 624.2491 1034.9104 672.4563 0.0 920.2065
759.09875 656.38007 329.54672 0.0 303.0804 278.06723 941.83167 0.0
1031.6125 0.7974483 1017.7705 822.8458 1005.351 448.7473 753.9485 632.7097
232.66238 438.6593 266.45862 572.3329 922.4072 0.0 484.08435 315.37646
217.39333 688.34576 1052.5171 459.33173 524.2901 1280.3328 545.60516 1271.3677
270.88803 603.278 772.29114 420.50882 682.53033 829.63446 0.0 949.49506
0.0 54.067886 1080.1921 227.46652 613.9158 417.05807 732.4526 513.9901
1015.583 1443.5078 1019.3043 645.73444 662.0771 352.0362 998.4024 0.0
1033.4283 1119.7119 394.69495 670.4015 0.0 404.57025 221.39452 1121.6567
775.4485 176.1578 695.5436 638.5107 929.27673 0.0 553.9342 793.92505
602.03827 1198.0348 908.0454 1.0847779e-06 980.7935 1259.4725 1306.6804 275.0606
371.4828 25.393063 914.7422 449.22754 408.64005 949.1566 492.54196 410.50348
700.4612 0.0 642.4906 1085.3505 1183.5437 1106.6442 955.9349 677.6683
1217.1333 929.5568 767.4065 681.80853 588.5785 0.0 28.557981 855.8327
881.0755 877.7058 894.17847 389.95367 1470.8546 814.53125 173.87396 813.2575
1149.9329 723.2125 1134.212 778.4326 717.9704 874.86847 992.47943 685.5709
355.66162 800.7497 1133.8047 681.3377 1279.5234 955.18994 0.0 1071.0503
960.8717 814.7391 522.0441 0.0 487.2589 441.03265 1171.8666 0.0
1053.5299 1.1907797 1099.0131 1034.4563 1004.099 688.2209 819.83295 812.25934
359.4587 462.6533 420.90784 873.7151 952.5131 0.0 742.36346 497.55057
348.58957 750.1576 1164.5828 681.18774 745.76404 1232.0493 656.44196 1271.4263
442.61172 919.41547 973.6059 643.8362 990.1914 891.16595 0.0 891.3245
0.0 83.41332 1247.2748 371.22382 720.7686 549.3525 793.2951 790.22406
1052.8807 1531.2551 1077.0114 994.63025 785.66754 558.1675 1083.3579 0.0
00000000: 4154 6044 f254 7844 46f9 7843 96af cb43
00000010: 0000 0000 8e2b 7f43 a2d7 1043 ca99 9044
00000020: a2b3 2244 45c8 f842 ba3f d743 712b d043
00000030: 467e 4c44 0000 0000 f261 af43 8565 0244
00000040: 2209 c543 870d 4444 ab59 2144 7280 0b36
00000050: 2908 2044 0b9e 8844 3dd2 8b44 9160 3543
00000060: 7e42 5a43 98b9 7c41 67bd 5944 2aea 8c43
00000070: 5145 8343 ab51 1c44 98c2 9b43 8cf7 8343
00000080: 17f1 d543 0000 0000 e0cf c943 16db 8744
00000090: 6c4e 4144 c262 7f44 ca3d 3444 7df2 f743
000000a0: 52d2 9d44 0b2e 5344 4163 fb43 f2ca 0d44
000000b0: c7d5 f543 0000 0000 f6e8 8d41 b22d 4d44
000000c0: 03eb 0744 0e80 1444 050b 2b44 9314 6543
000000d0: c98c ac44 532f 0544 6d5c f842 9348 3744
000000e0: 394c 4244 684d e343 434f 4a44 b4ad 1844
000000f0: f9b2 1844 27cd 0e44 72e8 3844 c787 f243
00000100: c317 4c43 354b 3e44 bcf7 8144 f10f 1c44
00000110: 225d 8144 341d 2844 0000 0000 370d 6644
00000120: 52c6 3d44 5318 2444 fbc5 a443 0000 0000
00000130: 4b8a 9743 9b08 8b43 3a75 6b44 0000 0000
00000140: 9af3 8044 9225 4c3f 5071 7e44 22b6 4d44
00000150: 7756 7b44 a85f e043 b47c 3c44 6c2d 1e44
00000160: 92a9 6843 6454 db43 b43a 8543 4e15 0f44
00000170: 109a 6644 0000 0000 cc0a f243 30b0 9d43
00000180: b164 5943 2116 2c44 8c90 8344 76aa e543
00000190: 9112 0344 a60a a044 bb66 0844 c4eb 9e44
000001a0: ab71 8743 cbd1 1644 a212 4144 2141 d243
000001b0: f1a1 2a44 9b68 4f44 0000 0000 af5f 6d44
000001c0: 0000 0000 8445 5842 2606 8744 6e77 6343
000001d0: 9c7a 1944 6f87 d043 f71c 3744 5e7f 0044
000001e0: 50e5 7d44 4070 b444 7ad3 7e44 016f 2144
000001f0: ef84 2544 a204 b043 c199 7944 0000 0000
00000200: b52d 8144 c8f6 8b44 f458 c543 b299 2744
00000210: 0000 0000 fe48 ca43 ff64 5d43 0435 8c44
00000220: b4dc 4144 6628 3043 cae2 2d44 afa0 1f44
00000230: b651 6844 0000 0000 ca7b 0a44 347b 4644
00000240: 7382 1644 1dc1 9544 e802 6344 af98 9135
00000250: c932 7544 1f6f 9d44 c655 a344 c287 8943
00000260: ccbd b943 fe24 cb41 80af 6444 209d e043
00000270: ed51 cc43 064a 6d44 5f45 f643 7240 cd43
00000280: 841d 2f44 0000 0000 669f 2044 37ab 8744
00000290: 66f1 9344 9d54 8a44 d5fb 6e44 c56a 2944
000002a0: 4424 9844 a363 6844 04da 3f44 bf73 2a44
000002b0: 0625 1344 0000 0000 bf76 e441 4bf5 5544
000002c0: d544 5c44 2c6d 5b44 6c8b 5f44 12fa c243
000002d0: 59db b744 00a2 4b44 bcdf 2d43 7b50 4b44
000002e0: dabd 8f44 9acd 3444 c9c6 8d44 b09b 4244
000002f0: 1b7e 3344 95b7 5a44 af1e 7844 8a64 2b44
00000300: b0d4 b143 fb2f 4844 c0b9 8d44 9d55 2a44
00000310: c0f0 9f44 28cc 6e44 0000 0000 9ce1 8544
00000320: ca37 7044 4daf 4b44 d382 0244 0000 0000
00000330: 24a1 f343 2e84 dc43 bb7b 9244 0000 0000
00000340: f5b0 8344 786b 983f 6b60 8944 9a4e 8144
00000350: 5606 7b44 230e 2c44 4ff5 4c44 9910 4b44
00000360: b7ba b343 9f53 e743 3474 d243 c46d 5a44
00000370: d720 6e44 0000 0000 4397 3944 79c6 f843
00000380: 774b ae43 168a 3b44 a692 9144 044c 2a44
00000390: e670 3a44 9401 9a44 491c 2444 a4ed 9e44
000003a0: 4d4e dd43 97da 6544 c766 7344 84f5 2044
000003b0: 408c 7744 9fca 5e44 0000 0000 c5d4 5e44
000003c0: 0000 0000 9fd3 a642 cbe8 9b44 a69c b943
000003d0: 3131 3444 8f56 0944 e352 4644 578e 4544
000003e0: 2f9c 8344 2a68 bf44 5da0 8644 56a8 7844
000003f0: b96a 4444 b88a 0b44 746b 8744 0000 0000

exp_avg f4 [64]
-0.23502024 1.484431 6e-45 6e-45 -0.38570374 0.0 6e-45 0.067621596
0.0 0.0 0.014533634 0.0 0.0 0.0 0.2459395 -0.14111061
6e-45 0.000598585 0.5827517 6e-45 -0.81981736 0.0 -11.266307 0.21823001
-0.13231646 0.0 6e-45 6e-45 6e-45 -0.5455538 -0.49933258 -3.4667897
-0.21278769 0.25711867 -9.508797 0.12289838 0.0 6e-45 0.0 6e-45
-1.0477588 6e-45 0.3849574 6e-45 6e-45 0.0 6e-45 12.087935
7.149864 -0.35496467 0.0 6e-45 -0.47797942 6e-45 6e-45 0.50067353
0.0 6e-45 2.5395496 6e-45 6e-45 -10.544078 -0.39307135 -6.4561057
00000000: 25a9 70be d601 be3f 0400 0000 0400 0000
00000010: f67a c5be 0000 0000 0400 0000 317d 8a3d
00000020: 0000 0000 0000 0000 7b1e 6e3c 0000 0000
00000030: 0000 0000 0000 0000 90d7 7b3e 4d7f 10be
00000040: 0400 0000 5cea 1c3a 372f 153f 0400 0000
00000050: 8ddf 51bf 0000 0000 cb42 34c1 b077 5f3e
00000060: f77d 07be 0000 0000 0400 0000 0400 0000
00000070: 0400 0000 6aa9 0bbf 85a8 ffbe e2df 5dc0
00000080: 04e5 59be 0fa5 833e 0824 18c1 25b2 fb3d
00000090: 0000 0000 0400 0000 0000 0000 0400 0000
000000a0: f61c 86bf 0400 0000 2319 c53e 0400 0000
000000b0: 0400 0000 0000 0000 0400 0000 2f68 4141
000000c0: b0cb e440 eebd b5be 0000 0000 0400 0000
000000d0: b8b9 f4be 0400 0000 0400 0000 242c 003f
000000e0: 0000 0000 0400 0000 fb87 2240 0400 0000
000000f0: 0400 0000 8bb4 28c1 a640 c9be 6b98 cec0
