models/flappy_dqn_gen0.pth (torch, 411362 bytes, 11 tensors)

fc1.weight f4 [256, 7]
000000 5d b3 82 3e 6c fe ea 3e 41 3a a1 bd ed 4a f0 bc
       0.25527468 0.45897233 -0.07872439 -0.029332602
000010 9a ff 95 3e 86 53 6d 3e 78 77 85 bd ff 31 d3 3e
       0.2929657 0.23176393 -0.065169275 0.41249081
000020 d6 d6 83 3d ef 91 b0 3e 95 07 82 3d 59 9d b2 3e
       0.06437461 0.34486338 0.063491024 0.34885672
000030 89 56 23 be 25 3f 87 be 04 e3 4f 3e 6f 43 1a be
       -0.1595098 -0.26415363 0.20301443 -0.15064786
000040 6b b7 ca 3e 50 bb bb bc 95 01 4a be b7 1d 25 be
       0.39593062 -0.022916466 -0.19727166 -0.16124617
000050 24 ff c4 3e fe ea 0c be 08 a3 54 be 45 2f c4 3e
       0.38475907 -0.13761517 -0.20765316 0.38317314
000060 52 29 a5 3d 8a 06 a4 bd 49 ff 09 be 22 ac 9b 3d
       0.08064522 -0.0800906 -0.1347629 0.07601191
000070 a0 17 51 3e 03 dc 06 3f 09 68 98 3e fb a4 6a be
       0.20419168 0.5267946 0.29766873 -0.22914498
000080 c0 b0 fb 3d 1a 6d 66 3e 44 b7 4d be 24 32 03 3e
       0.12289572 0.22502556 -0.20089442 0.12812096
000090 8d f0 28 3f 80 c2 12 3f 71 b4 cc 3e 1c c5 00 3e
       0.6599205 0.57328033 0.39981416 0.12575191
0000a0 14 ee cc be 96 5b 09 3e 39 d1 1d be 42 1f 67 be
       -0.4002539 0.13413844 -0.15411843 -0.22570518
0000b0 c5 37 1d 3e 98 7a df be 36 74 ad 3d db db 5e 3e
       0.15353306 -0.4364822 0.08469431 0.21763556
0000c0 2c e3 98 bd 95 33 a4 3e 1d 01 a2 be 31 36 42 bd
       -0.074652046 0.32070604 -0.31641474 -0.047414962
0000d0 bd 16 24 be 7c 76 cf ba 9e 03 01 3e b8 7d b5 3e
       -0.16024299 -0.0015828158 0.12599036 0.35447478
0000e0 5d de 47 be b2 e8 20 bf 3f 22 37 3d d2 78 98 bd
       -0.19518419 -0.62855065 0.044710394 -0.0744492
0000f0 bc 0d 49 3e 0e 83 4f bb 4f 96 97 3e a3 01 b3 3e
       0.19634145 -0.0031663808 0.29606864 0.34962186
000100 3b fb eb bc 28 5e dc 3e 62 ef 54 3c c1 96 98 be
       -0.02880632 0.43040586 0.012996526 -0.29802516
000110 71 a2 c4 3e 4e 9b 32 bd f9 15 91 be 26 5f 1c 3e
       0.38405183 -0.04360514 -0.28337076 0.15270671
000120 85 c9 3c 3e 01 6b a8 3e 1a e3 40 3e b1 1b 59 3e
       0.18436249 0.32894138 0.18836632 0.2120197
000130 db 1b 89 bc 61 78 4b be c1 56 1f bf f7 b4 6b be
       -0.016736915 -0.1987014 -0.6224175 -0.23018251
000140 60 67 65 3e 58 52 47 3d a9 33 ab be f3 41 74 be
       0.22402716 0.048662513 -0.3343785 -0.23853283
000150 1c f5 ce 3c d6 51 ab 3e 00 71 db be 61 23 20 bf
       0.025263362 0.33460873 -0.4285965 -0.62553984
000160 a1 75 86 be 06 f1 81 3e e2 88 8f be 30 00 9f be
       -0.2626162 0.253792 -0.2803412 -0.3105483
000170 10 7f da 3e 04 c1 09 3f 37 1b c5 3e e6 f1 b3 3e
       0.42675066 0.53810143 0.38497326 0.3514549
000180 a1 95 e2 3d be e0 6b 3e 67 09 c4 be cb a6 a7 be
       0.11063696 0.23034951 -0.38288423 -0.3274444
000190 59 15 a1 3e d3 11 0e 3d f5 7e 90 bd 8b 94 be 3e
       0.314616 0.034684967 -0.07055465 0.37222704
0001a0 46 94 5f 3e cd 33 0a 3e 83 cf 5d 3e fb 42 08 3e
       0.21833906 0.13496323 0.2166119 0.13306801
0001b0 c2 65 24 3e 0e 90 c1 3e 72 a0 86 3d 47 11 20 3d
       0.16054443 0.37805218 0.06573571 0.039078977
0001c0 80 9e 98 bd 97 1e e8 3e fb 14 09 3f d4 ac 99 3e
       -0.074521065 0.45335838 0.5354764 0.3001467
0001d0 85 4c 90 3e 59 99 32 be 3e 4a 21 3e 30 61 7e be
       0.2818338 -0.1744131 0.15750977 -0.24841762
0001e0 36 e7 1f be d4 d1 4f be 64 73 c2 3e fa 61 5f 3e
       -0.15615544 -0.20294887 0.3797866 0.21814719
0001f0 ca 44 fd 3c d7 e7 7c 3e b0 48 5a bd 7f 9e cf 3e
       0.03091659 0.24697815 -0.053291976 0.4055061
000200 d9 43 26 3f bc e5 ca 3e 65 c6 24 3e 1e ae 3e 3c
       0.6494728 0.39628398 0.16091307 0.011638192
000210 b1 70 87 3e f7 0e 0f bc 8e 84 31 3f 8d f6 ca 3b
       0.26453164 -0.008731595 0.6934289 0.006193942
000220 ac f8 02 3a 09 b0 a4 3b 02 b2 47 3d 59 e6 83 bd
       0.00049961614 0.005025868 0.048753746 -0.0644042
000230 f1 e7 2a 3e 79 67 80 be ca 7f 7b be 99 ac 33 3d
       0.16690041 -0.25078943 -0.24560466 0.043865774
000240 b7 72 9e be c8 7b 9f be f9 8e 5c 3d 4d 4b b6 3d
       -0.30946895 -0.31149125 0.053847287 0.08901081
000250 8d cd fe 3e 65 f4 3a 3e 26 21 5d be f9 a7 d0 3e
       0.49766198 0.18257292 -0.21594676 0.40753153
000260 81 b8 9a 3c 40 2c 8d 3c 38 87 99 be 21 14 8d be
       0.018886806 0.017233014 -0.29985976 -0.2755442
000270 1a bf bf 3e 89 ae 9f 3d 82 1d 7a be 6f 6b a1 be
       0.37450486 0.07796962 -0.24425319 -0.31527278
000280 50 2c 17 3e ea 8e 2d be 8c 4a b7 3e 61 17 a2 3e
       0.14762998 -0.16949049 0.35799062 0.31658462
000290 60 e3 5a 3e a7 eb fd 3c 35 9b cc 3d 02 88 83 3d
       0.21375799 0.030996157 0.09990541 0.06422426
0002a0 a5 ad bd be a0 84 ac be 80 4a a6 be aa 02 9e be
       -0.37046543 -0.33694935 -0.32478714 -0.30861408
0002b0 dc 1d 7f 3e 9b ea 8a 3e 62 0c 04 3e 20 f4 7d bd
       0.24913734 0.27132115 0.12895349 -0.062000394
0002c0 a5 df f9 3d c2 ec 96 bc 01 22 41 be 55 fe 8e bd
       0.1220086 -0.018423442 -0.18860628 -0.06982104
0002d0 99 99 72 3e dd 71 89 be 98 dd 67 bd 72 e0 a7 bd
       0.23691405 -0.26844683 -0.056607813 -0.081971064
0002e0 45 f9 7c be 8f e8 b8 3e e9 cd 8c 3e 9e b2 0a 3e
       -0.24704464 0.36114928 0.27500847 0.135447
0002f0 41 25 94 3e 1d 41 be bd 8f cd 8e be 64 2a c3 3e
       0.28934672 -0.09289763 -0.27891204 0.3811828
000300 4c 1c 99 3e 9f 79 1b 3e 02 76 85 3e 79 06 32 bd
       0.299044 0.15183114 0.26066595 -0.043463204
000310 e4 f4 69 be 77 07 fe 3e 14 88 a8 be fc 21 b4 be
       -0.22847325 0.4961507 -0.3291632 -0.35182178
000320 e5 2e 29 3e 0f 88 d3 3e 9f 74 cb 3e 58 c4 3a 3c
       0.16521795 0.41314742 0.39737412 0.011399351
000330 8b f7 6d bd 6a 72 96 bd 54 7d b8 3e 5e ae 61 3d
       -0.058097403 -0.073460415 0.36033118 0.05509793
000340 4e 0e b1 3e e7 39 61 3d e3 8a 82 3e 07 e4 6a be
       0.34581226 0.05498686 0.25496587 -0.22938548
000350 33 31 a2 be c1 5e 53 3e 32 cc 92 3e b7 1a cb 3e
       -0.3167816 0.20641614 0.28671414 0.3966882
000360 ec ac c1 3e 03 5a 5c 3e 7e 5a 88 be 81 19 99 be
       0.3782724 0.21518712 -0.2663154 -0.2990227
000370 19 3a 1d bd 56 87 94 3c 4a d4 ba be 33 10 d6 bc
       -0.038385484 0.01813094 -0.3649009 -0.026130771
000380 a4 fe a3 3e e2 f2 29 3e 92 42 a7 3e 38 ec 3c 3e
       0.32030213 0.16596559 0.32667977 0.18449485
000390 38 ba 27 be 9c 8b e2 3e 32 f5 48 bd 43 74 77 bd
       -0.1637963 0.44247139 -0.04906196 -0.06041361
0003a0 e0 a6 49 3f 6c 0f c9 bc 71 cf 5b 3e f4 7f 5b 3d
       0.78770256 -0.024543487 0.21465851 0.053588822
0003b0 ce e0 25 3d 3c 1b 66 be 82 34 af be 8d 5f ad 3e
       0.040497594 -0.22471327 -0.34219748 0.33861962
0003c0 fc 9e 0b 3e 4a 46 70 3e a6 14 62 3e c6 96 50 be
       0.13634866 0.23464313 0.22078189 -0.20370016
0003d0 6d 83 d7 3e 77 3e c1 be 78 d3 32 3e a5 12 54 3e
       0.42092457 -0.3774297 0.17463481 0.20710237
0003e0 91 a1 59 3d 0c ac a0 be 38 b3 7f be 74 da 85 3e
       0.053132597 -0.3138126 -0.2497071 0.2614323
0003f0 84 56 a1 bd 07 bf 05 3e e6 a9 81 3c 19 c6 6d be
       -0.0787783 0.13061152 0.015828084 -0.232201

fc1.bias f4 [256]
000000 ac b1 b8 3e dd a2 d0 bd 11 37 74 bd 7c 40 c8 3e
       0.36073053 -0.10187314 -0.059622828 0.39111698
000010 7f 36 5e 3d 28 36 55 bd 0f e5 b6 bb 12 d3 da bd
       0.05425119 -0.0520536 -0.005581505 -0.1068479
000020 2c ed 4b bd 84 a5 f6 bc 81 2e c2 3e 1c b3 8d bd
       -0.04978673 -0.03010822 0.37926105 -0.06918928
000030 8d ea 39 3e d5 46 6e 3e c6 ee 70 bd 53 61 11 3e
       0.1815588 0.23269208 -0.058821462 0.14197282
000040 0b 7d ad 3e 94 62 0a be 5a c4 ae be a7 e6 87 bd
       0.33884463 -0.13514167 -0.3413418 -0.0663579
000050 0d 28 e3 3e ef 93 59 be ed 92 9e be 19 42 a6 3e
       0.44366494 -0.21247838 -0.3097147 0.32472304
000060 f0 d9 86 3e c2 c0 aa bd 3a bf 8d 3e 74 2b 0b 3e
       0.26338148 -0.08337547 0.27684957 0.13590795
000070 2f 95 63 bc e2 c3 c6 be 50 e7 28 3d 7e 68 54 3e
       -0.013890549 -0.38821322 0.04123622 0.20742986
000080 38 5f ee bd 7f 4b a2 3b 15 02 2f be a1 58 4f 3e
       -0.11639255 0.0049528475 -0.17090638 0.20248653
000090 73 be ed bd e2 b9 59 3e c1 1e 66 3e a6 b0 dc bd
       -0.11608591 0.21262315 0.22472669 -0.107758805
0000a0 e6 27 60 3e 7a 17 76 bd 06 5f 8c 3e 4a af f3 3d
       0.2189022 -0.060080983 0.27416247 0.11898668
0000b0 c9 ab 9e bd 75 15 0e be f6 61 38 bc aa 62 bc bc
       -0.07747609 -0.13875373 -0.011253824 -0.022996265
0000c0 a9 0a 51 3e 91 83 c2 3e a6 95 bf 3e cb 5c a6 be
       0.20414223 0.37991002 0.3741886 -0.3249267
0000d0 f1 a7 bc bd 0d c3 34 be a2 8c 27 be e6 1e 26 be
       -0.0921172 -0.17652531 -0.16362241 -0.16222724
0000e0 fa dc 30 bd 7c f7 d8 bd 72 27 d2 bc 3a 88 2d 3e
       -0.04317949 -0.10594079 -0.025653575 0.16946498
0000f0 d3 cf 81 3e 27 01 2d be fe f0 41 3e 44 09 09 be
       0.2535387 -0.16894971 0.18939587 -0.13382441
000100 c0 2e ca 3e 2b 03 60 3e 65 f6 48 bd 28 91 35 3b
       0.39488792 0.21876208 -0.049063105 0.0027704928
000110 76 a8 8c 3e 77 39 0f 3e e3 13 54 3e c2 3a 52 3e
       0.27472275 0.13986765 0.20710711 0.20530227
000120 10 12 41 3e 42 d9 96 3e 3b 9e a9 be d0 92 43 3e
       0.18854547 0.2946263 -0.33128533 0.19098973
000130 66 0f 47 3e a3 a4 7d be 47 ca af be 79 90 9d be
       0.19439468 -0.24769835 -0.34334013 -0.30774286
000140 81 d4 09 3e b6 fa af be 9c bc bf 3e 6c f2 75 bc
       0.1345997 -0.34370965 0.37448585 -0.015011411
000150 91 14 76 3d 88 15 5c be 19 88 c5 3e 98 ba 96 be
       0.060078207 -0.21492589 0.38580397 -0.29439235
000160 9f 56 63 be 5a fe a1 be 4d f1 12 3e 18 e5 5a 3e
       -0.22201012 -0.31639367 0.14349861 0.21376455
000170 59 6a 16 be c7 69 6d 3e 22 2f 28 be 46 6c aa be
       -0.14689006 0.23184882 -0.1642423 -0.3328573
000180 ed 7c d0 bc 32 f7 69 3d f8 5c a5 3e 30 89 92 be
       -0.025450194 0.05712051 0.32297492 -0.2862029
000190 fa 26 c0 3e 75 84 a3 3e ea c9 85 3e 4f 81 62 be
       0.37529737 0.31936994 0.2613061 -0.2211964
0001a0 17 48 3a be d1 f8 33 be 41 1a 65 bd f3 9e 99 be
       -0.18191563 -0.17575385 -0.05593324 -0.3000408
0001b0 1c 53 ec bd 97 32 49 bc 21 82 93 3e 62 72 24 3e
       -0.11539289 -0.012280128 0.28810218 0.16059259
0001c0 13 c2 2a be c5 5c 6d 3e 81 69 f0 bc 81 39 b0 3d
       -0.16675596 0.2317992 -0.029347183 0.08604718
0001d0 8d 33 59 3e af a7 fb bd 29 fa 13 3e 74 44 38 bd
       0.21211071 -0.122878425 0.14450897 -0.044987157
0001e0 3d 78 b7 3e 37 85 07 3e 80 3d e4 3d 9e 80 68 be
       0.35833922 0.13234411 0.11144543 -0.22705314
0001f0 a5 fe 98 be 29 4e 18 3c 73 bc 06 3e 3b 45 c4 3e
       -0.29881778 0.009295979 0.13157825 0.3833407
000200 b5 7f 27 3e fd da 71 3e bb ea 9b 3d 77 8d 7b be
       0.1635731 0.23618694 0.07613131 -0.24565683
000210 2f d9 d1 be ff a8 62 be e3 7a 2e 3e 1d 15 99 be
       -0.4098601 -0.2213478 0.17039065 -0.2989892
000220 26 44 3b 3c 27 24 06 bd 01 71 3a be 76 cd ab 3e
       0.011429822 -0.03274932 -0.1820717 0.33555192
000230 50 59 40 3d f9 8b 7d 3e 6d 55 08 bd 2a 5f a2 3e
       0.046960175 0.24760427 -0.033284593 0.3171323
000240 83 c0 f4 3d 8e 70 9c bd a1 ca 56 3c 6e 35 ab 3c
       0.11950781 -0.076386556 0.013109834 0.0208995
000250 e6 d8 1d bc a4 e9 97 be 4c 10 3b be 1c 99 8b bc
       -0.009634232 -0.2967044 -0.18267936 -0.017040782
000260 d1 0e c7 bd ec 46 8e 3e c4 4c f5 bd f3 2d 84 3e
       -0.09719623 0.27788484 -0.119775325 0.25816306
000270 95 6f 17 bc 60 68 39 be 08 82 d6 3e 2b c3 81 3c
       -0.009242912 -0.18106222 0.4189608 0.015840134
000280 31 06 55 3e f6 d1 bf bc 13 45 5d 3b d4 b0 ea bd
       0.20803143 -0.023415547 0.0033763095 -0.114595085
000290 fd f1 6a 3d 1f 2f 8d 3e fb b0 9f be b8 b7 3c 3e
       0.057359684 0.27575013 -0.31189713 0.18429458
0002a0 0a 10 aa 3e 13 89 a1 be ee 91 d8 3d ed a6 45 be
       0.33215362 -0.31549892 0.10574709 -0.19301958
0002b0 6f 01 76 3e f7 15 2d 3e 21 2a 12 3d 00 ed b2 3e
       0.24023984 0.1690291 0.03568471 0.34946442
0002c0 cd f3 72 bd 09 33 bd 3e 73 6e a1 3e 68 0d b7 3e
       -0.059314538 0.36953 0.3152958 0.35752416
0002d0 4c a4 ca bc a3 b6 8c 3e a1 98 26 3e 94 01 19 be
       -0.024736546 0.2748309 0.16269161 -0.14942008
0002e0 9b 1d 1e be 16 ca ac bd 3e 83 50 3e 5c 30 5c bc
       -0.15440981 -0.08436982 0.20362565 -0.013439264
0002f0 c6 ab 97 3d 03 6c 21 bd 9f 27 99 be ec e7 7b 3e
       0.0740581 -0.03940965 -0.2991304 0.2460019
000300 9b d9 c2 3d b3 6f 2e 3e c0 6d d4 3e 76 45 e6 bd
       0.09514161 0.17034797 0.41489983 -0.11243717
000310 c5 28 8f 3e 78 0c 6b bb 80 31 37 3e 15 ef 70 3e
       0.27960792 -0.0035865586 0.17889977 0.23528703
000320 2a 89 d1 3e df 57 8a 3d 59 a4 af 3d 25 39 28 3e
       0.4092496 0.06755041 0.08576269 0.16428049
000330 9e 57 b3 3e 81 5d 25 be 43 35 28 3e d6 0f b5 be
       0.35027784 -0.1614895 0.16426568 -0.35363644
000340 28 1f 1f 3e a7 36 24 be 2f 17 ba be 12 cf c9 3d
       0.15539229 -0.16036473 -0.36345813 0.09853949
000350 7f ed 4c be 22 3c b1 3d 60 f4 4c be a8 89 01 bd
       -0.20012473 0.086540475 -0.20015097 -0.03162542
000360 06 bd c0 3e 31 6e f8 bd 0e c2 c9 bd e4 18 ce 3e
       0.37644213 -0.12130392 -0.09851466 0.40253365
000370 e2 0c 40 3e ea 0d 65 3c 6f 1a be be 44 37 00 3e
       0.18754914 0.013980368 -0.37129542 0.12521082
000380 fb 08 aa be 5b f4 ab 3e 74 fb 09 be 27 f9 94 be
       -0.33209977 0.33584866 -0.13474828 -0.29096338
000390 a2 1a 97 3e ca 67 12 3d e0 be ff 3d 1d 73 e2 bc
       0.29512507 0.035743512 0.124875784 -0.02764278
0003a0 24 52 5f be 42 3d 81 3e 87 6b c8 3c 37 20 1f 3b
       -0.21808678 0.25242049 0.024465336 0.0024280676
0003b0 83 fc ea bc dd 5b 1a bd cf cc 44 3d 61 3d 3b be
       -0.02868486 -0.037685264 0.048046883 -0.18285133
0003c0 12 2b 1b 3e 11 b7 28 bc 70 7d 5e be 5b 25 59 be
       0.15153149 -0.010297553 -0.21727538 -0.21205656
0003d0 27 d6 0c be f7 1e 91 be d7 1b 7b 3d 67 0d a3 bc
       -0.13753568 -0.28343937 0.061305847 -0.019903852
0003e0 8c fb 89 3e 27 57 2c 3e b5 6d 07 3e e1 8d 94 be
       0.26949728 0.16830121 0.13225444 -0.29014495
0003f0 ee 82 26 be ef d0 b7 be 5b bf bf 3d d1 27 69 be
       -0.16260883 -0.3590159 0.0936267 -0.22769095

fc2.weight f4 [128, 256]
000000 d1 6f 66 bc 09 62 bf 3b fb 93 17 3d 66 9b 30 bd
       -0.014064745 0.005840544 0.03700636 -0.04311695
000010 45 2f 80 3c 10 ae e0 3b 3b 11 bb 3c 3c e4 45 3b
       0.01564754 0.0068566874 0.022835365 0.0030195853
000020 aa 91 44 bd 76 5f 59 bc ed f8 1d 3c 32 2e 38 3d
       -0.04799048 -0.013267389 0.009641868 0.04496593
000030 96 79 3e 3d 19 4c 83 bd 90 41 a9 3c 43 2a 83 bd
       0.046502672 -0.06410999 0.020661145 -0.06404545
000040 75 aa 90 3c a8 4a ae 3c 50 f1 aa bc e3 92 f5 bc
       0.017659405 0.021275833 -0.02086702 -0.029977268
000050 0b b5 46 3d 70 b7 98 3c f0 66 14 bd a0 b4 38 3d
       0.0485125 0.018642157 -0.03623098 0.045094132
000060 6d ed 87 3c c9 a1 57 bd 03 2e 51 bd fe 2b 45 bd
       0.016592706 -0.052644525 -0.05106927 -0.048137657
000070 f3 d1 2b bd a4 6a 8a 3c 98 a7 72 bc 9a 88 e0 3c
       -0.04194827 0.016896553 -0.014810465 0.027408887
000080 02 ee 53 3d 31 42 47 bd 70 4c eb 3b 48 2c 3a bd
       0.051740654 -0.04864711 0.007180743 -0.045452386
000090 a4 8b 25 3d 6c e3 d0 3c 7e bb 1e bd 42 1e 59 3d
       0.040416375 0.025499068 -0.038753025 0.05300737
0000a0 8b d0 3b 3c cc 41 a3 bc 9b 9c 0b bd a6 e8 89 bc
       0.011463295 -0.019928835 -0.034084897 -0.016834568
0000b0 a0 be f1 3c 86 a5 78 bd 32 e2 4b bb ee cc 0e bd
       0.029509842 -0.06070473 -0.0031110165 -0.034863405
0000c0 2c 14 7c bd a0 c0 21 3d ea 07 65 bd 80 55 5a bd
       -0.061542675 0.039490342 -0.05591575 -0.053304195
0000d0 58 76 c1 3a b2 07 49 3d b1 bb f3 3c fa fe 2e bd
       0.0014760001 0.049079604 0.029752584 -0.042723633
0000e0 46 3f 34 3d 84 94 17 3d b0 51 f1 3c ba f5 29 bd
       0.044005655 0.03700687 0.029457897 -0.04149411
0000f0 32 84 52 bc e5 07 8d bc a8 10 e7 bc 60 95 02 bb
       -0.012848901 -0.017215678 -0.028206185 -0.001992546
000100 d4 1e ab 3c a2 ba 3e bd 0e f7 32 3d 29 06 3f bd
       0.020888723 -0.046564706 0.04369264 -0.046636734
000110 f5 1b 2c bd d5 64 91 bc 83 a1 35 3d 4c d8 28 3d
       -0.04201885 -0.017748276 0.044343483 0.0412219
000120 42 e4 76 bb 9c 50 c5 3c 7e ce 4e 3d 86 64 f4 bc
       -0.0037672673 0.02408629 0.050489895 -0.02983309
000130 2f ab 6b 3c 50 75 92 bc e8 80 d4 3c 30 0a 39 3d
       0.014384075 -0.017878205 0.025940374 0.04517573
000140 09 e5 b5 3c 98 ea 65 bc ec f0 fc bc 88 ff 3b bd
       0.022203939 -0.014032982 -0.0308766 -0.04589799
000150 69 98 f6 bc 20 04 46 3d 7c b1 e8 bc a2 c8 31 bd
       -0.030101972 0.048343778 -0.028404944 -0.04340423
000160 34 86 43 3c 60 63 d7 bb df 42 3f 3d 9e 49 30 3d
       0.011933852 -0.0065731257 0.046694633 0.043038957
000170 89 ba 44 bc 04 51 0d 3c 42 13 de 3c 10 6a 7a 3d
       -0.012007364 0.008625273 0.027108792 0.061136305
000180 dc 63 02 bd a0 9d 12 bb 76 92 5a bd 84 ef 8d bc
       -0.031833515 -0.0022371784 -0.053362332 -0.017326124
000190 62 0e 87 bd 4c e0 82 3c 29 b1 69 bd d4 e6 30 3d
       -0.0659454 0.015976094 -0.05705372 0.043188885
0001a0 34 c7 2d 3d 94 55 4e 3d 06 d8 f3 bc b5 e4 48 bd
       0.042426303 0.050374582 -0.029766094 -0.049046237
0001b0 50 2a 15 bc b3 1c 7b bd d1 22 c3 bb 87 60 9b bb
       -0.009104326 -0.061306667 -0.005955078 -0.0047417316
0001c0 10 75 4a 3c 76 99 63 bd 01 ba 3d 3a df 13 c1 bc
       0.012357011 -0.055566274 0.00072374946 -0.023569046
0001d0 bc a9 90 bc e4 43 58 3c ab 17 87 3c 10 7b 6a 3c
       -0.01765906 0.01319978 0.016490778 0.014311567
0001e0 b0 49 d1 3b 60 24 6e bc 26 76 43 3d 20 e7 2c bc
       0.006386958 -0.01453504 0.047720097 -0.010553151
0001f0 d2 4b 90 bc b4 1c 12 3d 5c c0 43 bd 3c 54 84 bc
       -0.017614279 0.035671905 -0.04779087 -0.016153447
000200 ce 5f 31 3d a8 67 dd bc 51 32 4b bd 8d 17 17 3d
       0.043304257 -0.027026966 -0.049608532 0.036887694
000210 20 5c ab 3c 8e 28 9e bc 1c 1f fc bc 02 a8 2f bd
       0.020917952 -0.019306447 -0.030776553 -0.042884834
000220 97 b8 44 bd 65 56 ae bb 68 05 d4 3c fb 4c 21 3d
       -0.0480276 -0.0053203576 0.025881484 0.039380055
000230 81 8d 65 3d 7d a3 c7 bc 90 e3 dd 39 87 02 aa 3c
       0.05604315 -0.02436995 0.00042321952 0.020753158
000240 00 d0 8b bc 4e cd f7 bc 4c 27 06 bd 2c 2a 43 3d
       -0.017066956 -0.030249264 -0.03275232 0.04764764
000250 73 82 32 bd c0 1c b9 bc 18 c1 dd bc 5a 7b 07 3d
       -0.043581437 -0.022596717 -0.027069613 0.03307662
000260 e4 b7 d6 bc 98 19 70 bd f8 73 40 3d 87 6c 69 bd
       -0.026210733 -0.058618158 0.046985596 -0.056988265
000270 85 b2 fa 3c 3c 1e 68 bd 20 18 d1 bc f4 3d 57 3d
       0.030602703 -0.05666946 -0.025524199 0.052549317
000280 b7 61 4b 3d f0 c1 9a 3c a6 e4 14 3d a1 b9 ac 3b
       0.049653735 0.018891305 0.03635087 0.005271152
000290 fc 4a 7d bc d6 07 4a bd 4a e4 2f bd 1d d9 c8 bc
       -0.015459772 -0.04932388 -0.042942323 -0.02451759
0002a0 69 6d 83 bd 58 08 e8 bc d9 b2 b6 bb 09 b1 4e bd
       -0.06417353 -0.028324291 -0.0055755195 -0.050461803
0002b0 90 75 d8 3c aa 07 57 bd 74 1f 83 bd 24 54 32 3d
       0.026423246 -0.052497543 -0.064024836 0.043537274
0002c0 fd 86 ac 3b e2 33 c9 3c c2 14 3a bd dc 02 56 bc
       0.0052651153 0.024560872 -0.045429952 -0.013062205
0002d0 50 d5 05 3b c0 d0 6b bd c5 23 1a 3d 4a ec 97 bc
       0.0020421334 -0.057572126 0.03763177 -0.018545289
0002e0 e3 0f 57 bd 88 0a 0a 3c a8 64 3c bd 54 96 0d bd
       -0.052505385 0.008425362 -0.04599443 -0.034567192
0002f0 6a cf 8e bd 70 88 3c 3d 20 45 a6 bc 5d 6c 42 bd
       -0.06973155 0.046028554 -0.020296633 -0.047466625
000300 31 18 ba 3c b6 0b f0 3c 99 c5 a2 3c c8 61 ab 3c
       0.022716613 0.02930246 0.019869613 0.02092065
000310 91 91 0a bd 94 49 73 bc 8b d7 49 bd fc 7b b0 3c
       -0.03383023 -0.014849085 -0.049277823 0.021543495
000320 c2 27 63 bd 59 22 e4 3c da b6 2f bd 3e 22 16 bc
       -0.055457838 0.02784841 -0.04289899 -0.009163437
000330 07 c4 45 bd 0c a2 04 3d fa f2 80 bd 4e 0e 0b bd
       -0.04828265 0.032381102 -0.06296344 -0.03394919
000340 be 81 ba bc 61 77 f8 3c 00 a8 aa bc c9 82 0e 3d
       -0.022766944 0.030330362 -0.020832062 0.034792695
000350 80 e8 7b bd c3 0b 8c bc 63 25 0b 3b c8 2c 26 bd
       -0.061501026 -0.017095452 0.0021232 -0.04057005
000360 54 51 fc bc c4 0a d6 3c 37 ef 19 3b ab b8 d0 3c
       -0.030800499 0.02612818 0.002348853 0.025478682
000370 a2 7f 27 bd 4c bc 7f 3d e4 bf af bb a2 e4 74 3d
       -0.040893205 0.062435433 -0.0053634513 0.059788354
000380 f2 a9 67 bd 84 49 f8 bc 3c ad 46 3d 40 01 29 3b
       -0.056558557 -0.030308492 0.048505053 0.0025788099
000390 9b fa 21 3d 44 31 aa bb b3 3b 04 3d 53 8c 15 3c
       0.039545637 -0.005193861 0.032283496 0.009127694
0003a0 80 c1 8e bc 2d 43 16 3d e8 a0 6f 3c e0 e8 9a bb
       -0.017426252 0.036685158 0.014625765 -0.004727468
0003b0 a7 6b 76 bc 1c dd cf bc 7a a1 2d bb 71 c7 03 3d
       -0.015040315 -0.025373988 -0.0026493953 0.032172624
0003c0 7d da 43 bd 70 4b 85 bd 9a 08 86 bd 1b da 43 3d
       -0.04781579 -0.06508529 -0.06544609 0.047815423
0003d0 9a bf 2a bc 7d 66 d8 3b db ee 31 3d 9b 15 1a 3d
       -0.010421658 0.0066040144 0.04344068 0.03761826
0003e0 9d 85 4d bd 5d fb 32 3c b9 14 7f bd 9d 0c 10 bb
       -0.05017625 0.0109241875 -0.062275622 -0.0021980174
0003f0 77 1b 43 3d a3 ca 27 bd 3f d1 c2 3c cf cd 23 3d
       0.047633614 -0.040964734 0.023781417 0.039991196

fc2.bias f4 [128]
000000 df 94 55 bd f0 5a 81 3b 0f 17 ba bc 81 6b 81 3d
       -0.052143928 0.003947608 -0.022716073 0.06319333
000010 93 6e 05 bd 80 f0 24 3d 3c b0 1b bd f8 a1 cf 3c
       -0.032576155 0.04026842 -0.038009867 0.025345787
000020 44 43 ab bd 35 c5 08 bb 58 55 67 bc a8 7b 0f 3d
       -0.08362439 -0.0020869498 -0.014119469 0.035030037
000030 bf fa bf 3d 9e 1b 8a bd 96 e9 16 3d 66 ce 61 3c
       0.09373998 -0.06743549 0.03684386 0.013782119
000040 57 77 1d 3d 2c 02 13 3c b5 4c 01 bd 7d 11 2b 3c
       0.03844389 0.008972686 -0.031567294 0.010441181
000050 e6 e8 08 bc 2a 74 6c bd f7 81 e9 3b 43 7d de 3b
       -0.008356309 -0.05772797 0.0071260887 0.0067898347
000060 61 24 c4 bb 47 18 0e 3c df 6e 97 3d e5 44 91 3d
       -0.005985782 0.00867278 0.07394194 0.07093219
000070 12 c8 ff bb a8 6b db ba da ed fb bc c1 76 47 3c
       -0.0078058327 -0.0016740458 -0.030753065 0.012174309
000080 d5 f2 11 3d ea d5 1e bd 91 82 91 3c 64 3a 8f 3d
       0.035631973 -0.038778223 0.017762454 0.06993559
000090 2c 86 8e 3c d6 19 90 3d 5f c3 62 bd 7f 53 88 3d
       0.017397963 0.07036178 -0.0553621 0.066565506
0000a0 da 15 ba 3c df 22 cf bc ea c0 38 bc 9a b6 10 3c
       0.022715498 -0.025285183 -0.011276463 0.008832598
0000b0 52 10 df 3b 77 56 85 bb 65 e0 21 bd 0e 22 b8 bc
       0.0068073655 -0.0040691453 -0.03952064 -0.022477176
0000c0 72 ae 93 3c a2 58 51 3d 97 ba d0 bd a9 2e 71 3b
       0.018027518 0.051109917 -0.10191839 0.0036801493
0000d0 a8 f9 a9 bd 43 1b 80 3d 8a 68 4d 3d 86 7b 51 3d
       -0.08299571 0.062552 0.050148524 0.05114319
0000e0 77 c0 55 3d a4 0c 71 bd a0 92 1e 3d 50 32 ba bb
       0.052185502 -0.058849946 0.03871405 -0.0056822672
0000f0 72 04 69 3d 39 6c 31 3d ed 9c 91 bd 30 27 81 bd
       0.056889005 0.0433161 -0.07110009 -0.063063025
000100 e2 ed 56 3d 3e b9 78 3c 1d 88 19 3c ba 30 56 bd
       0.052472956 0.015180884 0.009370831 -0.052292563
000110 de 91 40 bd d9 47 82 bd 60 85 10 3b ce 45 2e bd
       -0.04701411 -0.0636136 0.0022052154 -0.04254704
000120 59 1e d8 bc aa 66 b1 3c e6 01 10 3d 19 45 32 3c
       -0.026381658 0.0216554 0.03515806 0.010880732
000130 cd f4 11 bd f1 62 43 bc 97 bf c8 bd 4e 63 ab bc
       -0.03563385 -0.011925445 -0.09802168 -0.020921376
000140 52 50 20 3c 4d e8 56 bd 55 8b aa 3a 7b 9a c3 bc
       0.009784775 -0.052467633 0.0013011495 -0.023877373
000150 65 59 f9 bb 27 f9 60 bd 47 75 3a 3d 80 44 59 3d
       -0.0076095336 -0.05492511 0.045522 0.053043842
000160 f2 c0 d6 3c 69 59 58 bc dd 03 59 3d 00 34 f5 38
       0.02621505 -0.013204911 0.0529822 0.00011692196
000170 ad 3c fa bc a6 19 62 bc de 94 68 bb c6 99 6a bb
       -0.03054651 -0.01380006 -0.0035489122 -0.0035797223
000180 c9 89 e3 3c 80 dc 0b 3d 45 83 d0 3c a7 09 69 3d
       0.027775662 0.034145832 0.02545322 0.05689397
000190 95 cf 95 bd 74 ca 3c 3d ab fc cb bd 7d 4f 51 3c
       -0.07314984 0.04609151 -0.09960302 0.012775299
0001a0 fd 5e af bc f5 4b 11 3d e5 09 11 3d b9 dc ac bc
       -0.021407599 0.03547283 0.035409827 -0.021101343
0001b0 c0 90 9b 3d 44 a4 f6 ba 52 5c f8 3c 06 d3 61 bd
       0.07595968 -0.0018817266 0.03031746 -0.05513289
0001c0 53 5d 94 3d 0a 9a 7b bd 08 f3 07 3c f9 7d 8e bc
       0.07244363 -0.0614262 0.008297689 -0.017394053
0001d0 59 72 3f 3d 97 7c c5 bc 2e 16 fe bc d3 23 0e bd
       0.04673991 -0.02410726 -0.031016435 -0.034702133
0001e0 9d a9 69 bc 14 48 09 bb 52 83 6f bd 16 3f ea bc
       -0.01426163 -0.0020947503 -0.058474846 -0.028594535
0001f0 e7 f0 99 bd dd 59 29 bd 03 87 52 bb fe 8b 39 bd
       -0.075166516 -0.041345466 -0.003212393 -0.045299523

fc_value.weight f4 [256, 128]
000000 0b 1b ae bd f8 04 2f 3d 6f 1e 99 bd 4a 3d 7a bc
       -0.08501252 0.042729348 -0.07476508 -0.0152734015
000010 29 52 c5 3b 3c 9f ce bd 54 11 c1 3c b9 19 87 3d
       0.006021757 -0.10088965 0.023567833 0.06596703
000020 cb 7c 34 3e 8d 6a 3a 3d f4 b2 57 3d 7f 18 3f 3d
       0.1762573 0.04551177 0.052660897 0.04665422
000030 eb 06 c4 3c 48 9c e1 3d 4b a6 2a bc 15 a9 c2 3c
       0.02392908 0.110161364 -0.010415624 0.023762265
000040 83 e5 3a bc 01 31 9e 3d bb 5d 9c bc 2e a6 82 bd
       -0.011407259 0.077241905 -0.019087663 -0.063793525
000050 94 7d 14 bd 57 91 2a 3e 69 7f 41 be 9d bd 66 3d
       -0.036252573 0.16657005 -0.1889626 0.056333173
000060 8e 99 8c bd a9 9a 16 be 53 66 73 3d 4e af a1 3d
       -0.06865226 -0.14707436 0.059423756 0.07894765
000070 98 e8 fb bb a7 8a 76 bc d8 aa 1f 3d f1 5d 1e 3e
       -0.0076876394 -0.015047706 0.03898129 0.15465523
000080 80 d2 42 3d b8 0c 35 3d 84 bc d6 3d 46 bc f1 3c
       0.04756403 0.044201583 0.10485175 0.029508721
000090 2f c5 cf 3d 62 d0 cf 3d 8f ea 95 3d 5e a2 4b bd
       0.10145032 0.10147168 0.07320129 -0.049715392
0000a0 e3 0d 2d 3c d7 4f 88 3d 1e 79 bb bd 99 58 24 3c
       0.010562393 0.06655853 -0.09153961 0.010030889
0000b0 c1 7e 84 3d 75 59 bc bd 7a 8d aa bd 01 a0 6a bd
       0.06469489 -0.0919675 -0.08327766 -0.057281498
0000c0 74 dd 4a 3d 9c 5b f9 3c 2c c9 99 3d dc 73 f4 3c
       0.0495276 0.03043919 0.075090736 0.029840402
0000d0 85 3b 8d 3d 06 74 c8 3d 88 7f ce 3c b6 d1 69 bb
       0.06896118 0.09787755 0.025207296 -0.0035677976
0000e0 73 8e 34 3d 50 a3 06 3e 42 0c 1c 3d 8b a5 a5 3c
       0.044081163 0.13148236 0.038097627 0.020220539
0000f0 7a ef ca 3d b8 9d b6 bd 5e 97 08 bb dc fa 87 3d
       0.09908958 -0.08916801 -0.0020842175 0.066396445
000100 86 a2 06 3d 70 8c 56 bd 03 3d 14 3d 16 71 7b 3e
       0.03286984 -0.052380025 0.036190998 0.24554858
000110 b1 92 81 3d 94 91 cd bc 22 36 98 ba 84 ad 72 3b
       0.06326807 -0.025093831 -0.0011612813 0.0037029693
000120 9a 71 af 3c ae b1 0d 3d a1 69 cf 3c f4 27 c1 bc
       0.021416474 0.034593277 0.025318922 -0.023578621
000130 9f f7 fb bb 81 3b e4 3d b1 8e 42 3e 86 89 21 3e
       -0.007689431 0.11144162 0.18999745 0.15775117
000140 bf 4c b8 3c cf 7a a6 bd b4 e9 2f 3e 50 88 d8 3c
       0.022497533 -0.08128893 0.17178994 0.026432186
000150 48 3e 76 3d 0f 1f 4c be 6a 0a 9e 3d f0 39 a0 bd
       0.06011799 -0.19933723 0.0771683 -0.07823551
000160 65 28 90 bc de cb 65 3d 69 ea 16 3d 5a eb 14 3d
       -0.017597387 0.056102626 0.036844645 0.03635726
000170 59 b8 45 bd 9c 17 e7 3d ca 5f a2 bd ce bd 16 bd
       -0.04827151 0.112838 -0.079284266 -0.036802106
000180 c1 11 0b bd 82 15 6d 3d 29 0d 5c bd 46 13 d1 3b
       -0.03395248 0.05788184 -0.053723488 0.0063804714
000190 f9 bb ce 3c 3e 22 45 bd 76 bc 15 3e ac 3c b6 bc
       0.025236117 -0.04812836 0.14622673 -0.022245727
0001a0 73 da e1 3d 63 8f 4f bd 3b 3a 85 3d 70 de d9 3d
       0.11027994 -0.050673854 0.06505247 0.1063813
0001b0 d5 a8 5a bd ff 09 b3 3d e2 2b 54 3c d4 4a 3a 3d
       -0.053383667 0.08742141 0.012949916 0.045481518
0001c0 2e 30 a4 3d 85 48 b9 3d fb ba 4a 3d c7 b2 c5 bc
       0.08017002 0.09047035 0.049494725 -0.0241331
0001d0 85 50 05 bd 5b 05 23 3d e6 fe 0e be dc 05 04 bd
       -0.032547493 0.03980003 -0.13964424 -0.03223215
0001e0 bc b5 b4 3d 24 4d 4f 3e 68 68 5b 3d 20 6e 9a 3d
       0.088237256 0.2024427 0.053566366 0.07540536
0001f0 65 70 f7 3d e3 60 2a bd d6 e1 e8 3c 98 d4 69 bd
       0.120819844 -0.041596305 0.028428 -0.05708751
000200 39 03 2f bd 75 ad 62 bd af 48 f3 3c 21 65 34 3d
       -0.042727683 -0.055341203 0.029697744 0.044041757
000210 a7 b9 00 bd ee 33 eb 3c bd a5 88 3d 17 83 c8 bd
       -0.031427052 0.028711285 0.06672237 -0.097906284
000220 a9 c2 82 bc ca c7 b1 bd 5e 3b 1a bd 3f 44 1a bd
       -0.015961962 -0.08680685 -0.037654273 -0.03766274
000230 b0 a7 57 3d 98 98 1b bd 6b 88 86 3d 33 74 39 bd
       0.052650154 -0.03798732 0.065689884 -0.04527683
000240 fe 9d 93 bc e0 e3 5d bc d5 ea 6c 3d a9 bc 8e bd
       -0.018019672 -0.013543099 0.05784114 -0.06969578
000250 d6 1d 05 3d 08 45 6d 3d 39 dc 27 bd d2 7b 97 3d
       0.032499157 0.05792716 -0.040981505 0.07396664
000260 9c 51 97 3d 1e 8e 83 bd 29 8e 93 3d 01 67 2c 3d
       0.07388613 -0.06423591 0.07204849 0.04209042
000270 02 f9 58 3c e0 ab c9 bd 65 55 24 bd a7 3e 0a bd
       0.013242962 -0.09847236 -0.0401205 -0.033751156
000280 17 6e 89 3d b6 fb 97 bd a3 58 88 bd 69 56 65 3d
       0.06710451 -0.07421057 -0.06657531 0.05599061
000290 ae 24 7d bd a5 0b a9 bd 84 64 14 bc 3f 97 90 bd
       -0.06180256 -0.08254174 -0.009057168 -0.07060098
0002a0 72 54 28 bd 50 b4 a6 bd 97 5a b6 bd da 0b fb bb
       -0.04109616 -0.08139861 -0.089039974 -0.007661325
0002b0 dd be 46 3d 1e a8 2f bc ac b0 27 3d b7 57 0a bd
       0.048521865 -0.010721235 0.04093997 -0.033775058
0002c0 1c f2 50 3d 11 79 4c bd ca 31 ef bc d8 46 fc bc
       0.051012143 -0.049920145 -0.029198546 -0.0307955
0002d0 d1 1d b6 bd 7f c3 bd bd 80 78 fd bc ce bb a9 bd
       -0.08892406 -0.092658035 -0.030941248 -0.08287774
0002e0 d7 2d bb bd 34 90 c3 bd cd 04 0a 3d 07 be 6d bd
       -0.09139603 -0.09548989 0.033695985 -0.058042552
0002f0 7e 2a eb bc bc 8a 52 bd 5b ab 17 3b 40 32 77 3c
       -0.028706785 -0.05140184 0.0023142907 0.015087664
000300 5f b9 2c 3d 5e 19 70 3d 2b 24 44 3d dd ba 98 3d
       0.04216897 0.058617942 0.047886055 0.07457516
000310 f6 a2 5b bb 91 0a 0e bd 99 b5 0e bd 55 3f 99 bd
       -0.003351388 -0.034678046 -0.034841154 -0.07482783
000320 0d 95 61 bc 50 44 94 3c f6 28 28 bd c7 3d a5 3d
       -0.013768447 0.01809898 -0.04105469 0.08068424
000330 07 db 88 3d f5 23 bb bc ac 14 bb bd e7 76 c0 3b
       0.06682401 -0.022844294 -0.09134802 0.0058735493
000340 26 8c 07 3d 79 19 9d 3c e0 d5 a1 bd b0 20 03 bd
       0.03309264 0.019177185 -0.079021215 -0.032013595
000350 8e 48 6e 3c 7e 0a 7e 3c dc 0f 8a bd 63 5f 82 3d
       0.014543666 0.015505431 -0.06741306 0.0636585
000360 8d 0c b1 bd c3 88 ae bd 2a 2d 42 3d 1d eb 0b bd
       -0.08644972 -0.08522179 0.047406353 -0.03415977
000370 d5 9c 09 bd 33 1e b8 bc c6 28 36 3d fa ff 34 3d
       -0.033596832 -0.022475338 0.04447248 0.04418943
000380 02 c2 12 bd f9 ba b6 bd f9 e2 07 bd d0 43 2d 3d
       -0.03582955 -0.08922381 -0.033175442 0.042301
000390 d7 ef 94 3d fc 68 0b bd fe 74 d1 ba 6c b3 7e 3c
       0.07272308 -0.034035668 -0.0015980301 0.015545707
0003a0 f7 37 7e bd da 1d 44 3d a6 c9 2d 3d ee 1f 5b bd
       -0.06206509 0.04788003 0.042428635 -0.053497247
0003b0 85 bf ab 3d 54 73 00 3d 1a 7a c1 bc 51 a0 6d 3c
       0.08386139 0.031359985 -0.023617793 0.014503554
0003c0 c9 37 4d 3d 43 a9 44 3d 35 ee ac bd 4c b2 90 3d
       0.05010203 0.048012983 -0.08443872 0.070652574
0003d0 3c 3d 4a bd 9c ac 8c bd 32 d5 b5 bc 3c b0 6b 3d
       -0.049374804 -0.0686886 -0.022196386 0.057541117
0003e0 f3 a5 74 3c 52 89 7f 3c 92 90 37 bd 75 d2 9b 3d
       0.0149321435 0.015596705 -0.044815607 0.07608501
0003f0 a1 a1 a5 3c e5 f1 26 bd ff e8 82 3c 04 7b 92 38
       0.020218672 -0.040758032 0.015980242 6.984736e-05

fc_value.bias f4 [256]
000000 ed 77 b2 3c 15 19 a5 bc d0 a0 55 3d 47 08 1b bc
       0.0217857 -0.020153562 0.052155316 -0.009462423
000010 ad d1 5b 3c 4f bf a6 bd 58 b3 a5 bd da 9b 9e 3d
       0.01341669 -0.08141958 -0.08090848 0.0774457
000020 9f 5c 1e bd 49 92 b1 3d 09 1e b4 3d 6b fe e2 3c
       -0.03866255 0.0867048 0.08794791 0.027709207
000030 81 c0 ae 3d dc 97 5b bc a3 63 92 bd 38 d4 bb 3b
       0.08532811 -0.013402905 -0.071479104 0.0057320856
000040 d5 f6 09 be 02 a8 55 3b 79 38 e0 3d 57 48 ae 3d
       -0.13473065 0.003260136 0.10948271 0.085098915
000050 55 c9 97 bd f4 cf 21 3d 80 e4 e3 3d 50 f7 b3 3c
       -0.07411448 0.03950496 0.11127567 0.021968514
000060 65 79 cc bd 1e f3 b7 3b 72 8e 93 bd d1 0e 54 3d
       -0.09984092 0.0056136986 -0.07204904 0.051771943
000070 a7 69 f2 3c db 8f 04 be 6f 58 cb 3d 03 3c 20 3c
       0.029591395 -0.12945502 0.09928977 0.009779933
000080 24 d4 17 3d 44 b9 91 bd 1f b3 8c ba bb 65 97 3d
       0.037067547 -0.07115415 -0.0010734535 0.073924504
000090 2a e2 7a 3d 0c a3 f0 3c 47 f3 3d 3d 8c 1d 85 bd
       0.061250843 0.029374622 0.046374585 -0.06499776
0000a0 17 65 1c bb 65 32 d8 3c 29 66 23 bd 07 03 cf 39
       -0.0023863965 0.026391217 -0.03989235 0.00039484372
0000b0 9b f1 2e 3e 3c e3 a9 3d a4 96 f9 bc 82 4a 46 bc
       0.17084353 0.08295295 -0.030467339 -0.012102725
0000c0 10 96 20 3c e7 4e b1 bd 00 c7 1a bc c4 07 af 3d
       0.009801403 -0.086576276 -0.009446859 0.08546403
0000d0 36 5b a7 bb 6a ef a4 bd 74 93 ac 3d 0a bc ba 3d
       -0.0051073087 -0.08053477 0.08426562 0.09117897
0000e0 b6 6a 1a bd 21 21 51 bd c5 e2 8a 3a e0 d5 9e 3d
       -0.037699424 -0.051056985 0.0010596147 0.07755637
0000f0 b5 f8 43 bd e1 95 98 bb f9 4e 90 bd b0 12 d0 bc
       -0.047844607 -0.004656539 -0.07046313 -0.025399536
000100 fd 90 51 bd 18 d3 88 bd 24 7f 86 bd cb 6e 6c bc
       -0.051163662 -0.06680888 -0.06567219 -0.014430712
000110 4a 4d 6c 3d cd 8f 9f 3c 25 c2 21 bd a6 93 ed 3c
       0.057690896 0.01947775 -0.03949179 0.029001068
000120 6e 39 b7 bd e1 a3 c1 bd 5f e7 78 bc 99 7f a8 3d
       -0.08946501 -0.094550855 -0.015191882 0.08227462
000130 94 d8 b3 bd 6a 9b c4 bc b2 16 56 bd ea 06 d9 bd
       -0.087815434 -0.023999888 -0.052267738 -0.10597022
000140 94 9f e9 3c fc e8 ad 3d fa 65 8e bc 3f ef d2 3c
       0.028518476 0.08491704 -0.01738261 0.025748847
000150 79 b7 cb 3d 32 44 c5 bc 6b fa e0 bb 67 3b 03 3e
       0.09947104 -0.02408037 -0.0068657896 0.12815629
000160 ea 97 64 3d 79 bc d0 3d 46 a3 77 bd 0f d0 b8 3c
       0.05580894 0.10192198 -0.060458444 0.022560148
000170 55 70 a0 bd 48 c0 86 3d 38 98 9f bd 93 cb 7f 3d
       -0.07833926 0.065796435 -0.07792705 0.062450003
000180 fd a1 20 3e e8 21 b1 3d 90 b3 02 3d 1d 00 aa bc
       0.15686794 0.08649045 0.031909525 -0.020752007
000190 c1 fd fd 3d a1 4b c5 3c d3 5b a1 3d 79 54 4b bd
       0.12401915 0.024083914 0.07878842 -0.049641106
0001a0 73 3d 3b bd 29 16 3a 3d c9 50 e0 3d 20 dd da 3d
       -0.0457129 0.04543129 0.109529085 0.106867075
0001b0 07 b6 ae bd b1 ea 83 bd 77 f4 d9 3d 7c 64 e9 bc
       -0.08530813 -0.06441248 0.10642331 -0.028490297
0001c0 09 5b d3 bd d7 e5 34 3c 08 05 dd 3d 54 11 f8 bc
       -0.10320098 0.011041126 0.10791975 -0.0302817
0001d0 33 ea f6 3d 79 68 86 bd 48 17 23 bd 55 9a 35 3b
       0.12056389 -0.06562895 -0.039817125 0.0027710397
0001e0 b4 e6 83 bd 1e a2 30 3b 73 1c 4e 3c 66 97 35 bd
       -0.064404875 0.0026952098 0.012580025 -0.044333838
0001f0 1e 91 c8 bc 33 75 13 3d d6 8b d5 3c 16 34 be 3d
       -0.02448326 0.03600044 0.026067656 0.09287278
000200 bf 1a 8e 3d 2f 23 78 bd 3a 2d b9 3d e1 55 9d bd
       0.06938695 -0.06058043 0.090418294 -0.07682396
000210 f6 5c 53 3c 54 7b c8 3c 8d 1b 71 3d 30 7f 4b bd
       0.012900582 0.02447287 0.058864165 -0.049681842
000220 39 49 23 3c 8f 5c 8e bd 95 33 1c bc 4e 07 14 3d
       0.009966188 -0.06951248 -0.0095337825 0.03613978
000230 89 e1 0f bc 21 be e9 3b e7 e5 cd 3d a6 02 04 3d
       -0.008781799 0.007133261 0.10053616 0.03222909
000240 bb ab 18 3e 8a 96 1c bd f2 d3 15 3d a2 9e d7 bc
       0.1490926 -0.038229503 0.03657908 -0.02632076
000250 af 71 4e bb 30 a3 91 3d 4f 0c 5b bd 51 04 7f bd
       -0.0031500866 0.07111204 -0.053478535 -0.062259976
000260 d3 74 7e bc 53 ff 3b bd 5f 09 93 bd 16 aa 49 bd
       -0.015530783 -0.045897793 -0.07179522 -0.049234472
000270 51 16 ea 3a 57 f1 2b 3c 48 41 16 bd 46 c2 14 3d
       0.0017859434 0.010494552 -0.03668335 0.036318086
000280 c9 e2 7f 3d cf f3 a5 bd 06 0b 68 bd e0 e3 80 3c
       0.06247214 -0.081031434 -0.056651138 0.01573366
000290 6d 8e b2 3c fe ff ae 3d 80 5d 8e bc 3d c8 9d 3c
       0.02179643 0.085449204 -0.017378569 0.01926052
0002a0 d6 9d e9 bd f9 7f 2e 3d 17 d1 88 bd 80 61 3c bd
       -0.11407058 0.042602513 -0.06680506 -0.04599142
0002b0 f3 b2 01 bd fc 67 d5 3c 68 7b cb bb d9 4e 81 3d
       -0.0316648 0.02605056 -0.0062097795 0.06313867
0002c0 a8 67 c5 3d cf a1 5a bd 27 74 93 bd be b8 a6 bc
       0.096389115 -0.05337697 -0.07199889 -0.020351764
0002d0 ec da 2b ba 7c 59 23 3d e3 49 11 bd 36 c6 0a bd
       -0.0006555754 0.03988026 -0.035470854 -0.033880435
0002e0 a3 88 87 3d 17 a7 5c bd c9 64 06 3d 8b 1e 3d bd
       0.06617858 -0.053870287 0.03281096 -0.046171706
0002f0 90 2a 23 39 da 8f 5b bd 9c 16 eb bd 0a 99 7c bc
       0.00015560747 -0.053603984 -0.11478922 -0.015417347
000300 dc fe 83 bd d0 f5 70 3d 37 e8 0e 3e fb 09 7b 3d
       -0.06445095 0.058828175 0.1395577 0.061288815
000310 34 42 b8 bd a5 37 5c 3c 15 55 04 3e 1c 69 0e 3d
       -0.08997002 0.013441001 0.12923081 0.03476821
000320 21 3f 35 3c ea f1 bf 3d c4 0d 52 3d db 7b 61 bd
       0.011062414 0.09372313 0.05128266 -0.05504976
000330 b6 91 c1 bd c1 15 06 be cf 4d c7 bd db f9 db 3c
       -0.0945162 -0.13094236 -0.09731638 0.026852539
000340 23 01 da bd 18 04 82 bd 1e 06 f9 3d 58 f7 34 3c
       -0.10644748 -0.06348437 0.1215937 0.0110452995
000350 e7 7b fb 3d 25 7f c1 bc cf ce e6 3d 16 f2 a2 bd
       0.12279492 -0.023620198 0.11269914 -0.079563305
000360 b9 02 8a bc d5 30 a0 3d 68 21 b5 bc b7 d3 1a bd
       -0.016847001 0.07821814 -0.022110656 -0.037799563
000370 43 d4 01 3d c2 0c 1c 3c ed 82 a3 3c d3 b6 bd bc
       0.03169657 0.009524526 0.019959891 -0.023158466
000380 53 55 3d 3d 41 69 8a bc d3 11 86 3c 00 ef bc 3d
       0.04622395 -0.016895892 0.016365921 0.09225273
000390 7f 29 cd bc 0a 82 b7 3d f1 9d ce 3d 80 65 b2 3d
       -0.025044201 0.0896035 0.10088719 0.08710766
0003a0 5d 76 b5 3d 07 22 2c bc fa 03 b3 3d 87 5c ea bc
       0.08860467 -0.01050616 0.08740993 -0.028608574
0003b0 ef f1 32 3d 33 8f 31 bc 68 47 9c 3d 37 4f 0e 3c
       0.043687757 -0.010837364 0.07630807 0.0086858785
0003c0 6c 48 b5 bd 0b 7d 32 bd b1 4e 98 bd 50 94 ba bb
       -0.08851704 -0.04357628 -0.07436884 -0.0056939498
0003d0 c2 cc 6f bb 75 90 f0 bc 2e 8d 78 bd a1 fd 97 3d
       -0.003659055 -0.029365757 -0.060681514 0.07421423
0003e0 83 54 44 3d 89 2a 21 bd 39 89 57 bd 51 30 3e bc
       0.04793216 -0.039347205 -0.0526211 -0.011608199
0003f0 9b 28 aa bd 4b 23 b1 bd 63 e2 05 3d a9 04 61 3d
       -0.08308526 -0.0864931 0.032686602 0.054936085

value.weight f4 [1, 256]
000000 c2 18 0a 3e 22 98 7e 3c b6 19 7d be 52 95 fc bc
       0.13486007 0.015539201 -0.24716839 -0.03083292
000010 5d af c9 39 6d 14 86 3b ec 21 1c bd a0 d2 8a bd
       0.00038468363 0.0040917904 -0.038118288 -0.06778455
000020 86 3b 30 bd 5e 35 1c be d7 29 13 3e 80 07 eb 3d
       -0.043025516 -0.15254733 0.1437143 0.1147604
000030 8f 5e b8 3d 0b 6b 3e 3d 4d e2 ca bc 32 40 01 3e
       0.090024106 0.046488803 -0.024766112 0.12622145
000040 9d f1 91 3d 95 21 2e 3c 55 87 0c 3e ca cf bf bd
       0.07126162 0.010628124 0.137235 -0.093658045
000050 45 db 0d 3d 23 f3 12 3e 11 05 f2 3d f6 11 09 bd
       0.03463294 0.14350562 0.118173726 -0.033464395
000060 e7 2e 44 3d 59 9d eb 39 e6 10 fc bb 89 c6 00 be
       0.047896292 0.00044939926 -0.007692444 -0.12575735
000070 0b 2b b3 3b 29 87 21 be 32 d4 0a be 7e e0 3e 3d
       0.0054677776 -0.15774216 -0.13557509 0.04660081
000080 2a 48 fb 3c 6f e5 d6 3d 5e 9a 23 be a0 55 cf bd
       0.030674059 0.1049298 -0.15976855 -0.101237535
000090 93 b7 0a be 20 f7 fb bd 5d 48 b8 bd b6 6d e4 3b
       -0.1354659 -0.12302995 -0.08998177 0.0069710864
0000a0 f8 16 0c 3e 32 33 1d 3d 66 01 7a bd a3 f3 f5 bd
       0.13680637 0.0383789 -0.06103649 -0.12009361
0000b0 46 c2 e5 3d 21 ff 22 3e a8 29 2b 3d 41 fe 40 3c
       0.11218695 0.15917636 0.041787773 0.011779369
0000c0 f3 e4 24 3d 54 f0 c9 bc 75 b9 f9 3b b9 77 11 3e
       0.040257405 -0.02465073 0.007620985 0.14205827
0000d0 8d e9 05 3d bd c5 c3 3c 1f 93 1a be d0 4c 59 bd
       0.032693435 0.023898 -0.15095185 -0.05305177
0000e0 0b 52 da bd fc dd 81 bc 67 85 dd 3c b7 ea 2e 3e
       -0.1066018 -0.01585292 0.02704115 0.17081724
0000f0 f9 97 15 be b6 50 04 be 73 8f da 3c 63 f0 af 3d
       -0.14608754 -0.12921414 0.02667973 0.08590772
000100 f3 25 37 bc 8a 25 f0 3c 3a 92 0e be 76 f4 fa bd
       -0.011178481 0.029314775 -0.13922969 -0.122536585
000110 91 55 ef bd f3 fd 1d 3d fc 2c 4f 3d 96 ed d4 3d
       -0.11686242 0.038572263 0.05058001 0.103968784
000120 ea 60 b0 3d 57 85 c2 bc ce 4c 9d b9 42 5e d1 bd
       0.08612235 -0.023745222 -0.00030002597 -0.102230564
000130 01 98 23 bd e3 c0 42 3d bb ec a8 3d 3a 98 95 3d
       -0.039939884 0.047547232 0.08248278 0.073044255
000140 de 08 26 be 91 2e b4 3d e0 d1 88 3d 79 18 ef 3d
       -0.1621432 0.08797944 0.066806555 0.1167459
000150 7d 9b 01 3e 40 0d e0 3a 1d da 09 be 88 c3 d6 3d
       0.1265697 0.0017093793 -0.1346211 0.104865134
000160 5c 83 fe bd 2c 7b 14 3e d4 2e 93 bc 6d e7 2f 3e
       -0.124273986 0.14500111 -0.017966665 0.17178126
000170 9d 84 2d bd 47 4c 03 3e a4 da 36 ba 7b 3a 00 3e
       -0.042362798 0.12822066 -0.0006975329 0.12522309
000180 45 4a fd 3d 8a 3a 07 bd 16 40 0e 3e aa 32 4d 3d
       0.123676814 -0.03301481 0.13891634 0.050097145
000190 d7 62 f3 3d be a0 18 be ae c0 b5 3d 0e 30 63 bd
       0.118840866 -0.14905068 0.08874641 -0.05546575
0001a0 db 29 20 3d 58 48 ad 3d f0 51 a1 3d 82 36 e3 bd
       0.039102416 0.08461064 0.078769565 -0.11094381
0001b0 30 2b 86 bc 3a 7f 3a bb e2 82 85 3d a6 03 16 bd
       -0.016378015 -0.002845718 0.065191045 -0.036624573
0001c0 c5 48 d3 3c c2 bb 18 3e e0 24 08 3e fc b4 f7 bd
       0.025791535 0.14915374 0.13295317 -0.12095067
0001d0 91 fb b3 bd 7e fa ea bd a2 0b 2c bd 8d 09 09 be
       -0.08788217 -0.11473559 -0.04200328 -0.1338255
0001e0 68 be 36 bc 03 73 32 3d 0d 28 ad 3d 11 d6 04 be
       -0.011153795 0.043566715 0.08454905 -0.12972285
0001f0 72 7a a4 3b 12 0c c3 3d 57 c9 e7 bd 3a e4 b3 bd
       0.0050194794 0.095237866 -0.113176994 -0.08783765
000200 4b 12 cb bd ae fa 89 3c 43 ae 0f be 66 0b 80 3d
       -0.099155985 0.016843166 -0.1403132 0.06252174
000210 b1 17 13 be 20 f4 58 3b 7a ee e2 bd a0 f2 3b bd
       -0.14364506 0.0033104494 -0.11080642 -0.045885682
000220 be 51 ef 3c 98 07 62 bd ae d7 1d be 37 a5 08 3d
       0.029213782 -0.055183023 -0.15414307 0.033360686
000230 0f 32 28 3c d4 38 59 be ff 13 ef 3d 39 98 14 3e
       0.010265841 -0.21213084 0.11673736 0.14511193
000240 b1 0f 12 3e ca da 7d bd df 01 a7 3d e0 08 24 bc
       0.14263798 -0.06197623 0.08154654 -0.010011882
000250 b3 80 be 3d fe 23 01 be 6c 81 17 3d 98 b5 a4 bc
       0.09301891 -0.12611386 0.03698866 -0.020106122
000260 42 3f e6 bd ab e5 e9 bd 6e 54 c7 3b 41 d0 5c 3d
       -0.11242534 -0.11420759 0.006083063 0.053909544
000270 46 6a 33 3e 98 6d 84 3c 09 fb 9d bc 4f 21 93 3d
       0.17521009 0.01616554 -0.019284742 0.071840875
000280 20 47 00 3e f2 78 34 bd 04 47 c0 3c 51 c9 b0 bd
       0.12527132 -0.044060655 0.023471363 -0.08632148
000290 b5 d9 6e bc 01 4a 10 be 4e 40 b1 bb 77 e6 63 3d
       -0.014578273 -0.1409073 -0.005409277 0.05563971
0002a0 59 77 24 3d 55 a3 6b 3d 53 7b 17 be fd f0 e9 bc
       0.04015288 0.057528812 -0.14793138 -0.028557295
0002b0 9b 57 eb 39 08 84 0b be d1 c2 2f bd d0 72 f2 bd
       0.00044887964 -0.13624585 -0.0429104 -0.11838305
0002c0 73 d3 d9 bd e3 78 fa bd 38 ba ab bc 55 97 1b be
       -0.10636034 -0.122300886 -0.02096282 -0.15194447
0002d0 da 66 1a 3c 69 bf 11 be 76 7d af bb 06 24 e7 bc
       0.009423936 -0.14233173 -0.0053555323 -0.02821542
0002e0 5b a7 e6 3d e8 05 a1 bc c6 5b 07 3d a8 81 04 3d
       0.11262389 -0.019656137 0.033046506 0.032350212
0002f0 53 5a 7a 3d 90 83 ab 3c b4 b1 6b bc e6 62 e1 bd
       0.061121296 0.020936757 -0.014385629 -0.110051915
000300 05 7b cd 3d eb c2 d8 bd 69 5c 05 be b0 7e df bd
       0.1003323 -0.10584053 -0.13023533 -0.109128356
000310 04 e6 91 3c 69 9c f7 3d 41 cd f1 3d a8 8e 01 3e
       0.017809875 0.1209038 0.11806727 0.12652075
000320 70 a3 26 3d 35 e6 ed bd 8b ca 96 3c e3 46 7e 3d
       0.04068321 -0.11616174 0.018407127 0.06207932
000330 6a 53 38 3d 9f ad 15 be 14 3d 9c 3b d7 cf 71 3d
       0.045001425 -0.14617012 0.0047680233 0.059036102
000340 3e 06 14 bd f1 37 c9 ba 3f f4 9d bd 2f b7 2b 3c
       -0.036138766 -0.0015351755 -0.07712602 0.010480686
000350 88 cb 02 3e db 86 d5 bd 3d a6 87 bd d4 87 0e 3d
       0.12772954 -0.10426112 -0.06623504 0.034797505
000360 b4 09 f9 bd 32 2e b8 bd 84 e0 55 3c ef e7 c6 bd
       -0.12160054 -0.08993186 0.013054017 -0.097122066
000370 c3 a8 e7 bd 66 9f f2 bd 9a 1e 17 be d4 c1 3e bd
       -0.113114856 -0.11846809 -0.14757767 -0.046571568
000380 5f 97 0c 3d 91 60 1c be 61 a0 ad 3d d0 cb fa bd
       0.034324046 -0.15271212 0.084778555 -0.122459054
000390 00 18 fd bd 4c 11 0d be 6a 74 d3 bd 4e f9 d8 bd
       -0.12358093 -0.1377613 -0.103249386 -0.10594426
0003a0 8b e3 15 be 95 62 49 3c 4e b5 1f be 37 a2 09 3d
       -0.14637582 0.01229157 -0.15596506 0.033601966
0003b0 75 98 ca 3d 89 cf fb bd 0d 55 8a bd 2b cf 0a 3d
       0.0989236 -0.122954436 -0.067545034 0.033888977
0003c0 63 4f ac 3c 9f 93 23 bd 04 bc 23 3d f9 0d 1b be
       0.021033948 -0.039935704 0.039974228 -0.15142049
0003d0 47 03 20 be 63 95 cd bd 38 fb 1a 3d d1 61 18 bd
       -0.1562625 -0.10038259 0.037837237 -0.03720266
0003e0 da 6e df bd 29 b6 b1 bc 7f 69 85 3c 45 80 f1 bd
       -0.10909815 -0.021693306 0.016285656 -0.117920436
0003f0 e7 02 ac 3b 5e 27 00 bd fb 50 30 3d 24 a1 ef bd
       0.0052493694 -0.031287543 0.04304598 -0.11700657
