models/flappy_dqn.pth (torch, 411362 bytes, 11 tensors)

fc1.weight f4 [256, 7]
0	0x3e84dbf5	0.25949064
1	0x3ef2051a	0.47269517
2	0xbdb58e58	-0.088650405
3	0xbd091e55	-0.033476193
4	0x3e99db8e	0.3005032
5	0x3e6b2e7b	0.2296695
6	0xbd93b211	-0.07211698
7	0x3ed4391b	0.41449818
8	0x3d921861	0.07133556
9	0x3eab39f4	0.33442652
10	0x3d59d738	0.053183764
11	0x3eb2c6c9	0.34917286
12	0xbe28cdb5	-0.16484721
13	0xbe88f6e6	-0.2675087
14	0x3e691b49	0.22764315
15	0xbdf9598f	-0.12175285
16	0x3ec5eee4	0.38658822
17	0xbc802840	-0.015644193
18	0xbe355028	-0.17706358
19	0xbe29eabe	-0.16593453
20	0x3ec93685	0.39299408
21	0xbe05e30a	-0.1307489
22	0xbe535a70	-0.20639968
23	0x3ec65f8c	0.3874477
24	0x3d9fb6e7	0.07798558
25	0xbdaea26d	-0.08527074
26	0xbe092342	-0.13392356
27	0x3d96e180	0.073672295
28	0x3e617b94	0.22019798
29	0x3f0bdad2	0.5463077
30	0x3e8f10b0	0.2794242
31	0xbe7610ee	-0.24029896
32	0x3e09d347	0.13459502
33	0x3e66a35a	0.22523251
34	0xbe5ab5cf	-0.21358417
35	0x3e190ef6	0.14947113
36	0x3f2e1b91	0.68010813
37	0x3f09ae72	0.5378181
38	0x3ec5d23b	0.38636956
39	0x3e0a6581	0.13515283
40	0xbec140c2	-0.3774472
41	0x3de44eea	0.11147864
42	0xbe16bb36	-0.14719853
43	0xbe4d1eac	-0.20031232
44	0x3e127c0f	0.14305137
45	0xbee610be	-0.44934648
46	0x3dc4620c	0.095890135
47	0x3e68db59	0.22739924
48	0xbdbc67f3	-0.09199514
49	0x3ea919d4	0.33027518
50	0xbe9a2f72	-0.30114323
51	0xbd445c2b	-0.04793946
52	0xbe14ca32	-0.14530256
53	0x3c54ee63	0.012996289
54	0x3ded647f	0.11591434
55	0x3eb9b2e5	0.36269298
56	0xbe451a6a	-0.19248357
57	0xbf22436d	-0.63384134
58	0x3d2e6159	0.042573307
59	0xbd9a1b64	-0.075247556
60	0x3e492517	0.19643055
61	0xbb06cce9	-0.0020568913
62	0x3e989245	0.29799095
63	0x3ebb18ff	0.36542508
64	0xbc9f7791	-0.019466193
65	0x3ed1601d	0.4089364
66	0x3c47ac19	0.012187027
67	0xbe8f8c1b	-0.2803658
68	0x3ebf1ef6	0.3732831
69	0xbd0ac03f	-0.033874746
70	0xbe8f68a5	-0.28009525
71	0x3e2dbe99	0.16967238
72	0x3e2e5774	0.17025548
73	0x3ea49e92	0.3215223
74	0x3e482393	0.1954482
75	0x3e65d571	0.22444703
76	0xbce02eb5	-0.027366022
77	0xbe4ddcf9	-0.20103826
78	0xbf2239c0	-0.6336937
79	0xbe65f2d7	-0.22455917
80	0x3e6d54fe	0.23176953
81	0x3d3f2256	0.046663605
82	0xbea7cefb	-0.327751
83	0xbe6c56c0	-0.23079967
84	0x3cc2e36a	0.02379008
85	0x3eaf0698	0.34184718
86	0xbedc4f53	-0.4302927
87	0xbf204ec1	-0.6262017
88	0xbe84d906	-0.25946826
89	0x3e76d72e	0.24105522
90	0xbe92fd4b	-0.28708872
91	0xbea89867	-0.32928774
92	0x3edb54a6	0.4283802
93	0x3f09274c	0.5357559
94	0x3ec2e3e2	0.38064486
95	0x3eb30703	0.34966287
96	0x3de88bea	0.113548115
97	0x3e6c31a2	0.23065808
98	0xbebd74b7	-0.3700311
99	0xbea0d8a6	-0.3141529
100	0x3ea2ffec	0.31835878
101	0x3d14cc19	0.036327455
102	0xbd89fcdf	-0.067376845
103	0x3ebd06ea	0.36919338
104	0x3e6a0e0d	0.22856922
105	0x3e0be119	0.13660087
106	0x3e6c4c92	0.23076084
107	0x3dfd6d6a	0.12374385
108	0x3e237336	0.15961918
109	0x3ec5ecce	0.3865723
110	0x3d880170	0.06640899
111	0x3d13cad0	0.03608209
112	0xbda5cd55	-0.080958046
113	0x3ee754f4	0.45182002
114	0x3f083af8	0.5321498
115	0x3e9a1552	0.3009439
116	0x3e91a89b	0.28448948
117	0xbe335e07	-0.17516337
118	0x3e25f152	0.16205338
119	0xbe7e467c	-0.24831575
120	0xbe179539	-0.14803018
121	0xbe59de0a	-0.21276107
122	0x3ec2512e	0.3795256
123	0x3e670e34	0.22564012
124	0x3cf479e3	0.029843276
125	0x3e83a90a	0.25714904
126	0xbd67be2a	-0.05657784
127	0x3ec800ae	0.3906302
128	0x3f214702	0.62998974
129	0x3ec4c02f	0.38427874
130	0x3e1bfa98	0.15232313
131	0x3ba2c9da	0.0049679102
132	0x3e83292f	0.25617358
133	0xbbf3eefa	-0.0074442597
134	0x3f2ffd87	0.6874623
135	0x3c2818b7	0.010259799
136	0x3b9156a1	0.004435376
137	0x3b665bc5	0.0035149914
138	0x3d655ecd	0.055998612
139	0xbd87765f	-0.06614374
140	0x3e1efb54	0.15525562
141	0xbe871bbe	-0.26388353
142	0xbe6c4003	-0.23071294
143	0x3d4a439e	0.04938089
144	0xbea37c55	-0.31930795
145	0xbea50d04	-0.32236493
146	0x3d82dc09	0.063896246
147	0x3dc42e93	0.09579196
148	0x3efd8c44	0.49521077
149	0x3e3c54aa	0.18391672
150	0xbe55dd0a	-0.20885101
151	0x3ed32591	0.41239598
152	0x3cc92284	0.024552591
153	0x3c8596c8	0.01630725
154	0xbe998738	-0.29985976
155	0xbe8d1421	-0.2755442
156	0x3ebfbf1a	0.37450486
157	0x3d9fae89	0.07796962
158	0xbe7a1d82	-0.24425319
159	0xbea16b6f	-0.31527278
160	0x3e172c50	0.14762998
161	0xbe38d082	-0.1804829
162	0x3eb85714	0.36003935
163	0x3e9f4e32	0.31114346
164	0x3e5647b7	0.20925795
165	0x3cf9cd44	0.030493386
166	0x3dcc9943	0.0999017
167	0x3d8757a0	0.0660851
168	0xbebba714	-0.36650908
169	0xbea317f1	-0.31854203
170	0xbeabe6e6	-0.335746
171	0xbea49ef7	-0.3215253
172	0x3e81e886	0.25372714
173	0x3e91d0ca	0.28479606
174	0x3ddc76c8	0.10764843
175	0xbd3156f7	-0.043295827
176	0x3e00fed9	0.12597217
177	0xbc8156df	-0.015788494
178	0xbe307bf4	-0.17234784
179	0xbd77218a	-0.06033472
180	0x3e7c50a1	0.24640132
181	0xbe8e4d5a	-0.2779339
182	0xbd80201a	-0.06256123
183	0xbd9778f9	-0.073961206
184	0xbe80a4ad	-0.25125638
185	0x3eb7790d	0.35834542
186	0x3e8e43ad	0.27786008
187	0x3e04ea68	0.12980044
188	0x3e93532d	0.28774396
189	0xbdca1f22	-0.09869219
190	0xbe8c3ef2	-0.27391773
191	0x3ebfeb22	0.3748408
192	0x3e93fa60	0.28901958
193	0x3e170ea0	0.14751673
194	0x3e893b0e	0.26802868
195	0xbd388065	-0.04504432
196	0xbe794dc2	-0.24346069
197	0x3effec9a	0.499852
198	0xbea5d56e	-0.32389396
199	0xbeac7458	-0.33682513
200	0x3e2ee7a4	0.17080551
201	0x3ececa13	0.40388545
202	0x3ecb9c69	0.3976777
203	0x3cad7257	0.021172686
204	0xbd1d2432	-0.038364597
205	0xbdc0a350	-0.094061494
206	0x3eb553a1	0.35415366
207	0x3d9a56fc	0.07536122
208	0x3ebb7201	0.36610416
209	0x3d0e4487	0.03473332
210	0x3e80f586	0.2518732
211	0xbe61d319	-0.22053184
212	0xbea46a13	-0.32112178
213	0x3e4da07e	0.20080754
214	0x3e93bfa4	0.28857148
215	0x3ec7d64a	0.39030677
216	0x3ec07159	0.37586477
217	0x3e57bc31	0.21067883
218	0xbe8b8f3e	-0.27257723
219	0xbe94f856	-0.29095715
220	0xbcf0c7cd	-0.029392147
221	0x3c949fe4	0.018142648
222	0xbeb524be	-0.35379595
223	0xbcbeec75	-0.02330611
224	0x3ea58405	0.32327285
225	0x3e33d983	0.17563443
226	0x3ea1b64b	0.3158439
227	0x3e3cf472	0.18452623
228	0xbe1d4517	-0.15358387
229	0x3edf1223	0.43568525
230	0xbd29a705	-0.041419048
231	0xbd5e8b39	-0.05433199
232	0x3f4b9d06	0.79536474
233	0xbd238828	-0.03992477
234	0x3e57ae23	0.21062522
235	0x3d7b44cb	0.061344903
236	0x3d359e2c	0.044340298
237	0xbe62af13	-0.22137098
238	0xbeb1dbf1	-0.34738114
239	0x3eb43cbe	0.35202593
240	0x3df0cd00	0.11757851
241	0x3e7283b1	0.23683049
242	0x3e7238c3	0.23654465
243	0xbe514a65	-0.20438536
244	0x3edb6a1b	0.4285439
245	0xbebe5481	-0.37173846
246	0x3e3b8b98	0.1831497
247	0x3e4f79a0	0.2026124
248	0x3d56f3ef	0.052478727
249	0xbe9e6fb0	-0.30944586
250	0xbe7a05c6	-0.24416265
251	0x3e88e5e2	0.26737887
252	0xbdc02274	-0.093815714
253	0x3de13db7	0.10998099
254	0x3d44c71d	0.04804145
255	0xbe3bd008	-0.18341076

fc1.bias f4 [256]
0	0x3ebb464d	0.36577073
1	0xbdd1c0bd	-0.1024184
2	0xbd3426ae	-0.0439822
3	0x3ec52d6d	0.3851122
4	0x3d80435a	0.06262846
5	0xbd3b2a91	-0.04569489
6	0xb98e485e	-0.00027138268
7	0xbdbed029	-0.09317047
8	0xbd46e3b8	-0.048557013
9	0xbc42343f	-0.011853277
10	0x3ec4042c	0.38284433
11	0xbd8c9cc9	-0.06865842
12	0x3e3bba55	0.18332799
13	0x3e6bdbd0	0.2303307
14	0xbd7269d6	-0.059182964
15	0x3e173d8f	0.14769576
16	0x3eaeada2	0.34116846
17	0xbe042a34	-0.12906724
18	0xbeb17f3b	-0.34667382
19	0xbd8a8806	-0.06764226
20	0x3edfa4a6	0.43680304
21	0xbe53a7c6	-0.20669469
22	0xbe9e92ed	-0.3097147
23	0x3ea5d9d0	0.3239274
24	0x3e871fca	0.2639144
25	0xbd975340	-0.073889256
26	0x3e8eae3c	0.27867305
27	0x3e0609cc	0.13089675
28	0xbc1e910b	-0.009678136
29	0xbebc6e67	-0.3680298
30	0x3d2a6527	0.041600373
31	0x3e563461	0.20918418
32	0xbdd31180	-0.10306072
33	0x3c438009	0.011932381
34	0xbe2121b8	-0.15735519
35	0x3e51db61	0.20493843
36	0xbe002bf1	-0.12516762
37	0x3e54a61f	0.20766495
38	0x3e633a17	0.22190128
39	0xbddc2c58	-0.107506454
40	0x3e64a664	0.22329098
41	0xbd7bf3b6	-0.061511718
42	0x3e8cf743	0.27532396
43	0x3df6d8a5	0.120530404
44	0xbdb5ccd1	-0.08876956
45	0xbe0b75ad	-0.13619108
46	0xbc140dab	-0.009036462
47	0xbcbee0f2	-0.023300622
48	0x3e5754b2	0.21028402
49	0x3ec3488c	0.38141286
50	0x3ebfc514	0.37455046
51	0xbea3b12e	-0.31971115
52	0xbd951626	-0.07279615
53	0xbe34c30d	-0.17652531
54	0xbe255959	-0.16147365
55	0xbe17b7d2	-0.14816216
56	0xbd09322e	-0.03349512
57	0xbdd8f77c	-0.10594079
58	0xbc78ca63	-0.0151849715
59	0x3e2f48d5	0.17117627
60	0x3e869c29	0.26291016
61	0xbe2b8469	-0.16749729
62	0x3e3eb6b4	0.18624383
63	0xbe02d632	-0.12777022
64	0x3ec85836	0.391298
65	0x3e581232	0.21100691
66	0xbd43a6a9	-0.04776636
67	0x3bdc4184	0.0067216773
68	0x3e8c8752	0.2744699
69	0x3e124f7f	0.14288138
70	0x3e53f11c	0.20697445
71	0x3e4fb1a5	0.2028261
72	0x3e4607b9	0.19338883
73	0x3e991bf3	0.29904136
74	0xbeac8315	-0.33693758
75	0x3e44aa1d	0.19205518
76	0x3e4829ce	0.19547197
77	0xbe7ccdbd	-0.24687858
78	0xbeafca47	-0.34334013
79	0xbe9d9079	-0.30774286
80	0x3e07d64a	0.13265339
81	0xbeaffab6	-0.34370965
82	0x3ebe6ff4	0.37194788
83	0xbc7ecb4c	-0.015551399
84	0x3d90a5d7	0.070628814
85	0xbe5db1ae	-0.2164981
86	0x3ec851b4	0.39124835
87	0xbe96ba98	-0.29439235
88	0xbe5fb1dd	-0.21845193
89	0xbea53194	-0.32264388
90	0x3e13d3d4	0.14436275
91	0x3e591514	0.21199447
92	0xbe0df8e2	-0.13864473
93	0x3e6e55ee	0.23274967
94	0xbe1d3610	-0.15352654
95	0xbeaa6c46	-0.3328573
96	0xbcb9d4fb	-0.022684565
97	0x3d6d9fbe	0.05801367
98	0x3ea5059b	0.3223084
99	0xbe9149a7	-0.28376505
100	0x3ebca645	0.36845604
101	0x3ea4dac8	0.32198167
102	0x3e856428	0.26052976
103	0xbe64c289	-0.22339834
104	0xbe370bd9	-0.17875613
105	0xbe357431	-0.17720105
106	0xbd4eb41c	-0.050464734
107	0xbe9ac2d2	-0.3022676
108	0xbde2a7bf	-0.11067151
109	0xbc74ce47	-0.0149417585
110	0x3e92ec8e	0.28696102
111	0x3e223c38	0.15843284
112	0xbe2b291c	-0.167149
113	0x3e709108	0.23492825
114	0xbcf7f99e	-0.030270394
115	0x3dba964c	0.09110698
116	0x3e5e547e	0.21711919
117	0xbe01dd56	-0.12682089
118	0x3e1aac67	0.15104829
119	0xbd4260b7	-0.047455516
120	0x3eb9c46c	0.3628267
121	0x3e047220	0.1293416
122	0x3ddaee67	0.10690003
123	0xbe68809e	-0.22705314
124	0xbe9295eb	-0.28630003
125	0x3c6e44e8	0.014542796
126	0x3e0696e8	0.13143504
127	0x3ec4b8de	0.38422292
128	0x3e2bce1b	0.16777842
129	0x3e69a3ca	0.22816387
130	0x3d6fd701	0.058554653
131	0xbe65c3d1	-0.2243798
132	0xbecffd7b	-0.40623078
133	0xbe60fbd9	-0.21971072
134	0x3e3193ac	0.17341489
135	0xbea07727	-0.31340906
136	0x3c904d0f	0.01761487
137	0xbcf481bb	-0.029847017
138	0xbe38019e	-0.17969367
139	0x3eae9e7a	0.34105283
140	0x3d5a709a	0.05333004
141	0x3e78c0b4	0.2429226
142	0xbcde4bf7	-0.027135832
143	0x3ea28d78	0.31748557
144	0x3dea14f9	0.114297815
145	0xbda590c5	-0.08084253
146	0x3c22832b	0.009918968
147	0x3d17510f	0.036942538
148	0xbaa3c2f5	-0.0012494015
149	0xbe97a256	-0.2961604
150	0xbe3b104c	-0.18267936
151	0xbc2add2e	-0.01042871
152	0xbdb9edb2	-0.0907854
153	0x3e8f6727	0.28008386
154	0xbdfd22ac	-0.12360129
155	0x3e886418	0.26638865
156	0xbbc1f6fd	-0.005919336
157	0xbe47c87d	-0.19510074
158	0x3ed21340	0.41030312
159	0x3bd8f5fd	0.006621121
160	0x3e56f9c1	0.20993711
161	0xbc585b13	-0.013205308
162	0x3c3fbe8c	0.011703145
163	0xbdd91a6a	-0.10600741
164	0x3d88e7a4	0.06684807
165	0x3e8cb937	0.27485058
166	0xbe9b0005	-0.30273452
167	0x3e39df75	0.18151648
168	0x3ea7453b	0.32670006
169	0xbea01f90	-0.3127408
170	0x3dcf554e	0.101236925
171	0xbe4979e0	-0.19675398
172	0x3e7ea016	0.24865755
173	0x3e2043b2	0.15650824
174	0x3d14cbba	0.0363271
175	0x3eb5af09	0.35485104
176	0xbd5f0cda	-0.054455616
177	0x3ebf2190	0.37330294
178	0x3ea00f04	0.31261456
179	0x3eb64abd	0.35603896
180	0xbca3b795	-0.019985
181	0x3e8c406a	0.27392894
182	0x3e26ac4f	0.16276668
183	0xbe195538	-0.14973915
184	0xbe16bcff	-0.14720534
185	0xbd936e25	-0.07198743
186	0x3e4d6834	0.20059282
187	0xbc9c074b	-0.019046446
188	0x3d9f9abd	0.07793186
189	0xbd2e3a03	-0.042535793
190	0xbe969bb3	-0.29415664
191	0x3e7cf053	0.24701051
192	0x3dd007a4	0.10157707
193	0x3e2d4e66	0.16924438
194	0x3ed2c4e1	0.41165832
195	0xbde7ff86	-0.11328034
196	0x3e911fa0	0.2834444
197	0x39348dc0	0.00017218944
198	0x3e32dd8f	0.1746733
199	0x3e77b097	0.24188457
200	0x3ed3ce63	0.41368398
201	0x3d96151b	0.07328244
202	0x3dba3aae	0.090932235
203	0x3e2e45f6	0.17018875
204	0x3eb2d893	0.34930858
205	0xbe2a1a18	-0.16611516
206	0x3e293bef	0.16526769
207	0xbeb50fd6	-0.35363644
208	0x3e2b5f27	0.16735516
209	0xbe2b33f3	-0.16719036
210	0xbeba172f	-0.36345813
211	0x3de34a40	0.110981464
212	0xbe4b6f9e	-0.19866797
213	0x3dbbd103	0.09170725
214	0xbe513838	-0.20431602
215	0xbd08b692	-0.033377238
216	0x3ec0a734	0.37627566
217	0xbdf89090	-0.12136948
218	0xbdc69bd7	-0.09697693
219	0x3eca81dc	0.395522
220	0x3e3b0ac9	0.18265833
221	0x3c970d8f	0.018439082
222	0xbebaf130	-0.36512136
223	0x3e029b5b	0.12754576
224	0xbeaa34f4	-0.33243525
225	0x3eab9ae7	0.3351662
226	0xbe079981	-0.13242151
227	0xbe94f927	-0.29096338
228	0x3e96bda5	0.29441562
229	0x3d02f935	0.031975944
230	0x3de89796	0.11357038
231	0xbcd12f4f	-0.025535254
232	0xbe5f3616	-0.21797976
233	0x3e8207ca	0.25396568
234	0x3d1cb8bb	0.03826211
235	0xbae2cf49	-0.0017304207
236	0xbcecda03	-0.02891255
237	0xbd1946c0	-0.037420988
238	0x3d2358dc	0.039879665
239	0xbe41987b	-0.18905823
240	0x3e1fe0e9	0.1561314
241	0x3957190a	0.00020513326
242	0xbe626945	-0.2211047
243	0xbe5127dd	-0.20425363
244	0xbe0a7871	-0.13522507
245	0xbe934fad	-0.28771725
246	0x3d8edb11	0.06975377
247	0xbc76327c	-0.015026685
248	0x3e895094	0.2681929
249	0x3e2e6727	0.17031537
250	0x3e0dde2d	0.13854285
251	0xbe9377bd	-0.2880229
252	0xbe21fa6c	-0.15818185
253	0xbeb90514	-0.36136687
254	0x3dd19aea	0.10234626
255	0xbe6e73f3	-0.23286419

fc2.weight f4 [128, 256]
0	0xbc666fd1	-0.014064745
1	0x3bbf6209	0.005840544
2	0x3d1793fb	0.03700636
3	0xbd309b66	-0.04311695
4	0x3c802f45	0.01564754
5	0x3be0ae10	0.0068566874
6	0x3cbb113b	0.022835365
7	0x3b45e43c	0.0030195853
8	0xbd4491aa	-0.04799048
9	0xbc595f76	-0.013267389
10	0x3c1df8ed	0.009641868
11	0x3d382e32	0.04496593
12	0x3d3e7996	0.046502672
13	0xbd834c19	-0.06410999
14	0x3ca94190	0.020661145
15	0xbd832a43	-0.06404545
16	0x3c90aa75	0.017659405
17	0x3cae4aa8	0.021275833
18	0xbcaaf150	-0.02086702
19	0xbcf592e3	-0.029977268
20	0x3d46b50b	0.0485125
21	0x3c98b770	0.018642157
22	0xbd1466f0	-0.03623098
23	0x3d38b4a0	0.045094132
24	0x3c87ed6d	0.016592706
25	0xbd57a1c9	-0.052644525
26	0xbd512e03	-0.05106927
27	0xbd452bfe	-0.048137657
28	0xbd2bd1f3	-0.04194827
29	0x3c8a6aa4	0.016896553
30	0xbc72a798	-0.014810465
31	0x3ce0889a	0.027408887
32	0x3d53ee02	0.051740654
33	0xbd474231	-0.04864711
34	0x3beb4c70	0.007180743
35	0xbd3a2c48	-0.045452386
36	0x3d258ba4	0.040416375
37	0x3cd0e36c	0.025499068
38	0xbd1ebb7e	-0.038753025
39	0x3d591e42	0.05300737
40	0x3c3bd08b	0.011463295
41	0xbca341cc	-0.019928835
42	0xbd0b9c9b	-0.034084897
43	0xbc89e8a6	-0.016834568
44	0x3cf1bea0	0.029509842
45	0xbd78a586	-0.06070473
46	0xbb4be232	-0.0031110165
47	0xbd0eccee	-0.034863405
48	0xbd7c142c	-0.061542675
49	0x3d21c0a0	0.039490342
50	0xbd6507ea	-0.05591575
51	0xbd5a5580	-0.053304195
52	0x3ac17658	0.0014760001
53	0x3d4907b2	0.049079604
54	0x3cf3bbb1	0.029752584
55	0xbd2efefa	-0.042723633
56	0x3d343f46	0.044005655
57	0x3d179484	0.03700687
58	0x3cf151b0	0.029457897
59	0xbd29f5ba	-0.04149411
60	0xbc528432	-0.012848901
61	0xbc8d07e5	-0.017215678
62	0xbce710a8	-0.028206185
63	0xbb029560	-0.001992546
64	0x3cab1ed4	0.020888723
65	0xbd3ebaa2	-0.046564706
66	0x3d32f70e	0.04369264
67	0xbd3f0629	-0.046636734
68	0xbd2c1bf5	-0.04201885
69	0xbc9164d5	-0.017748276
70	0x3d35a183	0.044343483
71	0x3d28d84c	0.0412219
72	0xbb76e442	-0.0037672673
73	0x3cc5509c	0.02408629
74	0x3d4ece7e	0.050489895
75	0xbcf46486	-0.02983309
76	0x3c6bab2f	0.014384075
77	0xbc927550	-0.017878205
78	0x3cd480e8	0.025940374
79	0x3d390a30	0.04517573
80	0x3cb5e509	0.022203939
81	0xbc65ea98	-0.014032982
82	0xbcfcf0ec	-0.0308766
83	0xbd3bff88	-0.04589799
84	0xbcf69869	-0.030101972
85	0x3d460420	0.048343778
86	0xbce8b17c	-0.028404944
87	0xbd31c8a2	-0.04340423
88	0x3c438634	0.011933852
89	0xbbd76360	-0.0065731257
90	0x3d3f42df	0.046694633
91	0x3d30499e	0.043038957
92	0xbc44ba89	-0.012007364
93	0x3c0d5104	0.008625273
94	0x3cde1342	0.027108792
95	0x3d7a6a10	0.061136305
96	0xbd0263dc	-0.031833515
97	0xbb129da0	-0.0022371784
98	0xbd5a9276	-0.053362332
99	0xbc8def84	-0.017326124
100	0xbd870e62	-0.0659454
101	0x3c82e04c	0.015976094
102	0xbd69b129	-0.05705372
103	0x3d30e6d4	0.043188885
104	0x3d2dc734	0.042426303
105	0x3d4e5594	0.050374582
106	0xbcf3d806	-0.029766094
107	0xbd48e4b5	-0.049046237
108	0xbc152a50	-0.009104326
109	0xbd7b1cb3	-0.061306667
110	0xbbc322d1	-0.005955078
111	0xbb9b6087	-0.0047417316
112	0x3c4a7510	0.012357011
113	0xbd639976	-0.055566274
114	0x3a3dba01	0.00072374946
115	0xbcc113df	-0.023569046
116	0xbc90a9bc	-0.01765906
117	0x3c5843e4	0.01319978
118	0x3c8717ab	0.016490778
119	0x3c6a7b10	0.014311567
120	0x3bd149b0	0.006386958
121	0xbc6e2460	-0.01453504
122	0x3d437626	0.047720097
123	0xbc2ce720	-0.010553151
124	0xbc904bd2	-0.017614279
125	0x3d121cb4	0.035671905
126	0xbd43c05c	-0.04779087
127	0xbc84543c	-0.016153447
128	0x3d315fce	0.043304257
129	0xbcdd67a8	-0.027026966
130	0xbd4b3251	-0.049608532
131	0x3d17178d	0.036887694
132	0x3cab5c20	0.020917952
133	0xbc9e288e	-0.019306447
134	0xbcfc1f1c	-0.030776553
135	0xbd2fa802	-0.042884834
136	0xbd44b897	-0.0480276
137	0xbbae5665	-0.0053203576
138	0x3cd40568	0.025881484
139	0x3d214cfb	0.039380055
140	0x3d658d81	0.05604315
141	0xbcc7a37d	-0.02436995
142	0x39dde390	0.00042321952
143	0x3caa0287	0.020753158
144	0xbc8bd000	-0.017066956
145	0xbcf7cd4e	-0.030249264
146	0xbd06274c	-0.03275232
147	0x3d432a2c	0.04764764
148	0xbd328273	-0.043581437
149	0xbcb91cc0	-0.022596717
150	0xbcddc118	-0.027069613
151	0x3d077b5a	0.03307662
152	0xbcd6b7e4	-0.026210733
153	0xbd701998	-0.058618158
154	0x3d4073f8	0.046985596
155	0xbd696c87	-0.056988265
156	0x3cfab285	0.030602703
157	0xbd681e3c	-0.05666946
158	0xbcd11820	-0.025524199
159	0x3d573df4	0.052549317
160	0x3d4b61b7	0.049653735
161	0x3c9ac1f0	0.018891305
162	0x3d14e4a6	0.03635087
163	0x3bacb9a1	0.005271152
164	0xbc7d4afc	-0.015459772
165	0xbd4a07d6	-0.04932388
166	0xbd2fe44a	-0.042942323
167	0xbcc8d91d	-0.02451759
168	0xbd836d69	-0.06417353
169	0xbce80858	-0.028324291
170	0xbbb6b2d9	-0.0055755195
171	0xbd4eb109	-0.050461803
172	0x3cd87590	0.026423246
173	0xbd5707aa	-0.052497543
174	0xbd831f74	-0.064024836
175	0x3d325424	0.043537274
176	0x3bac86fd	0.0052651153
177	0x3cc933e2	0.024560872
178	0xbd3a14c2	-0.045429952
179	0xbc5602dc	-0.013062205
180	0x3b05d550	0.0020421334
181	0xbd6bd0c0	-0.057572126
182	0x3d1a23c5	0.03763177
183	0xbc97ec4a	-0.018545289
184	0xbd570fe3	-0.052505385
185	0x3c0a0a88	0.008425362
186	0xbd3c64a8	-0.04599443
187	0xbd0d9654	-0.034567192
188	0xbd8ecf6a	-0.06973155
189	0x3d3c8870	0.046028554
190	0xbca64520	-0.020296633
191	0xbd426c5d	-0.047466625
192	0x3cba1831	0.022716613
193	0x3cf00bb6	0.02930246
194	0x3ca2c599	0.019869613
195	0x3cab61c8	0.02092065
196	0xbd0a9191	-0.03383023
197	0xbc734994	-0.014849085
198	0xbd49d78b	-0.049277823
199	0x3cb07bfc	0.021543495
200	0xbd6327c2	-0.055457838
201	0x3ce42259	0.02784841
202	0xbd2fb6da	-0.04289899
203	0xbc16223e	-0.009163437
204	0xbd45c407	-0.04828265
205	0x3d04a20c	0.032381102
206	0xbd80f2fa	-0.06296344
207	0xbd0b0e4e	-0.03394919
208	0xbcba81be	-0.022766944
209	0x3cf87761	0.030330362
210	0xbcaaa800	-0.020832062
211	0x3d0e82c9	0.034792695
212	0xbd7be880	-0.061501026
213	0xbc8c0bc3	-0.017095452
214	0x3b0b2563	0.0021232
215	0xbd262cc8	-0.04057005
216	0xbcfc5154	-0.030800499
217	0x3cd60ac4	0.02612818
218	0x3b19ef37	0.002348853
219	0x3cd0b8ab	0.025478682
220	0xbd277fa2	-0.040893205
221	0x3d7fbc4c	0.062435433
222	0xbbafbfe4	-0.0053634513
223	0x3d74e4a2	0.059788354
224	0xbd67a9f2	-0.056558557
225	0xbcf84984	-0.030308492
226	0x3d46ad3c	0.048505053
227	0x3b290140	0.0025788099
228	0x3d21fa9b	0.039545637
229	0xbbaa3144	-0.005193861
230	0x3d043bb3	0.032283496
231	0x3c158c53	0.009127694
232	0xbc8ec180	-0.017426252
233	0x3d16432d	0.036685158
234	0x3c6fa0e8	0.014625765
235	0xbb9ae8e0	-0.004727468
236	0xbc766ba7	-0.015040315
237	0xbccfdd1c	-0.025373988
238	0xbb2da17a	-0.0026493953
239	0x3d03c771	0.032172624
240	0xbd43da7d	-0.04781579
241	0xbd854b70	-0.06508529
242	0xbd86089a	-0.06544609
243	0x3d43da1b	0.047815423
244	0xbc2abf9a	-0.010421658
245	0x3bd8667d	0.0066040144
246	0x3d31eedb	0.04344068
247	0x3d1a159b	0.03761826
248	0xbd4d859d	-0.05017625
249	0x3c32fb5d	0.0109241875
250	0xbd7f14b9	-0.062275622
251	0xbb100c9d	-0.0021980174
252	0x3d431b77	0.047633614
253	0xbd27caa3	-0.040964734
254	0x3cc2d13f	0.023781417
255	0x3d23cdcf	0.039991196

fc2.bias f4 [128]
0	0xbd5594df	-0.052143928
1	0x3b815af0	0.003947608
2	0xbcba170f	-0.022716073
3	0x3d82125d	0.06351159
4	0xbcff3af8	-0.031156048
5	0x3d36b0dc	0.04460226
6	0xbd1bb03c	-0.038009867
7	0x3cde1ebe	0.027114268
8	0xbda15b04	-0.07878688
9	0xbb6263be	-0.0034544314
10	0xbc3eb50e	-0.0116398465
11	0x3d1311cb	0.03590564
12	0x3dc61980	0.096728325
13	0xbd8e5549	-0.069498606
14	0x3d16e996	0.03684386
15	0x3c7d053a	0.015443141
16	0x3d1a1db6	0.03762599
17	0x3c13022c	0.008972686
18	0xbcf0aea2	-0.029380146
19	0x3c2b117d	0.010441181
20	0xbbe4827e	-0.0069735637
21	0xbd574975	-0.05256029
22	0x3c2c9a26	0.010534799
23	0x3bf9bd49	0.0076214415
24	0xbbc42461	-0.005985782
25	0x3c6652cd	0.014057827
26	0x3d99e896	0.07515065
27	0x3d90397c	0.07042214
28	0xbbe1325f	-0.00687246
29	0xba404350	-0.0007334249
30	0xbcfbedda	-0.030753065
31	0x3c90f508	0.017694965
32	0x3d1af8b2	0.03783483
33	0xbd1ed5ea	-0.038778223
34	0x3c804380	0.015657187
35	0x3d91491c	0.07094023
36	0x3caa0d53	0.020758307
37	0x3d8e8f74	0.06960955
38	0xbd62c35f	-0.0553621
39	0x3d8b8085	0.068116225
40	0x3cbb390f	0.022854356
41	0xbccf22df	-0.025285183
42	0xbc0dd633	-0.008657026
43	0x3c17bc5d	0.009261218
44	0x3bdf1052	0.0068073655
45	0x3a89def7	0.0010518719
46	0xbd21e065	-0.03952064
47	0xbcab2965	-0.020893762
48	0x3c93ae72	0.018027518
49	0x3d4fd8c3	0.05074383
50	0xbdd21d35	-0.10259477
51	0x3b712ea9	0.0036801493
52	0xbda0a19b	-0.07843324
53	0x3d710ea6	0.05885186
54	0x3d4ff8b4	0.05077429
55	0x3d62632d	0.055270363
56	0x3d571caa	0.05251757
57	0xbd666649	-0.05624989
58	0x3d1e92a0	0.03871405
59	0xbb83a325	-0.004017251
60	0x3d621c0b	0.055202525
61	0x3d32a9cb	0.04361896
62	0xbd8cd860	-0.06877208
63	0xbd94acbc	-0.07259509
64	0x3d52edb3	0.05149622
65	0x3c7ec6be	0.0155503135
66	0x3bf8bb92	0.0075907195
67	0xbd383f6f	-0.04498237
68	0xbd399478	-0.045307606
69	0xbd8247d9	-0.0636136
70	0x3b108560	0.0022052154
71	0xbd2e45ce	-0.04254704
72	0xbcbfb99a	-0.023403931
73	0x3cbb75ac	0.022883259
74	0x3d05be59	0.032652233
75	0x3c11809e	0.008880762
76	0xbd12898a	-0.0357757
77	0xbc01cb32	-0.007921981
78	0xbdbff417	-0.09372728
79	0xbca6b819	-0.020351456
80	0x3c06c54c	0.00822575
81	0xbd56e84d	-0.052467633
82	0x3bff231f	0.007786169
83	0xbcab3678	-0.020899996
84	0xbbf95965	-0.0076095336
85	0xbd56394d	-0.05230074
86	0x3d30dcd4	0.043179348
87	0x3d5fed4a	0.054669656
88	0x3cd6c0f2	0.02621505
89	0xbc196bf2	-0.009364115
90	0x3d553013	0.0520478
91	0x38f53400	0.00011692196
92	0xbce234ba	-0.027613033
93	0xbc29eb63	-0.010371062
94	0xbb6894de	-0.0035489122
95	0xbb6a99c6	-0.0035797223
96	0x3cdd6171	0.027024003
97	0x3d0bbf69	0.03411809
98	0x3cd1610a	0.025558967
99	0x3d718780	0.058967113
100	0xbda44daa	-0.08022626
101	0x3d4039af	0.04693001
102	0xbdd3cf86	-0.10342316
103	0x3c514f7d	0.012775299
104	0xbc6eec85	-0.014582758
105	0x3d114bf5	0.03547283
106	0x3d1109e5	0.035409827
107	0xbc85d7e3	-0.016338294
108	0x3d9bc0bc	0.076051205
109	0x370f840c	8.554209e-06
110	0x3cf33202	0.029686932
111	0xbd5430d1	-0.051804367
112	0x3d952139	0.07281727
113	0xbd7b9a0a	-0.0614262
114	0x3c0d0565	0.008607243
115	0xbc8e7df9	-0.017394053
116	0x3d420626	0.047369145
117	0xbcc57c97	-0.02410726
118	0xbcdfff0e	-0.0273433
119	0xbd13adb6	-0.036054336
120	0xbc47322d	-0.012157959
121	0x3a72ab8e	0.0009257131
122	0xbd6f8352	-0.058474846
123	0xbcf67ab2	-0.030087803
124	0xbd8af396	-0.067847416
125	0xbd085eee	-0.033293657
126	0xbbb49571	-0.005510979
127	0xbd33d6c6	-0.043905996

fc_value.weight f4 [256, 128]
0	0xbdae1b0b	-0.08501252
1	0x3d2f04f8	0.042729348
2	0xbd991e6f	-0.07476508
3	0xbc8c03d0	-0.017091662
4	0x3b9f1336	0.004854585
5	0xbdf15fbd	-0.11785839
6	0x3cc11154	0.023567833
7	0x3d7181d7	0.058961716
8	0x3e2bb45d	0.16768022
9	0x3d3615b9	0.04445431
10	0x3d5165f5	0.051122624
11	0x3d372db9	0.04472134
12	0x3c67bba3	0.014143857
13	0x3de25595	0.1105148
14	0xbc2aa64b	-0.010415624
15	0x3c8c954d	0.017161036
16	0xbc5638b6	-0.013075044
17	0x3d9e3101	0.077241905
18	0xbccbd4e9	-0.024881797
19	0xbd82a62e	-0.063793525
20	0xbd168ed9	-0.036757324
21	0x3e1f0dc6	0.15532598
22	0xbe38cdfd	-0.18047328
23	0x3d5cd538	0.05391428
24	0xbd8c998e	-0.06865226
25	0xbe25449b	-0.16139452
26	0x3d5aae91	0.053389136
27	0x3d98e754	0.07465997
28	0xbc061022	-0.008182557
29	0xbc6ca09f	-0.014442592
30	0x3d1faad8	0.03898129
31	0x3e134010	0.14379907
32	0x3d3d6a7e	0.046244137
33	0x3d350cb8	0.044201583
34	0x3dcf2368	0.10114175
35	0x3cbc11eb	0.022957763
36	0x3dc64573	0.09681215
37	0x3dc8275c	0.09773132
38	0x3d95ea8f	0.07320129
39	0xbd637f76	-0.055541478
40	0x3c088007	0.008331305
41	0x3d884fd7	0.06655853
42	0xbdbb067c	-0.09132096
43	0x3bfca81a	0.007710469
44	0x3d847ec1	0.06469489
45	0xbdd2a976	-0.10286228
46	0xbdaa8d7a	-0.08327766
47	0xbd78003b	-0.060547095
48	0x3d4add74	0.0495276
49	0x3cf001c0	0.02929771
50	0x3d89c961	0.06727863
51	0x3cf473dc	0.029840402
52	0x3d6d3cac	0.05791919
53	0x3dc8462e	0.09779011
54	0x3ccc4279	0.02493404
55	0xbc04a30f	-0.008095517
56	0x3d280e63	0.041029345
57	0x3dfcb767	0.12339669
58	0x3d1c0c42	0.038097627
59	0x3c8fd90e	0.017559554
60	0x3dc1dd54	0.09466043
61	0xbdba56bf	-0.09098577
62	0xbc89ddd3	-0.016829407
63	0x3d1c2230	0.03811854
64	0x3d094023	0.03350843
65	0xbd87e44c	-0.06635341
66	0x3d161518	0.03664121
67	0x3e72ac61	0.2369857
68	0x3d5c81f7	0.05383488
69	0xbccd9194	-0.025093831
70	0xba983622	-0.0011612813
71	0x3b72ad84	0.0037029693
72	0x3c2f73df	0.010708778
73	0x3cb3cc0e	0.021947887
74	0x3ccf46a2	0.025302235
75	0xbcd4b47f	-0.025964973
76	0xbc6fb578	-0.014630668
77	0x3dd198b0	0.10234201
78	0x3e386398	0.18006742
79	0x3e17ca08	0.14823163
80	0x3c8c00c2	0.017090205
81	0xbda67acf	-0.08128893
82	0x3e27cbb9	0.16386308
83	0x3cd59022	0.026069704
84	0x3d763e48	0.06011799
85	0xbe4342f7	-0.19068514
86	0x3d9e6100	0.07733345
87	0xbda647ab	-0.08119138
88	0xbc902865	-0.017597387
89	0x3d396879	0.04526565
90	0x3d113577	0.03545138
91	0x3d14eb5a	0.03635726
92	0xbd553ea9	-0.05206171
93	0x3dd34403	0.103157066
94	0xbda25fca	-0.079284266
95	0xbd16bdce	-0.036802106
96	0xbd0c302f	-0.03422564
97	0x3d5cdf03	0.053923618
98	0xbd5d1060	-0.053970695
99	0x3bfee0a8	0.007778246
100	0x3a77faaa	0.0009459654
101	0xbd506fbf	-0.05088782
102	0x3e0e0277	0.13868128
103	0xbcb63cac	-0.022245727
104	0x3dcec910	0.100969434
105	0xbd4f8f63	-0.050673854
106	0x3d853a3b	0.06505247
107	0x3dc5b5f0	0.096538424
108	0xbd658b0b	-0.056040805
109	0x3da7366c	0.08164677
110	0x3c3d8425	0.01156715
111	0x3d1771d8	0.036973804
112	0x3da0516c	0.0782803
113	0x3db94885	0.09047035
114	0x3d45778f	0.048209723
115	0xbcc5b2c7	-0.0241331
116	0xbd091ff7	-0.03347775
117	0x3d23055b	0.03980003
118	0xbe1bf634	-0.15230638
119	0xbcffdf1e	-0.03123432
120	0x3da4eddb	0.0805318
121	0x3e416211	0.18885066
122	0x3d5b6868	0.053566366
123	0x3d9a8db8	0.07546562
124	0x3dded64f	0.1088072
125	0xbd5d0ab9	-0.053965304
126	0x3cdce91f	0.02696663
127	0xbd73e9b3	-0.059549045
128	0xbd2f0339	-0.042727683
129	0xbd62ad75	-0.055341203
130	0x3cf348af	0.029697744
131	0x3d35141d	0.044208635
132	0xbcfd3b57	-0.030912085
133	0x3cea6ad2	0.028615389
134	0x3d88a5bd	0.06672237
135	0xbdc850dd	-0.097810484
136	0xbc3d7387	-0.011563188
137	0xbdb0f1c3	-0.086398624
138	0xbd1a3251	-0.03764564
139	0xbd193999	-0.037408445
140	0x3d56b7b4	0.052421287
141	0xbd21734f	-0.039416607
142	0x3d86886b	0.065689884
143	0xbd3ccb3b	-0.046092253
144	0xbc93eb33	-0.018056488
145	0xbc5de3e0	-0.013543099
146	0x3d6afcdd	0.057370055
147	0xbd8ebca9	-0.06969578
148	0x3d0586d7	0.032599296
149	0x3d88206c	0.06646809
150	0xbd28974b	-0.04115991
151	0x3d97c7de	0.074111685
152	0x3d97519c	0.07388613
153	0xbd83e812	-0.06440748
154	0x3d9259fb	0.07146069
155	0x3d2b38a7	0.041802075
156	0x3c5a671b	0.013330246
157	0xbdc9acb1	-0.098473914
158	0xbd245565	-0.0401205
159	0xbcef85e9	-0.029238658
160	0x3d8993c5	0.06717638
161	0xbd97fbb6	-0.07421057
162	0xbd8858a3	-0.06657531
163	0x3d62a99a	0.055337526
164	0xbd7d3fa8	-0.061828285
165	0xbda99173	-0.08279695
166	0xbc146484	-0.009057168
167	0xbd915da4	-0.07097939
168	0xbd287b49	-0.0411332
169	0xbda6b450	-0.08139861
170	0xbdb6574f	-0.089033715
171	0xbbf463ee	-0.0074582016
172	0x3d46bedd	0.048521865
173	0xbc31711a	-0.010830188
174	0x3d27b0ac	0.04093997
175	0xbd09e873	-0.033668946
176	0x3d50f21c	0.051012143
177	0xbd4c1174	-0.049821332
178	0xbca117bd	-0.01966464
179	0xbcfc46d8	-0.0307955
180	0xbd911cce	-0.07085572
181	0xbdbe1400	-0.092811584
182	0xbcfb2d51	-0.030661257
183	0xbda9f8c5	-0.08299402
184	0xbdbbaa19	-0.09163303
185	0xbdadbc3e	-0.0848317
186	0x3d0a04cd	0.033695985
187	0xbd6d1f1f	-0.057891008
188	0xbcf017df	-0.029308258
189	0xbd525539	-0.051350806
190	0x3c2e2b4b	0.010630439
191	0x3bf4afc3	0.0074672415
192	0x3d3060b6	0.04306098
193	0x3d6f4e43	0.058424246
194	0x3d47bc94	0.048763826
195	0x3dab26b9	0.08356995
196	0x3c3bdd28	0.011466302
197	0xbd0e0a91	-0.034678046
198	0xbd0eb599	-0.034841154
199	0xbd993f55	-0.07482783
200	0xbb558971	-0.0032583142
201	0x3c93305b	0.017967394
202	0xbd264062	-0.040588744
203	0x3da52877	0.08064359
204	0x3d872344	0.06598523
205	0xbc843165	-0.016136834
206	0xbd95a48d	-0.07306776
207	0x3c53f9ab	0.012937943
208	0x3d07b06e	0.03312724
209	0x3c9d1979	0.019177185
210	0xbd8f105c	-0.06985542
211	0xbd3f081c	-0.046638593
212	0x3c6e488e	0.014543666
213	0x3c8ece80	0.017432451
214	0xbd89c2fe	-0.06726645
215	0x3d8238ef	0.063585155
216	0xbdb10c8d	-0.08644972
217	0xbd899172	-0.067171946
218	0x3d43421b	0.047670465
219	0xbd0beb1d	-0.03415977
220	0xbd09f07a	-0.033676602
221	0xbb90d8aa	-0.0044203596
222	0x3d3628c6	0.04447248
223	0x3d34fffa	0.04418943
224	0xbd126cd2	-0.03574831
225	0xbdb7b69a	-0.08970375
226	0xbd06c9a5	-0.032907147
227	0x3d317ff9	0.043334935
228	0x3d01da3d	0.03170227
229	0xbd0a961e	-0.03383457
230	0x3c1a9426	0.009434735
231	0x3c7eb36c	0.015545707
232	0xbd66df20	-0.056365132
233	0x3d441dda	0.04788003
234	0x3d2dc9a6	0.042428635
235	0xbd135505	-0.035969753
236	0x3dab6efa	0.083707765
237	0x3cfc0742	0.03076518
238	0xbcc17a1a	-0.023617793
239	0x3d0525af	0.03250664
240	0x3d4df42e	0.050281696
241	0x3d44a943	0.048012983
242	0xbdaceabf	-0.08443212
243	0x3d90b24c	0.070652574
244	0xbd48c991	-0.049020354
245	0xbd8cac9c	-0.0686886
246	0xbcb65f2f	-0.022262184
247	0x3d6ce625	0.05783667
248	0x3d07864a	0.033087052
249	0x3d05046c	0.03247492
250	0xbd379092	-0.044815607
251	0x3d9c3222	0.076267496
252	0x3ce8ac05	0.028402338
253	0xbd42d764	-0.047568694
254	0x3c839d0a	0.016066093
255	0x391e2c36	0.00015084524

fc_value.bias f4 [256]
0	0x3c67ce3b	0.01414829
1	0xbca564aa	-0.020189602
2	0x3d682776	0.056678258
3	0xbc1b0847	-0.009462423
4	0x3c5e7c2e	0.013579411
5	0xbd938499	-0.07203025
6	0xbda5b358	-0.08090848
7	0x3d408cdd	0.047009338
8	0xbd5ce033	-0.05392475
9	0x3db4fdb8	0.088374555
10	0x3da9595d	0.08268998
11	0x3ca4fa8c	0.020139001
12	0x3dac21c6	0.08404879
13	0xbc4081d3	-0.0117497025
14	0xbd9263a3	-0.071479104
15	0xbb0478d6	-0.0020213625
16	0xbdfc0c00	-0.12306976
17	0x3c04fd1c	0.008116987
18	0x3dd893f5	0.105750956
19	0x3db25173	0.087069415
20	0xbd9ce430	-0.07660711
21	0x3d0c0a21	0.034189347
22	0x3ddab7e2	0.10679604
23	0x3c92bb80	0.017911673
24	0xbdd10474	-0.102059275
25	0x3bb7f31e	0.0056136986
26	0xbd938e72	-0.07204904
27	0x3d5bdd55	0.053677876
28	0x3d01f867	0.031731036
29	0xbdfa741c	-0.12229177
30	0x3dce9b6b	0.100882374
31	0xbac52619	-0.0015041261
32	0x3d0d6eb1	0.03452939
33	0xbdaa9cbc	-0.08330676
34	0x3a2842ca	0.0006418644
35	0x3d9b206d	0.07574544
36	0x3d813b20	0.06310105
37	0x3d002e84	0.03129436
38	0x3ca5ac49	0.020223754
39	0xbd851d8c	-0.06499776
40	0xbc128eff	-0.008945226
41	0x3d06b2cd	0.03288536
42	0xbd236629	-0.03989235
43	0x3b03d1e2	0.0020114114
44	0x3e2aa643	0.16664986
45	0x3da3537b	0.07974907
46	0xbd0fa430	-0.03506869
47	0xbc464a65	-0.012102698
48	0x3c71d82b	0.014761011
49	0xbdb14ee7	-0.086576276
50	0xbc1ac4d2	-0.00944634
51	0x3da8830e	0.08228122
52	0xbbc28c90	-0.0059371665
53	0xbda4ef6a	-0.08053477
54	0x3db01f78	0.08599752
55	0x3d8dbd6c	0.06920895
56	0xbd12ddaf	-0.035855945
57	0xbd512121	-0.051056985
58	0x3b995473	0.0046792566
59	0x3d93c395	0.07215039
60	0xbd3dc600	-0.046331406
61	0xbb49cd79	-0.0030792637
62	0xbd984186	-0.074343726
63	0xbcc44774	-0.023959853
64	0xbd5190fd	-0.051163662
65	0xbd5e5f1a	-0.054289915
66	0xbd826cba	-0.06368394
67	0xbc244abd	-0.010027585
68	0x3d73f91a	0.059563734
69	0x3c843669	0.016139226
70	0xbd32f024	-0.043686047
71	0x3cbfb442	0.023401383
72	0xbdcab796	-0.098982975
73	0xbdb37992	-0.08763422
74	0xbc78e75f	-0.015191882
75	0x3dac2053	0.08404603
76	0xbdb3d894	-0.087815434
77	0xbcc49b69	-0.023999887
78	0xbdad71a4	-0.08468941
79	0xbde3aff3	-0.11117544
80	0x3d04f495	0.032459814
81	0x3da1b72e	0.07896267
82	0xbcae6ae0	-0.021291196
83	0x3cb2aa2f	0.021809665
84	0x3dc2ef0e	0.09518252
85	0xbc5bf9d7	-0.013426266
86	0xbba4a616	-0.005024682
87	0x3dfe2423	0.12409236
88	0x3d6c8ea5	0.057753224
89	0x3dc87f93	0.09789958
90	0xbd77a346	-0.060458444
91	0x3c8e4ad1	0.01736966
92	0xbda07055	-0.07833926
93	0x3d7c3884	0.061577335
94	0xbd86fc14	-0.06591049
95	0x3d70068a	0.058599986
96	0x3e1b3874	0.15158254
97	0x3d8ab996	0.06773679
98	0x3cdbd5c8	0.026835337
99	0xbc92eda2	-0.017935578
100	0x3df599be	0.119922146
101	0x3cd3ecea	0.025869805
102	0x3d9795c8	0.074016154
103	0xbd4b5479	-0.049641106
104	0xbd09187f	-0.033470627
105	0x3d697581	0.056996826
106	0x3dd8a451	0.10578216
107	0x3dbf188e	0.09330855
108	0xbdaeb607	-0.08530813
109	0xbd83eab1	-0.06441248
110	0x3dd1c556	0.10242717
111	0xbce9647c	-0.028490297
112	0xbdd122b0	-0.10211694
113	0x3bd16b01	0.0063909297
114	0x3dd230ea	0.10263236
115	0xbce992b5	-0.028512338
116	0x3de7cd06	0.11318402
117	0xbd830025	-0.06396512
118	0xbd231748	-0.039817125
119	0x3b9097a5	0.0044126087
120	0xbd83e6b4	-0.064404875
121	0x3bd342b7	0.006447162
122	0x3bde6203	0.0067865863
123	0xbd2f27d3	-0.04276259
124	0xbc7f2df4	-0.015574921
125	0x3d031c8a	0.03200964
126	0x3ce3bc7a	0.027799834
127	0x3d6cb34e	0.057788186
128	0x3d921ba4	0.07134178
129	0xbd4462cb	-0.04794578
130	0x3dbcbffd	0.09216306
131	0xbdb287ce	-0.08717309
132	0x3c72d877	0.014822117
133	0x3cdc49c3	0.026890641
134	0x3d78c6c6	0.06073644
135	0xbd17ad7f	-0.037030693
136	0x3c1939fa	0.009352202
137	0xbd8e5c8f	-0.06951248
138	0xbc013d7d	-0.007888195
139	0x3cfed2fe	0.031106468
140	0xbc0fe189	-0.008781799
141	0x3c2c85de	0.010529963
142	0x3dc4541a	0.095863536
143	0x3ce2fe71	0.027709218
144	0x3e130b69	0.14359821
145	0xbd0c6bd8	-0.034282535
146	0x3d048101	0.03234959
147	0xbcd79ea2	-0.02632076
148	0xbcc46b1d	-0.023976857
149	0x3d950ad4	0.07277456
150	0xbd5b0c4f	-0.053478535
151	0xbd7f0451	-0.062259976
152	0xbc6077c6	-0.013700431
153	0xbd358b0c	-0.04432206
154	0xbd93095f	-0.07179522
155	0xbd1b6d92	-0.03794629
156	0xbb2f0291	-0.002670441
157	0x3c7e845f	0.015534489
158	0xbd076380	-0.033053875
159	0x3d46a171	0.048493806
160	0x3d70f3e6	0.05882635
161	0xbda5f3cf	-0.081031434
162	0xbd680b06	-0.056651138
163	0x3c930fe9	0.017951922
164	0x3c94c58d	0.018160606
165	0x3db2b4d2	0.08725895
166	0xbc8e5d80	-0.017378569
167	0x3b771b3e	0.0037705447
168	0xbdd82026	-0.10553007
169	0x3d3ce408	0.046115905
170	0xbd8545c7	-0.065074496
171	0xbd3c6180	-0.04599142
172	0xbca25217	-0.019814534
173	0x3ce2f25b	0.027703455
174	0xbbcb7b68	-0.0062097795
175	0x3d84d2d0	0.06485522
176	0x3dc9554b	0.098307215
177	0xbd53079b	-0.051520925
178	0xbd937383	-0.071997665
179	0xbc96ef83	-0.018424755
180	0x3b34675f	0.0027527434
181	0x3d2bc958	0.041940063
182	0xbd1149e3	-0.035470854
183	0xbc90c46f	-0.017671792
184	0x3d7c8fdd	0.061660636
185	0xbd5ca717	-0.053870287
186	0x3ce9d95d	0.02854603
187	0xbd60bc55	-0.054867107
188	0x3bcdb0e4	0.0062771905
189	0xbd5b8fda	-0.053603984
190	0xbdd97e86	-0.106198356
191	0xbc3be337	-0.011467746
192	0xbd78c0e1	-0.06073082
193	0x3d796980	0.06089163
194	0x3e08d27f	0.13361548
195	0x3d815f02	0.063169494
196	0xbdb84234	-0.08997002
197	0x3c12592b	0.008932392
198	0x3e003fa7	0.12524281
199	0x3ceeaddd	0.029135639
200	0x3c12f2b3	0.008968997
201	0x3dc5d818	0.09660357
202	0x3d55b183	0.05217124
203	0xbd4d8057	-0.050171223
204	0xbdc18b27	-0.09450369
205	0xbdfc2ee3	-0.123136304
206	0xbdc7419f	-0.09729313
207	0x3caef8a3	0.021358794
208	0xbdc26183	-0.09491255
209	0xbd820418	-0.06348437
210	0x3db72514	0.08942619
211	0x3c9a48ab	0.018833479
212	0x3deeb00f	0.11654674
213	0xbcb406ea	-0.021975953
214	0x3dc5a9c6	0.09651522
215	0xbda2f216	-0.079563305
216	0xbc769e4f	-0.015052392
217	0x3d81d750	0.06339896
218	0xbcc0555d	-0.023478204
219	0xbd14ebd2	-0.03635771
220	0x3d0898dd	0.033348907
221	0x3c4c7202	0.012478353
222	0x3cb20c9e	0.021734532
223	0xbc55cbd7	-0.0130490875
224	0x3d3a60bd	0.045502413
225	0xbc79c7e5	-0.0152454125
226	0x3bce4926	0.006295341
227	0x3dc0a1d6	0.09405868
228	0xbcc0ab80	-0.023519278
229	0x3dbad076	0.09121792
230	0x3dd2baed	0.102895595
231	0x3db8200f	0.0899049
232	0x3db9254d	0.09040318
233	0xbb8811ef	-0.0041525285
234	0x3db67813	0.08909621
235	0xbca52aa6	-0.020161938
236	0x3d215838	0.039390773
237	0xbc1508fd	-0.009096381
238	0x3d5e8eb7	0.054335322
239	0x3b1ff472	0.0024407175
240	0xbdb5486c	-0.08851704
241	0xbd327d0b	-0.04357628
242	0xbda4dc16	-0.080497906
243	0xbb8cab66	-0.004292893
244	0xbb0c8a2e	-0.0021444666
245	0xbce0b13b	-0.02742826
246	0xbd788d2e	-0.060681514
247	0x3d50127f	0.05079889
248	0x3d4f2741	0.050574545
249	0xbcf4e831	-0.029895874
250	0xbd582f14	-0.052779272
251	0xbc1061d9	-0.008812391
252	0xbdaa289b	-0.08308526
253	0xbdb1234b	-0.0864931
254	0x3d113edd	0.03546034
255	0x3d689fe4	0.05679311

value.weight f4 [1, 256]
0	0x3e035ddd	0.12828775
1	0x3c772e4a	0.01508672
2	0xbe8ab5e3	-0.27091894
3	0xbcfc9552	-0.03083292
4	0xba03ebfa	-0.00050324167
5	0xbbf23f20	-0.007392779
6	0xbd1c21ec	-0.038118288
7	0xbd01b80c	-0.03166966
8	0xbcb7f6d2	-0.02245656
9	0xbe1db891	-0.15402438
10	0x3e0c4dcd	0.13701554
11	0x3dddb2e4	0.10825136
12	0x3daccb71	0.08437241
13	0x3d4378b6	0.04772254
14	0xbccae24d	-0.024766112
15	0x3df47306	0.119360015
16	0x3d7b04ad	0.061283756
17	0x3c5efd2e	0.013610167
18	0x3e058242	0.1303797
19	0xbdc31aa3	-0.09526565
20	0x3d0dd345	0.03462531
21	0x3e0b349a	0.13594285
22	0x3de509d4	0.11183515
23	0xbd1f0b84	-0.03882934
24	0x3d42a22e	0.047517948
25	0x39eb9d59	0.00044939926
26	0xbbfc10e6	-0.007692444
27	0xbe02cb84	-0.12772948
28	0x3bcdf562	0.0062853554
29	0xbe1cb2c5	-0.1530257
30	0xbe0c1400	-0.13679504
31	0x3d2a7cf8	0.041623086
32	0x3cd81296	0.02637605
33	0x3dc8c519	0.098032184
34	0xbe255a38	-0.16147697
35	0xbdd24b81	-0.102683075
36	0xbe0c4f20	-0.13702059
37	0xbdff3199	-0.12460632
38	0xbd5ea5b4	-0.054357246
39	0x3be46db6	0.0069710864
40	0x3e061fa0	0.13098001
41	0x3d0da1d1	0.03457815
42	0xbd7a0166	-0.06103649
43	0xbdf91282	-0.12161733
44	0x3dd94da7	0.10610514
45	0x3e1ba4b1	0.15199544
46	0x3d0fbe2b	0.035093468
47	0x3c40fe41	0.011779369
48	0x3d11c57c	0.035588726
49	0xbcc9f054	-0.02465073
50	0x3bf9b988	0.007620994
51	0x3e0a0f45	0.13482387
52	0x3d012827	0.031532433
53	0x3cc3c5bd	0.023898
54	0xbe1c6c8f	-0.15275787
55	0xbcfd6ecc	-0.030936621
56	0xbdde0bb3	-0.10842075
57	0xbc81ddfc	-0.01585292
58	0x3ce38c89	0.027776973
59	0x3e28a080	0.16467476
60	0xbe16f003	-0.14739995
61	0xbe05d5fc	-0.1306991
62	0x3cddf4e9	0.027094321
63	0x3da57903	0.08079722
64	0xbc3725f3	-0.011178481
65	0x3d2b5886	0.04183247
66	0xbe105fd3	-0.14099054
67	0xbdfd64e3	-0.12372758
68	0xbdf29c3d	-0.11846206
69	0x3d1c5d0e	0.03817468
70	0x3d447fcc	0.04797344
71	0x3dce539c	0.10074541
72	0x3d99005b	0.07470771
73	0xbcf8ca74	-0.030369975
74	0xb99d4cce	-0.00030002597
75	0xbdd4c5ed	-0.10389314
76	0xbd239801	-0.039939884
77	0x3d42c0e3	0.047547232
78	0x3d88a77c	0.0667257
79	0x3d8870bf	0.066621296
80	0xbe276e4e	-0.16350672
81	0x3daa01cd	0.08301125
82	0x3d756480	0.059910297
83	0x3de04278	0.10950178
84	0x3df7512d	0.1207603
85	0xbc019907	-0.00791002
86	0xbe0b5181	-0.1360531
87	0x3dca8190	0.09887993
88	0xbe00fcac	-0.12596387
89	0x3e0d0b0b	0.13773744
90	0xbc932ed4	-0.017966665
91	0x3e28d0c0	0.16485882
92	0xbd2d849d	-0.042362798
93	0x3df897fc	0.12138364
94	0xbc515437	-0.012776426
95	0x3df2bec8	0.11852795
96	0x3def9c3b	0.116997205
97	0xbc59a60c	-0.013284218
98	0x3e071bd4	0.1319421
99	0x3d5e9b5f	0.054347392
100	0x3de5b45a	0.1121604
101	0xbe19e67f	-0.15029334
102	0x3da63c3a	0.08116956
103	0xbd63300e	-0.05546575
104	0x3d013221	0.031541947
105	0x3da07234	0.078342825
106	0x3d94ad81	0.07259656
107	0xbdd12e65	-0.10213927
108	0xbc862b30	-0.016378015
109	0xbb3a7f3a	-0.002845718
110	0x3d6da82e	0.058021717
111	0xbd1603a6	-0.036624573
112	0x3cff4cb8	0.031164512
113	0x3e11d52b	0.14241473
114	0x3e01844f	0.12648128
115	0xbdfafeee	-0.12255655
116	0xbda976ff	-0.0827465
117	0xbdeea4f8	-0.11652559
118	0xbd2c0ba2	-0.04200328
119	0xbe0a6787	-0.13516055
120	0xbc36be68	-0.011153795
121	0x3d148ebe	0.036268942
122	0x3d9dab8c	0.076987356
123	0xbe064e3d	-0.13115783
124	0x3a893bea	0.0010470126
125	0x3db38b09	0.08766753
126	0xbdeb2455	-0.11481539
127	0xbd42aeaa	-0.047529854
128	0xbdcdeeac	-0.10055289
129	0x3cf1738c	0.029474042
130	0xbe11458b	-0.14186685
131	0x3d64b7c9	0.055839334
132	0xbe153d06	-0.1457406
133	0xbb33959e	-0.0027402411
134	0xbde6222c	-0.112369865
135	0xbd6fba5a	-0.058527328
136	0x3d0a95a3	0.03383411
137	0xbd620798	-0.055183023
138	0xbe1f2a2a	-0.15543428
139	0x3c91cacf	0.017796902
140	0x3c28320f	0.010265841
141	0xbe555d14	-0.20836288
142	0x3de1c53d	0.11023948
143	0x3e0db967	0.13840257
144	0x3e0a54e4	0.13508946
145	0xbd820f79	-0.063506074
146	0x3d9927ba	0.0747828
147	0xbc2408e0	-0.010011882
148	0x3d9fb504	0.07798198
149	0xbe02ec7e	-0.12785527
150	0x3d17816c	0.03698866
151	0xbca4b598	-0.020106122
152	0xbde8f3c7	-0.11374622
153	0xbdece35e	-0.11566804
154	0x3bc7546e	0.006083063
155	0x3d400c38	0.046886653
156	0x3e2c7d3b	0.16844647
157	0x3c7d22b7	0.015450171
158	0xbca427d2	-0.020038519
159	0x3d87e311	0.06635106
160	0x3df1cb32	0.118063346
161	0xbd3478f2	-0.044060655
162	0x3cc04704	0.023471363
163	0xbdb5535e	-0.08853792
164	0xbd10ba15	-0.03533371
165	0xbe118ed4	-0.14214641
166	0xbbb1404e	-0.005409277
167	0x3d3a4ed2	0.045485325
168	0x3d2730b0	0.040817916
169	0x3d53a8c5	0.051674623
170	0xbe190217	-0.14942203
171	0xbce9f0fd	-0.028557295
172	0xbc23a359	-0.009987676
173	0xbe0d174f	-0.13778423
174	0xbd2fc2d1	-0.0429104
175	0xbdf5b17b	-0.11996742
176	0xbddd7a40	-0.10814333
177	0xbdfdbfa1	-0.12390066
178	0xbcabbcd2	-0.02096406
179	0xbe1d0927	-0.15335523
180	0xb89c1acb	-7.44365e-05
181	0xbe1368d8	-0.14395463
182	0xbbaf7d76	-0.0053555323
183	0xbd12efbd	-0.035873163
184	0x3dd8cc0b	0.10585793
185	0xbca105e8	-0.019656137
186	0x3cc5df89	0.024154441
187	0x3cdf1a9d	0.02723437
188	0x3d7812aa	0.060564674
189	0x3cab8390	0.020936757
190	0xbcbf63db	-0.023363044
191	0xbde59b1e	-0.11211227
192	0x3dbbb3cb	0.09165152
193	0xbddbd4e8	-0.10733968
194	0xbdfe9677	-0.12431043
195	0xbde28113	-0.11059775
196	0x3c91e604	0.017809875
197	0x3de974fa	0.11399265
198	0x3de2b11c	0.11068937
199	0x3df53dc8	0.119746745
200	0x3d029401	0.03187943
201	0xbdf07fc9	-0.11743123
202	0x3b131b89	0.0022446832
203	0x3d75ea89	0.060038123
204	0x3d38607a	0.045013882
205	0xbe10174e	-0.1407139
206	0x3b9b783b	0.004744557
207	0x3d714c07	0.058910396
208	0xbd17806d	-0.03698771
209	0xbac937f1	-0.0015351755
210	0xbd1f9d6c	-0.03896849
211	0xbba8fa92	-0.0051568234
212	0x3df8164e	0.12113629
213	0xbdd8b27a	-0.10580917
214	0xbd511ba3	-0.051051747
215	0x3d0e87d4	0.034797505
216	0xbdfd42e3	-0.12366273
217	0xbd91d94d	-0.07121525
218	0x3c66c6da	0.014085496
219	0xbdc964f3	-0.09833708
220	0xbdea4fb7	-0.11440986
221	0xbdf5716f	-0.11984526
222	0xbe18b96d	-0.14914484
223	0xbd5ff35b	-0.05467544
224	0x3c6bf190	0.014400855
225	0xbe1d749b	-0.15376513
226	0x3d810e99	0.063016124
227	0xbdff0036	-0.12451212
228	0xbe001744	-0.12508875
229	0xbe0eb3c7	-0.13935767
230	0xbdd7e1a9	-0.10541088
231	0xbddbb505	-0.10727886
232	0xbe1750e9	-0.14776959
233	0xbb5c07dd	-0.0033574023
234	0xbe217b2e	-0.15769646
235	0x3d268e93	0.040663313
236	0x3dbda736	0.092604086
237	0xbdff0c43	-0.124535106
238	0xbd13db01	-0.03609753
239	0x3c6c82d4	0.014435489
240	0x3cac4f63	0.021033948
241	0xbd23939f	-0.039935704
242	0x3cfdfd8f	0.031004695
243	0xbe1c4b07	-0.15262996
244	0xbe21cb4b	-0.15800206
245	0xbdd16c82	-0.10225774
246	0x3d1afb38	0.037837237
247	0xbc855d8e	-0.016279962
248	0xbde2ecd2	-0.11080326
249	0xbd3ce7b6	-0.046119414
250	0x3b422ff0	0.0029630624
251	0xbdf44556	-0.11927287
252	0x3bac02e7	0.0052493694
253	0xbd00275e	-0.031287543
254	0x3d20b11d	0.03923141
255	0xbdf2faed	-0.118642665
