models/flappy_dqn.pth (torch, 143462 bytes, 6 tensors)

fc1.weight f4 [256, 7]
0.060616627 -0.20751126 0.08731136 0.31713095 -0.14205506 -0.055539247 0.24847107 0.28593603
-0.23523572 0.26963115 0.42997557 0.2575085 0.12007641 0.21467294 -0.3438619 0.30116254
0.27916852 0.18064128 0.45988575 0.3885908 0.38119397 0.07488854 0.0033570079 1.2159063
0.7778931 -0.10009838 0.3569571 0.01865888 -0.33379874 0.065778635 1.8549498 0.89055336
0.14843465 0.056085277 0.19392286 -0.018882822 1.0359908 0.12108663 -0.037960917 0.25026003
0.18277554 -0.08615474 0.17857665 0.30553445 0.026346903 -0.12181809 -0.07668972 0.23776639
-0.24488208 -0.5064335 0.25714853 0.7588872 0.35006407 -0.12879393 -0.08876622 0.25385156
0.189669 0.38565984 -0.022514671 0.30675563 -0.08210431 0.4045364 0.07068529 -0.16199674
-0.2704639 0.27593362 0.58108926 0.2601078 0.54472196 0.31522167 -0.110010736 0.23016074
-0.34730634 0.33442312 -0.32526955 -0.21968426 0.2030953 0.3206645 0.16983438 -0.0077492404
-0.06003238 0.11351308 0.34783453 -0.080362365 -0.10845359 0.1394584 0.58437884 0.21694133
0.3043396 -0.09284903 0.36794832 0.33706608 0.2521003 -0.29417947 -0.24249773 -0.06445825
-0.09348147 0.5254544 -0.015477275 1.0893493 -0.16947354 0.27569285 0.36661822 0.27411407
-0.25936684 -0.018221853 1.2126182 0.24548009 -0.048454657 0.30873072 0.13028717 -0.10280439
-0.15834102 0.5029851 -0.1866877 -0.34573224 -0.15673238 -0.120178364 -0.277776 0.005424545
0.75983566 0.35296255 -0.25590312 -0.23209016 0.10346259 -0.08166701 0.017353125 0.55748147
-0.09371339 0.26727432 0.0106731225 -0.24767233 0.2150222 -0.012428725 1.0899831 0.049935378
0.18273778 0.10459702 0.35866705 -0.31668743 -0.15892138 -0.11730396 0.57445127 0.16761196
0.37789744 -0.035586435 0.12641348 -0.4536239 -0.08656187 0.013254905 0.39447692 0.20465487
0.6175112 0.14359558 -0.08574378 0.061190233 0.058582008 0.1386677 0.2265243 -0.32624978
0.042874835 0.060074512 0.4710842 1.183696 0.6635854 -0.24196044 0.4336518 -0.21569295
-0.038884506 0.45841932 -0.30114135 -0.01701622 0.106054224 0.23552808 -0.31599125 -0.06262163
-0.20200497 0.57567465 0.054722916 0.13255724 0.39439583 0.05043034 -0.016345175 1.1499281
0.37258294 -0.15027411 0.40298945 0.22066711 -0.18434505 0.02847001 0.4252539 1.2049261
0.7504924 0.304489 -0.17106128 0.10784068 -0.42454165 -0.0019195594 0.2806257 0.26923347
0.4618694 0.20596048 -0.2081017 0.3925391 0.17701842 -0.1457424 -0.029452868 0.20625044
0.044564933 0.08363497 -0.024547322 1.1042148 0.80792904 0.59628636 0.081799716 0.056721747
-0.27842256 -0.48754707 0.39289838 1.7256558 0.8596839 0.043545578 -0.29662865 0.32506275
-0.6694984 -0.1923586 0.91658324 -0.20176326 -0.17246038 0.052850153 -0.0014434167 -0.19780533
0.26976916 0.50103724 0.66297865 0.18060754 0.1157051 0.44350258 -0.19689535 0.24681962
0.79399085 0.39836177 0.45939478 0.4538303 0.28044692 0.019235214 -0.22871767 0.004067862
-0.0372675 -0.14179225 0.014203395 -0.32159248 -0.17276992 -0.06290975 0.30159107 -0.09294888
00000000: 2449 783d d57d 54be 4cd0 b23d fd5e a23e
00000010: e276 11be 1f7d 63bd 336f 7e3e 3566 923e
00000020: a2e1 70be 180d 8a3e c225 dc3e 27d8 833e
00000030: 9fea f53d 39d3 5b3e ab0e b0be fa31 9a3e
00000040: 2def 8e3e 07fa 383e 2576 eb3e 60f5 c63e
00000050: db2b c33e 2a5f 993d 3f01 5c3b d1a2 9b3f
00000060: 0124 473f 6100 cdbd 15c3 b63e 82da 983c
00000070: abe7 aabe f3b6 863d ff6e ed3f 4efb 633f
00000080: 41ff 173e adb9 653d b793 463e 26b0 9abc
00000090: 599b 843f 44fc f73d e87c 1bbd 1522 803e
000000a0: 8329 3b3e e571 b0bd ccdc 363e 036f 9c3e
000000b0: 76d5 d73c c37b f9bd 800f 9dbd 0879 733e
000000c0: 5ec2 7abe a0a5 01bf f9a8 833e 6e46 423f
000000d0: 993b b33e 8ee2 03be 10cb b5bd d5f8 813e
000000e0: 9738 423e 3575 c53e b070 b8bc 130f 9d3e
000000f0: 4e26 a8bd 651f cf3e 73c3 903d 79e2 25be
00000100: 3f7a 8abe 2c47 8d3e 44c2 143f d92c 853e
00000110: e672 0b3f bc64 a13e 4f4d e1bd 42af 6b3e
00000120: 23d2 b1be 8239 ab3e bb89 a6be e9f4 60be
00000130: 37f8 4f3e 232e a43e 10e9 2d3e 57ed fdbb
00000140: 83e4 75bd 8c79 e83d 5e17 b23e 0695 a4bd
00000150: ea1c debd 2fce 0e3e da99 153f de25 5e3e
00000160: 66d2 9b3e a227 bebd b963 bc3e ed93 ac3e
00000170: 4a13 813e b19e 96be 5351 78be b002 84bd
00000180: 3773 bfbd 2e84 063f 6594 7dbc cc6f 8b3f
00000190: 798a 2dbe 9d27 8d3e 62b5 bb3e ae58 8c3e
000001a0: bbcb 84be ff45 95bc 1337 9b3f 225f 7b3e
000001b0: 6478 46bd f411 9e3e 006a 053e 1c8b d2bd
000001c0: 2624 22be a2c3 003f 0f2b 3fbe d103 b1be
000001d0: 747e 20be 1320 f6bd a838 8ebe 62c0 b13b
000001e0: 9784 423f 82b7 b43e bc05 83be 0ba9 6dbe
000001f0: 32e4 d33d 0941 a7bd 2428 8e3c 1bb7 0e3f
00000200: ceec bfbd 2ed8 883e 52de 2e3c d19d 7dbe
00000210: c82e 5c3e daa1 4bbc 9184 8b3f 0a89 4c3d
00000220: 9d1f 3b3e f636 d63d 35a3 b73e db24 a2be
00000230: 49bc 22be 0f3d f0bd 3d0f 133f 78a2 2b3e
00000240: c67b c13e 15c3 11bd 8972 013e 6441 e8be
00000250: 5a47 b1bd 1a2b 593c e1f8 c93e 0c91 513e
00000260: 3715 1e3f b80a 133e 6f9a afbd 9ca2 7a3d
00000270: b0f3 6f3d e8fe 0d3e fcf5 673e 360a a7be
00000280: 869d 2f3d b110 763d f331 f13e 5a83 973f
00000290: bce0 293f 7ac4 77be 9c07 de3e 9dde 5cbe
000002a0: 5c45 1fbd f0b5 ea3e 332f 9abe 9a65 8bbc
000002b0: f532 d93d 462e 713e 9bc9 a1be c53f 80bd
000002c0: 64da 4ebe 6a5f 133f 2325 603d 16bd 073e
000002d0: 40ee c93e 0b90 4e3d 51e6 85bc d830 933f
000002e0: 31c3 be3e 75e1 19be a254 ce3e 8ff6 613e
000002f0: f3c4 3cbe f039 e93c e1ba d93e 053b 9a3f
00000300: 4520 403f fbe5 9b3e b02a 2fbe 93db dc3d
00000310: 865d d9be ba99 fbba 2cae 8f3e f8d8 893e
00000320: 257a ec3e 4ee7 523e 9d18 55be e3fa c83e
00000330: 5144 353e 7f3d 15be 2447 f1bc 5133 533e
00000340: b889 363d d048 ab3d 7717 c9bc e956 8d3f
00000350: 70d4 4e3f 39a6 183f 9c86 a73d 1055 683d
00000360: 678d 8ebe c59f f9be fa29 c93e 4ae2 dc3f
00000370: 3e14 5c3f d95c 323d b6df 97be a06e a63e
00000380: 3f64 2bbf a7f9 44be 33a5 6a3f 079b 4ebe
00000390: 7499 30be 6779 583d 0731 bdba 7b8d 4abe
000003a0: 2f1f 8a3e fa43 003f f8b8 293f 2ff1 383e
000003b0: ccf6 ec3d c512 e33e ef9e 49be 48be 7c3e
000003c0: fc42 4b3f 13f6 cb3e cb35 eb3e 725c e83e
000003d0: bd96 8f3e 2b93 9d3c f734 6abe b34b 853b
000003e0: cea5 18bd fd31 11be 5bb5 683c c5a7 a4be
000003f0: 99ea 30be d4d6 80bd 256a 9a3e fb5b bebd

fc1.bias f4 [256]
-0.366547 0.30835924 0.12811588 0.21519381 -0.08263314 -0.2325174 0.18717134 0.055797998
0.38058618 0.27708623 -0.31008655 -0.014544505 0.07200779 0.013119486 -0.331083 -0.27346507
0.17084567 0.13754232 -0.120905094 -0.14509422 0.44583455 0.44353592 0.3979783 0.31690606
-0.11799685 0.2461656 -0.28050414 -0.14020957 0.38331658 -0.1046524 0.0028984682 -0.21761851
0.03196053 -0.121719725 0.14494787 -0.2831763 -0.017310273 -0.12678865 0.47583112 0.31946075
0.25895774 -0.29313797 -0.36446366 0.25087982 -0.0004252071 -0.22692789 0.0011151894 0.34973475
-0.17203145 -0.11659246 -0.16064769 0.12215927 0.09797005 0.36733738 0.42340267 0.21070346
-0.18935406 0.18380752 0.4125281 0.08741389 0.4751379 0.2626855 -0.22414906 0.40995327
-0.11670435 0.19682254 -0.12184274 0.27011424 0.46319407 -0.17863952 0.066400096 0.053951085
-0.4041923 -0.026612148 -0.0028962651 -0.2443524 -0.2552471 0.33235696 0.053175744 -0.11183892
-0.06971482 0.12043558 -0.027646022 0.25199097 0.33799413 -0.34418872 0.44332874 -0.13082965
0.14818834 -0.4106551 0.37536606 0.16342382 0.24913085 0.29277304 0.3866981 0.35256928
0.36586708 -0.043060604 0.20701177 0.28052354 -0.22415878 -0.38855913 -0.022220919 0.32218722
-0.13194188 0.026502756 -0.26772904 0.015517328 0.054147426 -0.117432095 0.15379664 0.23093766
0.44617623 -0.08280037 -0.30084196 -0.19339107 0.2769732 0.23579472 0.11132191 0.13374874
-0.21259825 0.055586267 0.10537569 -0.36492726 -0.20291342 -0.26372445 0.46448275 -0.17866848
-0.23349597 0.4026477 0.010724372 0.040954173 -0.08117255 -0.22922407 0.20722167 0.0116635095
-0.1023102 0.07562519 -0.18785763 -0.17346022 0.38164252 0.06335995 0.11547807 0.37071988
0.17710096 0.19669028 -0.10887226 0.15029916 0.047489483 0.18933567 0.22913173 0.40253723
-0.13669096 0.24837191 -0.21562608 -0.1306884 -0.30386552 0.27435634 0.40458524 0.13533618
-0.05210302 0.20847283 -0.106007904 0.15586272 0.1087225 0.013122665 0.23321946 -0.08550064
-0.06897314 0.054698765 -0.03227559 0.1035641 0.41940743 0.120668046 -0.36242488 0.43092597
0.11021175 -0.114636 0.4473229 0.46141317 0.0020452358 0.35350895 0.43387195 0.34765968
-0.00060263684 -0.22773702 0.043798152 -0.3513006 -0.12761557 0.008450892 0.34090325 0.14936738
-0.16229287 0.07654977 0.374469 0.066842414 -0.42796135 -0.23802972 0.1543831 -0.09086332
0.24495749 0.034311917 0.23261487 -0.075599656 0.0053165443 -0.16109875 -0.17053045 0.45595422
0.023718841 -0.021668127 0.19492105 0.4748613 -0.012075793 -0.1654771 -0.30043137 -0.054111395
-0.04342398 -0.2552759 0.37566665 -0.17880245 0.33184344 -0.0138380835 -0.20862418 -0.31420225
-0.117375106 -0.08062978 0.0780583 0.09412797 0.2872979 0.51112324 0.22811057 0.17288822
0.17632157 -0.2781757 0.398351 -0.2993144 0.35726064 -0.032508623 0.012609564 0.016120525
0.34415925 0.05176012 -0.09263201 -0.18905388 0.38347265 0.16416368 -0.09111997 0.28488865
-0.10370354 0.46246368 0.1529354 -0.14636292 -0.1375331 -0.2778998 -0.26289675 0.41826853
00000000: 0cac bbbe 43e1 9d3e cf30 033e c45b 5c3e
00000010: 903b a9bd 0b19 6ebe d8a9 3f3e 718c 643d
00000020: 31dc c23e 3fde 8d3e aac3 9ebe 134c 6ebc
00000030: d278 933d 1df3 563c b683 a9be 9d03 8cbe
00000040: 2bf2 2e3e e5d7 0c3e 179d f7bd 9493 14be
00000050: 6d44 e43e 2417 e33e d0c3 cb3e 8341 a23e
00000060: 55a8 f1bd d612 7c3e 3d9e 8fbe 1993 0fbe
00000070: 1242 c43e ff53 d6bd 3af4 3d3b 63d7 5ebe
00000080: 0be9 023d 3148 f9bd 376d 143e 7cfc 90be
00000090: 46ce 8dbc e2d4 01be 23a0 f33e 5c90 a33e
000000a0: 1c96 843e 2e16 96be fb9a babe 5273 803e
000000b0: 55ee deb9 c95f 68be 8c2b 923a 6f10 b33e
000000c0: 0329 30be 07c8 eebd d480 24be a42e fa3d
000000d0: 86a4 c83d a513 bc3e 3cc8 d83e a6c2 573e
000000e0: 08e6 41be 0a38 3c3e e236 d33e 0e06 b33d
000000f0: 4645 f33e b77e 863e 5587 65be 65e5 d13e
00000100: b102 efbd d98b 493e b088 f9bd 6a4c 8a3e
00000110: c627 ed3e 47ed 36be c6fc 873d d0fb 5c3d
00000120: 4bf2 cebe b801 dabc 44cf 3dbb 8437 7abe
00000130: bfaf 82be b12a aa3e cfce 593d ce0b e5bd
00000140: a5c6 8ebd eea6 f63d e979 e2bc f604 813e
00000150: 910d ad3e 8139 b0be fcfb e23e 35f8 05be
00000160: afbe 173e 6341 d2be fb2f c03e 9358 273e
00000170: 281c 7f3e 59e6 953e 4bfd c53e f683 b43e
00000180: ee52 bb3e 5160 30bd e5fa 533e c8a0 8f3e
00000190: e189 65be 39f1 c6be a508 b6bc b9f5 a43e
000001a0: c61b 07be 4f1c d93c c813 89be 643c 7e3c
000001b0: b1c9 5d3d 3d80 f0bd de7c 1d3e ec7a 6c3e
000001c0: 3671 e43e 3e93 a9bd f507 9abe 4f08 46be
000001d0: 6ecf 8d3e 2c74 713e befc e33d 6ef5 083e
000001e0: 5bb3 59be 6dae 633d 36cf d73d bfd7 babe
000001f0: 89c8 4fbe e406 87be afd0 ed3e dff4 36be
00000200: 9119 6fbe d727 ce3e 47b5 2f3c 90bf 273d
00000210: cb3d a6bd b7b9 6abe eb31 543e 4e18 3f3c
00000220: 0388 d1bd 61e1 9a3d c05d 40be 8e9f 31be
00000230: a666 c33e ddc2 813d c47f ec3d ffce bd3e
00000240: f459 353e 2d69 493e 6bf8 debd 06e8 193e
00000250: 5584 423d 36e1 413e 82a1 6a3e 5c19 ce3e
00000260: b7f8 0bbe 3555 7e3e 15cd 5cbe 2ed3 05be
00000270: 4394 9bbe 6f78 8c3e cc25 cf3e 9195 0a3e
00000280: fa69 55bd e779 553e ac1a d9bd 7a9a 1f3e
00000290: e7a9 de3d 7200 573c 15d1 6e3e f61a afbd
000002a0: ca41 8dbd d00b 603d 6933 04bd 6a19 d43d
000002b0: 92bc d63e cf20 f73d c18f b9be 54a2 dc3e
000002c0: b3b6 e13d 47c6 eabd 8207 e53e 593e ec3e
000002d0: 5d09 063b 20ff b43e 7724 de3e 7300 b23e
000002e0: 46fa 1dba e533 69be b165 333d acdd b3be
000002f0: a8ad 02be 9c75 0a3c df8a ae3e c3f3 183e
00000300: 1a30 26be 20c6 9c3d 67ba bf3e ade4 883d
00000310: c01d dbbe 10be 73be 9a16 1e3e 8c16 babd
00000320: 23d6 7a3e a78a 0c3d 9832 6e3e fed3 9abd
00000330: 6836 ae3b 12f7 24be 899f 2ebe d572 e93e
00000340: 044e c23c 5b81 b1bc 6299 473e 0521 f33e
00000350: 8cd9 45bc d472 29be 24d2 99be e9a3 5dbd
00000360: 58dd 31bd 86b3 82be 6157 c03e fd17 37be
00000370: 62e7 a93e 21b9 62bc 94a1 55be 1edf a0be
00000380: 5c62 f0bd 3a21 a5bd 08dd 9f3d 2ac6 c03d
00000390: b618 933e f9d8 023f d195 693e 9c09 313e
000003a0: a48d 343e 0c6d 8ebe aaf4 cb3e bd3f 99be
000003b0: deea b63e c327 05bd 5898 4e3c 310f 843c
000003c0: a435 b03e 6b02 543d dab5 bdbd 5797 41be
000003d0: 8756 c43e 861a 283e 1b9d babd eddc 913e
000003e0: 8662 d4bd 0ac8 ec3e 199b 1c3e 29e0 15be
000003f0: 7ad5 0cbe e248 8ebe 679a 86be 4b27 d63e

fc2.weight f4 [128, 256]
-0.039195105 -0.052272372 -0.04531682 0.018151313 0.043394133 -0.01809943 0.036901414 -0.017340153
-0.04766115 0.022209637 -0.028095506 0.014458167 -0.045766026 0.0122804195 0.05133141 -0.0070056124
0.0532565 -0.02834263 -0.05238694 0.03908751 -0.033030923 -0.0596683 -0.052063763 -0.016172666
0.048374977 -0.04311324 -0.035205413 -0.014358915 0.05434064 -0.0031916723 -0.014255883 -0.04595524
-0.02123104 -0.031138867 -0.04263429 0.011490412 0.013732173 0.03747738 0.03507367 -0.030309148
0.016413094 -0.02109404 -0.05446612 -0.046589904 -0.012066774 -0.030626908 0.021921553 -0.054795682
0.035415925 -0.05635246 0.0064483657 0.029156173 0.027646437 -0.012059271 0.0497503 -0.019876048
-0.014513689 0.049284197 -0.066400684 0.04689526 -0.004865681 0.021492725 0.05122955 -0.042366154
0.034546074 0.013385019 -0.06530691 -0.04206812 0.0061796336 -0.000852569 0.011188872 -0.010394558
-0.048202448 0.0046009347 0.030598916 0.003259398 0.05481959 0.024872689 -0.034624524 0.013091683
-0.013988722 -0.031932034 -0.03455063 0.009387799 -0.011389613 -0.010829881 0.0540885 0.031143889
-0.040651273 0.023283746 0.04415295 -0.049451437 -0.020951048 -0.043143198 -0.0476745 -0.003824352
0.03168639 -0.021589149 -0.029833423 -0.04198224 0.0168913 0.047153275 -0.008133657 -0.010165431
-0.0147442 0.044227347 -0.0053671524 -0.0116248205 -0.057509575 -0.05290753 -0.049597643 -0.021864334
-0.021955332 -0.060869694 -0.056023285 -0.02484104 -0.024171375 -0.055095695 -0.026649348 -0.043315798
0.018962786 0.038812123 0.011421251 -0.053103007 -0.014232673 -0.040627096 -0.01710198 -0.061070926
-0.0076856464 0.022865042 0.03653284 0.044983428 0.062179595 -0.05417675 -0.029047363 -0.01833824
0.015777841 0.029036224 -1.18762255e-05 -0.0490812 0.010599805 0.043038636 -0.03135148 0.008070161
-0.05781295 0.01167226 0.016951583 0.008725144 0.017387882 -0.053683683 0.05114992 0.03863937
-0.050267965 0.0031464992 -0.061399505 0.026727943 -0.009912278 0.054390997 -0.036306378 0.028548863
0.021314308 -0.040884685 0.043394215 -0.03361112 -0.057899438 -0.029871076 -0.023499183 0.029051764
-0.051073417 -0.06610688 -0.059065733 -0.010847601 0.034827627 0.05654992 -0.023334332 0.021216186
0.013473496 -0.015760735 0.05627382 0.035378054 0.029666841 -0.04648345 0.015089923 -0.006240948
-0.019985195 0.015276864 -0.006654449 0.0487586 0.023686118 -0.05605557 -0.06761746 0.012256419
-0.01881922 -0.04649557 0.052057255 -0.057301152 0.012418981 -0.032769084 0.007215365 0.040544372
0.043187957 0.058185473 -0.058441076 -0.035946865 0.044949777 -0.025977025 0.0015010352 0.031624936
-0.033700295 0.028412722 -0.028973097 0.049889654 -0.04514259 -0.033081353 -0.035984535 -0.02927544
-0.059381 0.0026536882 0.018833406 -0.00881014 0.041105423 -0.02896025 0.0075349286 -0.031960957
0.034604795 0.039085016 -0.0063574705 0.05340576 0.01921726 0.01907111 -0.03165198 -0.065968715
0.015027821 0.03202527 -0.06561074 -0.044898435 0.005415192 0.005550511 -0.008794078 -0.023074992
-0.035906892 0.04379703 0.035506368 -0.0029086417 0.06221644 0.009919837 0.0009023221 -0.043696728
-0.038025834 -0.03833023 -0.044577546 0.037216038 -0.0030834237 0.02048032 -0.027363703 0.031360127
00000000: 0c8b 20bd 8e1b 56bd 219e 39bd 10b2 943c
00000010: 0cbe 313d 4145 94bc f025 173d f00c 8ebc
00000020: 5738 43bd fcf0 b53c 8c28 e6bc f3e1 6c3c
00000030: 2875 3bbd d033 493c e240 523d 568f e5bb
00000040: 7d23 5a3d ce2e e8bc b093 56bd 3a1a 203d
00000050: 6f4b 07bd bf66 74bd d040 55bd 8a7c 84bc
00000060: d724 463d 8297 30bd 8d33 10bd a841 6bbc
00000070: 4a94 5e3d 602b 51bb 8291 69bc 903b 3cbd
00000080: b8ec adbc f016 ffbc 4ba1 2ebd 4842 3c3c
00000090: e8fc 603c e281 193d 69a9 0f3d e44a f8bc
000000a0: c174 863c 68cd acbc de17 5fbd 0ed5 3ebd
000000b0: b8b3 45bc 48e5 fabc d494 b33c 7071 60bd
000000c0: 4a10 113d d6d1 66bd d04c d33b edd8 ee3c
000000d0: c87a e23c 4094 45bc f8c6 4b3d 18d3 a2bc
000000e0: d3ca 6dbc 3ade 493d 15fd 87bd 3f15 403d
000000f0: 4a70 9fbb 8311 b03c 14d6 513d 2288 2dbd
00000100: 2f80 0d3d d74c 5b3c a1bf 85bd 9f4f 2cbd
00000110: 867e ca3b f07e 5fba 8851 373c f04d 2abc
00000120: ee6f 45bd 70c3 963b 94aa fa3c a09b 553b
00000130: 828a 603d cfc1 cb3c 72d2 0dbd 807e 563c
00000140: f430 65bc 2acb 02bd f684 0dbd 48cf 193c
00000150: 809b 3abc d06f 31bc e78b 5d3d 7821 ff3c
00000160: f381 26bd 8ebd be3c b9d9 343d 978d 4abd
00000170: 88a1 abbc ecb6 30bd 5646 43bd fba1 7abb
00000180: 97c9 013d badb b0bc 3965 f4bc 92f5 2bbd
00000190: a05f 8a3c cb23 413d 0843 05bc e88c 26bc
000001a0: a891 71bc bc27 353d f0de afbb 0876 3ebc
000001b0: 298f 6bbd 91b5 58bd e626 4bbd d51c b3bc
000001c0: abdb b3bc 8052 79bd ac78 65bd 707f cbbc
000001d0: 0c03 c6bc 06ac 61bd bc4f dabc e86b 31bd
000001e0: d857 9b3c 76f9 1e3d 3320 3b3c 8a82 59bd
000001f0: 2830 69bc 9968 26bd 7419 8cbc 8225 7abd
00000200: e0d7 fbbb 784f bb3c 76a3 153d 8b40 383d
00000210: 08b0 7e3d 71e8 5dbd bcf4 edbc 143a 96bc
00000220: 8840 813c 60dd ed3c 0040 47b7 5e09 49bd
00000230: ceaa 2d3c 4849 303d 696a 00bd b538 043c
00000240: 46cd 6cbd 023d 3f3c 0cde 8a3c e8f3 0e3c
00000250: 0871 8e3c 6ce3 5bbd 9482 513d 5144 1e3d
00000260: c8e5 4dbd 7f35 4e3b 0c7e 7bbd 8ff4 da3c
00000270: 1b67 22bc 18c9 5e3d ffb5 14bd 4edf e93c
00000280: 589b ae3c b376 27bd 22be 313d d0ab 09bd
00000290: f627 6dbd 30b4 f4bc 5c81 c0bc f7fd ed3c
000002a0: 5c32 51bd 0b63 87bd e9ee 71bd 23ba 31bc
000002b0: 6aa7 0e3d e4a0 673d a427 bfbc 91cd ad3c
000002c0: f0bf 5c3c a81c 81bc 617f 663d 94e8 103d
000002d0: e007 f33c 6e65 3ebd b93b 773c de80 ccbb
000002e0: feb7 a3bc d04b 7a3c 900d dabb 19b7 473d
000002f0: 6409 c23c 869a 65bd 067b 8abd 26cf 483c
00000300: c42a 9abc 2472 3ebd fd39 553d 9db4 6abd
00000310: fb78 4b3c e038 06bd de6e ec3b db11 263d
00000320: dbe5 303d e453 6e3d e95f 6fbd 053d 13bd
00000330: 421d 383d c5cd d4bc 62be c43a 2689 013d
00000340: 5209 0abd ccc1 e83c fd58 edbc 1859 4c3d
00000350: 70e7 38bd 5080 07bd 8564 13bd 0cd3 efbc
00000360: 7e39 73bd 80e9 2d3b 8448 9a3c 6858 10bc
00000370: 295e 283d 0c3e edbc 90e7 f63b 7ee9 02bd
00000380: c2bd 0d3d 9c17 203d 5452 d0bb 00c0 5a3d
00000390: 846d 9d3c 043b 9c3c 82a5 01bd 9b1a 87bd
000003a0: 4037 763c ee2c 033d ec5e 86bd 6ce7 37bd
000003b0: ec71 b13b 10e1 b53b 0915 10bc c407 bdbc
000003c0: 1b13 13bd 8464 333d 206f 113d e99e 3ebb
000003d0: aad6 7e3d d086 223c d089 6c3a 57fb 32bd
000003e0: fac0 1bbd 2900 1dbd f296 36bd d86f 183d
000003f0: 4413 4abb 58c6 a73c d829 e0bc 7a73 003d

fc2.bias f4 [128]
-0.06023777 -0.13124749 -0.039248385 -0.13038063 0.06887361 -0.024677003 0.0075626783 -0.0021182282
-0.070073076 0.098380946 0.086660415 -0.036455758 -0.0058305045 0.12756166 -0.12864792 -0.13252859
0.17160895 -0.036860563 -0.13652615 -0.051089857 0.18720542 0.093381286 -0.090544075 0.005737836
0.03635239 -0.123220645 -0.07042797 0.05951253 0.0751392 -0.15091953 0.0061970726 0.04780013
0.10746451 -0.14243561 -0.016463883 0.0037124045 0.06364368 -0.020145932 0.015057689 -0.04813256
-0.1015802 0.11476587 0.071753025 0.03249966 0.03408721 0.079282895 0.03702024 0.041044652
-0.03411541 -0.01547236 0.049089022 -0.13716495 -0.07856738 -0.037818685 -0.008321155 -0.13044235
-0.03386699 0.116622515 -0.06318787 -0.157801 -0.10722648 0.10530035 -0.09869322 0.12200005
0.08869805 -0.012357658 0.05210692 -0.19514415 -0.15114172 0.0496934 -0.04489485 0.033639897
-0.03011975 -0.119272396 -0.068943836 0.084752396 -0.05106799 0.10021759 -0.072250776 0.094432205
-0.021167066 0.123150334 -0.123055324 -0.021465018 -0.04812679 0.12801218 -0.06653717 0.010862015
0.1319699 0.10458166 -0.053424496 -0.039634824 0.031337757 0.13799888 0.001411908 -0.0481649
-0.14407745 -0.03409212 -0.03857141 0.050505117 0.03906451 0.10347248 0.12734649 -0.12214103
0.004061275 0.031766158 -0.15006769 -0.0048808567 0.13225904 0.038301177 0.12816544 -0.10011456
-0.07355875 0.019382816 0.009998679 0.12371618 0.052822758 0.013459802 0.14425911 -0.020951096
0.04189226 -0.033903364 -0.020082667 -0.11727489 0.04690699 -0.032939 -0.1537911 0.064448014
00000000: e1bb 76bd be65 06be eac2 20bd 8082 05be
00000010: 9b0d 8d3d 6d27 cabc 58d0 f73b f9d1 0abb
00000020: 7982 8fbd f37b c93d 047b b13d a252 15bd
00000030: d10d bfbb 869f 023e 48bc 03be 93b5 07be
00000040: 42ba 2f3e 1afb 16bd 83cd 0bbe 9943 51bd
00000050: c7b2 3f3e b03e bf3d 2c6f b9bd 7504 bc3b
00000060: 3ee6 143d 1b5b fcbd 8a3c 90bd 69c3 733d
00000070: 95e2 993d a68a 1abe d010 cb3b 12ca 433d
00000080: 5a16 dc3d a4da 11be 44df 86bc d04b 733b
00000090: 9e57 823d 1509 a5bc 86b4 763c a626 45bd
000000a0: 4809 d0bd 5e0a eb3d 40f3 923d 5d1e 053d
000000b0: 089f 0b3d 125f a23d 89a2 173d 701e 283d
000000c0: 9abc 0bbd c87f 7dbc 9211 493d f874 0cbe
000000d0: efe7 a0bd c4e7 1abd 7455 08bc ae92 05be
000000e0: 1db8 0abd c9d7 ee3d a468 81bd 9696 21be
000000f0: 8f99 dbbd b6a7 d73d ac1f cabd 2adb f93d
00000100: 53a7 b53d c677 4abc 116e 553d ded3 47be
00000110: e5c4 1abe 4e8b 4b3d aae3 37bd fdc9 093d
00000120: b2bd f6bc 1645 f4bd 6d32 8dbd aa92 ad3d
00000130: ab2c 51bd e13e cd3d 37f8 93bd ac65 c13d
00000140: 8e66 adbc 3e36 fc3d 6e04 fcbd 68d7 afbc
00000150: 9920 45bd a015 033e a444 88bd 98f6 313c
00000160: 1e23 073e e92e d63d a5d3 5abd 2058 22bd
00000170: 055c 003d 944f 0d3e c50f b93a 8f48 45bd
00000180: 0a89 13be 2ea4 0bbd 0efd 1dbd 74de 4e3d
00000190: 1c02 203d 61e9 d33d 1e67 023e 1425 fabd
000001a0: 7214 853b 3b1d 023d 58ab 19be 98ef 9fbb
000001b0: ea6e 073e b2e1 1c3d cd3d 033e dd08 cdbd
000001c0: f8a5 96bd b6c8 9e3c 80d1 233c e95e fd3d
000001d0: ad5c 583d 8086 5c3c a9b8 133e a2a1 abbc
000001e0: 3897 2b3d 41de 0abd 6884 a4bc d12d f0bd
000001f0: 8b21 403d 0beb 06bd 6a7b 1dbe 52fd 833d

fc3.weight f4 [2, 128]
-0.03065003 0.13241522 -0.025859984 0.3265291 0.37055358 -0.04001233 -0.0746467 -0.03800678
0.07581189 -0.28109786 0.4682126 -0.06909359 -0.034868706 -0.2861159 0.10213946 0.18562
0.5646232 0.06714807 0.09321346 -0.020138262 0.5631651 -0.31529665 0.15749145 -0.09187689
0.004368716 0.10549794 -0.067391336 -0.2539293 0.3808192 0.13270004 -7.249258e-06 0.077719755
-0.24757041 0.13300043 0.017181424 0.06038936 0.16089194 0.012914131 -0.016896669 -0.06838141
0.1310522 -0.27690542 -0.24890456 -0.28211153 -0.324603 -0.3112945 0.39032537 0.23460644
0.32205322 -0.0461148 -0.2619855 0.06739591 0.100725606 0.20936544 -0.01964732 0.107534505
0.09130207 -0.25331473 -0.030492622 0.12753801 -0.053880412 0.18348788 0.14179336 -0.2423539
-0.23216653 -0.02491867 -0.04413713 0.31603023 0.13845909 -0.2724867 -0.022388974 -0.08162287
0.011050768 0.11421859 0.13041982 0.38055506 -0.07056984 0.45672613 0.16313015 0.54268754
-0.06017551 -0.24206124 0.13965017 -0.021462018 0.05478805 0.20508306 -0.051720742 -0.0034591702
-0.2639601 0.37276056 -0.07232486 0.1644014 0.012018712 -0.28065038 -0.3478168 -0.03413631
0.16456127 -0.07337406 -0.07055949 -0.3373387 -0.074820325 0.3262755 -0.24912387 0.12236155
0.064853355 0.066903874 0.117528625 -0.025514483 0.103812285 0.007722164 0.3174354 0.00044955593
-0.03101378 0.00595379 -0.23643355 -0.22286864 -0.24844892 -0.005808626 -0.26909876 -0.069064185
0.078243695 -0.014575834 0.26516747 0.3408324 0.3302834 0.3068777 0.3693073 -0.23362437
-0.009832945 0.14607322 0.06044148 0.3587985 -0.12904337 0.0040478 0.07617228 0.019387191
0.14810336 -0.29403067 0.033369366 -0.04380921 -0.04290646 -0.26452243 0.15458554 0.17499317
0.1175913 0.16374162 0.12289977 -0.054988403 0.4248854 0.10486432 0.04143602 0.07114346
-0.055083018 0.1633445 -0.02604244 -0.24517474 0.24664551 0.18510279 -0.08416096 0.43741184
-0.2505899 0.14124201 -0.016730545 0.0023331519 -0.49945265 0.033597052 -0.06969505 0.02938159
0.072017774 -0.2535953 -0.26865298 -0.23911615 -0.20064883 0.15346125 0.23356044 0.112331845
0.3417392 -0.025541464 -0.22282594 0.05734071 0.17829944 0.041408423 0.072873704 0.098496586
-0.053215664 -0.2791987 -0.0056521166 0.15323311 0.16422684 -0.44863218 0.17980622 -0.20710357
-0.23004267 0.044483505 -0.005946659 0.25562105 0.15588266 -0.21545778 -0.00049429823 0.0858783
0.084521584 0.13923076 0.11738105 -0.34197772 -0.008927608 -0.11462862 0.15576564 0.11973326
-0.01311239 -0.20793475 0.094962984 -0.07310621 0.08784728 -0.28314987 0.003876235 -0.08340342
-0.21576925 0.25132743 0.06631671 0.07789108 0.047748808 -0.24169056 -0.19262265 0.038670167
0.08343925 0.05868884 0.01504202 -0.215881 0.028586268 -0.2657781 -0.23662393 0.10039388
0.05932049 0.0024887607 0.17135364 -0.035590604 0.23664859 -0.03983666 -0.24969293 0.08539115
0.023282994 0.047040943 -0.18248437 -0.23335181 -0.25604212 -0.0039314474 -0.24338438 -0.034210917
0.05487063 -0.00027040884 0.3050895 0.27005556 -0.36365017 0.34213766 0.33608612 -0.1694115
00000000: c615 fbbc db97 073e 51d8 d3bc d22e a73e
00000010: 33b9 bd3e f8e3 23bd 5ee0 98bd ffac 1bbd
00000020: 4443 9b3d 0fec 8fbe 90b9 ef3e f180 8dbd
00000030: 7dd2 0ebd c97d 92be 7e2e d13d 2b13 3e3e
00000040: 258b 103f ed84 893d b3e6 be3d fff8 a4bc
00000050: 972b 103f 906e a1be 7045 213e f329 bcbd
00000060: 7227 8f3b 4e0f d83d 7804 8abd 0503 82be
00000070: bcfa c23e 85e2 073e a73e f3b6 892b 9f3d
00000080: 1983 7dbe 4431 083e 0fc0 8c3c d55a 773d
00000090: dbc0 243e cb95 533c e26a 8abc 8d0b 8cbd
000000a0: 8c32 063e 8cc6 8dbe d6e0 7ebe ec70 90be
000000b0: 5d32 a6be fe61 9fbe bad8 c73e ac3c 703e
000000c0: 29e4 a43e dfe2 3cbd f722 86be de06 8a3d
000000d0: 3a49 ce3d e563 563e 6bf3 a0bc 0d3b dc3d
000000e0: 94fc ba3d 78b2 81be aacb f9bc 5399 023e
000000f0: b5b1 5cbd 3fe4 3b3e 4732 113e 9f2b 78be
00000100: 10bd 6dbe 3d22 ccbc 23c9 34bd b7ce a13e
00000110: 38c8 0d3e 6083 8bbe 1569 b7bc e429 a7bd
00000120: 480e 353c 70eb e93d c68c 053e 1dd8 c23e
00000130: ec86 90bd 02d8 e93e 970b 273e 92ed 0a3f
00000140: 987a 76bd e7de 77be 7400 0f3e 1dd1 afbc
00000150: 6f69 603d 4b01 523e 21d9 53bd 3fb3 62bb
00000160: c725 87be 79da be3e 0e1f 94bd d758 283e
00000170: 22ea 443c 68b1 8fbe 0b15 b2be 84d2 0bbd
00000180: c082 283e 2445 96bd 7e81 90bd a8b7 acbe
00000190: 663b 99bd 950d a73e 541a 7fbe b198 fa3d
000001a0: d6d1 843d e604 893d d9b2 f03d c003 d1bc
000001b0: 899b d43d 350a fd3b e586 a23e 60b2 eb39
000001c0: 9c10 febc 0318 c33b a31b 72be ad37 64be
000001d0: 6569 7ebe 4956 bebb 50c7 89be 8671 8dbd
000001e0: 3b3e a03d 7bcf 6ebc 08c4 873e 9681 ae3e
000001f0: e81a a93e 131f 9d3e d915 bd3e 3a3b 6fbe
00000200: 5c1a 21bc 3894 153e 7c91 773d 70b4 b73e
00000210: f223 04be 68a3 843b 3600 9c3d e3d1 9e3c
00000220: 68a8 173e 308b 96be 51ae 083d 4971 33bd
00000230: afbe 2fbd 7c6f 87be ac4b 1e3e 6931 333e
00000240: b5d3 f03d e2ab 273e e0b2 fb3d 853b 61bd
00000250: 948a d93e 1bc3 d63d d1b8 293d aab3 913d
00000260: bb9e 61bd c843 273e f556 d5bc 160f 7bbe
00000270: a490 7c3e 968b 3d3e 955c acbd 72f4 df3e
00000280: 524d 80be bfa1 103e 7f0e 89bc cbe7 183b
00000290: 42b8 ffbe 109d 093d 47bc 8ebd a9b1 f03c
000002a0: 0e7e 933d 3ed7 81be e28c 89be ddda 74be
000002b0: e376 4dbe f224 1d3e 782a 6f3e 3d0e e63d
000002c0: 71f8 ae3e 553c d1bc 7c2c 64be 18de 6a3d
000002d0: 2194 363e e19b 293d cf3e 953d 94b8 c93d
000002e0: abf8 59bd 22f3 8ebe 6435 b9bb 24e9 1c3e
000002f0: 152b 283e 1eb3 e5be 1f1f 383e f512 54be
00000300: 4e90 6bbe 5634 363d 31dc c2bb c3e0 823e
00000310: b49f 1f3e f7a0 5cbe cb93 01ba f6e0 af3d
00000320: a719 ad3d 8292 0e3e 7a65 f03d b417 afbe
00000330: 1a45 12bc 69c2 eabd 0781 1f3e b636 f53d
00000340: 5ad5 56bc d9ec 54be f47b c23d b5b8 95bd
00000350: 46e9 b33d 05f9 90be 6f08 7e3b 6acf aabd
00000360: 9df2 5cbe fdad 803e 0ed1 873d 5c85 9f3d
00000370: 4194 433d bb7d 77be df3e 45be 9c64 1e3d
00000380: 33e2 aa3d b663 703d ce72 763c e90f 5dbe
00000390: c02d ea3c 1114 88be 8b4d 72be 4e9b cd3d
000003a0: 0bfa 723d 7a1a 233b 5477 2f3e 74c7 11bd
000003b0: 0254 723e c42b 23bd 81af 7fbe 8ee1 ae3d
000003c0: fabb be3c 01ae 403d 2fdd 3abe c7f3 6ebe
000003d0: f417 83be 5fd3 80bb c139 79be bf20 0cbd
000003e0: 07c0 603d a9c5 8db9 b134 9c3e b944 8a3e
000003f0: 5b30 babe ab2c af3e 7b13 ac3e 357a 2dbe

fc3.bias f4 [2]
-0.08320865 -0.033575978
00000000: 4c69 aabd f786 09bd
