models/flappy_dqn_gen0.pth (torch, 39206 bytes, 6 tensors)

fc1.weight f4 [128, 5]
0	0xc055c392	-3.3400617
1	0xc03ec4f8	-2.980772
2	0xc0025b60	-2.036827
3	0xc0405bd2	-3.0056043
4	0x3f3ba255	0.73294574
5	0xc02bc3d4	-2.6838274
6	0xc01554ca	-2.3333
7	0xc022b408	-2.5422382
8	0xbf4f3506	-0.8094028
9	0x3e86aad5	0.2630221
10	0xbd9a9c46	-0.07549338
11	0xbec447e9	-0.38336113
12	0xbe70258b	-0.23451822
13	0x3e87c616	0.26518315
14	0xbd63e807	-0.0556412
15	0xbf2be187	-0.67141
16	0x3ee3926b	0.44447646
17	0x3f66dddd	0.90182287
18	0x3eaddacf	0.33956
19	0xbff8c77f	-1.9435881
20	0x3f48c6a6	0.78428113
21	0x3fb9f12c	1.4526725
22	0x40aefc47	5.4682956
23	0x3efbb017	0.49157783
24	0x3efeb4f4	0.4974743
25	0xc04f01fc	-3.234496
26	0xc056dd6b	-3.3572643
27	0xc013553f	-2.302078
28	0xc086a885	-4.208071
29	0xbe3f9b40	-0.18711567
30	0xbfa28bfb	-1.2698969
31	0x3f01b111	0.50660807
32	0x3f3df495	0.7420133
33	0x3e79a812	0.2438052
34	0xbfee036f	-1.8594798
35	0xc0110ce0	-2.2664108
36	0x3f9aa2ac	1.2080894
37	0xbfd5b851	-1.6696874
38	0x3f67e10d	0.90577775
39	0xbfcaf0e8	-1.5854769
40	0xbea89716	-0.3292777
41	0xbf09ed18	-0.538774
42	0xc043e8af	-3.0610769
43	0x40bb410c	5.8516903
44	0xbe1cb961	-0.15305091
45	0xbeb72c09	-0.35775784
46	0x3bf3615a	0.0074273767
47	0x3ec112dd	0.37709704
48	0xbe28ece2	-0.16496614
49	0x3eb7e4aa	0.35916644
50	0xbfcb1052	-1.5864356
51	0xbfc6a33b	-1.5518564
52	0x3fbc8c9b	1.4730409
53	0x3f62f09f	0.8864841
54	0xbea3ea0b	-0.32014498
55	0x3ea55afb	0.32295975
56	0xbe0ab92b	-0.13547198
57	0x4092ce2e	4.5876684
58	0x40798b7a	3.899138
59	0x3de86535	0.11347429
60	0xbf532ab0	-0.8248701
61	0x3efa7a7a	0.48921567
62	0x4063c136	3.5586677
63	0x40771f63	3.8612907
64	0xbec67dd7	-0.38767883
65	0xbe0dac09	-0.13835157
66	0xc05c0aa9	-3.4381506
67	0xbf4c3490	-0.79767704
68	0x40a91565	5.2838616
69	0x3f8c50c6	1.096215
70	0x3ea6dadb	0.32588848
71	0xbfd979e3	-1.6990322
72	0xc02efff8	-2.734373
73	0x40b0f504	5.529909
74	0x3f8d4b84	1.103867
75	0xbfeb8b43	-1.8401874
76	0xbfc02fe9	-1.5014621
77	0x3fd02345	1.6260763
78	0x40ddb7fb	6.9287086
79	0x3f1c85ce	0.6114167
80	0xc041c6ed	-3.0277665
81	0x3defa5cd	0.11701546
82	0xc0538e4b	-3.3055599
83	0x41145d05	9.27271
84	0xbf317a13	-0.69326895
85	0xc0b0bc4e	-5.5229864
86	0xc086a0d9	-4.2071347
87	0xc0a0f05d	-5.029341
88	0x404ef79c	3.2338629
89	0x3fa1eed0	1.2651005
90	0x3d1ae1f6	0.03781315
91	0x3e1cb54c	0.15303534
92	0x3d934a17	0.07191866
93	0xbe834fb9	-0.2564676
94	0x3e99221f	0.29908845
95	0x3d2daf55	0.042403538
96	0xbeddabbb	-0.43295082
97	0x40a03833	5.0068603
98	0x401657c6	2.3491073
99	0x3dcd924e	0.10037671
100	0xc02a8124	-2.664132
101	0xbf744885	-0.95423156
102	0xc0747e7d	-3.8202202
103	0x3f7a734e	0.9783219
104	0x3f83b47e	1.0289457
105	0xbd672e23	-0.056440484
106	0xc07e8bc7	-3.9772813
107	0xc0d178b4	-6.5459843
108	0xbf03680e	-0.5133065
109	0x3f654d37	0.89570946
110	0x3ff2e6c1	1.897667
111	0xbf44a5b8	-0.76815367
112	0x4081d3c7	4.0571017
113	0x402372d0	2.5538826
114	0x3cc1e251	0.023667486
115	0xbde20988	-0.11036974
116	0xc0135d84	-2.3025827
117	0x4056bc15	3.3552296
118	0x3ff8abf6	1.9427478
119	0x3ebb0bbd	0.36532393
120	0x3edb233c	0.4280032
121	0xbe9bf7ad	-0.304624
122	0x40a19c8e	5.0503607
123	0x3f95bd89	1.1698467
124	0x3f53972f	0.8265256
125	0xc06b249a	-3.674109
126	0xc0211e74	-2.5174837
127	0xc08b0b5d	-4.345137
128	0x3eb8a709	0.36064938
129	0x3f44266d	0.76621133
130	0xc0163a21	-2.347298
131	0xbfdeed49	-1.7416164
132	0x3f5ceadf	0.86295885
133	0xc0521330	-3.282421
134	0x3f12f9ad	0.57412225
135	0xbf5ad3b5	-0.8547929
136	0xbf4035d3	-0.7508213
137	0x407531c7	3.8311632
138	0xbf97fd50	-1.187418
139	0xbfa1afb2	-1.2631743
140	0xbdf7cd30	-0.12099683
141	0xbd8068ea	-0.06270011
142	0xbeca586c	-0.39520586
143	0x3e436a85	0.19083603
144	0x3e908846	0.28228968
145	0xbfced0aa	-1.6157429
146	0x3f774e7e	0.96604145
147	0xbf6998be	-0.9124869
148	0x3f711a99	0.9418121
149	0xbfbce404	-1.4757085
150	0xc01fcec8	-2.496996
151	0xbf9a571c	-1.2057834
152	0x3f41bfcd	0.7568329
153	0x40898264	4.297167
154	0xbfb3d599	-1.404956
155	0xc02ff7c9	-2.7494986
156	0xc010ecf1	-2.2644618
157	0xc0a4debd	-5.1521897
158	0xbe3f3dce	-0.1867592
159	0xbe161595	-0.1465667
160	0xbe4c841e	-0.19972274
161	0xbc4c3966	-0.012464857
162	0xbebebb77	-0.372524
163	0xbdf68e5e	-0.12038873
164	0xbccf2f7a	-0.025291193
165	0x3dbd2397	0.09235304
166	0x3eeaead3	0.45882282
167	0x40d6838c	6.703558
168	0x3fa049b7	1.2522496
169	0x3efdc342	0.49563032
170	0xbfbe3e98	-1.4862852
171	0x3f4619f0	0.7738333
172	0x4050b496	3.261022
173	0x407cb711	3.9486735
174	0xbf14817c	-0.5801008
175	0xbfd7f9d5	-1.6873118
176	0x3f6d0f6b	0.9260165
177	0xbe6d4fe6	-0.2317501
178	0x3faa5fe7	1.3310517
179	0xbfd3d704	-1.6549993
180	0xc03c25b6	-2.9398017
181	0xbff3836c	-1.9024482
182	0xc0957bf0	-4.671379
183	0x40a01f69	5.0038342
184	0xbf9ae145	-1.2099997
185	0xbfb2ee91	-1.3979055
186	0x3e04ee2a	0.12981477
187	0x40adcbdc	5.431135
188	0x3eb0ce6a	0.3453248
189	0x3e031ba5	0.12803514
190	0x3daa2408	0.08307654
191	0xbe4db94c	-0.20090216
192	0xbc0c3f34	-0.008559991
193	0xbd4b112b	-0.04957692
194	0x3ebb40aa	0.36572772
195	0xbf926469	-1.1436893
196	0xbf556661	-0.8335934
197	0xbfbc1a0e	-1.4695451
198	0x40ae4738	5.4461937
199	0xbac5b43a	-0.0015083619
200	0xbf1f8d10	-0.6232462
201	0xbe092775	-0.13393958
202	0x4091fd7e	4.562194
203	0x405a049c	3.4065313
204	0xbed8c2c6	-0.423361
205	0xbedb7edf	-0.42870232
206	0xbe4d7c4c	-0.20066947
207	0xbdda9772	-0.10673417
208	0xbe17dac8	-0.14829552
209	0x3dba79ad	0.09105239
210	0xc0b28683	-5.57892
211	0xc0354aec	-2.8326979
212	0x40377d09	2.8670065
213	0xc07726cc	-3.861743
214	0x3f00c8aa	0.5030619
215	0xbe6b1328	-0.22956526
216	0xbe68e8eb	-0.22745101
217	0x3e367e72	0.17821673
218	0xbde8fbc2	-0.11376144
219	0x3dbed87e	0.09318636
220	0x3e2f3402	0.17109683
221	0x3ed4a8b6	0.41534966
222	0x40bc7e30	5.8904037
223	0xc108a3b0	-8.539963
224	0xbf1a4acb	-0.60270375
225	0xbf6e0005	-0.9296878
226	0x3f655c3b	0.8959386
227	0xbfc5ca9f	-1.545246
228	0x3f6c2500	0.9224396
229	0xc00d2066	-2.2051024
230	0xbfcfd7a4	-1.6237683
231	0xbfc7bcbf	-1.5604476
232	0xbfacac1a	-1.3490021
233	0xbfb828fc	-1.4387507
234	0x3deb9569	0.11503107
235	0xbfea6a71	-1.8313733
236	0x3f7c3478	0.9851756
237	0x40cdea54	6.4348545
238	0xbe00da6e	-0.12583324
239	0x3e0ef195	0.13959344
240	0xbf9e51c6	-1.2368705
241	0x3e96047d	0.293003
242	0x3f9b4774	1.2131181
243	0xbd9844e8	-0.07435018
244	0xbfe497db	-1.7858843
245	0x3f72ac64	0.947943
246	0x3ebe59ff	0.37178037
247	0x402c5769	2.692835
248	0x40634a95	3.5514271
249	0xbdb13d84	-0.08654311
250	0x3c428a12	0.011873739
251	0xbd86c6a2	-0.06580855
252	0x4082e021	4.0898595
253	0xbeb1ed63	-0.34751424
254	0x3f9172c3	1.1363147
255	0x3d5c4d6a	0.053784765

fc1.bias f4 [128]
0	0xc002d525	-2.0442593
1	0xbef87a6c	-0.485309
2	0xbef46dfa	-0.47740155
3	0x3fc15129	1.5102893
4	0x3eda236a	0.42605144
5	0xbcb4170e	-0.02198365
6	0x3fc2565a	1.5182602
7	0x3fb4afd6	1.4116161
8	0x3fdaef31	1.7104245
9	0x3c826524	0.015917368
10	0x3edcdee6	0.43138808
11	0x3fa89fd0	1.3173771
12	0x3f761cd5	0.96137744
13	0xbf25dbe4	-0.6478865
14	0x3df86a84	0.12129691
15	0x3ea9aef0	0.3314128
16	0x3fd3dbaa	1.6551411
17	0xbf0a1290	-0.53934574
18	0xbee00768	-0.4375565
19	0xbe27bf45	-0.16381557
20	0xbefeba22	-0.49751383
21	0xbfba48ea	-1.4553502
22	0x3f4e79d5	0.8065465
23	0xbf8890a9	-1.0669147
24	0x3ebd84aa	0.37015277
25	0xbeb714ae	-0.35757965
26	0xbfebc2d7	-1.8418835
27	0x3f544db0	0.8293104
28	0x3c4b47be	0.012407241
29	0x3ff3e62a	1.9054615
30	0x4019d382	2.4035344
31	0x3e8481f0	0.25880384
32	0xbe3b4c2f	-0.1829078
33	0x3e296c63	0.16545253
34	0x3f88717b	1.0659631
35	0x3fa67c1c	1.3006625
36	0x3fdc7809	1.7224132
37	0x3f34e3f6	0.7066034
38	0xbe9a9064	-0.30188286
39	0x3fa410f2	1.2817671
40	0x3f6b1a0b	0.91836613
41	0xbe856d52	-0.26059967
42	0xbffbf587	-1.9684304
43	0xbe9b4165	-0.3032333
44	0xbfd6ae04	-1.6771855
45	0x4005d61a	2.0911927
46	0xbfb47bea	-1.4100316
47	0xbec13fd6	-0.37744015
48	0x3fb49898	1.4109068
49	0x3f3c8bd1	0.7365084
50	0xbfd1f728	-1.6403551
51	0xbf71ce49	-0.9445539
52	0xbeb5302f	-0.35388324
53	0x3fae9df8	1.3641958
54	0xbed179cd	-0.4091324
55	0x3f8fce0a	1.1234753
56	0x3f95f900	1.1716614
57	0x3fab9ef5	1.3407885
58	0x3fd66b2b	1.6751455
59	0xbea31e3b	-0.31859002
60	0x3f807572	1.0035841
61	0xbe955b24	-0.29171097
62	0x3fea9d47	1.8329247
63	0x3bd42362	0.0064739445
64	0x3f2e88e4	0.6817763
65	0xbe96e068	-0.29468083
66	0x3e9e972a	0.30974704
67	0x3fc260bb	1.518577
68	0xbecc47ba	-0.39898473
69	0x3f313c22	0.6923238
70	0x3f7d15cc	0.98861384
71	0x3fce2202	1.6104128
72	0x3ecf23b0	0.40456915
73	0xbf033f77	-0.51268715
74	0xbf378ff8	-0.71704054
75	0xbf856d27	-1.0423936
76	0xbe9dbac3	-0.3080655
77	0x3ea6f414	0.32608092
78	0x3ff687e6	1.9260223
79	0xbf099ca6	-0.5375465
80	0xbf530377	-0.8242716
81	0xbfa1ac60	-1.263073
82	0xbf19d7ff	-0.6009521
83	0x3ebd4e70	0.36973906
84	0x3fff6fcc	1.9955993
85	0xbf56426e	-0.83695114
86	0x3f0de3f5	0.5542596
87	0xbf1073de	-0.564268
88	0xbf969b8b	-1.1766218
89	0xbebd4df7	-0.36973545
90	0x4016c255	2.355611
91	0x3fb016ea	1.3756993
92	0xbed2dfc3	-0.41186342
93	0xbf8f8708	-1.1213083
94	0xbee44123	-0.44580945
95	0xbecb61df	-0.39723107
96	0x3f9862b2	1.190512
97	0x3e6ce93e	0.2313585
98	0xbed82652	-0.42216736
99	0x3e86c1b2	0.26319653
100	0xbe8c5702	-0.27410132
101	0x3fcaad25	1.583409
102	0x3ecf82ad	0.40529385
103	0xbf6e336f	-0.9304723
104	0x3fd8ee63	1.694775
105	0x3fcfa1ce	1.6221254
106	0x3f711ef5	0.9418786
107	0x3fb3e21d	1.4053379
108	0x3f3f2cba	0.7467762
109	0x3ece68b8	0.4031427
110	0xbee41658	-0.44548297
111	0xbe2ce5e8	-0.16884577
112	0x3f8f3e53	1.1190895
113	0xbf37373b	-0.7156865
114	0x3f0a63be	0.54058444
115	0xbed851a4	-0.42249787
116	0xbde750eb	-0.11294731
117	0xbe304a2f	-0.17215799
118	0xbd989666	-0.07450561
119	0xbec83cee	-0.39108986
120	0x3f566009	0.8374029
121	0x3f2bcfc1	0.6711388
122	0xbe661880	-0.22470284
123	0xbea51805	-0.32244888
124	0xbf1630d3	-0.5866825
125	0x3ee4cf9e	0.4468965
126	0xbeecdae1	-0.4626074
127	0x3f8427f8	1.0324697

fc2.weight f4 [64, 128]
0	0xbd55bd83	-0.052182686
1	0x3d989041	0.07449389
2	0x3d98dbf9	0.074638315
3	0xbd813bd2	-0.06310238
4	0xbd189d8d	-0.037259627
5	0x3d2915d4	0.041280583
6	0xbc95cc09	-0.018285768
7	0xbdaaf63b	-0.08347746
8	0xbcdd2bc3	-0.026998406
9	0x3d6a8c83	0.05726291
10	0xbd6b2830	-0.057411373
11	0x3c6971cb	0.014248322
12	0x3d5230ea	0.05131618
13	0xbd1ad531	-0.03780097
14	0xbd076375	-0.033053834
15	0x3d954f48	0.07290512
16	0x3c8fd170	0.017555922
17	0xbd30c19e	-0.043153398
18	0x3d1cda70	0.038294256
19	0xbd635154	-0.055497482
20	0x3d8b466c	0.06800541
21	0xbd13f369	-0.036120806
22	0xbd3b6557	-0.045750942
23	0x3b37fd71	0.0028074647
24	0x3c658367	0.01400838
25	0xbb4475ad	-0.0029977367
26	0xbda38bc1	-0.0798564
27	0xbcfb273b	-0.030658355
28	0xbc1b7f76	-0.009490838
29	0x3d7d5b8e	0.06185489
30	0xbdae53d5	-0.085120834
31	0x3cc41b85	0.023938904
32	0xbd984c14	-0.07436386
33	0xbd0e18bb	-0.034691554
34	0x3d129f7e	0.035796635
35	0x3d92feba	0.071774915
36	0xbdb4e268	-0.08832246
37	0x3d578558	0.0526174
38	0x3db1ab54	0.08675256
39	0x3ce238ee	0.027615037
40	0x3d0b30a3	0.03398193
41	0xba800392	-0.0009766689
42	0xbd0ced29	-0.03440586
43	0xbc9adfb3	-0.018905496
44	0x3cf71bb2	0.030164573
45	0x3d2cc467	0.04217949
46	0xbd91efc2	-0.07125808
47	0xbda776eb	-0.08176979
48	0x3d96907d	0.07351778
49	0x3d4f75c3	0.050649416
50	0xbcb1e1eb	-0.021714171
51	0xbd872d97	-0.066004924
52	0x3d371c70	0.044704854
53	0xbdae8e7b	-0.0852327
54	0xbd9b86bb	-0.07594057
55	0x3d3effb7	0.046630587
56	0xbd61f328	-0.055163532
57	0x3d035f9f	0.032073613
58	0xbc2f8223	-0.010712179
59	0xbc831256	-0.015999954
60	0xbd930eab	-0.07180532
61	0x3c2c4b60	0.010516018
62	0xbcfd6d39	-0.03093587
63	0x3d9a72b3	0.075414084
64	0xbbbdd362	-0.005793021
65	0xbd17fee2	-0.03710831
66	0xbd91d525	-0.07120732
67	0xbd39a2a0	-0.045321107
68	0x3d6506be	0.055914633
69	0x3cdc90b5	0.02692447
70	0xbcc78f62	-0.024360362
71	0x3d2502d3	0.040285897
72	0xbdaae30d	-0.08344088
73	0xbd9e160d	-0.077190496
74	0x3d252327	0.040316727
75	0xbd8dfffc	-0.06933591
76	0x3d05c13f	0.032654997
77	0x3d37a026	0.044830464
78	0xbd815bb9	-0.06316323
79	0x3dad7b8b	0.084708296
80	0xbbc6fa78	-0.0060723387
81	0x3cf518f1	0.02991912
82	0x3d2a5dcb	0.041593354
83	0xbdb0dd39	-0.08635945
84	0xba9d7719	-0.0012013643
85	0xbc88bfaf	-0.016692964
86	0x3d60a641	0.054846052
87	0x3d61ff6c	0.05517523
88	0x3c0497ff	0.008092879
89	0xba563421	-0.000817122
90	0xbd305774	-0.04305215
91	0xbd8c359b	-0.06846162
92	0x3d8310b4	0.0639967
93	0xbb99bf82	-0.004692019
94	0x3c56d0cc	0.0131113045
95	0xbd8a9edb	-0.067685805
96	0xbc1993fa	-0.009373659
97	0xbc8bca08	-0.01706411
98	0xbcfafad1	-0.030637177
99	0xbd8dbc85	-0.06920723
100	0x3d828efa	0.06374927
101	0xbda6ae68	-0.08138734
102	0x3d1590ea	0.036515154
103	0x3d81c476	0.063363
104	0xbcb8dce3	-0.022566264
105	0x3d4c9856	0.049949966
106	0x3d565c59	0.052334163
107	0xbdadcb83	-0.084860824
108	0xbd07bef9	-0.03314111
109	0xbd727016	-0.059188925
110	0x3c25e77c	0.010125991
111	0xbdafd6da	-0.085859016
112	0xbd58f82a	-0.052971043
113	0xbbb589b5	-0.0055400976
114	0xbd5b8224	-0.05359091
115	0x3d01d25c	0.031694755
116	0x3d907211	0.070530064
117	0xbce9adb8	-0.028525218
118	0x3d4d639c	0.050143823
119	0xbc8146bd	-0.015780801
120	0x3cf583d9	0.029970096
121	0xbd194d8b	-0.037427466
122	0x3d2dbd3a	0.04241679
123	0xbcdcbc65	-0.026945302
124	0xbd6ae3bb	-0.057346087
125	0xbd29a069	-0.041412745
126	0xbceb1729	-0.028697567
127	0xbd0cabbe	-0.034343474
128	0x3d1ffc74	0.039059117
129	0x3dad97ec	0.084762424
130	0x3d48737a	0.048938252
131	0xbda1a5bf	-0.07892942
132	0xbc3fa3d2	-0.011696773
133	0x3c738d18	0.014865182
134	0x3c65fcd9	0.014037334
135	0xbc36dd84	-0.011161212
136	0xbd637419	-0.05553064
137	0x3bff9b38	0.007800486
138	0xbbad5189	-0.0052892608
139	0x3d98f522	0.074686304
140	0xbd653f17	-0.05596837
141	0xbd070964	-0.03296794
142	0x3d90f120	0.07077241
143	0xbc345f88	-0.011009105
144	0xbd2989c6	-0.041391157
145	0xbd687210	-0.056749403
146	0x3d6fde4a	0.0585616
147	0x3d70868f	0.058722075
148	0xbd88044d	-0.06641445
149	0x3d8b3218	0.06796664
150	0xbb64d7f9	-0.0034918769
151	0x3b0a43d2	0.0021097553
152	0xbc910863	-0.017704194
153	0xba59a1a6	-0.00083019806
154	0x3c7e41b5	0.015518595
155	0x3c87d16f	0.016579358
156	0xbc9b5d03	-0.01896525
157	0x3cc9502c	0.024574362
158	0x3db2ffc3	0.08740189
159	0x3d88c43d	0.066780545
160	0x3d38b994	0.045098856
161	0xbc66119e	-0.014042286
162	0x3d3ba5aa	0.045812286
163	0xbd608f57	-0.0548242
164	0xbd50001a	-0.050781347
165	0x3cc12e5d	0.023581678
166	0x3d6f94fc	0.058491692
167	0x3d9b9f10	0.07598698
168	0x3d9602e8	0.07324773
169	0x3d9e435d	0.07727692
170	0xbdb17d44	-0.08666471
171	0x3d813ade	0.06310056
172	0x3c1c1d69	0.009528496
173	0xbd30ffa8	-0.043212563
174	0x3c664745	0.014055078
175	0x3d08fd42	0.03344465
176	0xbcd3fb3e	-0.025876638
177	0xbc45bcab	-0.012068908
178	0x3da60718	0.08106822
179	0xbd46bd9d	-0.048520673
180	0xbd1fb59f	-0.038991567
181	0xbba42a46	-0.005009922
182	0x3da1eae1	0.07906128
183	0x3d86425c	0.06555626
184	0xbdacfe50	-0.08446944
185	0xbc8d43d9	-0.017244266
186	0x3d31f07e	0.04344224
187	0xbdb45111	-0.08804525
188	0xbd8b8fc5	-0.06814531
189	0xbc1a4718	-0.009416364
190	0xbda6c7a4	-0.08143547
191	0xbda5f273	-0.08102884
192	0xbd82797a	-0.06370826
193	0x3b2aca88	0.002606066
194	0xbd74bd73	-0.059750985
195	0xbd27130e	-0.040789656
196	0xbcb56d18	-0.022146747
197	0xbd9fbb4d	-0.07799397
198	0x3d9e3d75	0.07726566
199	0x3d907e0f	0.07055294
200	0x3d621d5d	0.055203784
201	0x3d1b4114	0.03790386
202	0xbcc7a1d5	-0.02436916
203	0xbccb8f35	-0.02484856
204	0x3cddcae2	0.027074281
205	0xba85ab05	-0.0010198063
206	0x3b6a9dd3	0.0035799637
207	0xbd0ed87e	-0.03487443
208	0x3d00fb01	0.031489376
209	0xbd0602ff	-0.0327177
210	0x3c932498	0.017961785
211	0x3c97f219	0.018548058
212	0xbd9e57e8	-0.077316105
213	0x3c902bdc	0.017599039
214	0x3d833788	0.06407076
215	0xbd10e9cb	-0.035379212
216	0xbd8cdea1	-0.068784006
217	0xbc866f0b	-0.016410371
218	0xbda31c39	-0.079643674
219	0xbc4776ca	-0.012174318
220	0xbd8180e1	-0.0632341
221	0xbd8d6901	-0.069047935
222	0xbcd08dca	-0.025458235
223	0xbd1e1164	-0.038590804
224	0xbd733d12	-0.059384413
225	0x3d905f80	0.07049465
226	0x3ca20b42	0.019780759
227	0xbc786633	-0.015161085
228	0xbd52140b	-0.051288646
229	0xbd7f9165	-0.06239452
230	0xbd76f695	-0.060293753
231	0x3c2984e9	0.01034663
232	0xbc066809	-0.008203515
233	0xbd9b91c6	-0.075961635
234	0x3d27a86e	0.04093211
235	0xbd2dd4d6	-0.042439304
236	0xbc453a90	-0.012037888
237	0x3da950d1	0.08267368
238	0x3d98b515	0.07456414
239	0x3c83b389	0.01607682
240	0x3d943d74	0.07238284
241	0xbd10f11b	-0.035386186
242	0xbcd72656	-0.026263397
243	0xbd9f9900	-0.07792854
244	0xbd3fb538	-0.046803683
245	0xbd19b563	-0.0375265
246	0xbd9e7c57	-0.0773856
247	0xbd4f73b2	-0.050647445
248	0x3d6d63bd	0.057956446
249	0x3d17407b	0.036926728
250	0xbc8e6021	-0.017379822
251	0xbd970076	-0.07373135
252	0xbdb1a746	-0.08674483
253	0xbc8e6acd	-0.017384911
254	0xbc7cbaf2	-0.015425431
255	0xbb0b9084	-0.0021295855

fc2.bias f4 [64]
0	0xbd524daf	-0.051343616
1	0xbcdec53e	-0.027193662
2	0x3f48766b	0.7830569
3	0xbdb20578	-0.08692449
4	0xbd1e5755	-0.038657505
5	0xbe8ead2f	-0.27866504
6	0x3bf96c89	0.0076118154
7	0xbdf60cee	-0.12014185
8	0x3da61d39	0.081110425
9	0xbd65c924	-0.056100026
10	0xbc3f150c	-0.011662733
11	0xbee9bcc6	-0.45651835
12	0xbd54b308	-0.05192855
13	0x3ccb7d16	0.024839919
14	0xbcc5b87b	-0.024135819
15	0xbfc6c987	-1.5530251
16	0x3d0bd918	0.034142584
17	0xbda1b8ba	-0.07896562
18	0xbdb9d704	-0.09074214
19	0xbd707d92	-0.058713503
20	0xbf67b82f	-0.90515417
21	0x3fd8b33c	1.6929698
22	0xbd365f1e	-0.044524305
23	0xbd191085	-0.03736927
24	0x3c667832	0.014066743
25	0xbc8ed2e9	-0.017434554
26	0xbf298332	-0.66215813
27	0xbfc8a897	-1.567645
28	0xbfab8abf	-1.3401717
29	0xbd769dbf	-0.060209032
30	0xbc80e6c5	-0.01573504
31	0xbe731629	-0.23738922
32	0xbed19f03	-0.4094163
33	0x3b55ad9b	0.0032604698
34	0xbcaa3bd8	-0.020780489
35	0x3c2434d4	0.010022361
36	0xbfd535a2	-1.6656992
37	0xbb4eb0a6	-0.0031538396
38	0x3d907eb7	0.07055419
39	0xbdd14574	-0.10218325
40	0x3f215141	0.6301461
41	0x3ab39620	0.0013701357
42	0x3d4e54e6	0.050373934
43	0x3d132e7c	0.035933003
44	0xbb96396c	-0.004584482
45	0xbdac11d1	-0.08401836
46	0xbf4a5aeb	-0.7904498
47	0xbfeb5029	-1.8383838
48	0xbfb38773	-1.4025711
49	0xbf1fde92	-0.6244899
50	0xbcfcd3de	-0.030862745
51	0xbf621762	-0.8831693
52	0x3d57f779	0.052726243
53	0xbd863c0e	-0.06554423
54	0xbd64bc2e	-0.055843525
55	0xbccb42b3	-0.024812078
56	0xbe8f195b	-0.27949032
57	0xbf317870	-0.693244
58	0xbd6b82b5	-0.0574977
59	0xbfdfcd5c	-1.7484546
60	0xbdf234e0	-0.11826491
61	0xbda5f31f	-0.08103012
62	0x4021ce27	2.5282075
63	0xbdb42fec	-0.08798203

fc3.weight f4 [2, 64]
0	0x3df9114a	0.12161501
1	0xbcb1e838	-0.021717176
2	0xc00824d4	-2.1272478
3	0xbcdbe236	-0.026841264
4	0xbc2e5504	-0.0106403865
5	0x400f2176	2.2364173
6	0xbcb304c1	-0.021852853
7	0xbdb0625c	-0.086125106
8	0xc03c0688	-2.9378986
9	0x3dc321a0	0.09527898
10	0xbd4e454d	-0.05035906
11	0xc063b79a	-3.5580812
12	0xbdb4304e	-0.08798276
13	0xbd85a215	-0.06525055
14	0xbc614a72	-0.013750659
15	0x3f2a18d5	0.6644414
16	0xbd77b12e	-0.060471706
17	0xbd4e9117	-0.050431337
18	0x3b1d1e50	0.0023974366
19	0xbd95dfd4	-0.073180825
20	0x40310524	2.7659388
21	0xbfece90a	-1.8508618
22	0xba2ba5a2	-0.00065478135
23	0x3d5ee3a0	0.0544163
24	0xbc36c4bb	-0.011155303
25	0x3e1d22c8	0.15345299
26	0x3f94e9aa	1.1633809
27	0x3f4a9eef	0.79148763
28	0x403258c7	2.7866685
29	0xbd14d8e4	-0.036339656
30	0xbd7997de	-0.060935847
31	0x3fb1e42c	1.3897758
32	0x3f5275e1	0.8221112
33	0xbfd30f38	-1.6489019
34	0x408b5918	4.3546257
35	0xbde26536	-0.11054461
36	0x3f373eb3	0.71580046
37	0xbd5ca8ce	-0.053871922
38	0xbddd87f8	-0.108169496
39	0xbd142fe7	-0.036178496
40	0x4045a3b6	3.0881171
41	0xbcc39b10	-0.02387765
42	0xbb88c577	-0.0041739303
43	0x3d5ae958	0.05344519
44	0xbfd9817b	-1.6992639
45	0xbc8eb8b9	-0.017422067
46	0x3fadb022	1.3569376
47	0xbfff101c	-1.9926791
48	0xc0ada004	-5.425783
49	0x416c017a	14.7503605
50	0x3d2ef62e	0.042715244
51	0xc09e0920	-4.938614
52	0xbcadef7e	-0.021232363
53	0xbd69224f	-0.056917485
54	0xbd273616	-0.040823065
55	0xbd7366de	-0.059424274
56	0xc0ada1ae	-5.4259863
57	0x3fd131b4	1.6343293
58	0x3dddf91c	0.108385295
59	0xbe46877b	-0.19387619
60	0x3de358d0	0.11100924
61	0xbce0d4ce	-0.027445223
62	0xc000e8d0	-2.0142097
63	0xbc6d74d9	-0.014493191
64	0x3c81ce90	0.015845567
65	0xbdb1dfc6	-0.086852595
66	0xc05344e8	-3.3010807
67	0xbd79b245	-0.060961027
68	0xbd09b108	-0.033616096
69	0x3f05986c	0.521857
70	0x3dc9bc84	0.098504096
71	0xbde6498c	-0.11244497
72	0xc08c4fab	-4.384725
73	0xbbfca3ca	-0.007709955
74	0x3cff92a8	0.03119786
75	0xc0720c5a	-3.7820039
76	0x3d367238	0.04454252
77	0x3dda9874	0.106736094
78	0x3d22cfad	0.039748836
79	0x3f571510	0.84016514
80	0xbcf0b67f	-0.029383896
81	0xbd49014d	-0.049073506
82	0x3c173f9e	0.009231476
83	0xbd8a218e	-0.06744681
84	0x40257e36	2.5858283
85	0xc0234b56	-2.5514731
86	0x3db48e05	0.088161506
87	0x3bb767e1	0.0055971
88	0xbd954061	-0.0728767
89	0xba691bbb	-0.0008892377
90	0x3fac4dc4	1.3461232
91	0x3e1db087	0.15399371
92	0x3edf68b8	0.43634582
93	0xbdbd5d4e	-0.09246312
94	0x3ccd179a	0.025035668
95	0xbf8512ae	-1.0396326
96	0xbfc55356	-1.5416057
97	0x3fa54476	1.2911518
98	0x4049ffee	3.1562457
99	0x3da0120d	0.07815943
100	0x3f55ceab	0.83518475
101	0xbcce5cbb	-0.025190702
102	0x3bf67f40	0.0075224936
103	0x3dcb4964	0.099261075
104	0x3f3bdf3d	0.7338751
105	0xbdcba51f	-0.09943604
106	0x3dad981c	0.08476278
107	0x3d39cfb0	0.04536408
108	0x3f9ad566	1.2096374
109	0x3d167220	0.03672993
110	0x3fe0e7d0	1.7570744
111	0x3f33378b	0.70006627
112	0xc0018568	-2.0237675
113	0x416b25e4	14.696751
114	0x3d0cccd0	0.034375012
115	0xbfac8613	-1.3478416
116	0x3d82c705	0.06385616
117	0x3c941d39	0.01808034
118	0x3dbc74ce	0.09201966
119	0x3de9a3a6	0.114081666
120	0xc0073bb8	-2.11302
121	0xbfbc486e	-1.4709604
122	0x3bee0077	0.007263239
123	0x3fde2426	1.7354782
124	0xbcdb6bed	-0.026784861
125	0x3c897282	0.016778234
126	0xc0214679	-2.5199263
127	0xbd10a734	-0.035315707

fc3.bias f4 [2]
0	0xbf7fd4c6	-0.9993404
1	0xc00818c3	-2.1265113
