models/flappy_dqn.pth (torch, 411362 bytes, 11 tensors)

fc1.weight f4 [256, 7]
00000000: 0d1a 18be 9b36 283e fb35 0abe 17e5 823e
00000010: 2189 20be 495d 663e 545c 94be 13fb c53e
00000020: f55b c4be 811f 883c acee c1bd 83b0 5cbc
00000030: f043 1d3e 180f 783e 01f2 dcbe c892 183d
00000040: 4518 193e d657 aabb 7049 79bd b40a 3e3d
00000050: ef03 8bbd 3c5b 7f3e 3df9 46be 07b4 b5be
00000060: 5841 94bd 2c66 c23e 4721 1c3e 53b4 b5be
00000070: c871 6bbe 6349 21be ce06 8d3e e8be d03e
00000080: 7a95 7c3e 2288 8c3b 4306 b93e 52e5 f4bd
00000090: 212d 79bd 2f39 b83e edc5 d3bd a407 8fbe
000000a0: f94a fe3d 1335 463e 7511 13be 247a 92bd
000000b0: d035 dd3e 576c 89be 355b 9e3e 17fc e53c
000000c0: d0e2 913e 54ae aabe 5ab4 a13d 3728 96be
000000d0: acb4 bc3e 8bc3 123d fa39 173e f398 0a3e
000000e0: 46c5 86bd 869a 923e 7205 d5bd 9ca5 97be
000000f0: c55b a23d 5172 a9bd ffd7 1abc aa74 a93e
00000100: 8f83 83be b6a3 a43e 187c 9dbe cfea d1bd
00000110: 862c 9f3e 4702 a4ba caee 33be a5f0 b1be
00000120: 5c4e 863d 858b 96bc 5394 673e 757b cd3e
00000130: 1726 47be 25be 67be 7b8e cbbe 7627 4b3e
00000140: 9cd5 4cbe b5a0 853e 1ae8 15bd 144c 56bc
00000150: 8340 ac3d 78c5 8c3e cb6d 1e3e 5ab8 4f3d
00000160: 4710 8e3e ba5c f8bb 5d58 aabe ae39 6b3e
00000170: e535 cebe 7daf 273e ae14 abbe 452c 2e3e
00000180: 9067 0a3e f460 a3be 78b3 ba3d e339 5a3c
00000190: 5687 283e 2fb4 9dbe 0690 aa3d 9437 1ebd
000001a0: ba9e 493d 04bf d4bd b024 efbd 85f9 95be
000001b0: 777b bd3e 1177 4dbd 2a73 e83d 8cfb b53e
000001c0: 8b18 113c 2202 b2be cf8e b03e c692 373e
000001d0: 94d4 153e 06d7 fe3d 424e b33e bde4 9a3c
000001e0: 3ccd 9d3e d387 62bd 6445 783e a332 a33e
000001f0: 4012 163e a97e b03e c17d 473e 830f 8c3d
00000200: 93a0 a63e 7561 6b3e 377e f2bd 856a 82be
00000210: f74c e83c 3873 36be cc12 8ebc 267b b2be
00000220: 8fc2 b6be b65e 913e 3f50 4b3e 982e 5abe
00000230: 4460 923e ae3c c1be 775d 75bd ceed 6e3e
00000240: fff8 02be 65ea 053e 5b4b 3c3e b062 9abe
00000250: 4b3c 9d3a f645 87ba 6ba2 c53e b251 ebbd
00000260: ec1d 993e 72c2 af3a 8317 5d3e a471 48be
00000270: 8f30 0e3e 4dcd 8abe 53b3 ab3e 5808 6e3e
00000280: 0d65 cfbd 783e 4cbe a471 94be 2c3c 87bd
00000290: a09d bfbe 0b83 34be 9a21 853e 41ee 9cbe
000002a0: 2e58 75be bdf0 523e 366c 5cbe 217d f23d
000002b0: 0b97 ff3d b37f 843e 5b17 71bd e8bf 58bd
000002c0: da1a 94bd 863f cbbe 8858 4dbe c266 a33e
000002d0: c34f 9bbd 9e4a c7be 7756 e9bc e026 8cbe
000002e0: d1cf 543e 5e6e 503e 63d7 35bd 3a82 883e
000002f0: 73cb d6bd 678b a43e da46 183d d5df 2abe
00000300: eef8 df3e 9fb6 753e 2955 913e 1c7a 673e
00000310: e866 8cbe 0764 4c3e f1be 38be 68cb 29be
00000320: 48ae 863e 572e a1bd 83a9 943c ff56 bfbe
00000330: 9c54 a6be 35f9 153e 2464 cd3e 236e 873e
00000340: fa8d 91be 3874 b63e 8aaf b7bd 84c6 48be
00000350: 6e12 c2bd d0f0 833c d36a 7a3e 0af6 dbbd
00000360: 918c 68be ef3d a8be 25a6 7abe ee06 923d
00000370: d9c3 623e a955 a9be 563c 493d 13d5 47be
00000380: 3c96 b2be 4783 84bd 4fb3 743d dc39 7cbe
00000390: 8a9d 5b3e fcc3 e43d c009 04be 46a5 9a3e
000003a0: da72 5abd 0223 083e 5ff0 9a3e 0567 b2be
000003b0: 1ecb b0be 8392 513d 6737 2c3d dc2d 013f
000003c0: 876c b4be b9e4 86be ad3a e5bc 37a6 1b3e
000003d0: 9c42 fc3d e062 2d3e 624b 6ebe 6a2f 1bbe
000003e0: d290 c63e fa1c 8f3d 0d43 9cbd 7911 a53d
000003f0: 0834 42be bad8 f439 06a7 95bd 8775 bf3e
-0.14853688 0.1642708 -0.13497154 0.25565407 -0.1567731 0.22496523 -0.2897669 0.38668117
-0.38351408 0.016616585 -0.09469351 -0.013469818 0.15357947 0.24224508 -0.43153384 0.037249357
0.14950664 -0.005198459 -0.06086105 0.046396926 -0.0678786 0.24937147 -0.19431014 -0.35488912
-0.07239026 0.37968576 0.1524707 -0.3548914 -0.22992623 -0.15750651 0.27544254 0.4077065
0.24666396 0.0042886892 0.3613759 -0.11957802 -0.060834054 0.35981128 -0.10340486 -0.27935517
0.12416644 0.19356184 -0.14362128 -0.07152203 0.43205118 -0.2684047 0.3092896 0.028074307
0.28493357 -0.33336127 0.078957275 -0.29327556 0.36856592 0.035831016 0.1476821 0.13534908
-0.06580596 0.28633517 -0.10401429 -0.29618537 0.0792766 -0.08273757 -0.009450912 0.3309682
-0.2568631 0.32156152 -0.3075874 -0.10249864 0.31088656 -0.0012512886 -0.1757156 -0.3475391
0.065579146 -0.018377075 0.22615175 0.40133253 -0.19448124 -0.22631128 -0.3975714 0.19839272
-0.2000336 0.26099172 -0.036598302 -0.013079662 0.08410742 0.27494407 0.1547157 0.05071292
0.27746794 -0.0075794132 -0.3327054 0.22971222 -0.40275493 0.16375537 -0.33414215 0.17009075
0.13516068 -0.31909907 0.09116262 0.013319465 0.16457877 -0.30801532 0.083282515 -0.038627222
0.04922364 -0.10387996 -0.116769195 -0.2929193 0.3700826 -0.05016238 0.11350091 0.35543478
0.008855949 -0.34767252 0.34483954 0.17927083 0.14631873 0.12443356 0.35020643 0.018907899
0.30820644 -0.055305313 0.2424522 0.3187457 0.146554 0.34471634 0.19481565 0.06838896
0.32544383 0.22986396 -0.1184048 -0.25471893 0.028357012 -0.1781739 -0.017342947 -0.3485958
-0.3569531 0.2839257 0.1985483 -0.21306837 0.2858907 -0.37741607 -0.05990359 0.23332903
-0.12790297 0.13077696 0.18388121 -0.30153418 0.0011996118 -0.0010320533 0.38600478 -0.114901915
0.2990564 0.001340939 0.21591 -0.195746 0.13885711 -0.27109757 0.3353525 0.2324537
-0.10126696 -0.19945705 -0.2899295 -0.06603274 -0.37424946 -0.17628114 0.26002198 -0.30650523
-0.23959419 0.20599647 -0.21525654 0.11840273 0.12479981 0.25878677 -0.058860164 -0.05291739
-0.07231684 -0.39696902 -0.20053303 0.31914335 -0.07583573 -0.38924116 -0.028483612 -0.2737341
0.207824 0.20354602 -0.044394862 0.26661855 -0.104880236 0.32137606 0.037176944 -0.16686948
0.43744606 0.23995446 0.28385285 0.22605175 -0.2742226 0.19960032 -0.18041588 -0.165815
0.2630484 -0.07870167 0.018147236 -0.3737106 -0.32486427 0.14645846 0.40115464 0.26451215
-0.28428632 0.35635543 -0.08969028 -0.19606978 -0.094761714 0.01610604 0.24454813 -0.107402876
-0.22709872 -0.32859752 -0.24477442 0.07130228 0.22145022 -0.33073166 0.049129806 -0.19514875
-0.34880245 -0.06470352 0.059741315 -0.24631447 0.21446815 0.111701936 -0.12894344 0.3020422
-0.053332187 0.13294604 0.30261514 -0.34844223 -0.34529966 0.051165115 0.042045023 0.504606
-0.3523905 -0.26346377 -0.02798208 0.15200125 0.12317392 0.16932249 -0.23270944 -0.15154806
0.38782364 0.06987949 -0.076299764 0.08059973 -0.18965161 0.0004670078 -0.07307248 0.37394354

fc1.bias f4 [256]
00000000: ecfe a4be ac86 b2be 2036 2d3e 0fe9 b7be
00000010: 43f5 2b3e 8031 00be ca92 ad3b 22e0 1a3e
00000020: 8dff d43d 16ca 8d3d 276c cf3e 0dc0 563e
00000030: 4669 07be 0225 903e 75ed 3dbe 12e9 5e3e
00000040: f7c4 c53e c4bf 833c 120b 1b3e 3bd0 8fbd
00000050: 87d6 d33b 5bf1 5f3e 1780 aebd 31c9 bf3e
00000060: f16e f63d b8a8 e5bc e3ca bf3e 93a1 ca3e
00000070: dcfa 203e 8752 a73e 3144 1cbe e25e 5bbe
00000080: 63ef a1be 1f4e 9bbe 9b4a 413e b451 523e
00000090: b7da b83e 2b27 b5bd 7aea 25bd 9ab9 2d3e
000000a0: 9763 7e3e 099e e23e c047 9a3e 71af 1ebe
000000b0: b946 9a3b 5adf 34be 7c3e 583e 5981 bd3e
000000c0: 0da2 1fbd d0d0 eb3e 3367 06be b8dd 913b
000000d0: f070 cfbd 7055 d53d f823 c93e 2815 61be
000000e0: 4e0a 8bbc 77c8 653e 9125 d23d 8611 b7bd
000000f0: 3a22 29bd bff5 c83c d729 d33e 7c98 dfbc
00000100: 801b 52bc ce28 ba3e 2222 173d b55e af3e
00000110: de46 5e3e 7956 61be 91b1 423d fc1e 1c3e
00000120: 9665 b63e 355b f33d 89eb 3b3c 9dfa aabe
00000130: 0b22 98be a992 963c 9c46 ba3e d354 ef3d
00000140: fae4 7dbe edaf 1dbe 351d c83e 8b2b a53e
00000150: e430 41be 7d9d b83e eb19 d8bd b9f2 303e
00000160: 5984 813c 5a35 e23d 7d7c 0fbe a627 71be
00000170: 7bdc 16be 6768 c83e 7249 c2bd 9a8f b7bd
00000180: 2260 c73e e1cc 1b3e b9d6 d03e 52c5 b93e
00000190: ebb0 89bd 5309 fe3d afa1 aabd 4c8b 2fbd
000001a0: 4878 a43e 15e5 623e 14e6 88bd 9433 48be
000001b0: b82d 40be 78cd c33d f2ef 73bc d838 26bd
000001c0: cfd7 8cbe 2271 4e3c 7605 91be 86e0 a13d
000001d0: 0a10 2dbb efe3 dd3e 98b2 943d 0830 883e
000001e0: 6b2e cf3e 343b ae3d c148 2f3e fc92 67be
000001f0: 0176 56be 7ad4 41bd 7204 403e dae5 2fbd
00000200: 833f f23d f7cc da3e c63f 223e bf30 2a3e
00000210: 5518 6abe 1791 33be 7068 4d3e b180 81be
00000220: 2dd2 84be 6050 b53d 96e8 543e 9f2b 96be
00000230: 2c5f 4bbd d067 463e b5d1 5c3e c4cd 963e
00000240: 66bc e93d 8fc7 a83e 067e 1d3e b155 afbe
00000250: cf1f 19be 0279 0dbe 914f ac3e 4b89 6f3e
00000260: 1fa2 a4bd 89a0 bc3d 580f 49bd fd3b aebe
00000270: dbf0 26be 74d9 4cbe 2f98 17be 30df 52be
00000280: 81c3 983e 6ac9 243d cc9e 993d 9573 8e3d
00000290: dd9b b23d 4199 803e 082c a83d f2d7 3b3e
000002a0: ed89 553e fa19 9f3d 1892 733e cf36 423e
000002b0: 2648 313e b004 0c3d fe00 f0bd e581 ac3e
000002c0: 8a0b ce3e 3ae4 f73d fe99 a7be dc95 cd3e
000002d0: a0dc 0bbe e3b2 b7bd 7995 603e 5631 9cbe
000002e0: e629 153e 7d93 99be 7a13 793e 8b29 36be
000002f0: 1a4f 873e e2b6 a93e ef0e 523e 9baf 233e
00000300: b53d 3cbe 5514 123e a488 6bbe dc51 e8bd
00000310: 9d4f acbe 4ff9 0bbd df50 1abe d75e f7bd
00000320: a4c1 d8bd 4523 8a3d 0184 c73e b7d0 ba3d
00000330: 69b1 b239 8587 c83e 47b1 aebd 2b79 433e
00000340: 0f67 1abe b435 02be 0ba7 0cbd cdf8 5cbc
00000350: 13fe a43d 30b5 7a3e e8ba bc3e 367a 54be
00000360: 889d a4be 2fc2 61bd 1c27 93be fce2 8fbd
00000370: f86f ae3e 3c87 d33e faf8 4abe 0a21 9f3e
00000380: 6305 3bbd ee5e 593d 435d 813d e1c2 fb3d
00000390: 2edf 103e 974a 5b3e f627 6a3e 6f8b 12be
000003a0: bf7a dabd 7884 9bbe 7247 093d bb5b 88bd
000003b0: 4ed5 d93e bf5d 593e fb1b 5fbe 47b9 443e
000003c0: 765c 133e 1a4b 483d 13b1 c5bd 5951 88be
000003d0: 1a15 853e e385 163e 9b97 ae3d 1a06 7f3e
000003e0: 7ee5 a13e 2a1b a43e 70f5 de3e a052 b93e
000003f0: f52a 703e 5e30 a53e 1aab 0cbd d1a4 3f3d
-0.3222574 -0.3486837 0.16915178 -0.35919997 0.16792779 -0.12518883 0.0052970396 0.15124562
0.10400305 0.069233105 0.405122 0.20971699 -0.13223752 0.28153235 -0.18547614 0.21768597
0.38626835 0.016082652 0.15140942 -0.07022139 0.0064647826 0.21869414 -0.08520525 0.37458184
0.12032879 -0.028034553 0.37459478 0.39576396 0.15720695 0.3268015 -0.15260388 -0.21422914
-0.3162795 -0.3033304 0.18876116 0.2053898 0.36104366 -0.08845361 -0.040506817 0.16965333
0.24842678 0.44261196 0.30132866 -0.15496613 0.004708138 -0.17663327 0.21117586 0.37012747
-0.038972903 0.4605775 -0.13125305 0.0044514798 -0.10128963 0.104166865 0.39285254 -0.21980727
-0.016972687 0.22439753 0.102610715 -0.08938889 -0.041292407 0.024531243 0.4124286 -0.02729439
-0.012823939 0.36359257 0.036897786 0.34251943 0.21706721 -0.22005643 0.04753262 0.15246195
0.3562438 0.11882631 0.01146973 -0.33394328 -0.29713473 0.01838048 0.36381996 0.11686101
-0.24794379 -0.15399142 0.39084783 0.32259783 -0.18866307 0.36057654 -0.105518185 0.17280091
0.015810179 0.11045332 -0.14012332 -0.23550281 -0.14732544 0.39142153 -0.09486665 -0.08962937
0.3894053 0.15214874 0.4078882 0.36283356 -0.067231975 0.12404122 -0.0833162 -0.042857453
0.32123017 0.221577 -0.06684509 -0.19550925 -0.1876744 0.095606744 -0.01488875 -0.040581554
-0.275084 0.012600215 -0.2832448 0.079041526 -0.0026407265 0.43337962 0.072606266 0.26599145
0.40465102 0.08507386 0.17117597 -0.22614664 -0.20943452 -0.047321774 0.18751696 -0.042943813
0.1182852 0.427345 0.1584464 0.16620158 -0.22860844 -0.17535816 0.20059371 -0.25293496
-0.259416 0.08853221 0.2079185 -0.29330155 -0.04965131 0.19375539 0.21564372 0.29453862
0.11412887 0.3296475 0.15380105 -0.34245065 -0.1495354 -0.13815692 0.33654454 0.23392217
-0.08038735 0.09210307 -0.0490869 -0.34030142 -0.16302817 -0.20004827 -0.14804147 -0.20592952
0.29836658 0.040231146 0.07500991 0.06955639 0.08721135 0.25116923 0.08211523 0.18344095
0.20853396 0.077686265 0.23786199 0.1896622 0.17312679 0.034184158 -0.11718939 0.33692852
0.4024318 0.12104078 -0.32734674 0.40153396 -0.1365838 -0.08969667 0.2193202 -0.3050639
0.14566764 -0.29995337 0.24323836 -0.17789285 0.26427537 0.3314734 0.20513509 0.15984957
-0.18382914 0.14265569 -0.23001343 -0.113437384 -0.3365449 -0.034173306 -0.15069912 -0.12078636
-0.10583809 0.067450084 0.38967898 0.091218404 0.00034082987 0.39165893 -0.08529907 0.1908919
-0.15078376 -0.12715799 -0.034338992 -0.013487053 0.08056273 0.2448318 0.36861348 -0.20749745
-0.32151437 -0.05511683 -0.28740776 -0.07025716 0.340698 0.41314113 -0.1982154 0.31079894
-0.045659434 0.053069048 0.063166164 0.122930296 0.14147636 0.21415173 0.22866806 -0.14311002
-0.10667943 -0.30374503 0.0335154 -0.06658121 0.4254555 0.21227168 -0.21788017 0.19211303
0.1439074 0.048899747 -0.09652915 -0.26624563 0.25992662 0.14699511 0.0852501 0.24904671
0.316204 0.32051975 0.4354663 0.3619585 0.23453887 0.32263464 -0.034342863 0.04678804

fc2.weight f4 [128, 256]
00000000: 94d0 c0bd 93fe 2a3d b566 473d d466 7fbc
00000010: 0502 8e3d ae5c 32bd 2cdc 1b3d 4a50 963d
00000020: 04ad cabd afb6 a63c 0c6a 9a3d 4194 df3d
00000030: 0fc5 6c3c 667c 28bd f74f 1d3d 74fb d53d
00000040: dbbd ff3d dc95 4c3d 6a6e 553d 9acd 1c39
00000050: ba0c ae3c c371 033d 34a6 4bbd 568f 6c3d
00000060: 090b 903d c12e 723c 8a32 e73c 2687 8a3c
00000070: 15e6 eebc fc63 413c aa4e bebc 42aa 333d
00000080: ecf0 08bd e763 473d 7467 d2bd 2473 dd3d
00000090: 1809 8c3d c41f 89bd 6ed6 b73d 52ce e03d
000000a0: 9218 a13d 8418 a53c 0e05 893d b076 a3bd
000000b0: 1a66 87bc 8dcc 713d 4ef7 e5bc 1994 90bb
000000c0: 083d 863d 5b37 153e 4c26 833b 534f 743d
000000d0: bd45 8e3d 7d54 d83d c349 b63d 32ca 133d
000000e0: 1c81 803d ab98 a43d 4d1e 3c3d 6d12 af3d
000000f0: 77d4 023e 4e2d 9a3c 05a3 e8bd c0d3 e1bb
00000100: 26d6 00bd 4cb3 553d 5a26 ce3c 3c76 aa3d
00000110: 5034 b93d 5707 09be c6e4 0cbd 145d 0bbd
00000120: e1bd ba3d fa03 62bd 3b71 a23d 8cab 3b3d
00000130: f475 32bd fa83 193d 0ba0 30bc 9837 41bd
00000140: cd2b 0b3c c2d3 d5bc 9674 863d b6f1 103d
00000150: 6dd4 cd3d d04f 4abc b225 ae3c fe55 59bc
00000160: b7cb 4e3d e5e9 133d 4ce4 f53c d196 093e
00000170: 2838 5c3c 02db 813c 863b 3b3c d291 f3bd
00000180: da43 1f3c a2db 213e c0ae fe3d e0f2 1c3a
00000190: 1be0 33bd a677 013d 23fb bc3d 02be f63c
000001a0: 451f 66bd 8849 a9bb 1043 193d 494f 533d
000001b0: 9fe3 04be 3379 b23d 7180 ee3d 3a80 c9bd
000001c0: 1d85 943c ff05 993d bcc2 3fbd 9534 edbc
000001d0: 5231 69ba a340 0f3d 1b84 243d 840a 093c
000001e0: 40ed 193d 41b1 863d e963 303d 0177 d7bb
000001f0: cd15 503d 2c38 fe3c b243 c83d 3333 833d
00000200: 661c bb3d f9d9 3e3d 29d5 d33d d431 c33d
00000210: 0ab9 483d dcc7 6d3d c8bd 263d 3b0c 00be
00000220: 3230 42bc 476e 60bb 3cd5 bf3d 7cf6 933c
00000230: a81d 6dbc b555 3d3d 0f8e e53d 8428 c9bc
00000240: 4508 6e3b 3692 813d d944 7c3d 02a0 263d
00000250: bd13 b13d e5e7 3cbd 0a0a ed3c e3a0 253e
00000260: 14d2 0e3c 2738 203c d770 a7bd 644a d7bc
00000270: a942 963d 1012 50bd 503d 96bd 7746 f5bd
00000280: 7d52 fd3c ef64 3d3d f326 4bbc b0e7 8abc
00000290: a0d3 9e3d 95e1 e63c 9fd7 fc3a 593d 53bc
000002a0: fa96 783d a68c dc3c b473 383d 9e08 2b3d
000002b0: 8386 063e 6c69 c03b a420 d73d 6587 753c
000002c0: 6496 053e 6ccb c83d 6cdd 5b3d 47a2 173d
000002d0: e342 35bd 2d0f 183d bbd0 893d adc3 9abd
000002e0: 5ef0 803d 51a5 633d 8649 9f3b 200d 67bb
000002f0: b135 8c3d 8189 ba3d 0494 723d ff13 be3d
00000300: 8b0f 88bd 9e76 833d 6c59 bc3b 5357 0ebe
00000310: ab5d 4c3c f15e e63c 4a18 613d c820 273d
00000320: 6115 a53d cd8a 3ebd 508e e93c 1b18 163c
00000330: f5ea 39bd ffbf 7c3d 6503 c13d da9c fc3c
00000340: 197b 87bc c986 87bd 925b acbd 72c0 4e3d
00000350: f758 7ebc 2b30 aebc aee6 2f3d 4c50 a73c
00000360: 18e1 e03c a79c 62bd 03a2 6fbd a5c5 943d
00000370: c7bf 213d a454 0f3d b9ca 8abd 4316 813c
00000380: 2e90 b83c 0651 1f3e e780 a83d 7c4f eebd
00000390: faa6 8e3d 52d4 083d 5b3a 4f3d 8790 45be
000003a0: 39b1 7b3d 5598 e03c d852 01bd 6bbd 113d
000003b0: 0542 c03d 1fa4 bc3d e2fa e8bd e22d 10bd
000003c0: 7c3a 023d 44d1 163d 3715 593c f0f4 ae3b
000003d0: 4358 6b3d db89 e73d 0597 993d c0b5 a63d
000003e0: 9e08 f43d 2da9 b03d e279 0a3c c076 313d
000003f0: d3a5 efbb 1b07 e0bc c787 7dbc 9af5 bf3d
-0.09414783 0.041746687 0.048681933 -0.015588481 0.06933979 -0.043545417 0.03805177 0.07339533
-0.09896281 0.020350782 0.07539758 0.10916949 0.014451279 -0.04113426 0.03840634 0.104483515
0.12487384 0.049947605 0.052107252 0.00014953912 0.021246303 0.032090914 -0.04971905 0.057753883
0.07033355 0.014781655 0.028222341 0.016910147 -0.029162446 0.011803623 -0.02323087 0.043863542
-0.033432886 0.04867926 -0.10273638 0.10812977 0.06837672 -0.06695512 0.08976446 0.109768525
0.078660145 0.020153292 0.06690417 -0.07981622 -0.016528178 0.059032965 -0.028072026 -0.004412186
0.065546095 0.14571898 0.004002368 0.059645962 0.06946895 0.1056299 0.08900788 0.0360815
0.06274626 0.080369316 0.045927335 0.08548436 0.12776361 0.018820431 -0.113592185 -0.0068916976
-0.031454228 0.052172944 0.025164772 0.08323333 0.09043181 -0.13381706 -0.034397863 -0.034024313
0.09118248 -0.055179574 0.07931753 0.045817897 -0.04356952 0.03747938 -0.010780345 -0.04717216
0.00849433 -0.02610195 0.06565206 0.035386764 0.100502826 -0.01234813 0.021258209 -0.013265131
0.050487246 0.03611173 0.030016087 0.13436438 0.013441123 0.015851501 0.011427766 -0.118930474
0.009720767 0.1580644 0.12435675 0.0005987119 -0.043914896 0.031608246 0.09227588 0.0301199
-0.056182165 -0.0051662363 0.03741747 0.051589284 -0.12977456 0.08714523 0.11645592 -0.098389104
0.01812988 0.07471847 -0.046816573 -0.028955737 -0.0008895594 0.03497375 0.040165048 0.0083643235
0.037579775 0.06576777 0.04306403 -0.0065754657 0.05080204 0.031032644 0.09778537 0.0640625
0.09136276 0.046594594 0.103433914 0.09530988 0.049004592 0.05805193 0.040708333 -0.12504666
-0.011852311 -0.0034245418 0.09366843 0.018061869 -0.014472403 0.046224315 0.11208736 -0.024555452
0.0036320847 0.06326716 0.061589096 0.04067994 0.08646343 -0.04611959 0.028935451 0.16174655
0.008717079 0.009779013 -0.08175819 -0.02628059 0.07336933 -0.050798476 -0.07335913 -0.11976331
0.030923123 0.046238836 -0.012399423 -0.01695618 0.07755208 0.028183738 0.0019290334 -0.012893044
0.060690857 0.026922535 0.045032218 0.041756265 0.1313725 0.0058719423 0.105042726 0.014985894
0.1304565 0.09804425 0.05367796 0.037019994 -0.04425324 0.037123848 0.06729265 -0.075568534
0.062958464 0.05557758 0.0048610596 -0.0035255626 0.06846178 0.09108258 0.05922319 0.09281158
-0.066435896 0.06419109 0.0057479646 -0.13900499 0.012473504 0.028121443 0.054954804 0.040802747
0.08060718 -0.04651909 0.028510243 0.009161021 -0.045390088 0.06170654 0.094244756 0.030836511
-0.01653819 -0.06617505 -0.08415903 0.0504765 -0.015524141 -0.021263203 0.042944603 0.02042403
0.027451083 -0.055325177 -0.058504116 0.0726426 0.039489534 0.03499283 -0.067769475 0.015757686
0.022529688 0.15558252 0.08227711 -0.11636254 0.06965442 0.03340561 0.05059276 -0.19293414
0.06144831 0.027416388 -0.031573147 0.035581034 0.09387592 0.09210991 -0.11375977 -0.035200007
0.031794056 0.036820665 0.013249687 0.0053392574 0.05745722 0.11305591 0.07499508 0.08140135
0.11915706 0.08626018 0.008451911 0.04332614 -0.007313469 -0.027347138 -0.015474266 0.09373017

fc2.bias f4 [128]
00000000: 301c 993d 749b 023d cd10 1fba efc6 a9bb
00000010: cad2 a53d c2ab c73d 8a2f 8ebd 9a6e be3d
00000020: 4aa3 683d 41e3 a03d 59a4 c23d 0f3e 53bd
00000030: d5e8 09bb 0e58 f83d 8a9b b23d 03cc 573c
00000040: 722c 67bd f13e 173d 2454 0a3d 1eb2 6a3b
00000050: f95d 203d ad2d e93d 025d e23d 288b 4a3d
00000060: 2e87 cdbc e420 06bd 64c1 693d 61b4 a43d
00000070: 122e 40bd 158d 543c 64ed c93d 281d 6e3d
00000080: 3bf6 d63b 5b0f 183d ca30 7cbd a8c6 fdb9
00000090: f794 14bd e88c 8c3d ede2 fcbc aa2a 373d
000000a0: 9ebf df3d 4010 7fbd 8175 a53c 79ca 073c
000000b0: 61fd 82bd f6d0 97bd 91c5 a63c 12d1 7c3d
000000c0: b234 1d3d ede6 203d ca7a 8a3c c83b 09bd
000000d0: aab3 6bbd 48fc 64bc 9c2f 62bd 6b74 6c3d
000000e0: 72bc cdbc 914d ed3d 6aa1 b33d 862d 073d
000000f0: cdbb 93bc 7150 493d ce90 883d 7588 78bd
00000100: 52dc f7bc 0e76 72bd ae19 3fbd 3e06 913d
00000110: aa0b 02bd 18f0 303d 4dc8 5bbd 1c4f 11bc
00000120: 7d9a bbbc f9ed f3bb 64ac e03d 07fd a9bc
00000130: 3216 953c 895a 96bc 600b 5cbd f804 96bd
00000140: c993 6cbd 814e 5dbd 8c36 6d3d c7ff b93d
00000150: 8353 af3d 7922 15bd d3c1 b6bc 7452 123d
00000160: e50c c5bc 8fc7 833c 8718 62bd e72c 02bc
00000170: f8e2 d73d 38ac aa3c a79a 3f3c 6e7e 773d
00000180: 74a3 3ebb 66ab a1bc 2cf8 c5bc 88d3 803d
00000190: 9819 993d 232e 3c3b 6cd7 de3d 7b17 f03d
000001a0: e799 033d d4b8 84bc 4585 ccbb 90cd 0fbd
000001b0: af01 d73b dc06 703d baed ee3c 8389 223d
000001c0: 1d68 96bd 94dc 0a3c 4fe8 67bc 4b19 8c3c
000001d0: a862 fc3c 2fc0 7dbd 9bd1 24bd 7c50 3e3d
000001e0: 3269 8b3d 593d 9d3d 8d8f a4bb c93f 843d
000001f0: f0e7 3e3d 457e 73bc 8bde b4bc 7d1b 6fbd
0.074760795 0.031886533 -0.0006067872 -0.0051811854 0.080968454 0.09749557 -0.06942661 0.09298439
0.05679635 0.07855845 0.09504003 -0.051572856 -0.002104332 0.1212617 0.08721073 0.013171199
-0.05643887 0.03692526 0.03377165 0.0035811733 0.03915212 0.11385665 0.11052896 0.049449116
-0.025088873 -0.03274621 0.057069197 0.08042217 -0.046918936 0.01297309 0.09859732 0.058133274
0.0065601147 0.03712402 -0.061569966 -0.0004840393 -0.036274876 0.06862813 -0.030869925 0.044718422
0.1092522 -0.062271357 0.020197632 0.008288019 -0.063959844 -0.07412903 0.020357879 0.061722822
0.038380332 0.039282728 0.016904254 -0.033504277 -0.057544388 -0.013976164 -0.055221185 0.057728212
-0.025114272 0.1158706 0.08771022 0.0330024 -0.018033886 0.04914898 0.06668244 -0.06067701
-0.030256424 -0.059194617 -0.04665535 0.07081269 -0.031749405 0.04319772 -0.05365782 -0.008868959
-0.022900814 -0.00744414 0.10970381 -0.020750536 0.01819906 -0.018353717 -0.053721786 -0.073251665
-0.057758126 -0.054029945 0.057913348 0.09081989 0.085608505 -0.03640983 -0.02230922 0.035723165
-0.024054 0.016086368 -0.055199172 -0.007945276 0.10541338 0.020834073 0.011694587 0.060423307
-0.0029089125 -0.01973505 -0.02416619 0.062903464 0.07475585 0.0028714023 0.10880932 0.117232285
0.032129195 -0.016201414 -0.006241473 -0.03510815 0.00656148 0.05860029 0.029166091 0.039681923
-0.07344077 0.0084754415 -0.014154508 0.017101904 0.030808762 -0.06195086 -0.040238958 0.046463475
0.06807174 0.07677717 -0.0050219954 0.064574786 0.04660791 -0.014861648 -0.022078773 -0.058375824

fc_value.weight f4 [256, 128]
00000000: 0b2d 1d3e 2b49 6c3d 356c 513a a98f c0bc
00000010: a007 ffbb e159 023e 66a6 c1bd 15f5 8f3d
00000020: 18ce 093d d51b c43d d142 413b 9c4e 243d
00000030: e563 3cbd c287 d73c 37fb e93d ddff a1bd
00000040: bcb7 533d e28d 0a3e 0b91 d4bc b739 1d3e
00000050: cfd3 a73b 68a2 593d 723e 0e3e 58e0 373d
00000060: f382 3bbd 8c88 963d 17b3 143e 644b db3d
00000070: 099c 96bd 6777 fd3a d93f 793d 449c 94bd
00000080: 0a41 123d b395 e03d e1d6 503a 6e3f 023d
00000090: 4b56 ecbd bcc4 1e3e ef79 9bbd cf0d a23b
000000a0: 6783 54bc eaeb fcbc 3357 88bd f3ca 3b3d
000000b0: ad89 c43c ecb5 bfbc 0aa1 6abb 9670 143e
000000c0: b612 e23d 7498 f13d 4614 32bc 5f9b ffbd
000000d0: e53e b43c 14ac a5bc 77b4 543c 4942 ff3d
000000e0: dcd9 c13c 1f79 1a3e c767 6f3c b7de 23bc
000000f0: 7be9 573d 02e4 4bbb 07dd 1e3e 7578 d3bc
00000100: 7cb0 a83d 83f2 68bc cabe 7839 16ef 893d
00000110: 08ca 44bc b68a cfbc ea74 c9bc b239 a43c
00000120: ea2a 1bbd 92d8 9cbd 551b e53d 2d0a cb3d
00000130: c24b 37bd dd48 abbd d305 a73d cbf1 3dbd
00000140: f2cb a4bd 98d9 b4bd 6639 b83d 4ca7 063e
00000150: 16b4 9d3d d009 ca3c 8ad7 853c ef54 253e
00000160: 955d 69bd ef44 9fbd 0f96 de3c 0f41 853d
00000170: af3b a03d 1f4b 153c 32e5 713d f7d7 8a3d
00000180: 5a3b d03b 536e 59bd 6aaf bbbd 5577 033d
00000190: d5ec a33d 16e5 123e 8021 123e 3339 0d3e
000001a0: c766 97bd 7f2b 61bd 645f 2038 49cd 85bd
000001b0: f074 79bd 97df 0b3d aad4 453d a8b6 4b3c
000001c0: d0cb 8ebd e281 fb3d 386d 09bd d921 ef3c
000001d0: 0d53 a43d 614d 18bd 0394 f2bc 78a1 5cbd
000001e0: a7c0 b33d fd2f e4bb 900d 253d 3f84 363d
000001f0: 3c0c 5c3d fe63 603d ba29 a03a 4694 9cbd
00000200: db16 e83c a022 6a3d c368 b33b 67d0 a33c
00000210: a4af 1abc a32d 003d e550 b33a d010 59bd
00000220: 21ec 133d f1d8 b63d becd a2bd d058 e1bc
00000230: 9d4a e73d a8b6 adbd 81dc a3bd 1d72 e63d
00000240: bbd8 563d 67c9 133d 1c83 a03d 8497 d93c
00000250: 752a 85bd 73f2 a33d f537 323d 85a0 ef3d
00000260: 8340 af3d d2b0 a6bd b644 3b3a dadc 8ebd
00000270: ac2f 593d 269a dbbc 98e6 9e3c 9055 b73d
00000280: 4d58 1e3c 7841 0837 0016 aebd 5080 25bd
00000290: aa54 ea3d 3751 643c 9b12 0e3d 9df6 bf3b
000002a0: 2415 bf3d b379 63bd a7b6 37bd 6502 f43d
000002b0: 211d fd3c 525b ad3d faf8 f23d 1843 69bd
000002c0: ffe8 32bd b862 abbd b857 2b3d 6d89 b0bb
000002d0: e9ac a73d 36b8 8ebd 40b3 893d ea06 92bd
000002e0: e0b4 e93d 198d 223c 93fb d83d 87ab 983d
000002f0: 8b60 dcbc 61d1 e83a 1b35 493d 7aae e53d
00000300: a350 4dbd ccd1 d13c 41bc de3d c67e 413c
00000310: da79 61bd 398a 023e 8b5a 1dbd 39f7 4e3e
00000320: 3104 2a3b 30f4 193d 02a8 2c3c ea0b a73d
00000330: 5e57 503d 5fc2 a5bd 611d b03d 2bec 2abc
00000340: 4a66 3c3d bf9b 6ebd 7975 053d 5773 ebbc
00000350: 8010 5bbc 44e1 01bb e2c1 473d 420b 2abd
00000360: 4da6 1d3d dbc4 ec3b bf12 183e 678f 1fbc
00000370: 000a 913d d31a ae3d e5a8 133d 66ee 813c
00000380: eb62 06bc 76c9 ac3d 011e 9b3c 4255 92bd
00000390: 3e3e 9dbd ed28 1cbd 7253 113d bb39 4f3d
000003a0: 7783 f13d d046 983c c1da 993d 038d ec3d
000003b0: 523d ac3c 8a9f d73c 374d cdbc 71af a63d
000003c0: c862 eb3d 554d 92bd 443c 6cbd 94f3 d63d
000003d0: 144d b6bd 26d2 04bd c7b2 273d 7650 f73c
000003e0: e8c0 a9ba 6c89 793c bcd8 9b3c 5e8b 7c3d
000003f0: 9f3c 3cbb d9c2 913d 740f 28bc 0809 aa3a
0.15349214 0.057686966 0.00079888414 -0.023506003 -0.0077828914 0.12729599 -0.09455566 0.070291676
0.033643812 0.09575621 0.0029489289 0.04011403 -0.045993704 0.026309852 0.114248686 -0.0791013
0.051688895 0.13530686 -0.025948068 0.15354048 0.005121685 0.0531334 0.13891008 0.044891685
-0.04577918 0.07350263 0.14521442 0.10707739 -0.0735398 0.0019337953 0.060851905 -0.07256368
0.035706557 0.10966053 0.000796659 0.031798773 -0.115398966 0.15504736 -0.07591616 0.004945494
-0.012970782 -0.030874211 -0.06657257 0.045847844 0.02399143 -0.023402177 -0.0035801553 0.14496073
0.11038725 0.11796656 -0.010869091 -0.124808066 0.022002647 -0.020223655 0.012982479 0.12463815
0.023663454 0.15085267 0.014612145 -0.01000183 0.0527129 -0.0031111245 0.15514003 -0.025814274
0.08236787 -0.014217976 0.00023722198 0.06735055 -0.012011059 -0.025334697 -0.024591882 0.020047043
-0.037882723 -0.07658495 0.11186854 0.0991405 -0.044749983 -0.08363507 0.08155408 -0.04637317
-0.08046712 -0.08830565 0.08995323 0.13149756 0.07700364 0.024662882 0.016338129 0.16145681
-0.056974012 -0.0777682 0.027171163 0.065065496 0.07823884 0.009112149 0.05905647 0.06779473
0.0063547315 -0.05308373 -0.09164317 0.032096226 0.080041565 0.14345202 0.14270592 0.13791351
-0.0739265 -0.05497312 3.8235812e-05 -0.06533296 -0.060902536 0.03414878 0.048298515 0.012433685
-0.06972468 0.122806326 -0.033551425 0.029190945 0.08023653 -0.03718317 -0.029611593 -0.053864926
0.0877698 -0.0069637285 0.040296137 0.044559713 0.053722605 0.05478286 0.0012219467 -0.076454684
0.02833121 0.057161927 0.005475135 0.019996835 -0.00944129 0.031293523 0.0013680725 -0.05299455
0.036113862 0.08928097 -0.079493985 -0.02750817 0.11293528 -0.084821045 -0.08001042 0.11252234
0.052452784 0.036080744 0.07837507 0.026561506 -0.06502239 0.08005228 0.043510396 0.117005385
0.085572265 -0.081391945 0.00071437226 -0.06975718 0.05302398 -0.026806902 0.019397065 0.089518666
0.009664607 8.121475e-06 -0.0850029 -0.04040557 0.1144193 0.013935379 0.034685712 0.005858256
0.09330204 -0.055535983 -0.044851925 0.11914519 0.030897679 0.084646836 0.11863895 -0.05694875
-0.043679234 -0.083684385 0.041831702 -0.005387476 0.08187277 -0.06968729 0.06723642 -0.07130225
0.11411452 0.009921336 0.10594859 0.07454591 -0.026901504 0.0017762595 0.04912291 0.112149194
-0.05012573 0.025612734 0.1087575 0.01181001 -0.055047847 0.1274804 -0.038416427 0.20211495
0.002594244 0.03758639 0.010538103 0.08156569 0.05086457 -0.08093714 0.085993536 -0.010432283
0.045995988 -0.058254 0.032582734 -0.028741522 -0.013370633 -0.0019818107 0.048768885 -0.041514643
0.038488675 0.0072256154 0.14850901 -0.00973878 0.070819855 0.0850121 0.036049742 0.015860748
-0.008202295 0.08436863 0.018935205 -0.07145168 -0.076778874 -0.038124967 0.03547997 0.050592165
0.11792653 0.018588454 0.07512427 0.11550333 0.021025334 0.026321191 -0.025061233 0.081389315
0.114934504 -0.07143656 -0.05767466 0.104956776 -0.0890142 -0.032426976 0.04094198 0.030189734
-0.0012951167 0.015230518 0.019024245 0.06165635 -0.0028722656 0.07117242 -0.010257591 0.0012972662

fc_value.bias f4 [256]
00000000: e25e ee3d de6c c73b 2f1e b1bd 86df 163d
00000010: a90f aebd e141 53bd 7854 753d a170 473d
00000020: 0145 dfbb 0a63 673d c5a6 3abd 83e6 5b3d
00000030: 82fa ee3d 95c1 4cbc cb40 89bc da92 5bbd
00000040: cac3 b43d e02b 08bd a789 773d cb76 133d
00000050: 49aa d03c 5cca 63bc 6ace ac3d 6d2c 60bd
00000060: 8c94 c7bd 6f20 403d b195 d23d abfb 85bd
00000070: d5e3 76bd 7c39 1c3d a4df 7c3d 292a 82bd
00000080: 46ef 7dbd 8ba6 9cbd 7379 10bd d0f3 b2bc
00000090: cd4b 893c 0852 8dbd 4113 83bc 15a2 1fbd
000000a0: d97f 5ebd a8ff 553d 1436 693d 8413 c0bc
000000b0: de1b 1fbc 56d8 79bd d2a2 013d 3d6b 8ebc
000000c0: 6701 593d 3c5d 453d e61e f43d 468a c83c
000000d0: a4ae 94bd 2d9e 983d 6707 24bd 8793 d33d
000000e0: e35f 0b3c 991b ac3d 28b7 9c3d 1475 473d
000000f0: 708a 85bd b15e 553d 8f3d 49bd 24d6 0a3e
00000100: a489 c0bd f091 7f3d b321 45bd f498 803d
00000110: d6a0 81bd b0e1 083e eed2 81bd 7ec1 533c
00000120: 6b6b 2c3c bd72 ae3c 74a1 053e 7ba2 5d3c
00000130: 7b9f cf3d 0230 283d 59e7 6abb 8588 b73c
00000140: 7920 d6bb d292 e6bc 9a41 b13d 7802 fe3d
00000150: a49e 72bc 7faa 94bc 7f79 cd3c 0ca1 af3c
00000160: 4236 053c 52e6 953d 41b5 043e 4d1b 3b3d
00000170: 9677 b0bd 7fe7 2d3d 04bb 98bd c239 b0bd
00000180: 3a5e aebd 9b6c c4bc ad97 f53d 868a a03d
00000190: 3b03 d33c 6b60 e73a c28f 413c eba6 e43b
000001a0: 4c2e babd f74c a3bd 6d3c 42bb 8380 81bc
000001b0: a3c8 873d 4282 c0bc 0500 01bd a9f3 17bd
000001c0: 198a 5e3c 4cd8 22bd c6a5 a33b 6268 86bd
000001d0: 3d64 6f3d 9f43 a0bd 07e6 96bc 6ad4 d73d
000001e0: 532c 86bd bec4 bebd af04 813c 1491 f23d
000001f0: 8737 4fbd 8b89 8cbc 23ff 313d d2d4 333c
00000200: 4b5f 0dbd f844 83bb 577a 52bd 5ed9 b5bb
00000210: 37c6 a33d d51b 623c fdda 8dbd 6ea1 3cba
00000220: 525a 9ebd 10b9 9e3d 1860 60bc bbb3 5abd
00000230: 6a4c b53c e25c e8bc 860a 0dbd 2946 7abd
00000240: 05ae a7bd e14e 513d 7d01 19bd 3d26 9dbc
00000250: b918 7e3d 3ae0 bf3d 56a0 19bd c562 a43d
00000260: 4595 ab3d 82ae 0a3e 2744 12bd d553 aa3c
00000270: 626a d739 49f9 f43c f2b9 9b3c a522 15bc
00000280: cc6a 6abc 1889 9e3c cfdc 063d ea66 293d
00000290: 8616 b4bc dfd3 89bd 1f5a 633d 63d6 933b
000002a0: 92fe 903d aabb cdbd b1f1 49bd cb35 963b
000002b0: 3619 9ebc 57b4 0c3d 66e1 99bd 46dc 393d
000002c0: c046 4b3d 5b7e 50bd c3ef 643d 7ff2 333d
000002d0: 7f57 0d3e df90 c93c f4b4 a5bd f976 aabd
000002e0: 59e4 98bd a9f7 adbd af14 ce3d 9c7e b6bc
000002f0: dcc1 8fbd 26cb b03a 3d96 9dbd fc53 58bc
00000300: db1b 13bd cd56 ecbb 8888 db3b 9736 ea3b
00000310: 430b 0a3e e6d4 6bbd dcef e33d cc0a 0d3e
00000320: 8458 883d 000e 7f3b 0495 5b3d 4abc 41bb
00000330: f74e 953d 827d adbc c6d5 0f3e ce8f 54bc
00000340: 94b8 5d3c 9403 48bc ee75 14bc 3490 ab3d
00000350: c577 b6bd 7723 80bd 6cfa b1bc 6a1c 9abd
00000360: ab2f 8a3d 6086 923c 4e5c 043e 0d86 e73d
00000370: 5147 693d 6ab6 883d b835 9bbd 5f9a cebc
00000380: 759c 39bd 3ae1 94bd 5598 a0bd cf1c 34bc
00000390: c95a 68bd 3de1 083e be68 cebc 1f76 2ebc
000003a0: 6f93 743d 48a7 d83c e28e 9d3d 65c6 dd3d
000003b0: e01f 8dbd cfb8 4c3c d31e 8ebd 2494 763d
000003c0: f894 293d ddc5 643d c6e9 79bd 64a7 afbd
000003d0: 9f72 433d 5dd9 a0bd c723 e3bc ffbc 88bd
000003e0: 2c0a db3c 2807 8fbc 439a 8f3d 20fb 663c
000003f0: b822 383d 6ad4 60bd de51 913d 0872 583d
0.11639191 0.006085976 -0.08648335 0.036834262 -0.08499081 -0.0515765 0.05989501 0.048691396
-0.006813646 0.056490935 -0.0455692 0.05368663 0.11668874 -0.012497325 -0.016754529 -0.053606845
0.08826406 -0.033244967 0.06043401 0.03600196 0.025471823 -0.013903227 0.08437808 -0.054729868
-0.0974513 0.04690593 0.102824576 -0.065421425 -0.06027587 0.03814076 0.061736718 -0.06355698
-0.061995767 -0.07648953 -0.035272073 -0.021844774 0.016759777 -0.06900412 -0.016000392 -0.038972933
-0.054321144 0.052245766 0.05693634 -0.023446806 -0.009711234 -0.06099733 0.03164942 -0.01738512
0.052979853 0.04818462 0.11919956 0.024479996 -0.072598726 0.07452045 -0.040046122 0.10330873
0.008506748 0.08403701 0.07652122 0.04869564 -0.065205455 0.052092258 -0.049130972 0.1355825
-0.09401253 0.062395036 -0.04812784 0.062791735 -0.06329505 0.13367343 -0.0633906 0.01292455
0.010523657 0.021294946 0.1304987 0.013527508 0.1013784 0.04106141 -0.003584346 0.022403965
-0.0065346328 -0.028146181 0.08655091 0.124028146 -0.014808331 -0.018147705 0.025082348 0.021439098
0.008130612 0.07319321 0.12959768 0.045680333 -0.08616559 0.0424571 -0.074575454 -0.086047664
-0.08514066 -0.023977568 0.119918205 0.07838921 0.025758376 0.0017652636 0.01181406 0.006977906
-0.09090862 -0.07973664 -0.0029638067 -0.01580835 0.06630065 -0.023499612 -0.03149416 -0.037097607
0.01358273 -0.039757058 0.004994127 -0.06562878 0.058445204 -0.07825398 -0.018420232 0.10538562
-0.06551423 -0.09314869 0.015749304 0.11844078 -0.050590064 -0.01715543 0.043456208 0.010976033
-0.034514707 -0.0040060245 -0.051386204 -0.005549594 0.07996791 0.013800581 -0.06926534 -0.0007195686
-0.07732071 0.077501416 -0.013694786 -0.05339406 0.022131164 -0.028364602 -0.034433864 -0.061102066
-0.081874885 0.051100615 -0.037354935 -0.019183272 0.062035296 0.0936894 -0.037506424 0.08026651
0.0837808 0.13543132 -0.035709526 0.020791927 0.00041087257 0.029904025 0.019009564 -0.009102498
-0.014307689 0.01935248 0.032925423 0.041357912 -0.021983396 -0.06729864 0.055505868 0.004511641
0.070798054 -0.1004556 -0.04930276 0.0045840493 -0.01929913 0.034351673 -0.075136945 0.045376085
0.04962802 -0.050901752 0.055892717 0.043932434 0.13802908 0.024605213 -0.08091155 -0.083234735
-0.07465429 -0.08494503 0.10062539 -0.022277169 -0.070193976 0.0013488277 -0.07694671 -0.013203617
-0.035915237 -0.007212496 0.0066996254 0.007147621 0.13480859 -0.057576083 0.11129734 0.1377365
0.06657508 0.0038918257 0.05360891 -0.0029561692 0.07290452 -0.02117801 0.14046392 -0.012973739
0.013532776 -0.012207884 -0.00906132 0.08377114 -0.08909563 -0.062567644 -0.021725856 -0.07524951
0.06747373 0.01788634 0.12925836 0.11304865 0.05695278 0.06675418 -0.075786054 -0.025220094
-0.045315225 -0.07269521 -0.07841555 -0.010993197 -0.056727204 0.13367172 -0.02519643 -0.010648279
0.059710916 0.026446953 0.07693268 0.108288564 -0.06890845 0.012495234 -0.06939473 0.06019987
0.041401833 0.05585276 -0.06101396 -0.08576849 0.047716733 -0.07853959 -0.02772702 -0.06676673
0.026738249 -0.017459467 0.07011845 0.014097959 0.044954985 -0.054890074 0.07095693 0.052843124

value.weight f4 [1, 256]
00000000: 6dd2 c5bd 3b67 ac3d b002 e93b 9c39 033d
00000010: 59e7 673d c03c d53c 6fa2 bb3d 538b ad3d
00000020: ceeb 833d 47b9 54bd 2874 43bd e8cd 233d
00000030: 472c e2bd dbd2 9a3d 87ec 51bc e9e5 31bd
00000040: 1512 d83d d8db 523d 975a aa3d 9bb3 28bc
00000050: d80a 9bbd 9415 bd3d 78a1 c2bd e5bf c2bc
00000060: eb5e e9bc 29f6 e83d e71c 07be 6468 42bd
00000070: 74cb ea3c 03d5 02be c934 983d 5582 4f3d
00000080: ceec 18bd ac78 ccbc b3f3 7f3d 7cba b6bc
00000090: 29b3 993d 6dcb 063d 2ab4 babc 4805 033d
000000a0: 7fa2 b8bc 43a1 ccbd cf5b 08be acbe 63bc
000000b0: 5824 1c3c fbdf 87bc 9633 d73c 2175 db3d
000000c0: d057 e63c e106 ccbd 559f d1bd 10ae a63d
000000d0: bb47 05be 2a83 f3bd d0ff 333d be36 05be
000000e0: 6938 c8bd 05df 95bd 5092 d0bd 2de7 4b3d
000000f0: da18 9f3d 0440 ed3d 24b4 abbb 8bf4 cabd
00000100: 40dc 55bd 1746 efbd 2593 963d 18df 963d
00000110: 5a09 4fbd 3c90 d5bd 28e8 ea3d 5613 bdbd
00000120: f418 65bd 7952 3c3d 2f7e c6bd dff5 f3bc
00000130: a565 8ebd d0f1 b3bd b57b 5e3d 4e57 acbd
00000140: 6715 db3d 3ea3 583c 8e53 09be 5351 fabd
00000150: 1d67 b5bd 88f0 83bd b0d8 3abd a39a a23d
00000160: ac84 f53c eedb 423c 1d51 fdbd 7553 05be
00000170: 699e d23d 9f67 743d 2c19 d13d 6d31 2e3d
00000180: eac3 46bd d4fd b63a 127c cabd c4d3 9fbb
00000190: c022 1dbd 0819 7b3d 41e0 9e3d fa26 4abd
000001a0: 90b4 9f3d 702b 393d 37da d53d be1e af3a
000001b0: 895a c43d e1d9 b2bc 5a1b ddbd f2c1 8a3d
000001c0: ccd1 893d 4527 ddbc ef17 b93d 7ef6 8a3d
000001d0: de3b d0bd 9ec0 7a3d a34f 07bd 0c1c dbbd
000001e0: 6a2b 023c 0f1c f33c fcd7 973d aa91 03be
000001f0: 6093 013c 2298 fbbd e22a ecbd bc16 64bd
00000200: 002d 2c3a 0807 c23d cef4 b43d e6e5 3a3d
00000210: cf42 ad3d 5137 05bc bba0 29bb 771b 353d
00000220: 2a50 cd3c 8fd8 01be 348d fbbc c061 a43d
00000230: 6497 733d 8768 d03c 93e5 a83d ba2f 6a3d
00000240: c472 cd3c bb37 163d 32fe dabd c79b bf3d
00000250: 2dbb 933d 24aa fdbd 9040 15bd fbd8 2c3c
00000260: c1ec d6bd 12a7 dabd 642f c13d c351 b4bc
00000270: 0186 8e3d 1f36 4739 f690 6e3d 3f56 02be
00000280: b971 49bd 8d61 243d c8a6 673d 20fd c63d
00000290: 501e 83bc 9088 51bd 7be8 23bc 3066 8c3c
000002a0: 8143 523d 33cd af3d 33ca 6abc 00b4 77bb
000002b0: 2869 ccbc f300 ebbd 4024 793c 2cbc 7dbd
000002c0: 6c15 3abd 9f87 c43d 13d9 febd 3d9e 3d3d
000002d0: 41c6 91bd 81e5 b0bd 5edb e4bc 68c1 f73c
000002e0: a62d 2bbd 18b6 323d be06 0cbe 503b 973b
000002f0: d2aa 80bc a813 79bc 552d dc3b 1cf6 ca3c
00000300: 6184 5a3d 3e82 66bc fb6d a03d a84d f73c
00000310: bae5 aabd c82d 363c 2f09 0abe 4675 04be
00000320: e77a d9bd 2972 1abd fc29 a6bd 84cd 923c
00000330: 09ce 643d 5854 973d 00b4 8dbd 69c5 e33d
00000340: 6b47 f83c af97 05be 68bd ba3d d1d8 aabd
00000350: 8c0c 04bd 7cf1 d43d b7bb 80bc 3439 5cbd
00000360: 63a4 b8bd 3694 bd3d 7219 04be a5a9 a8bd
00000370: e41f c13d 5d32 b5bd a154 f4bc 2ffd cabd
00000380: 312a 943d 357e 0e3d c4ec 52bd f36d 4a3d
00000390: 0ef0 99bb 0805 f9bd 58e0 6f3c 2c28 ae3b
000003a0: db4c b03d 4f7b 9b3d 7d95 9e3d a7e1 0bbe
000003b0: 0039 0dba f401 d03c fa66 bb3a 560d 493d
000003c0: 58ba a1bd f6c1 9cbd d40a 3c3d 8c66 fc3c
000003d0: dd6b b93d 30ea 0ebd 746f 453d 9e13 b33d
000003e0: 9f09 4abc 8a65 66bd 0065 bf3d f99f 87bd
000003f0: 4da0 d03c ec80 d33d 9a46 eebd 46ee 8cbc
-0.09659276 0.08418127 0.007110916 0.032037362 0.056617115 0.026029944 0.09161841 0.084738396
0.064414605 -0.051934507 -0.047718197 0.03999129 -0.110436015 0.07559749 -0.01281274 -0.04343215
0.10550324 0.05147919 0.0831806 -0.0102967275 -0.07570428 0.09232631 -0.09503454 -0.023773143
-0.028487643 0.11375076 -0.13194619 -0.047462836 0.028661467 -0.1277657 0.07431943 0.050661404
-0.03733521 -0.024959885 0.06248827 -0.02230572 0.07504875 0.032908846 -0.022790987 0.03198746
-0.022538422 -0.09991696 -0.13316272 -0.01390044 0.009530149 -0.016586294 0.026269715 0.107157
0.028118044 -0.099622495 -0.10235468 0.081386685 -0.13015644 -0.11890252 0.043945134 -0.13009164
-0.097763844 -0.07317928 -0.10184157 0.049781013 0.07768412 0.11584476 -0.0052399803 -0.09909924
-0.052212 -0.116832905 0.07352284 0.073667705 -0.050546028 -0.10427901 0.114700615 -0.09232204
-0.055932 0.04597709 -0.09692036 -0.029780326 -0.06952981 -0.087863564 0.054317195 -0.084150895
0.106974415 0.013222514 -0.1341078 -0.122225426 -0.08857558 -0.06442362 -0.045616806 0.07939651
0.02997049 0.011893256 -0.12368987 -0.13020118 0.102841206 0.059669133 0.10209879 0.042527605
-0.048526682 0.0013961145 -0.09886946 -0.0048775394 -0.03836322 0.06130317 0.07757617 -0.049353577
0.077981114 0.04520744 0.10442012 0.0013360602 0.09587581 -0.021832408 -0.107962325 0.067752734
0.06729469 -0.026996264 0.09037768 0.06785296 -0.10167669 0.06121885 -0.033034932 -0.10698709
0.007944921 0.029676465 0.074142426 -0.12848535 0.007908672 -0.122848764 -0.11531617 -0.055685744
0.0006567985 0.09473997 0.08835755 0.045629404 0.08460008 -0.008130864 -0.0025883156 0.044215646
0.02506264 -0.12680267 -0.03070698 0.08026457 0.05947055 0.025440468 0.08246913 0.05717442
0.025079139 0.036674242 -0.10693015 0.09355884 0.07213435 -0.123859674 -0.036438525 0.010549779
-0.10494376 -0.106763974 0.09432867 -0.022011643 0.06959153 0.0001899828 0.058243714 -0.12728213
-0.04918072 0.040132094 0.05655554 0.097162485 -0.016005665 -0.051155627 -0.010004158 0.01713857
0.051333908 0.085840605 -0.014330435 -0.0037796497 -0.024952486 -0.114747904 0.015206397 -0.061947033
-0.045430586 0.0959618 -0.12443747 0.046293486 -0.07117892 -0.086375244 -0.027936634 0.03024359
-0.04179158 0.04363069 -0.13674447 0.004615225 -0.015706453 -0.01520244 0.006719271 0.024775557
0.053348903 -0.014069138 0.07833477 0.030188397 -0.08344598 0.011119314 -0.13480066 -0.12935361
-0.10619145 -0.037706528 -0.08113477 0.017920263 0.055860553 0.07389134 -0.06919098 0.111216374
0.030307492 -0.13046144 0.091181576 -0.08342136 -0.032238528 0.10397622 -0.01571451 -0.05376549
-0.09015729 0.092567846 -0.12900332 -0.08235482 0.09429911 -0.08847497 -0.02982551 -0.09911572
0.0723461 0.03478833 -0.05149533 0.049421262 -0.004697806 -0.12159163 0.01464089 0.0053148475
0.08608409 0.075918786 0.077433564 -0.13660298 -0.0005387217 0.025391556 0.0014297657 0.049084984
-0.078968704 -0.076541826 0.045908764 0.030810617 0.090537764 -0.034891307 0.048201993 0.08743976
-0.012331395 -0.05624918 0.09345436 -0.06622309 0.025467062 0.10327324 -0.1163456 -0.017203461

fc_advantage.weight f4 [256, 128]
00000000: fb55 353d 7bc3 9abd d0e3 88bd a172 d0bc
00000010: cc4b b3bd 0ed7 ccbc efdb a23d 62c2 463d
00000020: a779 fa3b 07a4 b9bc 3319 95bd 0826 ae3d
00000030: 0bc7 36bc 92a0 113d cd96 8b3c f3bc c83c
00000040: 7c8b 233c 9f85 063d 2425 a73a b6c3 7dbc
00000050: 0cd4 9ebd 755b 92bd 31f5 95bd 2ca9 a4bd
00000060: 7f8b 883d b8f2 89bd 19bb aebd cc45 a3bb
00000070: 000b a73d 1d62 383d 929e 963d 1fc5 623d
00000080: 6334 3d3c 8ef3 6fba 88b6 96bd b43b 0cbd
00000090: cbef c43c c1ca 76bc 63a8 a43c 9ea7 463d
000000a0: bdc2 4b3c 4715 acbd dc75 8d3d 6f1c cfbc
000000b0: 84e7 2d3d 0199 d1b9 12e0 48bd 4da4 92bd
000000c0: b3cc 85bd 92df 34bc 220d 763d 6e10 013c
000000d0: 47ce 47bd 2156 4dbd 0f85 cbbc 9d05 2ebc
000000e0: d23b ff3c f23c ee3b 7e98 d1bb 8d12 4f3d
000000f0: 77cc adbd 69f1 6a3c cb5f 47bd c5b3 0e3c
00000100: 58e6 08bd 28f9 4c3d 8e22 083d 4968 2ebd
00000110: d6ac d43c 52fe bbbc a9ab 8abd bd59 e23d
00000120: 26a3 173d 65fa 75bc 39b9 0abd e6b8 cc3b
00000130: 2149 0c3c 88aa 53bd 8e0e ba3c 7c15 4c3d
00000140: dc31 40bd ee94 293d 3792 8eba 7469 b9bd
00000150: db74 653b 6037 4d3c 253a cd3c f392 8b3d
00000160: 3ba4 da3c 036b 3e3c c025 fd3c 208a 2abd
00000170: 6c54 7a3d 34c9 533d 8aad 923d 9a7b 953d
00000180: 7811 b93d 24ef 64ba 1b6b bf3d 66fe 853b
00000190: da4d babd 51ff 2cbd d84f fd3c 5162 0bbd
000001a0: 2d70 983c 41fa 88bd 76f8 7bbd 868f 7ebd
000001b0: 159b d93b 6301 243e 953c b33d 5a6c 563c
000001c0: 98ee a33d 867b b9bb 8073 403d 24cf 04bb
000001d0: 4c3d a23d 86f5 b33d 394c 4fbc 82e2 1c3d
000001e0: d656 c43c f1d6 19bc 098e 1f3e e04c 383d
000001f0: 0471 a73d e03c 5d3d c062 12bd cbb4 943d
00000200: 8d48 7fba 47d2 92bd 1826 963d e432 9c3a
00000210: 0f08 18bb c103 99bd a8d9 a1bc ebd8 583d
00000220: d335 72bc d18e 3bbd 950a 363c 35ec 9d3d
00000230: 5ff4 083d f731 afbd 268f aabd e8a6 993c
00000240: 67fd 9dbc b92b 893d 4692 04bd 3482 18bd
00000250: 1d03 a7bd 3a53 823c 180c 8abd eb84 873c
00000260: 4f01 9cbc 5c5f 593b 85a1 2f3d 2177 fa3c
00000270: 5877 a83d 5fb2 143d 3b96 603d ca7e 823c
00000280: 4a10 87bd 787b a23d ba02 9abc 6721 27bd
00000290: 4857 8cbd 0892 443d 9762 5c3d a0ee 9f3d
000002a0: 476b 5bbd 9c17 0bbd 362b 433d e745 5fbd
000002b0: b1c8 a3bc 3bb0 733d 74d0 e93b 3e26 acbd
000002c0: 33a3 2abc c927 9fbd b8d7 e2bc 5e1a 3a3d
000002d0: e85c a3bd bfab 2dbd af6a 4ebd 951d a7bd
000002e0: 75c6 1fbb f3c4 9dbc 4075 ab3c 65ca 823d
000002f0: 5b0e 12bd 4541 c7bb 6718 74bd c66c babd
00000300: db5a e93a 3d93 a2bd a226 a8bd b4a7 1abc
00000310: b30c 623d 4be1 fcbb 2753 203d e1f7 25bc
00000320: de4a 9cbc 97a2 9cbc a688 913d a45c 72bc
00000330: 8df4 b2bd 5fbb 8d3c da93 ba3b efd5 8f3d
00000340: 4757 bdbc b16c 0c3d cb1e a13d 8be9 4abd
00000350: 936f 16bd 2fd3 11bd 66a3 51bc 49b9 633d
00000360: c2bb f0bc 6537 09bd 88d4 0abc 4793 0dbd
00000370: 0aa9 c4bb 1e08 12bc e429 063d e1d5 45bd
00000380: 57fc 7c3d 9ec8 9c3d f2e2 63bd 01df c33c
00000390: 754a 153c 70eb 54bd f0ea a7bd b163 bcbc
000003a0: fb34 2e3c 9450 98bd 9957 eb3c 38d6 04bd
000003b0: b1d0 823c a7cc 92bd eb7c 25bd 4dda 1f3d
000003c0: 2320 793d 86dd 6ebd 6d1a b7bd 4aed 343b
000003d0: 731e f7bc e27c 7e3d 1f59 0a3c cd06 883d
000003e0: fd6f 203c 8ec5 27bd 39e3 723c c30b 973c
000003f0: 58a1 bf3c 35f1 a23d fb90 973d 938e 48bc
0.04427145 -0.07556816 -0.06684077 -0.025445284 -0.087546915 -0.02500489 0.07952105 0.04852522
0.0076438966 -0.022661222 -0.07280197 0.08503348 -0.011155854 0.035553522 0.01703968 0.02450416
0.009981986 0.032842275 0.0012752158 -0.015488556 -0.077552885 -0.0714635 -0.07322157 -0.080400795
0.06667232 -0.06735748 -0.0853178 -0.0049826857 0.08156395 0.045015443 0.07354464 0.05536377
0.0115481345 -0.0009153419 -0.07359034 -0.034236625 0.024040123 -0.015062989 0.020099824 0.048499696
0.012436566 -0.08402496 0.069072455 -0.025282113 0.04245712 -0.00039977583 -0.049041815 -0.07160244
-0.06533184 -0.011039631 0.06007112 0.007877452 -0.048780706 -0.050130967 -0.02484372 -0.0106214555
0.031156454 0.007270449 -0.0063963523 0.0505548 -0.08486264 0.014339783 -0.04867534 0.008709853
-0.033422798 0.0500423 0.03323608 -0.042579923 0.02596132 -0.022948418 -0.06771023 0.110522725
0.037020825 -0.015013312 -0.03386805 0.0062476275 0.008562357 -0.051676303 0.022712018 0.049825177
-0.04692255 0.041401796 -0.0010877316 -0.09053317 0.0035012278 0.012525409 0.02505214 0.06815138
0.02668964 0.011622193 0.03090179 -0.041635633 0.061115667 0.051705554 0.07162006 0.07298966
0.09036535 -0.00087331445 0.093466006 0.0040891645 -0.0909688 -0.042235676 0.030921862 -0.03402931
0.018608177 -0.06688357 -0.061516248 -0.062148593 0.0066408017 0.16016154 0.087517895 0.013087356
0.080044925 -0.005660477 0.04698515 -0.0020265067 0.07921848 0.08787064 -0.01265245 0.038301952
0.023967188 -0.009389625 0.15581526 0.04499519 0.08175853 0.054013133 -0.035738707 0.07261046
-0.0009738289 -0.071690135 0.073314846 0.0011917022 -0.0023198163 -0.07471419 -0.019757107 0.052941244
-0.0147833405 -0.045790497 0.011110921 0.077110685 0.033436175 -0.08554452 -0.08328085 0.018756345
-0.01928587 0.066977926 -0.03236606 -0.037233546 -0.08154891 0.015908826 -0.06740588 0.016542872
-0.019043593 0.003316841 0.042878646 0.030574383 0.08225888 0.03630292 0.05483077 0.015929598
-0.06594904 0.07933706 -0.018800128 -0.04080334 -0.06852585 0.04799083 0.05380496 0.07809186
-0.053569105 -0.033958063 0.04764863 -0.054510023 -0.019993158 0.05949424 0.0071354453 -0.084057316
-0.010414886 -0.0777126 -0.027690753 0.045435302 -0.07976705 -0.042400118 -0.05039471 -0.08159939
-0.0024379764 -0.019258952 0.020929933 0.0638626 -0.03565822 -0.006080779 -0.059593584 -0.09102778
0.0017803566 -0.0793824 -0.082104936 -0.009439398 0.055187892 -0.0077172867 0.0391418 -0.0101299
-0.019078668 -0.019120498 0.07106142 -0.014792595 -0.087380506 0.01730126 0.005693895 0.070232265
-0.023112906 0.034283344 0.078672014 -0.04953913 -0.0367275 -0.03560179 -0.012795305 0.055596624
-0.029386405 -0.033500094 -0.008473523 -0.034564283 -0.0060015963 -0.008913068 0.032754794 -0.048299674
0.061764088 0.07655452 -0.055636354 0.023910047 0.00911199 -0.051982343 -0.08199108 -0.022996755
0.010632749 -0.07437244 0.028728293 -0.032430857 0.015968652 -0.071679406 -0.040402334 0.039026547
0.060821664 -0.05831673 -0.08940587 0.0027607256 -0.030165887 0.062130816 0.0084441 0.06641922
0.009792325 -0.040959887 0.014824682 0.018438226 0.023392364 0.07956163 0.074007 -0.012241024
