models/flappy_dqn.pth (torch, 143462 bytes, 6 tensors)

fc1.weight f4 [256, 7]
00000000: 1932 5d3e 1992 033e 8640 fdbc 11d9 e4bd
00000010: 607b c23d f051 b6be dc53 eb3e 8380 e7be
00000020: 9719 483e a598 143f 708e 0e3c d130 d13d
00000030: 51de 6f3e e64d 063e de54 f3be 6d02 adbd
00000040: 2f3d 053a 5c82 d43d 0f6f 76be 6bac e4bd
00000050: 873c d73e ebe4 aabe 83c9 7bbc 15b5 3c3e
00000060: e6a7 7c3d 8c75 8fbd 85e5 b5be aac4 d2be
00000070: b60c 26be df50 a03e 9d20 ddbe f100 3fbe
00000080: 6909 0a3e f947 9d3e 6151 813d fdd4 47be
00000090: d55a 993e c165 8a3e 828f 203e 0fdb 9fbe
000000a0: 5a87 a6be f827 5bbe 9449 383e e9d5 92be
000000b0: 17e1 e83e ccc5 dd3e 4e32 1fbe 0fd6 6abe
000000c0: b222 ae3e 0508 c5bc 0a52 833e f847 5ebd
000000d0: 54a2 a43e 7efe 9abe 1b81 08be 783f b43e
000000e0: 9697 00be e7a8 48be 229d 1b3f 2289 e53e
000000f0: b3f5 b43d ab2e d23e 0fce 433e 3a54 083f
00000100: c937 7dbb 984c 82be d24f 8dbe 3b24 103d
00000110: e3b0 f9bd 20a6 923e aca2 7bbe 3162 1f3e
00000120: f3fd 813e 34ed d7bc 9aa0 59be f65b 95be
00000130: af48 923e c346 623e 2c79 f7bd 9f6e 38be
00000140: 7461 f03e 0296 ed3e fb4f 8a3e c48c b33e
00000150: 58d5 663b a4c4 06be e847 143f e66f 1fbd
00000160: b289 863e 25f5 b93e 4f8d b93e 0b18 d03e
00000170: 8231 b9be 4340 ae3e 0abc f4bd 33d8 b7bd
00000180: ff49 9f3e c086 02bd 5874 eebd f50d 53bd
00000190: 628a 97be c24b e43d f28f 083e 6f50 853e
000001a0: 7fcf 65be 01ab b5be e390 dcbd e1a0 febd
000001b0: 5ab4 28bc 21c7 413e 9812 9d3e 0de7 d5bd
000001c0: d36e b93b 8236 ae3e cde5 3cbe ab8d 953e
000001d0: ebd3 2fbe b761 20be 2196 02be 2c2f 0cbf
000001e0: e58a a73e 966b 8b3e bf5f 163f 4586 c13e
000001f0: 9b34 263e b841 0cbe a359 81be 5524 afbe
00000200: ba95 ab3e 6365 29be 754b 06be 5b9a 99be
00000210: 70b6 163e 1dfb 973e d018 bdbd 74bd cf3c
00000220: 34a5 ec3e 3dfb 0a3e 08d4 d23d 2e5f a13d
00000230: c21f c7be 33d1 efbe b79b e83e 932c b23e
00000240: 55b8 ad3e 74aa 6dbe 4568 8b3c 74cd 3fbd
00000250: ef80 c8ba f375 143f 2ba4 f73e e74b 9f3e
00000260: 7f1d c03e b100 d73e 0a27 afbd d03b 823c
00000270: 0743 ac3e 0b7c a1bb 41f7 bb3e 4ec8 a2be
00000280: 0fad 4d3e d7a2 433e 2ee3 5f3e 3305 db3d
00000290: 0f7e b03d f1b4 da3e c688 7ebe 4721 103f
000002a0: b2d8 423e 02df 35be accd 8abe 164d a9be
000002b0: a26e 23be 4f19 fa3d 7c04 6abd 5695 783e
000002c0: 38c1 b13d 6df2 f93d ab8b e53e 2645 003f
000002d0: 3b39 923e a2f3 f83e 2638 1d3c 08d4 223f
000002e0: 0d02 793e 00da 51be c4d0 cf3e 34da e0bc
000002f0: 0b64 b53e 55c1 8b3e 09cb a6be 78da 46be
00000300: 4411 463e 8020 923e d92e bb3b 0972 e0bd
00000310: 31f4 953e edfc 9c3e d0fd 33be 9bc0 d3be
00000320: 016f 89be 0ee1 bbbe 0df5 c33d 8f09 81be
00000330: 948e b8be e63a f4bc c017 1d3e bff8 a23e
00000340: b485 f33d 7812 973e 4a86 0f3f 3561 5f3e
00000350: 10a2 9c3d 5a10 46be d6ed 08be 59a2 95be
00000360: f34e eb3d 1d91 eabe ee3c ecbd 1b27 f83e
00000370: edf8 213c b219 493e 7a62 aabd 4ae0 b53e
00000380: dca0 63bb 316e d0bd 4b4f a3be 4e79 0e3e
00000390: d483 873d 26b6 6c3e 7db5 e1bd 6128 d9bd
000003a0: 9742 5abd e15b 733e 4f5c b6be f620 8dbe
000003b0: 5444 263e dc45 81bd 6a51 5a3d b07c 033e
000003c0: 166f 033e d0b4 323e df3d 323b 0c67 8d3e
000003d0: f3ab 043e 0f3d 0ebd 20ae 043f aa08 c5bd
000003e0: 21d7 483e 0e47 f9bd 3988 833d 1a26 b1be
000003f0: d2fc 74be 22b3 e0bd 3a2a fc3d e76e b4be
0.21601142 0.128487 -0.030914556 -0.11174215 0.09496188 -0.35609388 0.45962417 -0.45215234
0.19541012 0.5804542 0.008700952 0.10214389 0.2342465 0.13115653 -0.47525686 -0.08447728
0.00050826644 0.103764266 -0.24065803 -0.111656986 0.42038366 -0.33377776 -0.015367868 0.18428452
0.061683558 -0.07004842 -0.35526672 -0.41165668 -0.16215786 0.313117 -0.43188944 -0.18652703
0.13480152 0.30718973 0.0631435 -0.19514842 0.29952112 0.27030757 0.15679744 -0.31221816
-0.3252514 -0.21401966 0.17996818 -0.28678825 0.4548423 0.4331497 -0.15546533 -0.2293322
0.34010845 -0.024051676 0.25648528 -0.054267853 0.32155097 -0.30272287 -0.133305 0.35204673
-0.12557825 -0.19595681 0.6078664 0.44831187 0.08835926 0.4105123 0.19121574 0.5325352
-0.0038637987 -0.2544906 -0.2759996 0.035190802 -0.121919416 0.28642368 -0.24573773 0.15564801
0.2538906 -0.026358224 -0.21252671 -0.29171723 0.28571078 0.22097306 -0.120836586 -0.18010949
0.4694935 0.4640351 0.27014145 0.35068333 0.0035222378 -0.1316095 0.5792222 -0.038925074
0.26276928 0.36319843 0.36240622 0.40643343 -0.36170584 0.34033403 -0.11949928 -0.089767836
0.31111142 -0.03186679 -0.116432846 -0.051526982 -0.29597765 0.11147262 0.13336161 0.26037928
-0.22442435 -0.35482028 -0.107698224 -0.12433029 -0.010296905 0.18923618 0.30678248 -0.1044446
0.005658963 0.3402596 -0.18447037 0.29209647 -0.17170684 -0.15662275 -0.12752582 -0.5475948
0.32723156 0.2723052 0.58739847 0.37797752 0.16231005 -0.13696945 -0.252637 -0.34207407
0.3351267 -0.16542582 -0.13114722 -0.30000576 0.14718032 0.29683772 -0.09233248 0.025358893
0.4621979 0.13572402 0.10294348 0.07879482 -0.38891417 -0.46839294 0.454313 0.34799632
0.33929697 -0.23209554 0.017017493 -0.046826795 -0.0015297214 0.57992476 0.48367438 0.31112596
0.37522504 0.41992715 -0.08552368 0.015897661 0.33644888 -0.004928117 0.36712077 -0.31793445
0.20085548 0.19105087 0.21864006 0.10694351 0.08617794 0.42716172 -0.24856862 0.5630078
0.19027975 -0.17760852 -0.2711004 -0.33066624 -0.15960172 0.122118585 -0.057133183 0.24275717
0.08679432 0.12204442 0.4483312 0.5010551 0.28559288 0.48623377 0.009595906 0.63604784
0.24317189 -0.20493317 0.40588963 -0.027447797 0.3542789 0.27295938 -0.3257678 -0.19419277
0.19342524 0.2854042 0.005712372 -0.109592505 0.29287866 0.30661717 -0.1757729 -0.41357884
-0.26842502 -0.3669514 0.09568224 -0.25202605 -0.36046278 -0.029813241 0.15341091 0.31830403
0.11890736 0.29506278 0.56064284 0.21814425 0.076480985 -0.19342175 -0.13371977 -0.29225424
0.11489668 -0.45813838 -0.11535059 0.48467335 0.009886009 0.19638708 -0.08319564 0.3552268
-0.003473333 -0.10177267 -0.31896433 0.13913462 0.06616941 0.23116359 -0.11020944 -0.10603405
-0.05328616 0.23765518 -0.356173 -0.2756421 0.16237003 -0.06312153 0.0533003 0.12840533
0.12835345 0.17451787 0.0027197523 0.2761768 0.12956218 -0.0347262 0.51828194 -0.09620793
0.19613315 -0.12171756 0.06422467 -0.34599382 -0.23924568 -0.10971667 0.123127416 -0.35240862

fc1.bias f4 [256]
00000000: 5250 b53e 49e3 d63e 6a3f 863e 7f7b 38be
00000010: 67d3 63be 3b19 5fbe c565 8d3e f70e adbe
00000020: 70d3 a53d 82e5 91bb 6b26 873e c39d a73e
00000030: b51a cd3c d09f a5be 81b4 73be 86af c13e
00000040: 6878 74be 306b 0a3f 172c b0be b70a 023f
00000050: 4bc6 d33e b1c1 88bd f3ae bf3e 73a6 323d
00000060: a3a6 523e 80cc 8e3e c54e 24be dcf2 67bd
00000070: 3329 143e 3a25 893e a416 303e c0bf 5d3e
00000080: df05 0bbe 1f8c 9abc 1e92 043f 633a 603c
00000090: cb72 24be 007c 55bd 6f3f 62be 9ca4 adbe
000000a0: c5b4 e03e f34c 0cbd 29a4 523e 3d8d f33e
000000b0: 92d9 07be ac5b 153e dc13 a33e 67a4 28bd
000000c0: c70d f33e 916f 463e 94d0 60bd fdc8 6b3e
000000d0: ccb1 f23e 9dbb 0d3e 58fb ca3d 889e 9ebd
000000e0: 9e7c cb3e 456e e13e bf19 103f a84c b93e
000000f0: 70b2 ae3d 5c7c 0f3f 4ed4 013f aa80 0a3e
00000100: 7152 f8ba fe76 f33e a720 913e 44da b33e
00000110: 6507 f5bc 45b6 7cbe 9f6e 29be ca20 bd3d
00000120: 1778 cb3c 77d1 52be 1fdb 063e abec 733e
00000130: 44a6 09be 0bd1 ae3e 356f 92be 0462 163d
00000140: a285 b43e 5fb7 61be a028 b73d 7c86 49be
00000150: aa19 bf3e bef5 063e 7f9a 6bbe ec87 8d3e
00000160: ff07 f43e ed92 9d3b 653f 9dbd b354 423e
00000170: 89ed 983e 4cc8 a7be 3780 8e3e 5aa3 293e
00000180: 19b0 f13e 78c4 103e 8805 37be fd89 85be
00000190: dfad 8d3e 00fa f03e 9800 e03e 35c2 6fbe
000001a0: a40a 4ebd e7c8 673c 8ad1 123e 96f5 063f
000001b0: fc5b e3bd 25da 9abe 5e74 303e 5b60 64be
000001c0: ba3f 33bd 8aa4 463d 1e37 053f f100 fc3e
000001d0: d9d5 273e 68b2 14bd fe04 3ebd 9a3d afbb
000001e0: 5c88 613e 94d4 86be 8ca1 a23b b8a2 b33e
000001f0: dc19 50be 111d 083c c7f4 22be 8469 f63e
00000200: 81c8 ef3e c305 35bc 6809 ef3e b69e 9c3e
00000210: 76b1 bbbd d2b0 aebe 80bf da3d 19f0 b33d
00000220: 71db e23e e574 91be 4ec3 4d3d 5615 cf3e
00000230: 5388 b63e cd25 bebd 639c 39bb 8f89 e33e
00000240: c743 8dbe 340e c73e 262f 373e 840e 3abc
00000250: b562 0f3e 117a 293e a59c 85be db50 0fbe
00000260: 075b 173c 5640 bebd 6b16 a23e ebe0 96be
00000270: f71d e23e 151b 07be 5f47 21be 54e4 4abe
00000280: 5924 2b3d 1151 b5bd 73f8 a53e d8c5 9c3d
00000290: d23d 023f 609d 3abe 7a0b d83e 9a0c a03d
000002a0: 3476 3abe 575e d93e 025f 1dbe b9ec c03e
000002b0: c16e b5be 9581 df3d 5bc7 dabd a9cf cfbd
000002c0: e991 b53d 36cd b2bc 21b0 acbe 6f12 7cbe
000002d0: e3b6 f33e 5c1c 18bd cfc6 783e b433 b53e
000002e0: bdd3 7e3e 64e3 fc3d 7986 99be eb18 28be
000002f0: aa08 953e 0d14 5d3e 0667 403e 8c22 ff3e
00000300: a13f 223e 705f 243d 0256 a2bd b3af a43e
00000310: 117b 8c3e 15a7 6d3d 66ed 3a3d bacc 123e
00000320: 52ef 82be 23f8 da3e e974 5fbe 4d04 823e
00000330: 6bb1 9d3e 6aec 52be 8daf 1fbe ca03 203c
00000340: c5d3 a33d 0cab 8d3e 6f52 c9bd 3c6b 873e
00000350: 072b 7e3e 4f0e a83e 9cce 813e 9df1 8e3e
00000360: b567 723e 545f f4bd 286e 8abe 4be8 0a3f
00000370: e787 9e3c 30fd cd3d 2e99 a9be 8de7 eb3e
00000380: c124 f6bc 581d 073f 1f48 213e 426a fdbd
00000390: 05bd d3bd a474 973c c84b 7b3e 19ce e1bd
000003a0: b708 df3e 9b7b 93bd bb51 053c 71f6 fe3c
000003b0: afb8 12be 55dc 523e 7da7 51bd 15b6 cd3e
000003c0: 1974 5b3e c557 a53e a7fe 053f 2b38 593e
000003d0: b27c 073e d2b7 28bd 768c 5bbe d7e1 923e
000003e0: c712 c13e edba c03d 6882 25be 82c1 983e
000003f0: 9183 d63d 9c71 313e 7950 cdbd 13d4 f73e
0.35412842 0.4197028 0.26220256 -0.1801586 -0.22248612 -0.21786968 0.27616706 -0.3380048
0.08096969 -0.0044524083 0.26396498 0.3273755 0.025037149 -0.3234849 -0.23799326 0.37829226
-0.23874056 0.54069805 -0.34408638 0.507976 0.41362223 -0.06677569 0.37438163 0.04361577
0.2057138 0.27890396 -0.16045673 -0.056628093 0.14468841 0.26786214 0.17196137 0.21655178
-0.13576458 -0.018865643 0.5178546 0.0136857955 -0.16059415 -0.05212021 -0.2209451 -0.3391465
0.43887916 -0.034253072 0.20570435 0.47568694 -0.1326659 0.14585751 0.3185109 -0.04117241
0.4747145 0.19378497 -0.054886416 0.2302589 0.47401273 0.138411 0.09911221 -0.07745081
0.39743513 0.4402944 0.56289285 0.36191297 0.08530128 0.5604913 0.50714576 0.13525644
-0.0018945468 0.4755172 0.28345224 0.3512746 -0.029910753 -0.24678905 -0.16546105 0.0923477
0.024837537 -0.20587717 0.13169526 0.2382075 -0.13442332 0.34143862 -0.2860047 0.03671457
0.35258204 -0.22042607 0.089432955 -0.19680208 0.37324268 0.1317968 -0.23008154 0.27642763
0.4766235 0.0048087747 -0.07678107 0.18977623 0.29868725 -0.32770002 0.27832195 0.1656622
0.47204664 0.14137447 -0.17873204 -0.2608184 0.27671716 0.47065735 0.43750453 -0.23413928
-0.050303116 0.01414702 0.14337745 0.52718484 -0.11101529 -0.30244556 0.1723189 -0.22302382
-0.043761946 0.04849676 0.5203723 0.49219468 0.1639017 -0.036302954 -0.04639148 -0.0053479197
0.22024673 -0.2633406 0.0049631055 0.35085082 -0.20322365 0.008307711 -0.15913688 0.48127377
0.4683266 -0.011048737 0.46686864 0.30589837 -0.09164707 -0.34119278 0.10681057 0.08786029
0.44308046 -0.28409496 0.050235085 0.40445966 0.35650882 -0.09284554 -0.0028321974 0.44440886
-0.27590773 0.38878024 0.1788908 -0.011356 0.14002497 0.16550471 -0.26096073 -0.13995688
0.009238011 -0.09289615 0.3165773 -0.29468474 0.44163486 -0.13193925 -0.15749882 -0.19813663
0.04178271 -0.08853353 0.32416114 0.07654923 0.5087558 -0.18224096 0.42196256 0.078149036
-0.18209153 0.42454788 -0.15368274 0.37680605 -0.3543606 0.10913388 -0.10682555 -0.1014703
0.08865721 -0.021826368 -0.33728126 -0.24616407 0.4760047 -0.03713642 0.2429459 0.3539101
0.24885459 0.12348059 -0.29985407 -0.16415755 0.29108173 0.2158968 0.187893 0.49831045
0.15844585 0.04013008 -0.07926561 0.32165298 0.27437642 0.05802067 0.045636557 0.1433591
-0.25573212 0.42767438 -0.21821941 0.25393906 0.30799422 -0.20597997 -0.15594311 0.009766528
0.07999376 0.2766956 -0.09830176 0.26449 0.24821101 0.32823417 0.25352943 0.2791871
0.23672374 -0.11932245 -0.27037168 0.542607 0.019351913 0.10058057 -0.3312468 0.46075097
-0.030046823 0.5277915 0.15750168 -0.12373783 -0.10338787 0.018488236 0.24540627 -0.11025638
0.43561336 -0.0720131 0.008137162 0.031123372 -0.14328264 0.20591862 -0.05118512 0.4017798
0.21431006 0.32293525 0.52341694 0.21212833 0.13231161 -0.04119093 -0.214403 0.28687927
0.37709638 0.09410653 -0.16163027 0.29835135 0.10474313 0.17328495 -0.100251146 0.48403987

fc2.weight f4 [128, 256]
00000000: b727 4c3c 2515 e93c f1ea 17bd 7618 27bd
00000010: 4c68 4bbd 9073 f03c 3abb 2abd 94f1 0fbd
00000020: 1dc6 333d b1cd 13bd a21c 2ebd c253 e9b9
00000030: 7621 2fbd 4efd 023c 548d 213c 3bff 82bd
00000040: e048 663d 32d2 553d 6488 82bc e414 0fbd
00000050: 5ea9 5dbd e138 fd38 2763 b8bc c1e3 94bd
00000060: 4ac7 0dbc 4c54 8fbd 4155 dfba db7b 3f3d
00000070: d3da 253d 9562 1f3b b960 05bd 2f5e 21bb
00000080: be69 8e3a 2ea8 69bd 81c2 debc 5b0a b63d
00000090: 3723 923a 1cff 863d 0ce0 63bd 0323 993d
000000a0: 4b35 593c d568 e43a dcd6 03bd 88c9 c33c
000000b0: ceb3 48bd 06b7 57bd 72da 333d 04a2 323d
000000c0: 6353 4c3c b3b9 30bc 7a10 c33c 0562 cbbc
000000d0: 100b 7ebd 8608 cb3a 6cfd 1dbc 5b58 b2bc
000000e0: 6b12 0fbd 54ba cc3c 6aba 1c3d 700e 053d
000000f0: f8ea 333d 9ed7 30bd 6907 ba3c 258a 91bd
00000100: ebfb 283d e290 56bd 0553 2ebc aa72 493d
00000110: f84c b7bb a03a eabb 6788 883c 916f 8bbd
00000120: 00c4 c5bc 833a 6cbc 74b2 813b bdd3 2f3d
00000130: 8c6e b03c 1e12 5bbd 70e7 553d 8e05 713c
00000140: 751c 23bc 7e32 11bd 334e 24bd 86a2 5cbd
00000150: ada2 e1bc 88f1 97bd dc4a 2cbd 2a41 5ebc
00000160: 2348 73bd 6513 583c 24f1 6ebb 439b 973b
00000170: d9d0 2c3d 880a 27bd 1e6f 40bd ad7f 93bc
00000180: 7dbd b43c 9bfa 0a3d 8996 4abd 7553 1abd
00000190: d468 5bbd dd9a 90bd f549 333d a4e2 853c
000001a0: 3979 6ebd 9459 8bbd 0c05 a43c 7c56 79bd
000001b0: 0cbf ccbc 32f9 db3c 61c6 cb3b 2b82 6bbb
000001c0: f0f3 f33c 91b5 29bd 063b e1b8 ebcb 89bd
000001d0: c250 d83b 3923 a03d dffb c8bc 8969 173d
000001e0: ba31 dbbc 4468 eb3c 6332 8dbd 8d17 59bd
000001f0: a2f2 2bbd 62c3 b73c 6067 a8bc e5f6 003d
00000200: c27b fb3c f9af 01bd 5c47 8abb 7f04 58bd
00000210: 1920 d9bc e6ea 0e3d 3dcf 3c3d d6e7 b1bc
00000220: a540 2fbc 5844 6dbd dfc6 09bd 294c 2dbd
00000230: 6a16 eabc 54c1 bcbc 2754 eebc 83dd 7c3c
00000240: 6397 1d3c c734 95bc 4a8d d13c 8cfb ac3c
00000250: f8f7 37bc 198f abbc 5170 69bd 3065 343d
00000260: bbdd 533d 77f2 69bd 21de 91bd 34a0 cdbc
00000270: df1a 173d 220f 8fbd 5c3d 873d 2e47 c7bc
00000280: 0445 313d a674 d73a 0ef7 8dbd 81f3 8ebd
00000290: 4d18 12bd 4aae 123d 7728 61bd ff80 a43c
000002a0: 7fd6 7e39 d5b6 85bd 1088 033c 5220 86bd
000002b0: 6a61 7ebd 22d7 bb3c 6a51 1fbd 0934 21bd
000002c0: a186 4a3d bcfc 123d 3620 2e3d 301b 823d
000002d0: 0438 9b3c 96a3 6ebd 52e5 82bd 7eef 2e3d
000002e0: 0350 3c3c 031a 58bd 437e 983c 4ad9 1a3d
000002f0: 38e4 3e3c e455 453d cac2 01bd f9d1 553c
00000300: a7b3 143a b5a2 9dbd a93f 803c 1148 02bd
00000310: f33f 49bd 93cf 15bd 3c3a d73c 7f6c d33c
00000320: e1e1 73bd f430 91bd 5f2a 503d 2eac 6d3c
00000330: f177 e13b 68f5 c43a e04b 8f3b 74a2 30bd
00000340: 5f28 a2bc b400 e6bc 2eac 17bd 1252 803c
00000350: 9a12 89bd 0f0e 0e3c b902 1fbd 7143 ed3c
00000360: b0c9 843b 0033 4a3d 0482 84bd a4df 28bb
00000370: 08cc eabc 108f 82bd d48a 1d3d d79a 543c
00000380: 1cbc 4dbd 51f8 74bd e494 813c b56f 2a3d
00000390: 70e1 07bd 0deb 2fbd d687 2a3d e59e 1abd
000003a0: 2579 00bd c62e a63b 3683 5b3d c7f4 9e3d
000003b0: 7b87 2dbd 2f34 cb3c 6eb2 9f3d e215 55bd
000003c0: 4fcd ad3c 55ff af3c fb66 27bd 319c 2d3c
000003d0: 6645 dd3a c261 f83c 8817 1ebc 6c32 86bd
000003e0: 21d6 183c d7c9 42bd bf8c fcbc 1f47 49bd
000003f0: 0ef9 9f3c bfee 29bc 1761 e7bc 4cad cabc
0.012460641 0.028452465 -0.037089292 -0.040794812 -0.049660012 0.02935198 -0.04168246 -0.035142496
0.043890107 -0.036084834 -0.042507775 -0.00044503628 -0.04275652 0.007994963 0.009860355 -0.063963376
0.056221843 0.05220241 -0.015934177 -0.034932032 -0.0541166 0.000120745746 -0.022508217 -0.07270003
-0.008653471 -0.069985 -0.0017038957 0.046748977 0.04049189 0.0024320234 -0.032562945 -0.0024622788
0.0010865254 -0.057045154 -0.027192356 0.08888694 0.0011149411 0.06591627 -0.05563359 0.07477381
0.013257335 0.0017426262 -0.032187328 0.023899809 -0.0489996 -0.05266478 0.043909498 0.04361154
0.012471053 -0.010786462 0.023811568 -0.024827013 -0.06202227 0.0015490211 -0.00964294 -0.021770647
-0.034929674 0.024991192 0.038263716 0.03248447 0.043925256 -0.04317438 0.022708612 -0.07106427
0.041255873 -0.052384265 -0.010639911 0.049181618 -0.005593892 -0.007148102 0.016666604 -0.06808389
-0.024141312 -0.014418247 0.003958041 0.04292654 0.021537088 -0.053484075 0.05222267 0.014710797
-0.009955515 -0.035448544 -0.04011364 -0.053865932 -0.02754339 -0.07419115 -0.04206358 -0.013565341
-0.059394967 0.013188218 -0.003645965 0.004626663 0.04219136 -0.040781528 -0.04698097 -0.018005216
0.022063011 0.033930402 -0.049459968 -0.037677247 -0.05356677 -0.07060788 0.043771703 0.016343422
-0.058221076 -0.06804195 0.020021938 -0.060873494 -0.024993442 0.026852224 0.006218717 -0.003593574
0.029779404 -0.04143292 -0.0001073983 -0.067283474 0.006601424 0.07819218 -0.024534164 0.03696588
-0.02675711 0.028736241 -0.06894376 -0.053000975 -0.04197944 0.022432033 -0.020557106 0.031485457
0.03069866 -0.03166196 -0.0042199325 -0.052738663 -0.026504563 0.034891985 0.046096075 -0.021716993
-0.010696565 -0.057926506 -0.033636924 -0.04230896 -0.028575141 -0.023041405 -0.029092861 0.015433672
0.009618613 -0.018213643 0.025580067 0.02111604 -0.011228554 -0.020942258 -0.05699188 0.044041812
0.05172513 -0.057115998 -0.07122446 -0.025100805 0.03689086 -0.06985308 0.066035 -0.024325933
0.04327871 0.0016437962 -0.069318876 -0.069800384 -0.035667706 0.035810746 -0.05497023 0.020081041
0.00024303234 -0.06529013 0.008028045 -0.06549133 -0.06210462 0.022929732 -0.038896002 -0.039356265
0.0494448 0.035885558 0.042511187 0.06352842 0.018947609 -0.058261476 -0.06391396 0.042708866
0.011493686 -0.05275918 0.018614894 0.03780488 0.011651091 0.048177615 -0.031679906 0.01305055
0.0005672522 -0.076970495 0.015655356 -0.03180701 -0.049133252 -0.03657491 0.026272886 0.02580857
-0.059541587 -0.07089415 0.05082166 0.014506383 0.006880753 0.001502675 0.0043730587 -0.043123677
-0.019794641 -0.028076507 -0.037029438 0.015664134 -0.06693001 0.008670344 -0.038820956 0.028962823
0.0040523633 0.049365044 -0.06470111 -0.0025768066 -0.028661743 -0.06374943 0.038462475 0.01297637
-0.050228223 -0.059807125 0.015818067 0.04161044 -0.03317398 -0.04294877 0.04163345 -0.03774919
-0.031365532 0.005071494 0.05359193 0.07761531 -0.042365532 0.024805157 0.07797705 -0.052022822
0.021216063 0.021484056 -0.040869694 0.010596321 0.0016881644 0.030320052 -0.009649165 -0.06552586
0.009328396 -0.04755577 -0.030828832 -0.049140092 0.019527938 -0.010371863 -0.028244538 -0.024740838

fc2.bias f4 [128]
00000000: 962d b7ba c597 613e 14b2 c43b 22e9 9bbd
00000010: c1ed aabd a944 173c b57f aebc 18da a6bd
00000020: 44ca 503e 19e3 00bd 0513 f43c 4b33 123e
00000030: 3551 393e 35f8 8bbc 26e8 c93d 7ada e53b
00000040: 1dd4 cc3a 2c51 3d3e 939d a03c a433 3d3c
00000050: c744 603e ab52 79bc 0dd3 2f3e 3a87 353d
00000060: dc6b 6cbd c080 cabc 8c47 bebc 8aff 74bd
00000070: be9e b3bb 1048 533e 65fc b2bc 8c44 273d
00000080: 2281 ec3b 291b d63a c2e0 0e3d 5e51 6fbd
00000090: 51c8 90bd 5767 293d 814f e93c d41c d0bc
000000a0: a651 7a3b 78d9 51bc 6323 1dbc 5847 86bb
000000b0: f5a4 adbd 33d1 4bba dd66 573e 4a4d f43d
000000c0: 228b 83bc e859 78bd fb40 e1bc d04a 0f3e
000000d0: d5de 66bd 7b71 f0ba a1e1 923d dae6 413c
000000e0: 0923 41bd 588f 5ebd e6a0 0ebd 4ac1 313e
000000f0: c89b 683e a13a 91bc c282 3d3e d27c 8dbd
00000100: b228 81bd c0cc 003e ed17 f33b 3d9c 61bd
00000110: d134 36bd b7dc 11bb 8ff3 223d a38d 36bd
00000120: 004c cebc 2331 5bbd ba6e ffbc 135c d53d
00000130: 9dda 223e 7bd7 3ebd 9f2a 223e 2a2b 6c3d
00000140: bdd9 4cbd 920f fc3d af45 19bd 1c22 4f3e
00000150: 8016 7bbc e716 d23c dc96 34bd 90f0 cd3b
00000160: 7eae 2d3d 7cdc b7bd 03ac ff3a ec4a 403e
00000170: c6a6 563b 1c47 3f3e a064 43bd 76b0 c8bb
00000180: 5354 1cbd 52e3 84bc 5735 583e fc63 373e
00000190: cf2c 23bd 20e6 193d 6f85 0cbd c714 623e
000001a0: 06b3 a7bd 6bda 48bd 9ec6 e7bc 0976 f8bc
000001b0: d5bd ddbc da0b 50bd a78e 463e 408d 123c
000001c0: b23b 183e 6fca 7bbd 7494 2cbd 2018 363e
000001d0: 4709 88bd 1675 153e 1643 a6bd 5e57 b7bc
000001e0: 791d 75bb 73ea e33b edf5 173d 6b38 033e
000001f0: 8ad8 ba3c 31ae 2c3e 6353 4d3e df44 80bd
-0.0013975378 0.22030552 0.006002674 -0.07612826 -0.08346129 0.009232678 -0.02130113 -0.08147067
0.20389658 -0.031466577 0.029794225 0.14277379 0.18097384 -0.017086128 0.09858732 0.00701457
0.001562718 0.18487996 0.019606387 0.011547957 0.21901236 -0.0152174635 0.17170353 0.044318415
-0.05772005 -0.024719596 -0.023227476 -0.059814014 -0.00548157 0.20632958 -0.021848867 0.040836856
0.0072175423 0.0016334999 0.034882315 -0.058427207 -0.07069457 0.04135832 0.028480293 -0.025404371
0.003819564 -0.012808196 -0.009590956 -0.0040978603 -0.08478729 -0.00077750086 0.21035333 0.11928804
-0.016057555 -0.060632616 -0.027496805 0.13993382 -0.056364853 -0.0018344367 0.071719415 0.011834824
-0.047152553 -0.054335922 -0.034821413 0.1735889 0.22715676 -0.017728152 0.18506911 -0.06908573
-0.0630659 0.12578106 0.0074186237 -0.05508064 -0.044483963 -0.00222568 0.039783057 -0.04456867
-0.025182724 -0.053513657 -0.031180728 0.104179524 0.15903707 -0.046592217 0.15836571 0.057658352
-0.05001234 0.12307657 -0.03741997 0.20227855 -0.015325189 0.025645686 -0.044089183 0.006284781
0.042402737 -0.08977601 0.001950622 0.1877858 0.0032753213 0.1867947 -0.047703385 -0.0061245514
-0.038166355 -0.016221676 0.21114098 0.17909235 -0.039837655 0.03757298 -0.03430694 0.22078238
-0.08188443 -0.049036425 -0.02829295 -0.030329721 -0.027068058 -0.050792553 0.19390355 0.008944809
0.14866522 -0.061472353 -0.042133763 0.1778264 -0.066423945 0.14595446 -0.081182644 -0.022380527
-0.00374016 0.0069554388 0.037099767 0.1281449 0.022808332 0.16863324 0.20051341 -0.06263136

fc3.weight f4 [2, 128]
00000000: 5f34 f63c 1ca0 40be 8af2 6a3e 9daa 0a3e
00000010: f916 0d3e 01a7 1dbd c1fa 5f3e c500 ef3d
00000020: 8a5a 16be ce99 eb3d d0ee 9fb9 99c5 72be
00000030: 4a01 57be a578 a2bc ee12 23be 2bc8 d93c
00000040: cd9e b2bc 6ddd 2dbe bf18 383e 76cb 013e
00000050: bfa9 17be dca1 c23d 8fe5 1abe 6cbb 783d
00000060: 5062 fc3c 2474 d83d 8482 1dbc e6fe 383e
00000070: 81c0 303d 6c20 f6bd e408 fe3c d38d 4d3c
00000080: 55f2 513e 9dd3 5b3d f484 1cbd 18f5 65bd
00000090: 3ce2 a9bc 1080 313c bd80 5dbd 79de a83d
000000a0: ddfb 3e3e 70fc 463d 3be8 aa3b f817 383d
000000b0: dd0c 313e 548b 903c df32 41be d7e0 27be
000000c0: eb8b 8fbd 75a2 a63d e3cd 193d 866f 1cbe
000000d0: 94c1 3e3e abe3 063d 4a3f b33d cd0f 393d
000000e0: 13c9 5a3e ab07 8fbc dffd c03d 3a21 1cbe
000000f0: f645 29be 09c9 443e 92c0 57be f275 2f3e
00000100: ee3e 983b 3ba9 5abe 9465 1d3e 3487 2c3e
00000110: ceae e1ba 00eb dd3d 5265 49bd 1234 e53b
00000120: 573e 013e c3e3 b63b 67b7 0b3e 619c 2ebe
00000130: 512f 4dbe e2ae d23b 6c91 14be c350 01be
00000140: cf7d d5bc 0b68 45be 1144 25bd 5fdb 2dbe
00000150: a646 793d a4a2 c63c 2f00 723d 1407 9b3d
00000160: c0ca 823d 31b0 fa3d 2c92 253e 5563 3abe
00000170: a72b 323d 8941 13be 133f 393e 31ae a0bd
00000180: 206b 35bc 3d73 9a3d c622 4bbe c72c 22be
00000190: 7e82 853d a0dc b4bd e7cd 463e 4dda 13be
000001a0: 6672 623d cf61 763d 3cd9 bc3b c1ca 083e
000001b0: 22cf 4f3e 7c5c 273c ceb8 34be 8350 f6bb
000001c0: 72fd 45be 92a3 86bd 0794 1c3d ef3b 3abe
000001d0: 7084 213d 7edf 1cbe f415 193e 5b98 8cbd
000001e0: cf15 7ebd d0e4 373d 3c44 f63b 03df 52be
000001f0: ed34 9b3d 414f 50be 7fad 3fbe 9c8e 1b3e
00000200: 69aa 34bd 364c 3bbe 0c41 393e b09d 163e
00000210: 7c61 173e 6ba3 683c 6c71 ab3d d7bc e83d
00000220: 4467 3dbe 9cfa 2f3e 63ab 3fbd 3a99 cf3d
00000230: 0996 03be 101f 8abd be9f 69bc 9e69 96bc
00000240: 4689 3a3d c970 67be 6478 ce3d cc54 273e
00000250: 8e8b 4bbe 26fc edbd 0e25 34be ba85 24bc
00000260: be9c af3d 27f3 febd a9f6 bcbc 1445 3b3e
00000270: 214c 9ebd c135 56be a154 7bbd 711d b13d
00000280: e5e7 553e 310e 96bd 4be4 55bd 2030 143d
00000290: 255d 5bbb bd3c 86bd 6484 ce3c 3901 6d3c
000002a0: a05a f03d a857 46bc f8ea b8bc 242a ba3d
000002b0: 44fe 333e dd18 483d 5232 6fbe 26b1 e5bd
000002c0: 31ae 933c d9ee 85bd 354d 3c3e cd6a 06be
000002d0: fa04 3c3e b94b 1abd 35b2 40be da74 053e
000002e0: 79f7 dc3d e132 66bc d94d d7bd aa57 38be
000002f0: 2755 59be 82a5 493e 886a 19be e17f ec3d
00000300: 5734 7a3d 765d 86bd a2f5 403e d256 413e
00000310: 326f d3bc 26eb 3e3e 0dcc 21bd 3033 813b
00000320: a790 ae3d 0c66 a2bd 4344 0b3e 61e3 cd3d
00000330: bb1f 27be b851 14bd 52b6 5cbe 8f0a 0dbe
00000340: 6774 d83c cc4a 03be 91c4 44bc cdeb 61be
00000350: 6a06 3abd 54d2 2abd 0ac1 5d3d 5654 d0bc
00000360: 208f 233e b657 8f3d bc4e b43d 07fd 0dbe
00000370: eda7 2cbe 054c 61be 6b1d e53d 9b7a 6abd
00000380: 0f2d 3c3c 9b56 733d e29f 1bbe c5ff 44be
00000390: 671c 9a3c e443 ae3c b9d4 023e 24c4 69be
000003a0: ecb4 dc3d dcd6 91bd 0858 93bd 5257 0f3e
000003b0: a878 913d 1ec0 c2bc c9ed 5ebe 62c2 b23d
000003c0: e47a 30be ca14 293d ba47 123a 12eb 34be
000003d0: b0e1 21bd f5d3 f8bd d300 5f3d 520f 0e3d
000003e0: 1721 d53c 494d 8cbd 907d 893b 88c9 1bbe
000003f0: 7b0b 9d3d 08f1 1abe 44f3 12be 242c da3d
0.03005427 -0.18811077 0.22944084 0.13541646 0.13778295 -0.038489345 0.21872999 0.11670069
-0.14682975 0.11503945 -0.00030504772 -0.2370819 -0.20996585 -0.019832918 -0.1592519 0.026584705
-0.021804238 -0.16978998 0.1797819 0.1267527 -0.14810847 0.095035285 -0.15126632 0.060725614
0.030808598 0.10569027 -0.009613637 0.18065986 0.043152336 -0.12017903 0.031010099 0.012546021
0.20502599 0.053668607 -0.03821273 -0.056141943 -0.02073776 0.010833755 -0.054077853 0.08245558
0.18650766 0.048580587 0.0052156723 0.044944733 0.17290063 0.017644562 -0.18867062 -0.16394363
-0.07009109 0.08136455 0.037549865 -0.15276918 0.18628532 0.032931965 0.08752306 0.045181084
0.21365766 -0.017459711 0.09423422 -0.1524705 -0.16530594 0.19217314 -0.21069553 0.17134836
0.0046461737 -0.21353619 0.1537078 0.16848451 -0.0017218234 0.10835838 -0.049168892 0.0069947327
0.12621437 0.0055813505 0.13644181 -0.17051841 -0.20037581 0.006429539 -0.14508599 -0.12628464
-0.026060967 -0.1927797 -0.040348116 -0.16978215 0.06085839 0.024247475 0.059082206 0.075697094
0.06386328 0.12240637 0.16169041 -0.18201955 0.04349866 -0.14380468 0.18090467 -0.078457244
-0.011072904 0.07541511 -0.19837484 -0.15837394 0.0651903 -0.088311434 0.19414483 -0.14438744
0.05528488 0.06015187 0.005763201 0.13358594 0.20293859 0.010214921 -0.17648622 -0.007516922
-0.19334963 -0.06574167 0.038227107 -0.18186925 0.039432943 -0.1531963 0.1494978 -0.06864997
-0.062032517 0.044895947 0.0075154584 -0.20592885 0.07578454 -0.20342733 -0.18718527 0.1519112
-0.04410783 -0.18290791 0.1809122 0.1470859 0.14783281 0.014199118 0.08371243 0.11364143
-0.18496424 0.17185444 -0.046794306 0.101366475 -0.12850203 -0.06744206 -0.014259277 -0.01836091
0.04554107 -0.22601618 0.100815564 0.16340941 -0.19877455 -0.11620359 -0.1759226 -0.0100416485
0.08574818 -0.124487214 -0.023066835 0.1828807 -0.07729364 -0.20918943 -0.061360005 0.08648194
0.20889242 -0.073269255 -0.05221967 0.036178708 -0.0033472267 -0.06554554 0.025209613 0.014465624
0.11736035 -0.01210586 -0.02257298 0.09090069 0.17577463 0.048851836 -0.2335904 -0.11215429
0.018027397 -0.06539697 0.18388827 -0.13126679 0.18361273 -0.03766987 -0.1881798 0.13032857
0.10789389 -0.014050216 -0.10512895 -0.18002191 -0.2122389 0.19692042 -0.14982045 0.115478285
0.06108507 -0.06560795 0.18843701 0.18880776 -0.025809858 0.1864439 -0.03950124 0.0039428696
0.08523684 -0.0792962 0.13600259 0.10053135 -0.16320698 -0.036210746 -0.21553925 -0.13773559
0.026422692 -0.12821501 -0.012009756 -0.22062607 -0.045416273 -0.04170449 0.054139175 -0.02543084
0.15972567 0.069991514 0.0880408 -0.13866054 -0.16860934 -0.22001655 0.11187252 -0.057245832
0.011485352 0.059408765 -0.15197709 -0.19238193 0.018812371 0.021272607 0.1277646 -0.22828728
0.107766956 -0.07121059 -0.07194525 0.13998154 0.071030915 -0.02377325 -0.21770395 0.08728482
-0.17234379 0.04127959 0.0005580146 -0.17667797 -0.039521873 -0.121498026 0.054444145 0.03468258
0.026016755 -0.068506785 0.0041958764 -0.15213597 0.07668205 -0.15131009 -0.14350611 0.106529504

fc3.bias f4 [2]
00000000: cfcf d8bd 0aba eabd
-0.10586511 -0.114612654
