models/flappy_dqn.pth (torch, 39270 bytes, 6 tensors)

fc1.weight f4 [128, 5]
0	0x3f2c91bd	0.6740988
1	0x40568efe	3.3524776
2	0x3f755680	0.95835114
3	0xbff8c9f7	-1.9436635
4	0xbf9e6217	-1.2373685
5	0x3ebf5f9f	0.3737764
6	0xbf8afe52	-1.0858862
7	0x3f9e358b	1.236009
8	0x401e9dfc	2.4783926
9	0xbfad451b	-1.3536714
10	0xbfb64dcd	-1.4242493
11	0x3daa5755	0.083174385
12	0xc082b7c0	-4.0849304
13	0x40a1fe15	5.062266
14	0xbf67fb6b	-0.9061801
15	0xbf112adf	-0.5670604
16	0x3f8e2416	1.1104763
17	0xc09d1d6f	-4.909843
18	0x4031f773	2.780728
19	0xbe69149a	-0.22761765
20	0xbf8f0b44	-1.1175313
21	0x3f81d478	1.0142965
22	0x3f425811	0.7591563
23	0xc1151281	-9.317018
24	0xbf92bc6b	-1.1463751
25	0x3f393701	0.72349554
26	0xbf3d2fef	-0.73901266
27	0xbf00a6d4	-0.5025456
28	0x40504b2e	3.2545886
29	0xbfe0fcc5	-1.7577139
30	0x3e040a55	0.12894566
31	0xbe060aac	-0.13090008
32	0xbdefec5f	-0.11715006
33	0xbce83a3a	-0.028348077
34	0x3e4fd7f7	0.20297228
35	0xbe20fc14	-0.1572116
36	0x3cbc9988	0.023022428
37	0x3ed91557	0.42399094
38	0xbbb28f04	-0.0054491777
39	0x3e94de82	0.2907601
40	0x3eece099	0.46265104
41	0xbf71bf9d	-0.94433004
42	0xbf0388eb	-0.51380795
43	0x405e34b3	3.4719665
44	0xbfdf9394	-1.7466912
45	0xbe619ca8	-0.22032416
46	0xbdd29dc7	-0.10284
47	0x3edab5e2	0.4271689
48	0xbe73aecd	-0.2379715
49	0x3eca681a	0.39532548
50	0x3e68b072	0.22723559
51	0xbe4b7322	-0.19868138
52	0x3e034a05	0.12821205
53	0xbe88a01b	-0.2668465
54	0x3e5a53ec	0.21321076
55	0xbec25efc	-0.37963092
56	0xbdfaf087	-0.12252908
57	0xbe80b87b	-0.25140747
58	0xbd2e6a7a	-0.042582013
59	0x3ea043c8	0.31301713
60	0x3f1d340a	0.6140753
61	0xbf91dae5	-1.1394926
62	0xbe31c326	-0.173596
63	0x40630bae	3.5475879
64	0xbfe7daa0	-1.8113594
65	0x3f78f023	0.9724142
66	0xbfb76705	-1.4328314
67	0xbf0b20e4	-0.5434706
68	0x401a911d	2.415107
69	0xbfed4b7e	-1.8538663
70	0x3f0193f8	0.5061641
71	0xbf744597	-0.95418686
72	0xbefd4fa4	-0.49474823
73	0x406187cc	3.5239134
74	0xbfea5e1d	-1.8309971
75	0xbc2221ab	-0.009895722
76	0xbe862458	-0.26199603
77	0xbe5f4a93	-0.21805792
78	0xbe35d583	-0.1775723
79	0x3e700a1c	0.23441356
80	0x401d7331	2.4601557
81	0xbffc53ac	-1.9713035
82	0xbf77d581	-0.96810156
83	0xbf8dea70	-1.108717
84	0xbf7e913f	-0.9944038
85	0xbf973dc3	-1.1815723
86	0xbe66fcc6	-0.22557363
87	0xbf45e638	-0.7730441
88	0x4089d9a4	4.3078175
89	0xbf645d31	-0.892047
90	0x3ebda3ab	0.3703893
91	0xbe222270	-0.1583345
92	0x3d34fd90	0.04418713
93	0x3ea12dbe	0.3148021
94	0x3ebbf86f	0.36712977
95	0xbfcf82ea	-1.6211827
96	0xbe0af260	-0.13569021
97	0xc037c6c7	-2.8715074
98	0x409798f2	4.73742
99	0xbf9b8aea	-1.2151768
100	0x3f4b69d7	0.79458374
101	0xbf94cd0d	-1.1625077
102	0xbe331c17	-0.17491184
103	0x404df32e	3.2179675
104	0xbfb77d3e	-1.4335096
105	0x3d397207	0.04527476
106	0x3fd066e6	1.6281402
107	0x40a08f34	5.017481
108	0xc02a6290	-2.6622658
109	0xbd46c05a	-0.048523284
110	0x3ed90fe9	0.4239495
111	0x3f19bf16	0.600572
112	0x40ebc366	7.3676023
113	0x3fd83336	1.6890628
114	0x3ecd51be	0.40101427
115	0x3f7f71c1	0.9978295
116	0xbf9a1057	-1.2036237
117	0x3ec9549d	0.39322367
118	0x403b9ffa	2.9316392
119	0xbff21bf9	-1.8914787
120	0x3e56aabf	0.20963572
121	0xbda717aa	-0.081588104
122	0xbf575999	-0.8412109
123	0x401b4aed	2.426448
124	0xbf7a834e	-0.97856605
125	0x3fede241	1.8584672
126	0x3fc56f0d	1.5424515
127	0x40469eac	3.1034346
128	0xc0bad83b	-5.8388953
129	0xbf5c9169	-0.8615938
130	0xbf63a273	-0.8891975
131	0x3f79f4af	0.9763898
132	0xc07dc4ed	-3.9651444
133	0xc096a42e	-4.7075415
134	0xbfcc2936	-1.5950077
135	0x3e654da7	0.22392903
136	0xbf98bdfa	-1.1932976
137	0xbf18c6e5	-0.5967849
138	0x402db2c4	2.714036
139	0xbff37566	-1.9020202
140	0x3efe6951	0.49689725
141	0xbf89da43	-1.0769733
142	0xbbb9f00a	-0.005674367
143	0x4035a09c	2.8379278
144	0xbfc660f9	-1.5498344
145	0x3f6de716	0.92930734
146	0x404b828d	3.1798432
147	0x3febec72	1.8431532
148	0xbfb72899	-1.4309264
149	0xbfb1aeb0	-1.3881435
150	0x3e397eed	0.18114825
151	0xbf6d4c42	-0.92694485
152	0xbf4338b4	-0.762584
153	0x4048383c	3.1284323
154	0xbfc0b426	-1.5054977
155	0xbe05396b	-0.13010184
156	0xbf6bd354	-0.92119336
157	0xbe8d338d	-0.27578393
158	0x40712271	3.7677271
159	0xbfde26e4	-1.7355618
160	0x3e52f84e	0.20602533
161	0xbf958562	-1.168133
162	0xbceefb80	-0.029172659
163	0x402d840a	2.711184
164	0xbfe84cc6	-1.8148429
165	0x3fb40b67	1.406598
166	0x4061d1f1	3.5284388
167	0x3fd9e905	1.7024237
168	0xbfe7d160	-1.8110771
169	0xbf92f3c1	-1.1480638
170	0x3f390fc4	0.7228968
171	0x404f4548	3.2386036
172	0x3f7852a2	0.9700109
173	0xbfb15fb4	-1.3857331
174	0xbfa4c65c	-1.2873034
175	0xbf3867b1	-0.7203322
176	0xbef5bb15	-0.47994295
177	0xbfdc8602	-1.7228396
178	0x4092842a	4.5786333
179	0xbf8c257b	-1.0948938
180	0xbe2a4d76	-0.16631112
181	0x3d0a9859	0.033836696
182	0xbed49c69	-0.4152558
183	0x3e670f76	0.22564492
184	0xbd640911	-0.05567271
185	0xbfb6f9f9	-1.4295036
186	0xbe822bbd	-0.25423995
187	0xbf0c1943	-0.54726046
188	0x408f9b9a	4.4877443
189	0xbfb4a45d	-1.411266
190	0xc01c929b	-2.446448
191	0xc05702e8	-3.3595524
192	0xc02bbe0f	-2.6834753
193	0x412a6369	10.64927
194	0x40215f6c	2.521449
195	0x3eed75b7	0.46378872
196	0xbf3b81fb	-0.7324521
197	0xbedd56ce	-0.4323029
198	0x407fc4fa	3.9963975
199	0xbfa57387	-1.2925881
200	0x3ed46cd4	0.4148928
201	0xbf90f0e5	-1.1323515
202	0x3d3ca5a6	0.046056412
203	0x4078d6de	3.8881145
204	0xbfd54ac8	-1.6663446
205	0x3e796787	0.24355899
206	0xbf8aa0ca	-1.0830319
207	0xbadfb718	-0.0017068116
208	0x405846fe	3.379333
209	0xbfde6167	-1.7373475
210	0x3efe1b08	0.49629998
211	0xbf4dac1d	-0.8034075
212	0x3c9b429e	0.018952664
213	0x4074ed29	3.826975
214	0xbfd1dbe3	-1.6395229
215	0x3e8b4505	0.27201095
216	0xbf6e7a60	-0.9315548
217	0xbd2565ba	-0.040380217
218	0x403d2dd6	2.9559226
219	0xbfc14e8c	-1.5102096
220	0xc0174670	-2.3636742
221	0xc014bed4	-2.3241472
222	0xc089c021	-4.304703
223	0x4016e864	2.357934
224	0x3eae50e9	0.34046105
225	0x3f9fca1e	1.2483556
226	0x3ec1feba	0.37889653
227	0xc0e82ab4	-7.255213
228	0xc080f85c	-4.0303173
229	0xc00d9b77	-2.2126138
230	0xbf77693b	-0.96644944
231	0xc0297789	-2.6479208
232	0xc06e3262	-3.7218251
233	0x40431f56	3.0487876
234	0x3eaded0a	0.3396991
235	0x3e59fadc	0.21287102
236	0xbf907f5c	-1.1288867
237	0xbf064325	-0.52446204
238	0x4024bd7c	2.5740652
239	0xbfd1516a	-1.6352971
240	0xbfb98374	-1.4493241
241	0xbd2d459f	-0.042302724
242	0xc02cb998	-2.6988277
243	0x408cffe8	4.4062386
244	0xbf43657f	-0.76326746
245	0x3f9d7232	1.2300475
246	0xc02b4ab5	-2.6764348
247	0x3fa230b2	1.2671111
248	0x40056eb4	2.0848818
249	0xbf9b172b	-1.2116445
250	0xc00f6c50	-2.2409859
251	0xbdfe149c	-0.12406275
252	0xc0a63a6a	-5.1946306
253	0x40d79890	6.7373734
254	0x3f6817b8	0.9066119
255	0x3f8693ff	1.0513915

fc1.bias f4 [128]
0	0x3ef7d1fc	0.48402393
1	0x40024981	2.0357363
2	0x3fe25c3e	1.76844
3	0x3e2b56a2	0.16732267
4	0xbfe51425	-1.7896773
5	0x400060d7	2.0059106
6	0xbe2e8622	-0.17043355
7	0xbd302ff6	-0.04301449
8	0x3fe2e874	1.7727189
9	0xbed2077c	-0.41021335
10	0xbeb79c61	-0.35861495
11	0xbe9092c3	-0.2823697
12	0x3ff1cc35	1.8890444
13	0x3ff12178	1.8838339
14	0x40027078	2.0381145
15	0xbee33a6d	-0.44380513
16	0x3ef6e7b9	0.48223665
17	0x4010da35	2.2633183
18	0xbea351ce	-0.3189835
19	0x3fc82975	1.5637652
20	0x400f0ba7	2.2350862
21	0xbf828588	-1.0197
22	0xbf0bccb3	-0.5460922
23	0x3fcb9058	1.5903425
24	0x400a7798	2.1635494
25	0xbed1967a	-0.40935117
26	0x3f391eb1	0.72312456
27	0x4006e81c	2.1079168
28	0x4010abe6	2.2604918
29	0x3e692c49	0.227708
30	0x400b1cb8	2.1736279
31	0x3ffb9bf7	1.9656972
32	0x40008e84	2.0086985
33	0x3efe4028	0.49658322
34	0x3ef4461d	0.47709742
35	0x3ffcbe5e	1.9745595
36	0xbe40d033	-0.18829422
37	0x3fddd62d	1.7330986
38	0xbf9f7f4e	-1.2460725
39	0x4010fbac	2.2653608
40	0x400dc7ef	2.215328
41	0x3ffd72a3	1.9800609
42	0x3ff3591c	1.9011569
43	0x400b8a3c	2.1803122
44	0xbda674e6	-0.08127765
45	0x40153d87	2.3318803
46	0x3ee65f86	0.44994754
47	0x400d3d92	2.206883
48	0x3fde1d72	1.7352736
49	0x3fa3c862	1.2795527
50	0x3ec4a574	0.3840748
51	0x3fdda0dd	1.7314717
52	0x3fdc5cc9	1.7215816
53	0x3fc47f68	1.5351381
54	0x3ffda0b1	1.9814664
55	0x400af140	2.1709747
56	0x4003fb2a	2.0622048
57	0x3fd531cd	1.6655823
58	0x3f5c3ccd	0.86030275
59	0x3fcfb45f	1.622692
60	0x40030154	2.046956
61	0x4009a27f	2.150543
62	0x3de371a9	0.11105663
63	0x3fe3c8d5	1.7795664
64	0x40163775	2.3471348
65	0x3fdb3074	1.7124162
66	0xbec3f9f7	-0.38276646
67	0x3ff0147b	1.875625
68	0x3de0448d	0.10950575
69	0xbe984d52	-0.2974649
70	0x3fb306e1	1.3986474
71	0x3e4ffd55	0.20311482
72	0x4012cf27	2.2938936
73	0x3fec668d	1.8468796
74	0x3ebacb6e	0.3648333
75	0x3e716409	0.23573317
76	0x4016035d	2.3439553
77	0xbed47ddf	-0.41502282
78	0xbfbe110e	-1.4848955
79	0x3fcaf3c6	1.5855644
80	0x400f14bb	2.2356403
81	0x3effe34a	0.49978095
82	0x3f10602a	0.56396735
83	0x40090819	2.1411192
84	0x3ffc16a0	1.9694405
85	0xbde573e2	-0.112037435
86	0xbf650596	-0.8946165
87	0x4009d851	2.153828
88	0x3fe726c5	1.8058707
89	0xbf212960	-0.6295376
90	0x3fd74cbd	1.6820294
91	0x3e911e1a	0.28343278
92	0x3f6f640c	0.93512034
93	0x402a978a	2.6654992
94	0xbed940d1	-0.42432263
95	0x3efec565	0.49759975
96	0x3f17c44c	0.592839
97	0xbe6fa53e	-0.23402879
98	0x3ef884fc	0.4853896
99	0x400bbc18	2.1833553
100	0xbe4bbc22	-0.19895986
101	0xbec7597a	-0.38935453
102	0x3dd19028	0.10232574
103	0x3ff59b28	1.9187975
104	0x400fb74b	2.2455623
105	0x3ff1ee24	1.89008
106	0x3ffa1639	1.9538032
107	0x3f50614c	0.81398463
108	0x3fa3411b	1.2754244
109	0x3e06bf30	0.1315887
110	0x3fd30a4c	1.6487517
111	0x400f37aa	2.2377725
112	0x4011f6e2	2.2806935
113	0xbe1d2d2a	-0.1534926
114	0x401953e8	2.3957462
115	0x3fcea28e	1.6143358
116	0x400ca08b	2.1972988
117	0x3fb956c4	1.4479604
118	0x3ff16950	1.8860264
119	0xbe90b1c3	-0.2826062
120	0x3fef9a9a	1.8719056
121	0x3fe77129	1.8081409
122	0x4002adf2	2.0418668
123	0x4008e043	2.1386878
124	0x400b19c3	2.1734474
125	0x40143f04	2.3163462
126	0xbefc15ca	-0.49235374
127	0x3fe78738	1.808814

fc2.weight f4 [64, 128]
0	0xbd95323d	-0.07284973
1	0xbd849edc	-0.064756125
2	0x3be9bc47	0.00713304
3	0xbda959ce	-0.08269082
4	0x3c6161aa	0.013756195
5	0xbd00254d	-0.031285573
6	0x3d7778ca	0.060417928
7	0x3c9f6b38	0.019460306
8	0xbd029bab	-0.031886738
9	0xbda5e3f1	-0.08100117
10	0xbd9857fb	-0.07438656
11	0xbd447eec	-0.047972605
12	0xba3ee1bc	-0.0007281562
13	0x3d407bf8	0.046993226
14	0xbd6b9037	-0.05751058
15	0x3d73f3bc	0.059558615
16	0x3dbd8bdb	0.09255191
17	0xbd01f671	-0.031729165
18	0xbc3a6281	-0.011376024
19	0xbbf848ab	-0.007577022
20	0xbc7e7b44	-0.0155323185
21	0x3cdd72f6	0.027032357
22	0xbce29528	-0.027659014
23	0xbce0a4c6	-0.02742232
24	0x3ce4b487	0.027918113
25	0x3c35822b	0.011078398
26	0x3cfe09cf	0.031010536
27	0x3d2f856b	0.042851847
28	0x3d576e43	0.05259539
29	0xbd6cce30	-0.057813823
30	0x3d5cc8dd	0.053902496
31	0x3c581a8d	0.013189924
32	0xbdb5f833	-0.08885231
33	0x3d19a125	0.037507195
34	0x3d286fae	0.04112213
35	0xbc5fb7f6	-0.0136547
36	0xb9db4edd	-0.00041829693
37	0x3cf54b9a	0.029943276
38	0x3cb3476e	0.021884646
39	0x3d347c7d	0.044064034
40	0x3ca5ffdd	0.020263607
41	0xbd5da07f	-0.05410814
42	0x3c19aaef	0.009379133
43	0xbd77451f	-0.060368653
44	0xbc953359	-0.018212961
45	0xbc5894f3	-0.013219106
46	0x3d4a9451	0.04945785
47	0xbd9424bb	-0.07233568
48	0x3cad7087	0.021171821
49	0x3ceeaeec	0.029136144
50	0xbc247283	-0.010037067
51	0x3da2e4f9	0.07953829
52	0x3c845eef	0.01615855
53	0xbcd961d8	-0.026535913
54	0x3d694070	0.056946218
55	0xbcaacd44	-0.020849831
56	0x3d64a8a1	0.05582488
57	0x3d3e6e57	0.046491947
58	0x3ce63bcd	0.028104687
59	0x3d146ddf	0.036237594
60	0xbd194cd4	-0.037426785
61	0x3cabdb2a	0.020978529
62	0xbde1a5c7	-0.11017948
63	0xbd71d793	-0.05904348
64	0xbcddada7	-0.027060343
65	0x3c768e35	0.015048553
66	0xbc90e278	-0.017686114
67	0xbd63f86f	-0.055656847
68	0xbc847aad	-0.016171778
69	0x3b432040	0.0029773861
70	0x3d746d42	0.05967451
71	0xbd1bdc80	-0.038052082
72	0xbdc15ad1	-0.0944115
73	0xbd6fefc8	-0.058578283
74	0xbcf79a71	-0.03022501
75	0x3d948db9	0.07253594
76	0xbb8e0e1f	-0.0043351795
77	0xbd74df49	-0.059783254
78	0x3d8c737d	0.06857965
79	0xbda71a61	-0.08159328
80	0xbb5db1b6	-0.0033827848
81	0xbcde46ce	-0.027133372
82	0xbcbe8ea8	-0.023261383
83	0xbd87e895	-0.066361584
84	0xbd643614	-0.055715635
85	0xbd8becde	-0.06832288
86	0xbd279373	-0.040912103
87	0xbd9d2291	-0.07672609
88	0x3ba1ac58	0.004933875
89	0xbcef4484	-0.029207475
90	0xbc907983	-0.017636066
91	0xbd0eab6c	-0.03483145
92	0xbac3b05a	-0.0014929876
93	0x3c6dc91d	0.014513281
94	0x3ceae7a1	0.028674902
95	0xbd57ff6e	-0.05273383
96	0xbbcffc2b	-0.0063471994
97	0x3dae59f3	0.0851325
98	0x3cde8502	0.027163032
99	0xbc754344	-0.014969651
100	0x3db1a168	0.08673364
101	0xbd9f0730	-0.07765043
102	0x3ca3edfb	0.020010939
103	0x3d2610aa	0.040543236
104	0xbdad0e06	-0.084499404
105	0xbbd50510	-0.0065008476
106	0xbc9abf2b	-0.018889984
107	0x3bda06ec	0.006653657
108	0x3db08a67	0.08620148
109	0x3d18235e	0.037143104
110	0x3d1896f5	0.03725334
111	0x3d4c1550	0.049825013
112	0xbd1114c3	-0.03542019
113	0xbc4eb97b	-0.012617464
114	0xbd1a2c1b	-0.03763972
115	0xbd783421	-0.06059659
116	0x3d10fc57	0.0353969
117	0xbd4d9ad7	-0.050196495
118	0x3d367b75	0.04455133
119	0x3d611ede	0.054961078
120	0xbcd7467d	-0.026278729
121	0x3c9bb11c	0.01900535
122	0x3d011489	0.031513724
123	0x3b9e5c63	0.0048327907
124	0xbdd47979	-0.103747316
125	0x3d4f0f7c	0.050551876
126	0xbc84850d	-0.016176725
127	0xbcef65f7	-0.029223425
128	0x403243ac	2.7853804
129	0x3f9eded7	1.2411755
130	0x3f1d47bb	0.61437577
131	0x3f667202	0.9001771
132	0x412dc1d5	10.859822
133	0x3f858ffb	1.0434564
134	0xbda37b2d	-0.07982478
135	0xbd0b44fa	-0.034001328
136	0x3f8acffe	1.0844724
137	0xbc9d54d3	-0.019205486
138	0x3d47653f	0.04868054
139	0x3d3364b8	0.043797225
140	0x3f820245	1.0156943
141	0x3fa3174d	1.2741486
142	0x3f849ad2	1.0359747
143	0xbd41a180	-0.04727316
144	0x3fb66d76	1.4252155
145	0x3f1ac1fb	0.6045224
146	0xbc8b9812	-0.017040286
147	0x3f5cfc4e	0.86322486
148	0x3f7f3f58	0.9970603
149	0x408cfc0b	4.405767
150	0xc0b58c77	-5.6733966
151	0x3f81263a	1.0089791
152	0x3f55d00e	0.8352059
153	0xc0bd45e1	-5.91478
154	0x408f34a1	4.4751744
155	0x3f98e119	1.1943694
156	0x3f7b9dae	0.98287475
157	0x403a715f	2.9131696
158	0x3f92091c	1.140903
159	0x3f840b82	1.0316012
160	0x3f8e97fc	1.1140132
161	0x40322778	2.783659
162	0x4028a103	2.6348274
163	0x3f5e823d	0.8691748
164	0x3cc8b150	0.024498612
165	0x3f1df30c	0.61698985
166	0x4119d3b4	9.614185
167	0x3f85b61e	1.0446203
168	0x3f77856b	0.96687955
169	0x3f74b0f5	0.95582515
170	0x3f5b6459	0.85699993
171	0x3f87e3a1	1.0616342
172	0x4014ad2e	2.32307
173	0xc0e5a916	-7.1768904
174	0x3f9863fe	1.1905515
175	0x3fa0c53c	1.2560191
176	0x3f1bd729	0.60875183
177	0x3f4deb65	0.8043731
178	0x3f6e9aee	0.93205154
179	0x3f9bdaea	1.2176182
180	0x3fcb5d8a	1.5887921
181	0x3f1e700b	0.61889714
182	0x3f933b51	1.1502477
183	0x3f3dcd79	0.7414165
184	0x3f8efc32	1.1170714
185	0x3fa17360	1.2613335
186	0x3ff406ac	1.9064536
187	0x3f8c3635	1.0954043
188	0x3faa2377	1.3292073
189	0x3f835319	1.0259734
190	0x3f264b32	0.6495849
191	0x3e8266f5	0.25469175
192	0x3f59195d	0.84804326
193	0x3f2e2830	0.6803007
194	0xba93fb99	-0.0011290192
195	0x3f6268c2	0.884411
196	0x40757c06	3.8356948
197	0xc0e4c6ac	-7.149252
198	0x3f871df7	1.055602
199	0xbda4c987	-0.08046251
200	0x3f8541d4	1.0410714
201	0x3f465895	0.77478915
202	0x3f9a6f9e	1.2065313
203	0x404d5c96	3.208776
204	0x3f380dcf	0.7189607
205	0x3d086ba8	0.033305794
206	0xc0c552df	-6.166366
207	0x3f9498dc	1.1609149
208	0x3f954d13	1.1664146
209	0x40ce7e0b	6.452886
210	0x4040444d	3.0041687
211	0x3f87484f	1.0568942
212	0x3f93ab8b	1.1536726
213	0xbda9e277	-0.08295148
214	0x4124c8b9	10.299005
215	0x3f7eb7fa	0.99499476
216	0x3f54a9c1	0.83071524
217	0x4089eb3d	4.3099656
218	0x3f855e87	1.0419472
219	0xc0af4a14	-5.4777927
220	0x3f7c25ee	0.98495376
221	0xbf933748	-1.1501245
222	0xbdab032e	-0.08350216
223	0x400bf62a	2.1868997
224	0x4012e9a5	2.2955105
225	0xc0dd6974	-6.9191227
226	0x3f8fae0b	1.1224989
227	0x3f8e2ff2	1.1108382
228	0x3c9af7df	0.018917022
229	0xc0a2de04	-5.0896015
230	0x401842b7	2.379072
231	0x3f621666	0.8831543
232	0x3f86e964	1.0539975
233	0x3f93f6aa	1.1559651
234	0x3f5b1d78	0.8559184
235	0x3f51ad49	0.8190504
236	0x3eaf6954	0.34260046
237	0x3fd0c5d7	1.6310376
238	0x3f557ddf	0.8339519
239	0x3f629145	0.88502914
240	0x3f692123	0.9106619
241	0xc0cdaa4a	-6.4270372
242	0x3f6e4c49	0.9308515
243	0x3f1ec0b1	0.62012774
244	0x3f630747	0.8868298
245	0x3f87b857	1.0603131
246	0x3f918c6c	1.1370978
247	0xc0deceed	-6.9627595
248	0xc0eb6e9b	-7.3572516
249	0x3f6ec8ae	0.9327496
250	0x3f36685d	0.71252996
251	0x3f78305f	0.9694881
252	0x3f761ab5	0.961345
253	0x3e07d898	0.13266218
254	0x4069aca7	3.6511629
255	0x3f6d03cf	0.92583936

fc2.bias f4 [64]
0	0xbb61cd51	-0.0034454654
1	0x3f8a50f7	1.0805959
2	0xbd7781c3	-0.060426485
3	0x3ef2a45c	0.4739102
4	0x3c8777ad	0.016536558
5	0x3ce80f22	0.028327528
6	0x3f381f96	0.71923196
7	0x3ce3ce5e	0.027808364
8	0x3f3f50c8	0.7473264
9	0x3f8c10d4	1.0942636
10	0x3c6bc0a0	0.014389187
11	0x3f6dfd3b	0.92964524
12	0x3f3ff3b8	0.7498126
13	0x3d7ef70a	0.062247314
14	0x3f7cb08b	0.98706883
15	0x3face533	1.3507446
16	0x3aeabace	0.0017908455
17	0x3b7b8c09	0.0038383028
18	0x3f4a0bd9	0.7892433
19	0xbd9c2dc0	-0.076259136
20	0x3f6f97a7	0.9359078
21	0x3f91d3d5	1.1392771
22	0x3d257aba	0.040400244
23	0x3f94bfcc	1.1621032
24	0x3d99455b	0.07483932
25	0xbd639516	-0.0555621
26	0x3bd910a0	0.0066242963
27	0x3f79067a	0.9727551
28	0x3d3320d4	0.04373248
29	0x3f755759	0.95836407
30	0x3f740033	0.95312804
31	0xb9dca337	-0.00042083274
32	0xbd9bd828	-0.07609588
33	0xbdb7b625	-0.08970288
34	0x3f9273df	1.1441611
35	0x3ca8d1ba	0.020607818
36	0x3f92b9d1	1.1462957
37	0xbdbb9b51	-0.09160484
38	0xbdce5245	-0.100742854
39	0x3f90ea79	1.1321555
40	0x3d59ff25	0.05322184
41	0x3d8224c0	0.06354666
42	0x3cf1d06d	0.02951833
43	0x3f8e6e45	1.1127402
44	0x3f98da38	1.1941595
45	0x3f6a8d3d	0.9162176
46	0xbd41dc7c	-0.04732941
47	0xbdc0f9f9	-0.094226785
48	0xbd5b3dba	-0.053525664
49	0x3f3075a4	0.68929505
50	0x3fa425e8	1.2824068
51	0x3f906f0c	1.1283889
52	0x3f2e0d8c	0.6798942
53	0x3ce8e964	0.028431602
54	0x3d00ba67	0.031427767
55	0x3f85b93a	1.0447152
56	0xbb993819	-0.004675877
57	0x3f8299fc	1.0203242
58	0x3f92bedc	1.1464496
59	0xbe96d7a2	-0.2946139
60	0xbb0c4b34	-0.002140713
61	0xbbea188c	-0.0071440395
62	0x3fa53e3d	1.2909619
63	0x3f976ab8	1.1829443

fc3.weight f4 [2, 64]
0	0x3b37439e	0.0027963887
1	0xc0047555	-2.0696614
2	0x3d43476c	0.047675535
3	0xc041e65f	-3.0296857
4	0x3e17760c	0.14791125
5	0x3b562d00	0.003268063
6	0xbfbd6287	-1.4795693
7	0x3c894ae0	0.016759336
8	0x40c395f5	6.1120553
9	0xbff996b5	-1.9499117
10	0x3dac9866	0.08427505
11	0xc0072e59	-2.1122038
12	0xc03034df	-2.753227
13	0xbb0dcd44	-0.002163724
14	0xc0083fa3	-2.128884
15	0x4101d1ad	8.11369
16	0x3c64e55e	0.013970701
17	0x3dd4a716	0.103834316
18	0xc0257485	-2.5852368
19	0xbe0e1ce3	-0.13878207
20	0xc00bc8e4	-2.1841364
21	0xbfdb68d7	-1.714137
22	0x3e29091f	0.16507386
23	0xbfe955c2	-1.8229296
24	0xbdfa32dc	-0.12216732
25	0xbc24b880	-0.010053754
26	0x3e14cec5	0.14532001
27	0xc00b7dd2	-2.1795545
28	0xbdbf555d	-0.09342454
29	0xc002d38f	-2.0441625
30	0xbff8ff67	-1.9452943
31	0x3d2bf8d1	0.041985337
32	0x3aa50e00	0.0012592673
33	0x3d5a988e	0.053368144
34	0xbfd1f0c6	-1.6401603
35	0xbd5cea50	-0.053934395
36	0xbfde5717	-1.7370328
37	0xbe004354	-0.12525684
38	0xbddeb62c	-0.1087459
39	0xbff90a91	-1.945635
40	0x3dad4bc3	0.08461716
41	0xbcffba7c	-0.031216852
42	0x3e020526	0.12697276
43	0xbfd0ec2f	-1.6322078
44	0xbfe443f4	-1.7833238
45	0xc005bf99	-2.0898192
46	0x3dc6552f	0.09684216
47	0xbc833e4c	-0.016020916
48	0x3d928526	0.07154302
49	0xbfc0cb8e	-1.506212
50	0x3fb874bb	1.4410623
51	0xbfddec9d	-1.7337834
52	0xbfbc89eb	-1.4729589
53	0xbdc231ea	-0.094821766
54	0x3de22c8a	0.110436514
55	0xbfff5d4e	-1.9950349
56	0xbdeafb8e	-0.114737615
57	0xc011f5a4	-2.2806177
58	0xbfe2e890	-1.7727222
59	0xc06a0cd2	-3.6570325
60	0x3d922c48	0.07137352
61	0x3cbec5b2	0.023287628
62	0xbfd4fddb	-1.663997
63	0x3fe264e5	1.768704
64	0x3c0b970d	0.0085199
65	0xbff418e5	-1.9070097
66	0x3c64c8f8	0.01396393
67	0xbf6b26cd	-0.9185608
68	0x3d6af7e3	0.05736531
69	0x3c98cd79	0.018652664
70	0x3f18df15	0.59715396
71	0xbc25d8e0	-0.010122508
72	0x3fed12a7	1.8521317
73	0xc00f4b7a	-2.2389817
74	0x3c1c6640	0.009545863
75	0xc013f7c5	-2.3119977
76	0xbfd8d8b9	-1.6941139
77	0x3cdd6724	0.02702672
78	0xc001953f	-2.0247343
79	0x40a4ad4f	5.146156
80	0x3c36272b	0.011117737
81	0xbd844796	-0.064589664
82	0xc001160f	-2.0169713
83	0xbd9dcff1	-0.07705677
84	0xbffb46ce	-1.9630983
85	0xc027c70d	-2.621524
86	0x3da9d42d	0.082924224
87	0xc0176cbd	-2.3660119
88	0x3cc7fc40	0.024412274
89	0xbb3e4ab5	-0.0029036228
90	0x3d9beb3b	0.07613226
91	0xbffc08d6	-1.9690197
92	0x3da4bd12	0.08043875
93	0xbfef7ccb	-1.8709959
94	0xc02005ed	-2.5003617
95	0x3bab84b0	0.0052343234
96	0x3d02dde4	0.031949893
97	0x3bb85ddd	0.0056264238
98	0xc024f7e1	-2.5776293
99	0x3deb1c80	0.11480045
100	0xc0218b0b	-2.5241115
101	0x3d0ba29e	0.03409063
102	0x3c586fc4	0.013210241
103	0xc01741b4	-2.3633852
104	0xbc0db7bb	-0.008649762
105	0x3d87b054	0.06625429
106	0x3db8fb80	0.09032345
107	0xc028150b	-2.6262844
108	0xc0246ee8	-2.5692692
109	0xbff29a0b	-1.895326
110	0xbc3e135e	-0.011601297
111	0x3d1e326c	0.038622305
112	0x3c148260	0.009064287
113	0x3f4d5cc5	0.8021968
114	0x3f47061e	0.7774371
115	0xc0240864	-2.5630121
116	0x3f3d9ded	0.740691
117	0x3d4efcaa	0.050533928
118	0xbd430bb8	-0.047618598
119	0xc00d4259	-2.2071745
120	0xbd225750	-0.03963405
121	0xbff89194	-1.9419427
122	0xc01ce4ce	-2.4514651
123	0xbea1f21d	-0.3163003
124	0x3cf13d91	0.029448302
125	0xbddc11e8	-0.10745603
126	0xc023a5c8	-2.5569935
127	0x40b9769f	5.79573

fc3.bias f4 [2]
0	0x3e7bcd2c	0.24589986
1	0xbf9af174	-1.2104936
