models/flappy_dqn.pth (torch, 39270 bytes, 6 tensors)

fc1.weight f4 [128, 5]
00000000: 6567 9641 e7dc ebc1 a068 1542 9dd7 fdc1
00000010: 423b d0c1 423c 6542 1752 8242 2a97 8c42
00000020: 31f5 85c2 681c 94c2 9bae b442 772c 8b42
00000030: dab7 9642 e2cf 91c2 7267 90c2 075c b542
00000040: 744b 8d42 f5a7 9542 6bc9 90c2 8f6c 91c2
00000050: 7ff0 b442 eed6 8c42 f390 9642 475a 91c2
00000060: a602 91c2 d082 17c1 00e4 7ac1 61c9 2340
00000070: 9558 96c0 da96 ae3e 82e5 8e42 aa82 9742
00000080: 6a4f 8942 e858 80c2 8485 93c2 2022 b542
00000090: 853f 8d42 373b 9642 a126 91c2 b5fd 90c2
000000a0: 4001 51bd 93d0 81be a249 6bbc cad7 3c3c
000000b0: 778c 9f3b 5346 5842 c878 8442 18ba 8e42
000000c0: c5c8 78c2 09a9 91c2 595d 8742 8ab2 9942
000000d0: 7a74 8a42 e2fb 79c2 744a 93c2 b10d 1cc1
000000e0: 9caf 7ac1 3581 1140 9e11 97c0 9257 bd3e
000000f0: df0a 5442 aa77 1b42 a6d9 7f42 4b45 74c2
00000100: cdad 7bc2 8431 6942 9531 8442 0046 8e42
00000110: e13f 8dc2 3991 96c2 3453 6e42 bcdd 7b42
00000120: 3ead 8e42 ef11 8bc2 f516 95c2 6416 5e42
00000130: 6132 8f42 1059 7542 0ac3 6fc2 04c0 8ec2
00000140: 823f b542 5524 8d42 ab8b 9542 c202 91c2
00000150: 6407 91c2 f671 b542 a70f 8d42 095b 9642
00000160: 07a5 91c2 0a83 90c2 0550 8042 94b8 9342
00000170: 584e 8c42 9c25 77c2 b325 95c2 0c53 2f42
00000180: 2e33 fd41 770d 6542 3dfa 5cc2 029a 64c2
00000190: 7907 b542 592a 8c42 095d 9642 0e4b 91c2
000001a0: 043b 91c2 3df9 1e3e b379 eb3c cafc 323e
000001b0: 9c38 8a3d d197 c23e 8940 72be 12ba 75be
000001c0: ab16 d5bc 1a7b 883e 2966 d63e b9c3 8142
000001d0: a1fd 4942 9030 8d42 3cf3 82c2 137e 86c2
000001e0: 6594 aebe 7a74 103e 5045 75bd 1361 8b3e
000001f0: 87eb c93e fd3a b542 6538 8d42 005b 9642
00000200: 17ad 90c2 fba4 91c2 8f2f 6f42 bab9 8c42
00000210: bbf0 8e42 c550 8dc2 f98b 98c2 b8b7 6142
00000220: 5247 7c42 a216 8f42 1e5a 86c2 3908 96c2
00000230: 46ff 10be dca3 27be ad5d e1be e219 ab3e
00000240: 4f70 bc3e 98d5 8042 7fcc 8e42 8c8c 8942
00000250: b4eb 79c2 4d90 95c2 1a90 4ebe 2b14 7d3d
00000260: 4330 67be e571 9d3e 2782 fb3d ddc7 6142
00000270: cabd 8242 3d06 8a42 6a30 81c2 55b8 93c2
00000280: 0283 6142 dc02 7b42 5709 8c42 d321 87c2
00000290: cba9 93c2 2823 6542 05ea 8142 4e73 8b42
000002a0: d132 85c2 0d09 95c2 9161 923e 2585 d23c
000002b0: d420 68be 396f 9f3e 7f58 b83e 19c5 fe3d
000002c0: 0383 3b3c 76ef 683d 2437 593e 4e23 4f3e
000002d0: 2114 7442 b1fd 8d42 d0f9 8c42 48bf 80c2
000002e0: 0412 97c2 62e7 6342 d758 8242 2ce6 8c42
000002f0: 6d20 86c2 9e76 95c2 267a 5e42 aa46 8342
00000300: d201 9042 3b77 80c2 b459 93c2 731d 6942
00000310: ad8b 8342 75f9 8d42 64b1 85c2 75fe 95c2
00000320: fd68 6742 f4d8 8142 c05a 8c42 4b6d 85c2
00000330: fa41 95c2 a5b4 9242 e526 9b42 c71c 8c42
00000340: 2d21 80c2 e64e 93c2 ad44 1cc1 7c7d 79c1
00000350: cdb6 e63f 29da 93c0 a71e 5c3e 0147 8b42
00000360: 7942 9a42 fc99 8a42 a2fd 79c2 8399 93c2
00000370: 9d61 b542 3fdc 8b42 598e 9542 4f06 91c2
00000380: 01e5 90c2 5302 9442 0101 9942 e93a 8642
00000390: eb28 7dc2 23f0 92c2 4726 6842 73e0 7a42
000003a0: ae99 8e42 ae4b 86c2 a4d9 94c2 6cb3 b442
000003b0: f64d 8d42 1f2b 9642 efec 90c2 9f1e 91c2
000003c0: 7a95 ad42 f62f 9b42 fbe6 9642 eb31 97c2
000003d0: be47 94c2 b3e2 8642 78f8 9842 dd0e 8a42
000003e0: c5dc 79c2 5624 94c2 21be ae42 d069 8d42
000003f0: 84ef 8d42 3b80 8fc2 d502 90c2 784c 8042
18.800486 -29.482862 37.352173 -31.73028 -26.028934 57.308846 65.16033 70.29524
-66.97889 -74.05548 90.34103 69.586845 75.359085 -72.90602 -72.20204 90.67974
70.64737 74.82804 -72.393394 -72.71203 90.46972 70.419785 75.283104 -72.67632
-72.50517 -9.469437 -15.680664 2.5591662 -4.698313 0.34099466 71.44826 75.7552
68.655106 -64.173645 -73.76077 90.56665 70.62406 75.115654 -72.57545 -72.49552
-0.051026583 -0.25354442 -0.014360817 0.0115260575 0.0048690396 54.068676 66.2359 71.363464
-62.196064 -72.83015 67.68232 76.84871 69.22749 -62.49598 -73.64542 -9.753343
-15.667873 2.2735112 -4.7209005 0.36980873 53.010616 38.86686 63.962547 -61.06767
-62.919727 58.298355 66.09684 71.13672 -70.62476 -75.28364 59.581253 62.966537
71.33836 -69.53503 -74.54484 55.521866 71.5984 61.336975 -59.940468 -71.37503
90.62404 70.57096 74.77279 -72.50539 -72.514435 90.72258 70.53057 75.1778
-72.82232 -72.255936 64.15629 73.860504 70.153015 -61.786728 -74.57363 43.8311
31.64999 57.26315 -55.244373 -57.1504 90.514595 70.08271 75.18171 -72.64659
-72.615265 0.15524764 0.028744554 0.17479244 0.06749079 0.38006452 -0.2365743 -0.23996761
-0.026011785 0.2665642 0.41874817 64.88227 50.497684 70.59485 -65.47507 -67.24624
-0.3409759 0.14106932 -0.059880555 0.272225 0.39437506 90.61521 70.610146 75.177734
-72.338066 -72.82223 59.796444 70.36275 71.47018 -70.65775 -76.273384 56.429413
63.06965 71.544205 -67.17601 -75.01606 -0.14159879 -0.16371101 -0.4401678 0.33418185
0.36804435 64.417175 71.39941 68.774506 -62.48018 -74.78184 -0.20172158 0.06178681
-0.22577004 0.30750957 0.12280684 56.44518 65.37068 69.012184 -64.59456 -73.86002
56.377937 62.752792 70.01824 -67.56606 -73.83163 57.284332 64.95707 69.725204
-66.59925 -74.51768 0.28590062 0.025698254 -0.22668773 0.31139544 0.36005017 0.12439937
0.01144481 0.056868993 0.2121244 0.20228311 61.019657 70.99549 70.487915 -64.3736
-75.53519 56.97596 65.173515 70.449554 -67.06333 -74.731674 55.619286 65.638016
72.003555 -64.23287 -73.6752 58.27876 65.772804 70.98722 -66.846466 -74.99699
57.852528 64.92374 70.177246 -66.71346 -74.62886 73.35282 77.575966 70.056206
-64.0648 -73.6541 -9.766767 -15.593136 1.8024536 -4.620381 0.21496068 69.63868
77.12983 69.30075 -62.49769 -73.79983 90.69065 69.93017 74.77802 -72.51232
-72.44727 74.00454 76.50196 67.11506 -63.28996 -73.46902 58.03738 62.71919
71.300156 -67.14781 -74.42508 90.35043 70.65227 75.08422 -72.46276 -72.55981
86.79195 77.59367 75.45113 -75.597496 -74.14012 67.44277 76.48529 69.02903
-62.465595 -74.07097 87.371346 70.706665 70.967804 -71.75045 -72.00553 64.14935

fc1.bias f4 [128]
00000000: f025 bb41 ade6 9542 9a83 8d42 6cf7 8e42
00000010: 4fbd 8e42 6079 76bf 192e 9742 2d2c 8f42
00000020: d642 a4be 9827 9442 7611 9442 680e e7be
00000030: 4233 7b42 e619 9642 41dc 9442 f2b6 9042
00000040: 5337 8f42 cc74 8f42 4892 9a42 eb81 6342
00000050: 48ce 8d42 126e 963d 0823 c7be 9c8b 8742
00000060: 9ada adbd c483 8e42 bcd0 9742 e623 9742
00000070: 5553 cdbd 6f8b 9a42 e953 e6bd 8929 9642
00000080: caa2 9442 6b01 9642 901a 453d 93a3 d1be
00000090: e09c 9a42 329a 9542 309f 9542 d085 9742
000000a0: 4b9b 9642 0177 9442 efb8 00bf 7b3d 9442
000000b0: 34f1 8d42 c3f2 9642 342c 9642 f731 8f42
000000c0: 2d81 9242 946c 9742 d61c 8f42 39f8 8742
000000d0: 1bf5 0c3d 5144 9442 95be 9442 de52 9a42
000000e0: 1261 8842 c04c 9842 4424 9542 87c2 cdbe
000000f0: d94b 3fbf 850f 9742 109f 9442 6c7a 8742
00000100: f26b b73f 3c83 9442 689d 9542 d151 31be
00000110: 598f 9842 91cc 8f42 46d6 9342 33d0 9a42
00000120: 8fdd 8542 cd28 9a42 9f59 12be 69fb 9442
00000130: 1c79 8e42 f248 9842 38b2 8742 c003 8f42
00000140: 5d2d 8f42 6f0a 72bc b6db 14be 3127 88be
00000150: 8534 9742 42d2 9442 e619 9642 3c0c 9642
00000160: 3d80 9642 459c 8d42 104b 9842 495d 9542
00000170: 549a 51be d4f0 9542 54b2 8a3d f771 8842
00000180: 4f79 9742 c4a1 cebb 1117 9542 34ae 9142
00000190: 62c9 9742 5387 9342 96da 9542 8ac4 0341
000001a0: 2135 e841 c60f 8ebf b879 9442 4ae0 9742
000001b0: d52f 9442 109b 7842 7b28 92be 12c9 9542
000001c0: c130 9542 072e 9742 9cfb 17be b4f3 fe41
000001d0: 76ff 8e42 ba06 8842 116c 8e42 7f5e 8d42
000001e0: 1c1d cfbe d986 8842 4854 60bf ba54 9ebe
000001f0: 047b 9742 02fe 2abe 9f7b 60bf 4092 ccbe
23.393524 74.95054 70.757034 71.483246 71.36974 -0.96278954 75.590034 71.58628
-0.32082242 74.07733 74.0341 -0.4512818 62.800056 75.05058 74.43018 72.357315
71.608055 71.72812 77.285706 56.876873 70.90289 0.07345213 -0.38893914 67.772675
-0.084889606 71.257355 75.907684 75.570114 -0.1002566 77.27233 -0.11246473 75.08112
74.31795 75.00277 0.048121035 -0.4094511 77.3064 74.80116 74.81091 75.76135
75.30331 74.23243 -0.50282186 74.12008 70.9711 75.474144 75.086334 71.59759
73.2523 75.71207 71.55632 67.98481 0.03441344 74.13343 74.37223 77.16185
68.18959 76.1499 74.57083 -0.40187475 -0.7472511 75.53031 74.31067 67.739105
1.4329817 74.25632 74.807434 -0.17316367 76.279976 71.89954 73.9185 77.40664
66.93273 77.07969 -0.14292 74.491035 71.23654 76.14247 67.84808 71.507324
71.5886 -0.014772995 -0.14536938 -0.265924 75.60258 74.41066 75.05058 75.023895
75.250465 70.805214 76.14661 74.6822 -0.20469028 74.97037 0.06772295 68.22259
75.73693 -0.006305905 74.54505 72.84024 75.893326 73.764305 74.926926 8.235483
29.025942 -1.1098564 74.23773 75.938065 74.09342 62.15143 -0.2854651 74.892715
74.59522 75.5899 -0.14842075 31.868996 71.49895 68.01314 71.21107 70.68456
-0.40451896 68.263374 -0.87628603 -0.30924016 75.740265 -0.16698459 -0.8768863 -0.3995533

fc2.weight f4 [64, 128]
00000000: 8567 cbbd b19c c1bd 5c1b 213c 5826 533b
00000010: 8a35 a83c 0284 763c a068 5e3d 618c d5bc
00000020: 09df 1ebd 5360 c0bb b397 dcbd cbe1 aabd
00000030: f375 d63a bf74 7abd 1b33 a8bc 86cc cbbc
00000040: c852 2dbc 7283 b1bd 3181 913b cb67 33bb
00000050: 3647 923c a671 62bd 63f5 9cbc 983d d3bc
00000060: 1416 653d ec5f 93bd 6503 233d 0505 50bd
00000070: a739 4ebc 2572 cdbb 7b54 96bd 5de0 ca3c
00000080: edf4 833c 444e cfbd a5f0 b5bd 7980 b4bd
00000090: c2c8 903a 0d27 223d ef05 14bd eebd f0bc
000000a0: db0a 5bbd 8b5b d1bd a94c 98bd e774 2b3d
000000b0: 0043 e6bb 6ba4 7abd d9a5 a4bd 0c53 b2b9
000000c0: f306 8cbd 359d 65bd d798 a03d 7c0c 7ebb
000000d0: bfcc 8ebd 2a98 72bc f787 fbbc 54ee d1bd
000000e0: 8fbe 83bc 3622 3ebc ec97 e4bd 4bb2 e5bb
000000f0: 562e 843d 6126 f6bc 0d62 af3c fb05 17bd
00000100: d079 193d 7b7f 75bd 00cc 6f3d f457 85bd
00000110: f1d5 0d3d 0210 9fbd 07eb 80bc 366b 24bd
00000120: 949b 043d 602d f3bd 4946 25bd 7261 eebd
00000130: 71a5 42bc 09ff 11bd 78cb acbd 1302 953b
00000140: 23fb 01be afb2 c03b 2c4c 02bb 6140 4cbc
00000150: d4ef d3bc 831a 023d 4898 c9bd 0deb 8d39
00000160: da64 f2bb 41c5 413d 01b5 30bd 0831 b0bd
00000170: e887 723d 9c9c 48bd 0e5d 493c 2ded c8bd
00000180: 05c6 453d 3904 76bd 63c2 79bc 00c6 d4bc
00000190: 90e0 973c 5175 1abd 41ec 2c3d 97a8 8f3d
000001a0: 5960 f6bc 42ca 383d 7ce8 583c 0cf1 233d
000001b0: 902c 7cbd b40d 5f3d 80b5 89bd 9df6 983d
000001c0: da2e 363b a562 fcbd ed61 983d b3ff f83c
000001d0: 6825 2a3d 852d 843d 9e8d 24bd e593 3bbd
000001e0: 150f a5bb 7e02 8abd 7a9c e63c f86a a6bd
000001f0: d776 04bd 8f1f 473d 8265 ea3a 99db 313d
00000200: edc5 9541 5cb7 9942 4eab 9042 8465 9342
00000210: f99f 9242 9154 e7c1 1120 9942 5772 9342
00000220: c869 02bd f74f 8a42 881c 9742 2b83 b8c1
00000230: 5130 6542 64d3 9842 155f 8b42 0647 a442
00000240: 5764 9342 bc1e 9342 5e6d 9842 753a 4a42
00000250: dba9 9142 ca83 99bc 3169 813c 7dd5 8542
00000260: 4363 abbd 0453 9342 da0e 9a42 2034 8a42
00000270: 7f02 073d 7b44 9f42 fdf8 983c 7378 9b42
00000280: 948a 8a42 de01 9a42 4235 bf3b 2838 253d
00000290: 3c0d 9b42 cb99 9942 fbcf 8b42 132e 9a42
000002a0: 0cee 9942 36d5 9742 3082 ccc1 17a4 9742
000002b0: 9e8c 9142 c361 9642 fae2 8942 5686 9342
000002c0: 617a 8b42 29f3 9742 0caf 9642 c605 8442
000002d0: 5fb2 fcbb 8571 9242 aa06 9842 5410 9c42
000002e0: 5e4a 8442 61c7 9742 4c63 9542 c9b9 2c3d
000002f0: a0b3 d2c1 d98f 8642 6f88 9742 70a7 8242
00000300: 9091 4cbf 53e1 8942 5670 9142 a326 f2b9
00000310: 10d2 9a42 c961 9342 a1d9 9442 2ef1 9842
00000320: 573c 8442 56c4 9742 afe1 f7bc 005f 9442
00000330: 12b5 9142 c479 9a42 e8bc 8642 6665 9342
00000340: 4a40 9342 7e8a e0bc 0818 693c 5bd0 92bd
00000350: b843 9a42 f8aa 8a42 2ef6 9142 e819 8942
00000360: 669c 9a42 394e 8942 d547 9a42 0f86 9342
00000370: b984 afbc 06be 9842 e737 94bc fd6e 8042
00000380: 5b45 9642 5331 953d 5036 9342 2315 9842
00000390: 067b 9a42 2367 8a42 d7b1 9142 ed95 cf40
000003a0: 0699 b641 7477 d9c1 c45c 9142 e619 8942
000003b0: dd88 8942 e089 6042 bff5 b0bc f486 9142
000003c0: 2648 9542 31b8 9a42 1b61 613d a26d de41
000003d0: b856 9342 fb6b 8442 bf94 9142 39b3 9042
000003e0: 431c 623d 06e9 8542 5c31 37c1 e23b 70bd
000003f0: e275 9a42 4f20 56bd 96a9 d5c1 0174 a8bd
-0.09931854 -0.09453715 0.009833183 0.00322189 0.020533342 0.015046122 0.054298997 -0.026067914
-0.03878692 -0.0058708577 -0.10771122 -0.08343848 0.0016362056 -0.061146494 -0.020532181 -0.024877798
-0.010578819 -0.08667649 0.0044404496 -0.0027375098 0.017856222 -0.055284165 -0.019159978 -0.025786206
0.05592926 -0.0719603 0.03979816 -0.050786037 -0.012586988 -0.0062697106 -0.07340332 0.024765188
0.016108 -0.1012235 -0.0888379 -0.08813567 0.0011046159 0.039588023 -0.03613847 -0.02938744
-0.05347715 -0.102225386 -0.07436497 0.041859534 -0.00702703 -0.061191957 -0.080394454 -0.0003401268
-0.06837263 -0.056058127 0.07841652 -0.0038764765 -0.06972646 -0.014806787 -0.030704482 -0.102505356
-0.016082076 -0.011604836 -0.11161789 -0.0070097796 0.064541504 -0.030047597 0.021409059 -0.036870938
0.037469685 -0.059936028 0.05854416 -0.06510916 0.03462786 -0.07766725 -0.01573707 -0.040141307
0.032374933 -0.11873889 -0.040350232 -0.1163968 -0.011880265 -0.03564361 -0.08437246 0.0045473664
-0.12693457 0.0058806757 -0.0019881828 -0.012466521 -0.025871195 0.031763565 -0.098434985 0.00027068742
-0.0073972763 0.047307257 -0.04314137 -0.08603102 0.05921164 -0.04897748 0.012290252 -0.09810863
0.04828455 -0.06006262 -0.015244099 -0.02597332 0.018539697 -0.037709538 0.042217497 0.07014578
-0.030075239 0.045114763 0.013239022 0.040024802 -0.061565936 0.054456428 -0.067240715 0.07468913
0.0027798922 -0.123235025 0.07440553 0.030395364 0.04153958 0.06453995 -0.04017412 -0.04579534
-0.0050371983 -0.067387566 0.028150786 -0.081258714 -0.032339897 0.04861408 0.0017883035 0.043422315
18.721643 76.85812 72.33458 73.69827 73.31245 -28.916292 76.56263 73.72332
-0.031839162 69.15618 75.555725 -23.064047 57.297184 76.41287 69.68571 82.13872
73.69598 73.56003 76.21361 50.557087 72.83175 -0.0187396 0.01579723 66.91697
-0.08368542 73.66214 77.02901 69.10181 0.032961365 79.63375 0.018673414 77.73525
69.27066 77.00365 0.0058352062 0.040336758 77.52585 76.80038 69.90621 77.08999
76.964935 75.91643 -25.563568 75.82049 72.77464 75.19094 68.94331 73.762375
69.73902 75.97492 75.34189 66.01128 -0.007711693 73.22172 76.013016 78.03189
66.14525 75.88941 74.69394 0.042169366 -26.337708 67.28095 75.76647 65.32703
-0.7990961 68.94009 72.719406 -0.00046186624 77.41028 73.69099 74.42506 76.471054
66.11785 75.88347 -0.030258982 74.18555 72.85365 77.23782 67.36896 73.698044
73.625565 -0.027409788 0.014226921 -0.07168647 77.13226 69.33392 72.98082 68.5506
77.305466 68.65278 77.1403 73.76183 -0.021425592 76.37114 -0.018093063 64.216774
75.13546 0.072847985 73.60608 76.04128 77.24028 69.20144 72.84734 6.4870515
22.824718 -27.183327 72.68118 68.55058 68.76731 56.134644 -0.021601556 72.76358
74.640915 77.35975 0.055024248 27.803532 73.66937 66.2109 72.79052 72.350044
0.055202734 66.955124 -11.449551 -0.05865086 77.23024 -0.052276906 -26.707806 -0.08225251

fc2.bias f4 [64]
00000000: 99ae 4c3d 30ff 9242 8e42 9142 05f2 8640
00000010: ebb9 8d42 9452 7642 5703 5f3f 4bd1 063c
00000020: c9d4 a2bd 99c1 04bf 8542 7042 eab7 4b3d
00000030: cdab 8542 eaff a5bd 5e9b 8b42 5dde 833d
00000040: a9fb 5342 4ea2 10bf 44f0 9242 3f2c 7842
00000050: 63eb ecbd 03c2 d740 1702 a63f f308 2abd
00000060: 5c6d 7d42 0467 22bd dfea d5bd 1fd8 22bf
00000070: db9d 89bd be7c c6bd 4435 32bf 2238 2ebf
00000080: b312 653f 6d0c 2c3c 7ee3 7842 fa8a abbd
00000090: 8e6d c9bd 05ad 85bd 7b1a e8ba 1ab4 d73c
000000a0: 26fe 903d 2c82 ad3f 686b 0abd 25ff 083b
000000b0: 24e2 2e3d 0e4d 3cbf bc8a d23c e74e 12bf
000000c0: 551b 7f42 3070 8042 b071 8d42 4058 50c0
000000d0: 4b7a 8d42 5651 053c 235e b2bc aaf1 7fbd
000000e0: 835d 59bd 5ac4 7342 7649 92c0 48a5 da3c
000000f0: 17e3 febe d4e2 603f 19ec 7f3c 0b5f bbbc
0.049971197 73.49841 72.62999 4.2170434 70.86312 61.580643 0.8711447 0.00822861
-0.07950742 -0.51857907 60.06496 0.04973594 66.83555 -0.08105452 69.80345 0.06438897
52.99576 -0.5649766 73.46927 62.04321 -0.11568334 6.742433 1.2969388 -0.04151244
63.356796 -0.039649025 -0.10445189 -0.63611025 -0.06719562 -0.096917614 -0.69612527 -0.680544
0.8948166 0.010501009 62.22216 -0.08376117 -0.09835349 -0.065271415 -0.0017708087 0.026330996
0.07079725 1.355535 -0.033793837 0.002090403 0.042696133 -0.73555076 0.02570092 -0.57151645
63.77669 64.21912 70.722046 -3.2553864 70.73885 0.008137068 -0.021773404 -0.06248633
-0.053067695 60.94175 -4.5714674 0.02669014 -0.4978263 0.8784611 0.015620255 -0.022872468

fc3.weight f4 [2, 64]
00000000: 5756 8cbd 9450 ab42 cb5d ae42 ca28 bbc1
00000010: 1969 a142 d412 8b42 fd00 2bc1 a183 6e3d
00000020: fcfa a6bd 84bd bec1 3cae 8842 4b93 3e3c
00000030: 6194 aa42 4cf7 793d ceb9 9442 4bc0 c13d
00000040: cc88 6a42 8c39 c1c1 714b aa42 bd14 6842
00000050: 536f b13d 3e7f 04c2 7ede e8c0 ecfa a3bc
00000060: 3486 8d42 c339 c2bd d13b 7abc 1117 cac1
00000070: 1864 a93c 78f0 9f3c 3fbc c0c1 9b2d c1c1
00000080: f51e 2bc1 d2b7 4a3d 0a55 6842 c4f2 80bd
00000090: b1ae 20be 4eda d7bc 8e5d 86bc e26f da3d
000000a0: e4e0 043d 974a 21c1 27db 813d 4a37 ac3c
000000b0: bf71 5a3d 0393 c2c1 b686 0f3c 1403 c0c1
000000c0: b135 a542 dee5 8f42 8d11 af42 4d1f 02c2
000000d0: 057c a142 d63b 6e3b ee7a b4bd f00d b0bd
000000e0: 6e63 b53d 8800 6442 0893 02c2 5c86 8bbc
000000f0: e2d4 bcc1 8a9b a6c0 9b55 27bd c246 f23c
00000100: 063a e1bb d1a6 5d42 ada7 5342 bb29 2b41
00000110: 84c8 6d42 acef c241 b231 58c1 b322 3039
00000120: 4cb5 1bbd 9536 01c1 6f82 bf41 58b5 d33d
00000130: 203b ee41 f160 413d 413d 7642 4e60 6c3c
00000140: 2319 6941 04c5 f3c0 9273 5d42 af4b 4e42
00000150: 4c23 8f3d 9dbe a341 d375 8240 67a2 ba3b
00000160: 40f5 c941 490d 5cbd e46d ca3d 5a13 f9c0
00000170: 7cfb 5a3d f508 b93b 9511 ffc0 d16b f7c0
00000180: a086 95c1 8275 9f3d 0de9 4d42 58fa 663d
00000190: 1d96 2f3d c4c0 d23d a883 19bd 5faa 7f3d
000001a0: 1dba e33b 9ec2 9ac1 3af2 c33d 4edb 9b3d
000001b0: 1e0e cd3d abd4 fbc0 78b1 23bd c165 02c1
000001c0: d346 0b42 4ff4 c241 87bb 4b42 86cb c83f
000001d0: c26a 6f42 48ce a9bd d4bb ebbd 9080 d2bc
000001e0: 7cd9 883d adae 4b42 bebd 1e40 28af 9d3d
000001f0: 32c5 02c1 d48c 5dc1 dd10 c43d 0004 66bc
-0.068524055 85.65738 87.18319 -23.394917 80.70527 69.53677 -10.687741 0.058231
-0.0815334 -23.842537 68.3403 0.011631797 85.2898 0.061026856 74.3629 0.09460505
58.63359 -24.1531 85.14735 58.020252 0.086638115 -33.12426 -7.2771597 -0.02001711
70.762115 -0.094836734 -0.01527305 -25.261263 0.020677611 0.019523844 -24.091917 -24.147268
-10.695058 0.04949171 58.083046 -0.06296304 -0.1569164 -0.026349213 -0.016402032 0.10665871
0.032441035 -10.08071 0.06340628 0.021022458 0.053331133 -24.321783 0.008760145 -24.001503
82.604866 71.94896 87.53428 -32.530567 80.742226 0.0036351583 -0.088125095 -0.08596408
0.08856855 57.00052 -32.643585 -0.017031841 -23.603947 -5.2064867 -0.040853124 0.029574756
-0.006873372 55.412907 52.913746 10.697688 59.445816 24.367027 -13.512133 0.00016797594
-0.038014695 -8.075826 23.938688 0.10337323 29.77887 0.04721159 61.55982 0.014427258
14.568637 -7.6177998 55.36286 51.57391 0.06989154 20.468073 4.076883 0.0056956294
25.244751 -0.053723607 0.09884241 -7.7836123 0.05346249 0.0056468197 -7.9708962 -7.731911
-18.690735 0.07786085 51.47759 0.05639109 0.04286777 0.102906734 -0.037479073 0.062418338
0.0069496767 -19.345028 0.095676854 0.076101884 0.10012458 -7.8697104 -0.03996417 -8.149842
34.819164 24.369291 50.933132 1.568711 59.854256 -0.08291298 -0.11510435 -0.025696069
0.06682107 50.92058 2.480331 0.07699424 -8.173143 -13.846882 0.09573529 -0.01403904

fc3.bias f4 [2]
00000000: 358f 8642 edd0 5042
67.2797 52.20403
